src/models/saved_models/best_model_lr0.0001_roc_auc0.9418724751127138.pt (torch, 23973 bytes, 9 tensors)

input.weight f4 [64, 30]
00000000: 4122 daba c827 063e 3b4c 383e 84c5 e0bd
00000010: 18d6 e53d d3e3 a33d a94d 02be da2d 303e
00000020: 9cff 07be 4069 32bd 2a73 223e fcf4 30bc
00000030: 08c7 153d e6ed 5fbd d9ca b13d ec65 dc3d
00000040: bdb4 2a3d 8d50 523d 3dd1 813e ab9c 8ebd
00000050: e79e 463d ebb0 473e 5c3a f93d 29d5 0ebe
00000060: 20e3 4b3e cb50 c0bb 0d9b 1bbe 76db c13d
00000070: 40bf 763c 4dd6 36be ad68 0abe 9d71 c2bd
00000080: 9674 89bd d54a 573d 468c 1e3e 51c4 dcbd
00000090: cd9f 8e3d 0b94 033e 9d3e 3ebe 2532 23be
000000a0: 4237 963c 05f1 903d 1ff0 c2bd 6551 2dbe
000000b0: 2978 56be 3971 babd c91d 883d 8cb3 2c3d
000000c0: ed56 b5bd 1d7f 0a3e e083 cb3d 5b6c cabd
000000d0: d9d6 f63d abe3 acbd 451c f1bd 323b 793c
000000e0: d7d6 dabd 8be0 ba3b 670a 043e a80a d6bd
000000f0: 200c 3abd 9fcf fe3d b505 2b3e 4d1e 5e3e
00000100: bb75 1ebe 4a7e b73d 13de 04be 84f8 cebd
00000110: 1547 3cbd fba1 513d 2f5e e0bd cc06 a8bd
00000120: 2dfc 13be 9f08 0ebe 45d6 76bd 6fad 4f3e
00000130: 7b0f 253e b6ce fc3d 55f9 183e 891e 0cbe
00000140: c2b3 fdbd 2575 223d 37e1 713d 851a 5abd
00000150: fe4c 79bd 9e71 04be 9352 bf3d 4def dabc
00000160: 27e4 a5bd 95fd a13d 5213 283d 93a9 1f3e
00000170: 1404 6bbd 74a5 0abe 9159 3bbe b10f 1dbe
00000180: 6129 a53d f4ae 78be f557 2cbe cc55 793d
00000190: 20e2 7c3e 939d c9bd 9bae 9fbd b063 d6bd
000001a0: 5f17 733d 78d4 43bd 6b00 143e 9713 a5bd
000001b0: 7b95 2e3e 1acd b6bd 35f8 9d3c 579b 32bd
000001c0: c69f e0bd f7d4 1b3d afd1 333e 109d 8c3d
000001d0: 8650 0cbe 80c3 8bbd eaf5 f4bd f074 9fbd
000001e0: 489d 8f3d adc2 43be 82a3 843d 5a5b 943d
000001f0: 23f1 8f3a bc87 15be f500 68bd 14cf a13d
00000200: da1c 883d 855e 273e adce 013d cd76 a2bd
00000210: 11cc 333d 337a ff3d b7ae c53c 7e76 96bd
00000220: aa39 103e e69f 92bd e9d3 9bbc 81a0 9bbd
00000230: e373 383e 628b b93d 51e8 063e 12b4 523d
00000240: 708a d73d 83ba a93d 428f 4abe 4792 6f3e
00000250: 0ea1 95bb 19b1 fdbd b070 9bbd 699d c53d
00000260: 45fc 1c3e a2d2 d63a e9dd 6ebd 829a 01be
00000270: 7aa7 963c da2b e53d 73f0 2d3d ec93 5bbe
00000280: 39c7 5b3e 869c ccbd 88eb 883c 2aea e03d
00000290: 421a acbd 8d9d babd a38a 7ebe aae0 343e
000002a0: 5f87 ad3d f98f e93d 3401 a63c 060e 04be
000002b0: 57b5 60be 082a 1c3e 6000 edbd 9cee 40be
000002c0: 90ef 063e fb07 0bbe 9cc5 d2bd 2748 a43c
000002d0: 6695 a9bd 9234 ac3d a7f4 943b ca1e 42bd
000002e0: accf 893e 8215 d03a 77e8 793b 772c 44be
000002f0: 5d7c 08be 5405 08be 3535 803c 9a82 87bd
00000300: 8ed3 0ebd 8e6e 48bd 1059 36be 0ab2 f4bd
00000310: 2af8 93bd ddf3 abbd eaad 87bd e139 80bd
00000320: 2595 2dbe 6a8e 01be f1a9 783d 2340 15be
00000330: d0a8 39be aa7f f23d 2fa2 47bc de61 3dbc
00000340: 8e18 8f3d 7111 eebc 6b42 5bbd f373 9dbd
00000350: f31b 683e 1910 f8bd 001c 3cbe a48f 273e
00000360: 87dc 393e fcc1 13be f83a 853e a550 c3bc
00000370: d04f 1e3d 08a1 313e 1b3c b73d 114f 29bd
00000380: 8eee fa3d 303f cd3d 63b4 6ebb c148 e73d
00000390: 1591 243e d400 3bbc f428 8c3d 0999 7ebd
000003a0: b195 18be 0708 d3bc 59a1 29be 8e2e 53be
000003b0: 3791 4cbd 5fd8 0a3e 8156 febc f211 ff3d
000003c0: 8f94 64bd 4d54 303e e59a b4bd 86ce 38bd
000003d0: 53fb 7f3c 28f6 fabd a191 b43d eecb 18be
000003e0: a3ac 323c 4dd0 b03d 8ebd 0abe bfb5 ef3d
000003f0: 01e1 623d 36ca 31be 4614 f6bd 108e 05be
-0.0016642289 0.13101113 0.1799783 -0.10975173 0.11222476 0.080024384 -0.12724937 0.17204991
-0.13281101 -0.043557405 0.15864244 -0.010800596 0.036566764 -0.054670237 0.08681268 0.107616276
0.04167627 0.05134635 0.2535495 -0.06963476 0.048491385 0.19501083 0.12169334 -0.13948502
0.1991086 -0.0058690063 -0.15195866 0.09465687 0.015060246 -0.17855187 -0.13516493 -0.09494326
-0.0671169 0.0525616 0.15483198 -0.10779632 0.06964073 0.12849443 -0.18578573 -0.15937097
0.018336896 0.07077221 -0.09518456 -0.16925581 -0.20944275 -0.09103627 0.06646306 0.042163417
-0.088544704 0.13525052 0.099372625 -0.098839484 0.12052698 -0.08441862 -0.1177297 0.015211867
-0.10685509 0.005703037 0.12894593 -0.10451251 -0.04542172 0.12441944 0.16701396 0.21691246
-0.15474598 0.089596346 -0.1297534 -0.10105994 -0.045966227 0.051179867 -0.10955464 -0.082044214
-0.14451666 -0.13870476 -0.060262937 0.20281003 0.16119187 0.123441145 0.14938863 -0.13683523
-0.12387802 0.0396625 0.059052672 -0.053247947 -0.06086444 -0.12933967 0.09341922 -0.026725436
-0.08100157 0.07909695 0.04103405 0.15592031 -0.057376936 -0.13539678 -0.18295886 -0.15338017
0.08064533 -0.2428549 -0.16830428 0.060872838 0.24695635 -0.09844508 -0.07796975 -0.10468233
0.05934846 -0.047810048 0.14453284 -0.08060377 0.1704921 -0.08925839 0.019283393 -0.043605175
-0.10967974 0.038044896 0.17560457 0.06865895 -0.13702592 -0.06824398 -0.11960967 -0.07785976
0.07012421 -0.19117232 0.06476499 0.072439864 0.0010981899 -0.1460256 -0.056641538 0.07900825
0.06646128 0.1634465 0.031691242 -0.07932816 0.043895785 0.124744795 0.024131162 -0.07346819
0.14084497 -0.071594045 -0.019021945 -0.07598973 0.18012957 0.09059788 0.13174559 0.05144126
0.10524452 0.082875274 -0.19781211 0.23395644 -0.0045663184 -0.12387294 -0.07589853 0.09649164
0.15330608 0.0016389678 -0.0583171 -0.12656596 0.018390406 0.11190005 0.04246564 -0.21443146
0.21462716 -0.09990792 0.016713873 0.10982163 -0.08403446 -0.09112082 -0.24857573 0.17663828
0.084730856 0.11404414 0.020264246 -0.12895975 -0.21944176 0.15250409 -0.11572337 -0.18841022
0.13177323 -0.13577263 -0.10291597 0.020053936 -0.082804486 0.084084645 0.0045457664 -0.047392644
0.26916254 0.001587555 0.0038132945 -0.19157587 -0.13328691 -0.13283283 0.015650371 -0.06616707
-0.034869723 -0.04893356 -0.17807412 -0.11948021 -0.07225068 -0.083961226 -0.06624968 -0.062610395
-0.16951425 -0.12651983 0.060708944 -0.14575247 -0.18130803 0.11840756 -0.012184664 -0.011558978
0.06987105 -0.029061051 -0.053530138 -0.07688131 0.22666912 -0.121124454 -0.18370056 0.16363388
0.18150531 -0.14429468 0.26021552 -0.023842165 0.038650334 0.17346585 0.08947011 -0.04133517
0.12252532 0.10021818 -0.0036423437 0.112931736 0.1607097 -0.011413772 0.06843749 -0.062157664
-0.14900853 -0.025760664 -0.16565455 -0.20623228 -0.049943175 0.13559102 -0.031047108 0.12454595
-0.05580574 0.17219658 -0.08818606 -0.04511883 0.015623885 -0.12253982 0.08816839 -0.14921543
0.010905418 0.0863348 -0.13548872 0.11704587 0.05539036 -0.17362294 -0.120155856 -0.13042474

input.bias f4 [64]
00000000: ce8c fb3b bbad 473e fbf2 06ba 60d2 063e
00000010: 38e8 0f3e 7fc0 593e c8d3 48bd 51d2 813e
00000020: 4a77 1e3e f30d d7bd 1c44 0abd b050 763d
00000030: 442d cc3e 81bb 6a3e b9c9 873c a4c8 7b3e
00000040: 70bd 8b3e 9a13 0cbc d730 f03d c79d 173e
00000050: 00ae 5a3e 620d 763d 4f8d 363d d63d a33e
00000060: 10f4 083e f95e 123e ca41 203e dcd8 e53e
00000070: fd7c cb3e b9fb 543e cf60 b13d 18f8 61bc
00000080: 6d67 71bd 1312 33be f6a7 933e b218 31bb
00000090: ca0a 0ebe 4891 943c b854 5f3e 33a9 3e3e
000000a0: ec97 e53d 40b8 8d3e a2d4 c33d eba5 8a3c
000000b0: 78d7 7d3d 986d d43d 5a02 86bb 437d 87bd
000000c0: 1d9e fa3d 1027 743e f4c8 993c ce2b 8ebd
000000d0: d6ef ae3e b7a3 82bb 056a 08be cfba 023e
000000e0: e4bc 26be ece7 e63d 7e1d ce3c 80db 04bd
000000f0: 6719 49bc bf2f 343d bb41 ea3d d21d ce3d
0.0076766973 0.19499867 -0.0005147901 0.13166189 0.14053428 0.21264838 -0.049030095 0.2535577
0.15475193 -0.105007075 -0.03375636 0.060135543 0.39878285 0.2292309 0.016575681 0.24588257
0.27292967 -0.008549595 0.117280655 0.14806281 0.21355438 0.060071357 0.044568356 0.31883115
0.13374352 0.14294042 0.15650097 0.44892013 0.39743796 0.2079915 0.08661043 -0.01379206
-0.058936525 -0.17487364 0.28839082 -0.0027022776 -0.13871303 0.018135682 0.21809661 0.18619232
0.112106174 0.27679634 0.09562041 0.016924819 0.061973065 0.10372466 -0.004089636 -0.06615689
0.12237189 0.23843026 0.01877258 -0.06941949 0.34167355 -0.0039868015 -0.13321693 0.12766574
-0.16282994 0.11274704 0.025160547 -0.032435894 -0.012274123 0.043990847 0.11438318 0.100642815

h1.weight f4 [32, 64]
00000000: b436 623e 7688 72bc 664b 9f3c e919 6d3e
00000010: a8f3 433e ee8a 203e ac36 fbbd d80c a63e
00000020: c5c1 07be 4239 6c3d 4d40 3e3d d68f 933d
00000030: 58bd a63e c065 513e bce8 573e 130a 233c
00000040: ce9a 8f3e c273 193e d8dd 223e 64eb ebbd
00000050: 6e23 453e d518 323e 8a9e 953d d208 393e
00000060: 54d6 a53e de32 64bc 5dc9 5c3e 19e9 f13d
00000070: dc45 063e 4c64 32bd 01a5 89bc cfd1 c93d
00000080: 66ca 4e3b 47e8 1e3d 6643 8bbd e953 8c3d
00000090: 8975 383e 61e0 f13d cea7 5a3e 4887 84bb
000000a0: c83f c9bd d3b3 2b3e 62e8 193e c7a9 ac3b
000000b0: 18c8 883d cecd 323e 52ab 96bd 5358 3e3e
000000c0: 3c3b f3bd 2e18 7c3d 89d0 113e 7e36 49bd
000000d0: a4a8 c3bc e2d8 09bd 3772 333d 4acb 06be
000000e0: 49b1 f43d 0e88 743d 018d 8c3d 4a89 f93d
000000f0: c482 5c3e 096a f93c ca1c d2bd 922b c3bd
00000100: 8950 b8bd 3b6b ad3d d01e 6a3d 7907 7cbd
00000110: eaa4 fdbd e822 5dbd 9fbe eb3d a796 01bd
00000120: abfc 283d 8722 2bbd 5508 bb3d c45b 7c3d
00000130: b474 84bd 4f70 2b3d dc57 ecbd 7927 d3bd
00000140: c8e7 e6bc 769b 763d 88bc c93d 5698 413e
00000150: 0f88 5fbd bf7f a0bd 257a 553d 9fb0 a33d
00000160: 2e92 19be 26f4 9e3d 397f db3d df82 ea3d
00000170: 7693 a9bd 133b f03c 22aa 9b3d 9200 523c
00000180: 88f1 913d 0b1a 093e 3daa c03d 6f5a 1abe
00000190: f528 1ebd 5f90 f43c acf7 753d 9cbb 8c3c
000001a0: c772 373e 6b81 ef3c b9d5 edbc afcf 363e
000001b0: 3632 1d3d f0a9 1bbd 1f4e ed3d a062 ca3d
000001c0: dff5 19bd 04ef 093e 6316 cc3c d1aa dc3d
000001d0: a726 e13d 20f1 eb3c c7d9 8fbe 4839 2c3d
000001e0: cf44 883c 6421 84bd 0fe7 003c ab79 a3bd
000001f0: c13a 38ba 6f7b f73c ad79 6ebc 2077 073e
00000200: 36d1 683d 1fd5 f93d 3184 283e ffb2 a2bb
00000210: aefa b83a 8ed2 9c3d 99af 263d 3b07 133d
00000220: 236d d23d fd32 ddbd 59ce 473d d633 8b3d
00000230: 75b2 a83b ba54 f13a 45d0 74be 0ff1 b83d
00000240: 42e9 3abd 8817 003c 3439 ee3d fc53 5dbd
00000250: 0591 f73d 56b6 01be 571a 353d 951c ab3d
00000260: 84ee 99be 612c 943c 112b d8bd 9073 903d
00000270: e23a bb3d 1b53 5a3d b45f 993d ee52 24bd
00000280: 68a2 2a3e 02f7 623c e17c ed3b b788 e6bd
00000290: 0e58 2cbd 82ed 5f3d da8f cdbd 8400 86bd
000002a0: 6ea5 2cbd 60b9 e2bd 10fb 723d 147a 2b3e
000002b0: de51 2c3e 171d 9a3d a234 813d d52f dd3c
000002c0: 7f53 c93c 830f 0bbe cc70 eebc ea21 f33d
000002d0: 733d 333e d38a 963d 7212 12be aa7c 833d
000002e0: 8118 07bd c9a9 07be 6e57 4cbd d10b b5bd
000002f0: f2e1 a9bd 096e b73c 7cb6 2ebd 8e76 463e
00000300: e7a5 ab3d b7dd cdbd f11b 50bd 9180 223e
00000310: 457d aa3c b9d6 363e 717d 8f3d e3e5 003e
00000320: 31d0 d03d c651 79bd 8ca2 a53d c48f 823d
00000330: 1cae 523e 9a1b 683e c6f9 613e 512f 4d3e
00000340: b8b4 093d 4f41 9e3e 830a 2b3d b722 7ebd
00000350: 2181 b0bd 9c30 413e 5090 01bd 1583 dc3d
00000360: 7b8a a93d 303e d53d d685 223e 159f 2b3e
00000370: a9a3 b03d 2ebe 283d 0584 6cbd f1c6 153e
00000380: ec62 febd c44e b23d 1900 60bc d8b9 813e
00000390: f59e 033e 13f7 233e 34ff 5f3e 7544 02be
000003a0: e4f1 ccbd 6ecb 8d3d 3c90 f6bc 587e 633d
000003b0: 022c 9e3d 4bc0 3bbd 4133 f2bd 4e8f 19bd
000003c0: b898 86b9 4323 b83d 8219 40bc b43c efbd
000003d0: 272e 7a3d 98be 0cbe 52a7 b13d 3995 833d
000003e0: e97d db3c 18c7 a9bc 33c6 debd cc85 5d3e
000003f0: dc14 8bbc c761 00bd 65e8 a03d 0463 a13d
0.2209118 -0.014803043 0.019445132 0.23154415 0.19135916 0.15677997 -0.12266287 0.32431674
-0.13257511 0.057671793 0.04644804 0.07205169 0.32566333 0.20448971 0.21084875 0.009951132
0.28047794 0.14985564 0.15904939 -0.115195066 0.19251797 0.17392285 0.073056296 0.18069771
0.32390082 -0.013928143 0.21561189 0.11812038 0.13112587 -0.04355268 -0.016802313 0.09854471
0.0031553744 0.038795736 -0.067999646 0.06851942 0.18013586 0.11810375 0.21353075 -0.004044447
-0.098266184 0.16767816 0.15030053 0.0052692625 0.0667879 0.17461321 -0.073568955 0.1858838
-0.118765324 0.061546497 0.14239706 -0.049124233 -0.023884125 -0.0336541 0.043810096 -0.13163486
0.11947877 0.059700064 0.06862832 0.12184389 0.21534258 0.03044607 -0.10259397 -0.09529795
-0.08999736 0.08467718 0.05715829 -0.061530564 -0.123849705 -0.053988367 0.115109675 -0.031637814
0.041256588 -0.041780975 0.091324486 0.061610952 -0.06467572 0.041855153 -0.11540195 -0.10310263
-0.028186694 0.060206853 0.098504126 0.18905768 -0.054573115 -0.07836866 0.05211844 0.07992672
-0.1499717 0.07761411 0.10717625 0.11450743 -0.08280079 0.029325044 0.0760081 0.012817519
0.071261466 0.13388841 0.094074704 -0.1507356 -0.03861328 0.029853998 0.06005065 0.017179303
0.17914878 0.029236516 -0.029032575 0.17852663 0.038377963 -0.038003862 0.11587166 0.098820925
-0.037587997 0.13470083 0.024913019 0.10774768 0.109937005 0.0288015 -0.28095838 0.042046815
0.016634373 -0.06451681 0.007867589 -0.07982191 -0.0007027798 0.030210225 -0.014555377 0.13229036
0.056840144 0.12198853 0.16456677 -0.0049651857 0.0014112794 0.076573476 0.040694807 0.035895567
0.102747224 -0.10800741 0.048780773 0.06796996 0.005148227 0.0018412091 -0.23907574 0.09030353
-0.04563261 0.00781811 0.116320044 -0.054035172 0.12088207 -0.12667212 0.044214573 0.08355061
-0.30064785 0.018087568 -0.10555089 0.07053292 0.091420904 0.05330191 0.07488957 -0.04011815
0.16663516 0.013852837 0.0072475527 -0.11256545 -0.042076163 0.054669864 -0.10037203 -0.06543067
-0.042149954 -0.11070514 0.059321463 0.16745788 0.16828105 0.0752508 0.06308867 0.027000347
0.024575947 -0.13580136 -0.02910652 0.11871703 0.1750391 0.07350697 -0.14264849 0.06420262
-0.032982353 -0.13248362 -0.049888067 -0.088401444 -0.08295049 0.022391336 -0.0426545 0.19381163
0.08381253 -0.100520544 -0.050807897 0.15869357 0.020811686 0.17855348 0.07006348 0.12587695
0.10195959 -0.060869 0.08087644 0.06375077 0.2057423 0.22666779 0.22067937 0.20037581
0.033619612 0.30909202 0.04175807 -0.062044825 -0.086183794 0.188662 -0.031631768 0.107671894
0.08278366 0.10412252 0.15871367 0.16759904 0.08624966 0.041196994 -0.05774309 0.14626671
-0.124212116 0.087064296 -0.013671898 0.253371 0.12853606 0.1601222 0.21874696 -0.12721427
-0.100070745 0.06923567 -0.030098073 0.055540413 0.077232376 -0.04583768 -0.11826182 -0.03749018
-0.00025672256 0.08991101 -0.011724832 -0.116815 0.06107917 -0.13744581 0.08674492 0.06424946
0.026793437 -0.020724818 -0.10877647 0.2163307 -0.01697772 -0.031343248 0.07856826 0.07880214

h1.bias f4 [32]
00000000: e657 09bc b6c4 5c3e 8188 8f3c 7fa6 b5bc
00000010: 0ecb 33be 4db7 673e 4bcf 803e eec7 403e
00000020: 1e8a 92bd 2e7e f73d 1cea 153e af36 1d3d
00000030: 9769 1a3e 80c0 a6bd a64d e03d e580 3f3d
00000040: d936 093e 0135 ca3d 9a98 613e 2e46 523c
00000050: 4e59 babd 47ca 05be 0dc1 d7bc d195 dd3c
00000060: 017f 3a3d 1799 533e d0f5 b9bc bde3 c33d
00000070: d375 febb 2de7 9b3d b4dc db3d a402 e53d
-0.008382773 0.21559414 0.017521145 -0.022174118 -0.17557928 0.22628517 0.25158152 0.18826267
-0.0715525 0.12084614 0.14640087 0.03838223 0.15079342 -0.08142185 0.1095231 0.046753783
0.13399829 0.09873391 0.22030869 0.012834115 -0.09099065 -0.13065444 -0.026337171 0.027048977
0.045531277 0.20663868 -0.02270022 0.09564922 -0.0077655106 0.07612453 0.10735455 0.11182144

h2.weight f4 [16, 32]
00000000: c499 50be 895e 543e 8290 4f3e 23cb a4bd
00000010: c604 0e3e 7786 093e 7554 6c3e 4227 423c
00000020: a3f3 383d cc7a 77bd 9f43 ae3d 1b35 11be
00000030: bf4b 973d 53ec 17bd 044d 3e3e aa30 06bd
00000040: 96c9 623e fd53 0bbe ba76 623e 90be 873e
00000050: e724 0bbe d9da a8bc 8703 243e 9f05 863e
00000060: 9ce7 2cbd a45e 19bd 9e8e 08bd 3518 853e
00000070: 7c69 603e 4fca 723d 9e11 1dbe 17bd 21be
00000080: 594c 0c3e 4c89 aa3d d06b 7d3c 4649 e53d
00000090: 7bf7 00be cba0 873e 0620 473e a862 463d
000000a0: 87ef 1e3e 5a3d cc3d 6fff e53d 40d5 6a3e
000000b0: 980f 74be 6398 fdbd eae3 5b3d 8b93 8b3d
000000c0: 9dd4 abbd ef02 763e 9dc0 173d 47ed 60be
000000d0: d9ff 4a3e de8f 493e f494 7bbe 4615 65be
000000e0: 980e 40be c1ef c5bd 85ce 5f3e 130d 83bc
000000f0: 421c bc3a bebe 49be 1b95 9b3e 3ebb 6f3e
00000100: 6bbd 073d a401 383d 9aac 15be 582f 313e
00000110: 4b10 e0bd 4e76 713d 6255 323e c38d 0d3e
00000120: bcdb 7bbb 250b e33d d588 c93d 6075 283e
00000130: d823 50bd 8868 dfbd 7141 69bd 9572 373e
00000140: a4ec de3c e3ff 463e c224 963d 8b2f 953b
00000150: ffc5 833e 8eb5 3a3e 94f9 fcbd 3b8c eebd
00000160: 8605 27be 1e24 b9bd e629 443e e6d4 223e
00000170: f7e2 20be 1348 58be b48b 7f3e ad38 603e
00000180: 4cc8 633e afc4 26bd 64ef 16be de09 1c3c
00000190: 4b8e 113d 700c a03c 9213 373e df14 003e
000001a0: 4a78 3f3c f981 0d3d 87f0 123e 49db 1c3e
000001b0: 3be6 25be 10b1 033c 292c f43d 1d49 d23d
000001c0: bde2 0fbd 71ea 07bd f8b3 c03d 4196 76bd
000001d0: bd01 db3d f5c0 d83d ad4f e5bd 2b41 84be
000001e0: fe2f 89bd 094c 22be d52c eb3d 1caa f63c
000001f0: bc48 e8bb e53c 0cbe 871f 103e 73f1 06bc
00000200: 122a 8b3e 80d5 22be 86af 073d c43f 823d
00000210: 9698 cbbd a21a 5f3e 1d17 323c dc97 833e
00000220: 2025 d3bd be21 5e3e 4c22 393e e2e6 123e
00000230: 8729 3b3b f958 febc bb7c d73d 5642 1c3e
00000240: 6817 dc3c d4d0 3d3e e9bd 943d b562 63be
00000250: 3d6a 8fbb 6e35 c5bd cec0 21be e199 17be
00000260: 3534 cc3d e150 cbbc 001b 0a3e 4cfa e33d
00000270: 2915 1ebe b1d4 da3d 8ebc 163d d7d1 2f3e
00000280: abd7 b83d b70e 233e e9b5 c0bd 7067 0d3e
00000290: 2287 1dbe 754b 7a3e c324 6c3d 09cd 053e
000002a0: a08f dcbc 42f6 283e fee7 9f3d 28ce 013d
000002b0: 5127 7bbe cae5 0cbe 87cc 413b e284 b93c
000002c0: 0fd5 083e fefd d9bb 366a 74bd cbf5 32be
000002d0: ac29 343d a9c9 c5bc 2bc4 bc3d 8c54 7c3d
000002e0: 87ac 2bbd f121 b33d d6ac babb 1b8b 35bc
000002f0: 17da 33be dfc6 bd3d b5f5 c93d 82cf 393e
00000300: 3cc0 203c 6d1e 32be 1b55 17be 1db7 0f3e
00000310: 1f09 18bc c32f 073e 884d 223e c622 173e
00000320: 4e28 2abd ec7c 03be eb5b 313e 5ef9 343d
00000330: b64e 04be f644 5b3e acf9 283e 8696 d03d
00000340: d0e8 db3d e8f1 febd 6772 0abe 8d2e 62bc
00000350: 711b 063e 3388 1ebe a3fe 993d f140 18be
00000360: ddc3 d8bd dd5a bdbc cd63 1dbe a87b 3cbe
00000370: 3e48 2bbe 6256 313e 2533 d5bb 577c efbd
00000380: 7cbd 003e f663 0dbe 950b 8bbc 74d7 a33d
00000390: f9b3 79bd 4516 223e 8c07 10bc 7627 f63c
000003a0: 35dc bd3c 0f61 bb3d 1834 383e 2b9a 453d
000003b0: 5d47 0ebe 6356 5a3c d2ca 21be 6799 8c3d
000003c0: 8982 cc3c 7ce5 fe3d ae81 18be 1f35 b13c
000003d0: d834 c4bd 1ce7 983c 0459 d8bd ad59 7a3c
000003e0: bdfc 123c 5ce4 aa3d d2c4 2d3d aa44 113d
000003f0: 73a2 0ebe e6ee 0abc 2f12 2bbc 2026 07be
-0.20371157 0.20739187 0.20269969 -0.08046558 0.13869008 0.134302 0.23079093 0.01185018
0.045154225 -0.060419843 0.085089915 -0.14180414 0.07387494 -0.03709061 0.18584067 -0.032761253
0.22147211 -0.13606258 0.22115603 0.26512575 -0.13588296 -0.020612167 0.1601697 0.26176164
-0.042213067 -0.037443772 -0.033339135 0.2599503 0.21915239 0.059274968 -0.15338752 -0.15794788
0.13701 0.083269686 0.015467599 0.111956164 -0.12594406 0.26489863 0.1944581 0.04843393
0.1552106 0.099726394 0.11230361 0.22932911 -0.23834074 -0.12382581 0.053684153 0.06815251
-0.08390162 0.24024557 0.037048925 -0.21965514 0.1982416 0.19683787 -0.2456854 -0.22371396
-0.18755567 -0.0966487 0.21856125 -0.015997445 0.0014351683 -0.19701669 0.30387196 0.23411271
0.033139627 0.04492344 -0.14616624 0.17303216 -0.10940608 0.058950715 0.17415383 0.13823609
-0.0038430532 0.1108611 0.09840552 0.16451025 -0.050815433 -0.1090861 -0.056947175 0.17914803
0.027212448 0.1943355 0.0733123 0.0045527867 0.25736997 0.1823332 -0.12352291 -0.116478406
-0.16310701 -0.09040092 0.19156608 0.15901527 -0.1571158 -0.21121244 0.24955636 0.2189662
0.22244376 -0.040714916 -0.14739758 0.009523837 0.03553609 0.01953718 0.17878559 0.12507962
0.011686394 0.03454778 0.14349566 0.15318026 -0.16201107 0.00803782 0.119224854 0.102678515
-0.035128344 -0.033182565 0.09409326 -0.060201887 0.10693691 0.10583679 -0.111968376 -0.2583097
-0.06698607 -0.15849318 0.114831604 0.030110411 -0.0070887487 -0.13695104 0.14074527 -0.008236277
0.27180535 -0.15901756 0.033126377 0.063598186 -0.09941213 0.21787503 0.010869768 0.25701797
-0.103098154 0.21692559 0.1807949 0.14345887 0.0028558688 -0.031048285 0.10521837 0.1525968
0.02686663 0.18536693 0.07262785 -0.22205622 -0.0043766783 -0.096293315 -0.15796205 -0.14804794
0.09970895 -0.02481884 0.13486862 0.11131725 -0.1543776 0.10685099 0.036800914 0.17169891
0.090255104 0.15923582 -0.094096966 0.1380899 -0.1538358 0.24442847 0.057652246 0.13066496
-0.026923954 0.1650019 0.07807921 0.031690747 -0.24526717 -0.13759533 0.002957137 0.022646371
0.13362525 -0.0066525927 -0.059671603 -0.17476575 0.043985054 -0.02414401 0.092171036 0.061604068
-0.04191258 0.08746708 -0.005696873 -0.011080529 -0.17563663 0.09266447 0.09861318 0.18145564
0.009811457 -0.17394419 -0.14778559 0.14034696 -0.009279518 0.13201813 0.15849888 0.14759359
-0.041542344 -0.12840623 0.1732022 0.044183128 -0.12920651 0.21413025 0.16501492 0.1018496
0.10737765 -0.12448484 -0.13520204 -0.013805044 0.13096406 -0.15481643 0.07519271 -0.14868523
-0.10584233 -0.023114616 -0.15370102 -0.18406546 -0.16726777 0.17318109 -0.006506341 -0.11693638
0.12572283 -0.13807663 -0.016973296 0.08000079 -0.06096265 0.15828808 -0.008790862 0.030048113
0.023176292 0.09149372 0.17988622 0.04824273 -0.1389441 0.01332626 -0.15800026 0.06865197
0.024964588 0.124461144 -0.14893219 0.021631775 -0.09580392 0.018664889 -0.105638534 0.015280169
0.00897139 0.08344337 0.04242403 0.035465874 -0.13929157 -0.008479809 -0.010441347 -0.13198137

h2.bias f4 [16]
00000000: f6ed 28bd 1b0a 563e 4d09 483e 1e0b 323e
00000010: 28cb 43bd f7d9 a83d 8b25 c7bd f31e 4abd
00000020: e65c 20bd 9149 903d f44e 38be 687e 263e
00000030: b1cf 253e 0245 003e 1fd6 b43d 76a3 903b
-0.041242562 0.20902292 0.19534798 0.17387053 -0.047801167 0.082446985 -0.09723958 -0.04934592
-0.039151095 0.07045282 -0.17998868 0.16259158 0.16192509 0.12526324 0.08829903 0.0044140173

h3.weight f4 [8, 16]
00000000: 9ebd 893e 9ff1 2c3d 569b 563d 0ae9 a1bd
00000010: 1038 3fbd a70d b8bd 53c5 91be 697e 3abe
00000020: dc63 11bd be54 a23e b6a5 253e a535 f63d
00000030: 55e8 2f3e 8048 0b3e 006b 813e 3e96 3cbd
00000040: 3d53 cdbd 20c1 d0bd 8d19 0fbe fc78 173d
00000050: 64ce c7bd e11d 943d 30db ed3d 11c5 89be
00000060: 0c98 e23c 4b47 6c3e 50ce 103e 06d5 06be
00000070: 568f 6dbe cdb7 503e 0472 923e c2a3 20be
00000080: 1094 66be 7551 9e3e 1ccc 513e 4331 713e
00000090: 3d88 2b3e 01cd 113d b0b7 db3c a635 8b3e
000000a0: 3ff3 173d bde2 50be 72da 4f3e 6840 bd3c
000000b0: aef0 213c 0d19 6cbe ca25 29be dc55 543e
000000c0: e8f3 29be 9961 cf3d 7077 863c dce5 b7bd
000000d0: 93c2 fdbd e9d2 9fbe f585 8c3d 77d4 6c3e
000000e0: d359 183e 2469 223e e74c 36be 62dd 5fbe
000000f0: d55c 0d3e 627c ddbd 3a86 19be 5b44 24be
00000100: 83dd ad3e 305b 83be e3ca 433e e703 c63d
00000110: 64ad 06be a5be 5d3e 0d4c 81be f57c 413e
00000120: 4858 69bd 7116 bf3e 4b44 cf3d 92ed 083e
00000130: eb67 903e 184d 6bbd 5b9e 9c3e a3fb 2ebe
00000140: 78bb 11bd 2fe3 85be 2d55 943b 4ffa e4bd
00000150: 4ebf 0f3e 002f a8bd fbe0 6cbe fcbd 033e
00000160: ff24 cc3d e600 623e 64b5 4b3e 8c3f 5f3d
00000170: 9a8b 87be e7d5 99bd e9df c6bd 3221 a8bd
00000180: 7924 27be d983 be3e 3f6f 623e 0965 513e
00000190: 9597 793e 4e64 393e 341c f33d b47f 373d
000001a0: 4995 56be 7c24 63be 39eb 55be b1ae d73e
000001b0: 0a16 183d 1038 a2bd d826 d33d 78d7 6a3e
000001c0: 8799 453c 0289 073e 5a40 8abd 8e46 83be
000001d0: 7ab1 2dbe a8e7 eebd e132 93be 1e58 e8bd
000001e0: 8df8 da3c 32da c13d d896 5dbe e4b8 83be
000001f0: 07dc 79be 0aea 12be 321e 89be b242 e6bb
0.2690248 0.042222615 0.052394234 -0.07905777 -0.046684325 -0.08986979 -0.2847086 -0.18212284
-0.035495624 0.31705278 0.16176495 0.12021951 0.17178471 0.13601875 0.25276947 -0.04604172
-0.10025642 -0.10193086 -0.1397459 0.036980614 -0.09756163 0.072322614 0.11614072 -0.26908162
0.027660392 0.23074071 0.14141202 -0.131672 -0.2319921 0.20382614 0.28602612 -0.15687469
-0.22517419 0.30921522 0.20488018 0.23553948 0.1675119 0.035595898 0.026820987 0.27189368
0.037097212 -0.20398994 0.20298174 0.023102 0.009884043 -0.23056431 -0.16518322 0.20735878
-0.16596949 0.10126037 0.016414374 -0.08979389 -0.12390628 -0.312156 0.06861488 0.23127924
0.14878015 0.1586042 -0.17802773 -0.21861795 0.13804944 -0.1081474 -0.1499261 -0.160417
0.33958063 -0.25655508 0.19120364 0.09668713 -0.13152081 0.21654756 -0.25253335 0.18895324
-0.056968957 0.3732181 0.10120448 0.13371876 0.28204283 -0.05744657 0.30589566 -0.1708818
-0.035579175 -0.2614989 0.0045267553 -0.11180555 0.1403782 -0.082120895 -0.23132698 0.12865442
0.09967994 0.22070655 0.19893414 0.054503962 -0.26473695 -0.07511502 -0.09710676 -0.082094565
-0.16322507 0.37209967 0.2211275 0.20448698 0.2437423 0.1810467 0.11870614 0.04479952
-0.20955385 -0.22181886 -0.20890512 0.42125466 0.037130393 -0.07920849 0.10310143 0.22933757
0.01206053 0.13235858 -0.06750555 -0.25639766 -0.16962233 -0.11665279 -0.28749755 -0.11344932
0.026729846 0.094654456 -0.21639574 -0.25726998 -0.2440034 -0.14347091 -0.2678085 -0.0070269937

h3.bias f4 [8]
00000000: 6966 9cbc 1945 853e 4c8c 8f3e 5837 97bd
00000010: ced3 f2bc 5baf 2b3e eb5e 49be 15ea e1bd
-0.019091802 0.2602928 0.28036726 -0.07383603 -0.029642012 0.16766112 -0.19665115 -0.11030976

h4.weight f4 [1, 8]
00000000: 6942 e03e 3fdd 993e a1d5 96be 20c5 693e
00000010: 1fa0 f33e bf68 1a3e ab69 edbe 4dc3 913e
0.43800667 0.3005161 -0.2945986 0.22829103 0.475831 0.1507902 -0.4636968 0.28469315
