src/models/saved_models/best_model_lr0.001_roc_auc0.9301416253093862.pt (torch, 23957 bytes, 9 tensors)

input.weight f4 [64, 30]
000000 34 27 c1 be 67 43 89 3e e2 d9 35 bd 1a c8 43 3e
       -0.37725222 0.26809236 -0.044397242 0.19119301
000010 ea 97 94 ba 76 c4 d8 bd 1f ab 14 be f2 3b 78 be
       -0.0011336778 -0.10584347 -0.14518403 -0.24241617
000020 92 15 9b 3e 81 be 15 be ea 98 f7 3e ef 26 cf 3c
       0.30289894 -0.14623453 0.48358852 0.02528712
000030 3c 1e a4 bd 37 12 43 bc 68 56 83 3e de 48 d2 3d
       -0.08013579 -0.011906198 0.2565186 0.102678046
000040 4f 2b 48 bd bc 7f 68 3d df 24 cf bd 0d 01 d4 3d
       -0.048869427 0.056762442 -0.101144545 0.10351763
000050 1d 6f 65 3c fb da 9d bd f4 53 33 be 5f 89 63 be
       0.014003542 -0.07707783 -0.17512494 -0.22220372
000060 01 3e ac 3e d9 b9 53 bd 92 55 bb 3d 82 66 1f bd
       0.33641055 -0.05169091 0.091471806 -0.03891612
000070 7f 8b 92 be 49 31 8b 3d 5e 4e 25 3e 0b c5 e3 3e
       -0.28622052 0.0679651 0.16143176 0.4448627
000080 26 e4 b5 bd c1 7a 4d 3e 89 5c 3a bd c3 94 67 3d
       -0.088814065 0.20066358 -0.045498405 0.056538355
000090 10 b8 5f 3e 49 b4 72 be a0 cc 3b 3d d4 d3 14 be
       0.21847558 -0.23701586 0.045849442 -0.14533931
0000a0 8a 8d 8e 3d d8 6e d8 bd 96 91 8a 3e b6 47 cb 3e
       0.0696059 -0.10568017 0.27064198 0.3970315
0000b0 f3 8d b4 bd 32 db 07 be 3a f7 89 3e 88 08 b6 ba
       -0.08816137 -0.1326721 0.2694643 -0.001388804
0000c0 0f b1 8a bd a4 3e 7e bc 5f ea 10 3e 4b 0a e1 bd
       -0.067720525 -0.015517864 0.14151905 -0.10988291
0000d0 38 7d d8 3c 96 c0 26 3e b9 3a 2b be 4d aa f3 3c
       0.026426896 0.16284403 -0.1672162 0.029744292
0000e0 98 e9 ad 3d 0e 47 ee bd 9b be 63 bd 63 f2 46 be
       0.0849182 -0.11634646 -0.055601697 -0.194284
0000f0 ef 12 99 3d fa 32 19 3f 13 a9 96 3a d9 86 c5 be
       0.074743144 0.5984341 0.001149448 -0.38579443
000100 68 e0 9b bd 7e 02 27 3d 9c 29 91 be 62 25 3f 3c
       -0.076111615 0.04077386 -0.28352058 0.011666628
000110 43 81 da 3e 3a c3 16 be 98 eb 8a 3e a8 3f f3 3c
       0.42676744 -0.1472291 0.2713287 0.02969344
000120 34 bf 75 3e ab 11 11 be 7f b4 0d 3e 6d 18 ac 3e
       0.2399872 -0.14166896 0.13838385 0.33612385
000130 b7 9e ea bc f8 88 07 3e f9 fc 77 bd 87 10 2f be
       -0.028640134 0.13235843 -0.060543988 -0.17096148
000140 6e 44 2d 3e fb 58 56 bd ee 5c 3c be 62 4a 53 bd
       0.16920635 -0.052330952 -0.18394825 -0.05158461
000150 54 d4 5d be 93 af 16 be c4 d9 69 3e e8 b3 1c 3e
       -0.21663028 -0.14715414 0.22836977 0.15303004
000160 21 b5 5c be 77 4c 7a 3d 97 8c b4 be 0a 0b 16 3e
       -0.2155347 0.06110808 -0.35263512 0.14652649
000170 c6 be 21 3d 4d 60 5e be d4 c2 d1 3e 29 94 47 3d
       0.039488576 -0.21716423 0.40968955 0.04872528
000180 1d 6a 95 bd 7c a5 49 be fb 4f 92 be 08 c5 ac 3d
       -0.0729563 -0.19692034 -0.28576645 0.08436018
000190 1a 7b be be cf 24 67 bd 1b 8f a4 be a6 5e c1 3d
       -0.37203294 -0.056431588 -0.3214043 0.09441881
0001a0 5a 9b 07 bf e4 bb af bd 73 f5 d2 3d 36 f8 10 3e
       -0.5297142 -0.08580759 0.10300722 0.14157185
0001b0 b3 15 d6 bd 5b 4e 98 3d 33 38 01 bf 63 5f 15 3c
       -0.104533575 0.0743682 -0.5047638 0.00911698
0001c0 99 17 ae 3e 68 8a d2 bd 9c 73 cb be 87 df 9b 3d
       0.3400238 -0.10280305 -0.3973664 0.07610994
0001d0 07 c8 1e bd fe 01 22 3e 17 80 e7 3d 17 07 54 bd
       -0.03876498 0.15821072 0.11303728 -0.051764574
0001e0 55 e5 00 3e 38 73 e0 bd 34 f4 16 bc cd d6 0c be
       0.12587483 -0.10959476 -0.009213496 -0.13753815
0001f0 da 84 be bd 6c 32 5d be 28 74 ed bd e9 36 8b 3e
       -0.09302683 -0.21601266 -0.11594421 0.2719033
000200 a9 28 0c 3c ae cf ef bb e0 f1 40 bd 8e 73 19 3d
       0.008554616 -0.0073184585 -0.04710567 0.037463717
000210 2c 1c 6a bc 11 18 a8 bd 35 5e 1a be 42 bd de 3e
       -0.014288943 -0.08207715 -0.15075 0.43503767
000220 81 38 17 bd 0c cd af 3c db 53 c8 3d a5 68 6e 3e
       -0.03691912 0.021460079 0.09781619 0.23282106
000230 d3 9a 9b 3e 45 a7 6e bb 3a d3 39 be ff d1 a5 3e
       0.3039156 -0.0036415618 -0.18146983 0.32386777
000240 50 ef 99 3d cf a9 34 3e 61 a4 31 be ae d6 2e 3a
       0.07516348 0.17642902 -0.17347862 0.0006669563
000250 cd 65 88 3d 93 5b 4f 3d bb 3c c0 3d 19 ce 67 bd
       0.06660042 0.05062444 0.093865834 -0.056593034
000260 b8 3b 8a 3e d0 58 0c be 50 de 0e bf 02 fa 6d 3e
       0.26998687 -0.13705754 -0.5580797 0.23239902
000270 67 80 95 3d 40 b8 20 3e 11 1c 5b 3e e3 c2 05 3e
       0.072998814 0.15695286 0.21397425 0.13062625
000280 1d bc 51 3d 3d ca 35 be ea a6 95 be 57 24 06 be
       0.05120479 -0.17752929 -0.29228908 -0.130998
000290 e9 ef 03 3f f9 15 3e be 2e a4 c2 3d 4d 38 8a 3d
       0.5153795 -0.1856307 0.09503971 0.0674902
0002a0 64 cc af bc 87 b8 13 3d 54 51 04 3c 54 46 54 3c
       -0.021459766 0.03606465 0.008076031 0.012956221
0002b0 35 ed f6 bd c9 fe e5 bc 7a 57 b8 3e d8 0d de 3d
       -0.120569624 -0.028075593 0.3600424 0.10842484
0002c0 cb 68 b5 3e 84 db 49 bc 99 1a 10 bc bd b7 97 bc
       0.35431513 -0.012320403 -0.008795404 -0.01852023
0002d0 59 b6 99 bd 1d 79 1c 3e b8 18 5c 3d 9e 7e 81 3b
       -0.07505483 0.15280576 0.05373451 0.0039518615
0002e0 04 d1 e9 bd 58 64 ec 3d 23 10 42 be 8f a4 74 3d
       -0.1141682 0.115425766 -0.18951468 0.059727248
0002f0 93 d5 a2 3e ab fe 01 be 35 d9 86 3e c1 11 c5 be
       0.3180357 -0.12694804 0.2633759 -0.38490108
000300 57 b9 d7 3d 95 d6 28 be d3 1c b4 3e 60 db ac be
       0.10533398 -0.16488107 0.3517824 -0.3376112
000310 39 fe 2c be f7 7e bd b9 cb 7d b3 be c3 5d 1c 3e
       -0.16893853 -0.00036143485 -0.3505691 0.15270142
000320 1f 17 91 3e 99 e9 3f 3d 6e cb ba 3a ad 61 37 3e
       0.28337952 0.046853635 0.0014251301 0.17908354
000330 6c 11 cb bd 8f bb 85 bc 0a 71 81 be 36 48 2d be
       -0.09915432 -0.016324786 -0.25281554 -0.16922078
000340 d9 49 df bd 06 a0 80 be 29 e8 2c bd c5 f4 b0 3d
       -0.10902757 -0.25122088 -0.042213593 0.08640436
000350 fb aa 41 3e df 42 fc bd e6 b5 06 3e d3 57 80 3d
       0.1891288 -0.12317442 0.13155326 0.06266751
000360 29 b6 ff 3d 37 40 26 3e 8d ec ff bd 47 d7 22 3e
       0.12485916 0.16235434 -0.1249629 0.15902434
000370 a9 5b 12 be fa dd 78 3e 4d 57 9d 3e fc 5b 5e bd
       -0.14292778 0.24303427 0.30730668 -0.054286942
000380 23 11 2d 3c 2d 2e 83 3e d6 68 44 3e bb e1 60 3e
       0.010563168 0.25621167 0.19180617 0.2196111
000390 50 3f 1a 3e e6 75 62 be d7 99 fc bd a4 28 89 bd
       0.15063214 -0.22115287 -0.1233403 -0.06697205
0003a0 fe d0 46 3e 3a bf 77 be 2e cd 34 3d ab 61 26 be
       0.19415662 -0.24194041 0.044140987 -0.16248195
0003b0 0d dd 95 bd 57 2e 51 be ed 49 d9 bd ce 02 50 3d
       -0.07317553 -0.20427833 -0.10609803 0.050783925
0003c0 f7 8e c4 3c 32 04 36 3e 4d 98 77 be d9 bf 91 3e
       0.023993952 0.17775038 -0.24179192 0.2846668
0003d0 da 3f 55 be 9f 91 a6 bc e7 d0 52 3e 23 03 92 be
       -0.20825139 -0.02033311 0.20587502 -0.28518018
0003e0 10 8b 4e bd b7 e9 47 bd 0b 80 64 3e 1e e6 a6 be
       -0.05042559 -0.048806872 0.2231447 -0.3259744
0003f0 88 78 47 be 98 2b 37 3e d6 d2 47 3e 9b 36 02 be
       -0.19479573 0.17887723 0.19514021 -0.12716143

input.bias f4 [64]
000000 97 90 87 3c 33 d5 c8 3d 3c 4d da 3d b7 87 c5 3e
       0.016548438 0.098062895 0.106592625 0.38580105
000010 5d 63 75 3d 24 3b 54 bd 3c 9a cf 3d 99 46 33 bd
       0.059909213 -0.051814213 0.1013684 -0.0437685
000020 37 aa 0f bc e5 78 ef 3d 1a a9 64 be c3 58 06 3e
       -0.00876861 0.11692981 -0.22330132 0.13119797
000030 eb a1 22 be 7d bd 0a 3d ad 0d 94 3d 24 00 2d be
       -0.1588208 0.033872116 0.07229171 -0.16894585
000040 67 69 a1 bd fe 74 90 be 3a 15 f5 bd 77 11 c1 3e
       -0.07881432 -0.28214258 -0.11966939 0.37708637
000050 71 7f 5f 3e 09 57 50 3e 58 e4 28 3e ce 05 01 be
       0.21825959 0.20345701 0.16493356 -0.1259987
000060 2d ab 8a be b9 54 1b 3d 0a 5c 6e 3d 97 e8 09 3d
       -0.27083722 0.037922595 0.058193244 0.03366908
000070 a7 3e e2 be 95 97 eb 3e 7e c4 d7 bc 63 8e 1f bd
       -0.44188425 0.46014085 -0.026338812 -0.03895415
000080 6a 92 24 bc 18 e2 cf bc ac b2 d3 bd 6c d0 46 3f
       -0.010044673 -0.025376365 -0.10336813 0.77661777
000090 dd c7 13 be 40 83 19 3e c3 4b 8c 3e b9 29 a7 bd
       -0.1443171 0.14991474 0.27401552 -0.08162255
0000a0 8f 75 a4 be 56 b2 24 3e b6 91 55 be 17 69 87 bd
       -0.3212094 0.16083655 -0.20856366 -0.06611841
0000b0 3a 29 ef be 49 61 f4 3e 3d 8c 00 3e e1 3f 56 bc
       -0.4671114 0.47730473 0.12553497 -0.013076753
0000c0 3d c7 63 bd a8 89 05 3f fe 1b 1e 3e 45 d3 f6 3d
       -0.05560993 0.5216317 0.15440366 0.12052015
0000d0 31 4a 68 3d e3 ec da bd 17 ef e1 3d e7 ef 49 be
       0.05671138 -0.10689714 0.11031931 -0.19720422
0000e0 65 e2 c4 3e a6 3b 0b 3e 3c ed 55 3d 5c c6 35 3e
       0.38453975 0.13596973 0.052228197 0.1775145
0000f0 a1 e2 21 bd 3d 9d 52 3c 8d 1c 4b be 88 38 80 bd
       -0.03952277 0.012854871 -0.1983511 -0.062607825

h1.weight f4 [32, 64]
000000 4f a7 49 3d 73 92 dd 3e ef bb 3a 3e 10 78 39 3d
       0.049231824 0.43275794 0.18235753 0.045280516
000010 ca 56 5e be 85 bd 9a 3e c7 d0 20 3f cb 7c 08 be
       -0.21712795 0.30222717 0.6281857 -0.13328855
000020 18 68 7c 3e 02 c9 f5 3d 8c b8 50 3e 1e a9 27 be
       0.24649084 0.1200123 0.20382899 -0.16373107
000030 86 fc 2b 3e 40 e4 b7 3e db fb c5 3e b4 42 12 3d
       0.16795549 0.35916328 0.38668713 0.035708144
000040 95 2c 02 3e b6 b4 cc bd 13 64 37 3e e4 a6 58 3d
       0.12712319 -0.099954054 0.17909269 0.052893534
000050 10 b3 82 3e 54 b0 af be 74 36 68 3e 89 cf ed 3f
       0.2552724 -0.34314215 0.22677022 1.857896
000060 b1 05 9d 3e c2 67 c5 3e 5f c4 cf 3d 3b d6 a2 3f
       0.30668405 0.38555723 0.10144877 1.2721628
000070 c1 c8 07 3f cb 99 cf be b8 c0 ce 3c ec c5 1d 3e
       0.530407 -0.40547022 0.02523838 0.15407532
000080 bf d6 74 3e 63 af 21 3e d0 de 05 bd bf 61 9a be
       0.23910044 0.15789561 -0.032683194 -0.301527
000090 a7 e1 48 bd f1 f1 6f be 5e 97 1f 3f 19 d4 58 3e
       -0.049043324 -0.23432137 0.62340343 0.21174659
0000a0 14 05 36 bc 52 e0 12 3e 9f dd cf 3e 7a cb ce 3c
       -0.011109609 0.14343384 0.4059877 0.02524351
0000b0 16 97 6e bd bb a9 18 3e e3 76 b5 3e a2 bd 3c 3e
       -0.058249556 0.14908497 0.35442266 0.18431714
0000c0 dd fa 07 3e b6 e9 8a be 43 51 69 3d b1 6e 57 3f
       0.1327929 -0.27131432 0.056962263 0.84153277
0000d0 d9 d3 39 3f cc ec c4 3e 7a bf e8 bc ed 49 ae 3e
       0.7258888 0.38461912 -0.028411616 0.34040776
0000e0 c0 94 48 3d 66 b3 e5 3d 5c 6f cd 3e 53 5d 04 3e
       0.048969984 0.11215858 0.40124023 0.12926225
0000f0 e9 d6 82 bc 93 13 12 3e 3f 48 eb 3e 96 c6 d9 3e
       -0.015971618 0.1426528 0.45953557 0.42534322
000100 08 37 e4 3d 54 59 65 be 83 92 f1 3d 45 6c 8b be
       0.11143309 -0.22397357 0.11795523 -0.2723104
000110 84 ce 44 be e1 9f 98 3e 41 3d 06 3f c0 6e f1 3d
       -0.19219404 0.29809478 0.52437216 0.11788702
000120 c0 99 21 3f fe 14 11 3f 67 d5 c0 bd 6b 97 a5 3d
       0.6312523 0.56672657 -0.09415703 0.08085521
000130 c3 68 92 3e 26 0b 85 3e 3c 90 01 3f 19 41 f4 bd
       0.28595552 0.25985068 0.5061071 -0.11926479
000140 e6 c2 19 3d a4 cb f6 bd a9 1b 8b 3e 51 fb 28 3f
       0.037539385 -0.1205056 0.2716954 0.6600848
000150 28 43 ec 3e d0 df 98 bd 2f 64 89 3e 1a 93 8c 3f
       0.46144986 -0.07464564 0.26834247 1.0982392
000160 c7 d1 d2 bd 8e c3 29 3f a9 ff f1 3e 01 33 e3 3d
       -0.10293918 0.6631402 0.47265366 0.110937126
000170 d0 1b b0 3d 03 e2 d7 be ef 9d d0 bd fe 03 99 be
       0.08599055 -0.4216462 -0.101863734 -0.29885858
000180 97 29 23 3f ee 3e a9 3e d6 df cd 3d 38 2d 76 be
       0.63735336 0.33055824 0.10052459 -0.24040687
000190 b5 96 1e 3c 7e f3 c1 be b4 df 0e 3f 28 91 83 3d
       0.009679486 -0.37881082 0.55810094 0.06424171
0001a0 4b ef a1 bd 6c ea ae 3e 74 51 e1 bd fc 9d bc 3d
       -0.0790697 0.34163225 -0.11001864 0.09209821
0001b0 64 12 14 bd ab d3 f3 3e b5 c6 19 3f a7 6c 31 3f
       -0.03615035 0.47622427 0.6006883 0.69306415
0001c0 ce fa cd 3e b7 8c 0d be c7 70 fe 3e 20 77 d9 3e
       0.4023041 -0.1382321 0.49695417 0.42473698
0001d0 40 1a 50 3f fc 8c 39 3f fe 07 5e 3f 06 2b 04 3f
       0.81290054 0.7248075 0.86730945 0.5162815
0001e0 44 df 04 3f df de 8e 3e 34 71 cb 3e 84 aa 86 3e
       0.51903176 0.27904412 0.39734805 0.26301968
0001f0 8c f6 74 3e 17 03 9e 3e 0a 7f d3 3d 66 24 e8 3e
       0.23922175 0.30861732 0.10326965 0.4534027
000200 11 ed d4 3e 24 21 85 be e1 db 96 3e fb 5c 54 be
       0.41587117 -0.26001847 0.2946463 -0.20738594
000210 54 51 24 be 9a 25 69 3e 8e cf 5a 3e 58 48 cd bd
       -0.16046649 0.2276825 0.21368238 -0.10023564
000220 95 ee 2d 3f 77 e2 97 3e 74 ad 80 bd 4e 92 d8 3d
       0.6794217 0.29664966 -0.062830836 0.105747804
000230 4e 32 45 3e 57 10 84 3e 86 cc 9f 3e 59 f0 4e 3c
       0.19257471 0.25793716 0.31210726 0.0126305455
000240 4d 75 17 3e 88 c7 60 bc e7 e2 61 bc 55 b4 61 3f
       0.1479084 -0.013719447 -0.013787008 0.8816579
000250 19 40 f8 3e d0 2c d5 bd 5c f9 59 3e 66 d9 e3 3e
       0.48486403 -0.10408938 0.2128653 0.445018
000260 37 f8 12 3a 52 94 af 3e a1 59 14 3f 00 4d e1 3e
       0.0005606445 0.34292847 0.5794926 0.4400406
000270 51 25 ae 3d c9 51 c0 be 49 16 88 bd 62 a5 b8 bd
       0.08503211 -0.37562397 -0.066448756 -0.09015919
000280 cc ef 0c 3f 2a 16 64 3e ab 64 30 be b9 a2 c4 be
       0.550534 0.2227408 -0.17225902 -0.38405398
000290 88 b8 96 3d fe 18 9c be 63 fa 18 3f c6 db 87 3e
       0.07359415 -0.30487818 0.5975706 0.2653486
0002a0 35 28 85 bd 64 19 2f 3e ab f9 0d 3d be f3 fc 3c
       -0.065018095 0.1709953 0.03466193 0.030877944
0002b0 5e 12 10 bc 4b d0 9b 3e e5 1e d3 3e ac 6e f1 3e
       -0.008793442 0.30432352 0.41234508 0.47154748
0002c0 af 58 19 3f 77 98 59 be 13 c6 f5 3e e1 b9 99 3e
       0.59900945 -0.21249567 0.4800268 0.30024627
0002d0 3d 08 2b 3f 83 85 ea 3e 71 7a 42 3e b6 44 0a 3e
       0.66809446 0.45804986 0.1899202 0.13502774
0002e0 30 b1 c9 3e 9f 9c 6e 3e cb 26 2b 3f 32 65 67 3e
       0.39392996 0.23301934 0.6685607 0.22597197
0002f0 4f 29 02 3e 84 76 4e 3d 22 82 f8 3e 97 11 31 3f
       0.1271107 0.050405994 0.48536783 0.69167465
000300 82 88 3f 3f 68 4c a5 3e f4 3d 7a 3f 7a 0f 71 be
       0.7481767 0.32284856 0.9775078 -0.2354106
000310 c9 43 98 3e d7 87 14 3e 41 50 3d 3e 41 5a e4 3e
       0.29739216 0.14504944 0.18487646 0.44600108
000320 89 d0 04 3e 3d eb 47 3e 47 62 06 3e ed 2c c6 3d
       0.12970175 0.1952333 0.13123427 0.09676538
000330 6d 4e 7f 3f 94 05 4c bc f9 87 a3 3f 27 0f 2a 3f
       0.99729043 -0.012452502 1.277587 0.6642937
000340 e7 75 8c 3e 83 f1 52 3d a3 70 2c 3f e9 71 18 3f
       0.27433702 0.051499855 0.6735937 0.59548813
000350 3e 46 1b 3f 0c af 3b be 9f 1c a8 3f cc 89 e2 3e
       0.60654056 -0.18328494 1.3133734 0.44245756
000360 71 22 ed 3c b7 5b 8f 3f 82 57 2d 3f 38 fb 81 3f
       0.028947087 1.1199864 0.6771165 1.0154791
000370 87 4b 14 3f 60 17 e1 be 62 9b c2 bd 6a 42 2b 3f
       0.57927746 -0.43963146 -0.09502293 0.66898215
000380 11 99 65 3f 0a ef fa 3f 1d 4e ac 3e c2 53 a1 be
       0.89686686 1.9604199 0.33653346 -0.31509215
000390 6c 33 01 3e de de 2d 3e f0 ab c5 3e 49 86 04 3f
       0.12617272 0.16979548 0.3860774 0.517674
0003a0 16 e3 1a 3f e2 4e 51 3f 0a 74 ab 3d 19 54 0c 3f
       0.60502756 0.8176099 0.08371742 0.5481582
0003b0 37 5f e7 3d 4e 6a f1 3e 24 7b ac 3f 4e d5 aa 3e
       0.11297458 0.47151417 1.347508 0.33365864
0003c0 5d fc 1c 3f 40 7b 90 be 56 09 50 3f 7d a0 93 3e
       0.61322576 -0.28219032 0.81264246 0.2883338
0003d0 86 6f 73 3f 76 e9 34 3f 07 9d 15 3d 6a da 7c 3f
       0.95092046 0.70668733 0.036526706 0.98770773
0003e0 7b a0 8e 3e 48 4d 38 3e 40 8b a2 3e e6 c3 27 3f
       0.27856812 0.1799823 0.31746864 0.6553329
0003f0 f4 89 cc 3c c1 35 50 3e bb aa 41 3e 3e ab 5e 3f
       0.024968125 0.20333005 0.18912785 0.86980045

h1.bias f4 [32]
000000 b4 f3 d2 be b1 29 ce be d0 84 0e bf a6 e2 88 be
       -0.41201556 -0.40266183 -0.55671406 -0.2673542
000010 d3 8f 03 3f 34 32 1f 3e cc 7a f9 bc 56 8f 8f 3e
       0.51391333 0.15546495 -0.030454062 0.28039044
000020 7c 1c ca be 84 4f c0 be ac 11 e1 be 59 06 d5 be
       -0.39474857 -0.37560666 -0.43958795 -0.41606405
000030 d9 dd fc be 0b 6a 17 bf 0a 40 0e bf a8 2d b8 bb
       -0.49388006 -0.59146184 -0.55566466 -0.005620677
000040 fc 88 e7 be c2 75 43 3e 39 d9 fd be 95 0a 0f bf
       -0.45221698 0.1908789 -0.4957979 -0.5587552
000050 68 dc a0 3e 95 dd bc be 16 a5 3a 3d 6f 7e a8 be
       0.31418157 -0.36887804 0.045567594 -0.3290896
000060 f0 ad ff be aa 50 b9 3e 9a 84 d6 be 14 16 f1 be
       -0.4993739 0.36194354 -0.41898042 -0.47087157
000070 3e af ae be a7 72 cd 3e 80 5e 1c bf 97 c5 9c 3c
       -0.34118074 0.40126535 -0.61081696 0.019137187

h2.weight f4 [16, 32]
000000 3b e0 27 3e d9 22 4d 3f 27 ba 14 3e 58 e2 b4 3d
       0.16394131 0.801313 0.14524136 0.08832234
000010 6b 75 83 bd 90 f1 84 be c9 7e 82 3d dd 50 13 bd
       -0.0641888 -0.25965548 0.063718386 -0.03596579
000020 46 64 5d bc a6 ce 02 3e 05 9d 9f 3e 63 fe 1f 3f
       -0.013512677 0.12774143 0.31174484 0.6249754
000030 3c 4d f8 3e 00 44 f1 3d e2 db 96 3e 01 80 be bd
       0.48496425 0.11780548 0.29464632 -0.093017586
000040 a1 ae 42 3f e1 9b 8d be 07 52 de 3e 8a 5f 07 3f
       0.7604771 -0.2765799 0.43421957 0.52880156
000050 82 a8 7a bd 8a c4 5b 3e c5 8d 42 bd 07 76 44 3f
       -0.061195858 0.21461692 -0.047498483 0.76742595
000060 92 c5 2c 3f ad b6 4b 3a 19 fe 08 3f c4 31 df 3d
       0.6748897 0.0007771056 0.5351272 0.10898164
000070 53 36 2a 3f a5 30 e7 bc 65 6a 20 3e 73 6f d1 bb
       0.6648914 -0.028221438 0.15665586 -0.0063914596
000080 6d cd a9 be 93 72 25 3e ac ab 0f be b0 04 19 be
       -0.3316454 0.16156988 -0.14030331 -0.14943194
000090 22 91 de 3d 27 0b 86 be d8 5a 20 be f7 88 35 bd
       0.10867526 -0.26180384 -0.15659654 -0.044320073
0000a0 79 9a f1 3d f3 ff 47 3e f1 ba 2b be 23 32 74 3e
       0.117970414 0.1953123 -0.16770531 0.2384725
0000b0 dd 56 89 3e 7a 17 b2 3e 68 72 75 bd b6 09 47 3d
       0.26824084 0.34783536 -0.05992356 0.048593245
0000c0 b7 27 ab 3e d1 00 ea bd 8b cd 13 3d 4d d2 bd 3e
       0.33428738 -0.11425937 0.036084693 0.3707451
0000d0 cc f7 74 be f0 1e 00 3e e1 19 ab 3c 5e eb 54 3e
       -0.23922652 0.12511802 0.020886363 0.2079291
0000e0 5f d4 39 bd 24 04 06 3e 75 fa 49 bc 83 50 9e 3d
       -0.04536855 0.13087517 -0.01232778 0.077302
0000f0 13 72 b5 3e b0 ca 4c bd e6 24 af 3e c1 8e 18 be
       0.35438594 -0.049997985 0.3420784 -0.14898206
000100 50 90 05 be 48 ab e1 bd 2c 77 d1 3d 4a b3 8e be
       -0.13043332 -0.110189974 0.10227808 -0.27871162
000110 6a e6 29 be c7 6f 94 3e 10 a2 f0 3d 10 06 48 3c
       -0.16591802 0.2899153 0.11749661 0.012208477
000120 51 69 aa 3e f5 67 39 be f3 0b 52 bd 4b 7f fb 3d
       0.33283475 -0.18106063 -0.051280927 0.122801386
000130 da 26 00 be 36 98 81 bd 22 34 cf 3c 00 18 13 be
       -0.1251482 -0.0632786 0.025293414 -0.14364624
000140 72 e6 04 be 8b 3f 99 bc 3a 3d b6 3d ec 3d 92 3d
       -0.12978533 -0.018707057 0.08898397 0.07140717
000150 48 58 5c 3e 0f 90 f5 3d 15 5e 3b 3e d6 5c 4d be
       0.21518052 0.119903676 0.18297608 -0.20054945
000160 0f 5f 14 be 74 65 67 3c b0 13 ab 3e b3 3b 1c bd
       -0.14489387 0.014123309 0.33413458 -0.03814287
000170 b2 42 e1 bd fe c6 47 3d 3f 62 cb 3d f6 bb 79 3e
       -0.10999049 0.048773758 0.09930848 0.24388108
000180 2b d8 af 3c 68 01 d6 3e a9 0e 95 3e 86 7e 83 3e
       0.021465382 0.41797948 0.29112747 0.25682467
000190 81 43 ba be 5d b5 19 be e5 8c d9 3d 42 1d 14 bd
       -0.36379626 -0.15010591 0.106225766 -0.036160715
0001a0 7d 34 4f 3e 8f d8 8a 3d 82 06 32 3e 9d 4a b1 3e
       0.20234866 0.067795865 0.17385295 0.34627238
0001b0 20 75 2f 3e a4 cd 70 3e be d2 86 3e 96 c3 c2 3c
       0.17134523 0.23515946 0.2633266 0.023774903
0001c0 01 06 d5 3e fa 7f 87 3e 41 3f 94 3f 31 8f 8c 3e
       0.41606143 0.26464826 1.1581804 0.27452996
0001d0 84 7e e4 bd 9f 31 a0 3d 7e 51 d2 3d be 76 1a 3e
       -0.111569434 0.078219645 0.1026945 0.15084359
0001e0 91 91 ae 3e f9 8f ea bc 12 41 82 3e cb 60 1b 3e
       0.34095433 -0.028633105 0.2544027 0.15173642
0001f0 c4 ae 75 3e eb a7 2a be 44 35 95 3d fc 87 9e 3d
       0.23992449 -0.16665618 0.0728555 0.07740781
000200 83 28 34 3e 31 d0 29 bd 14 e9 43 3d 55 f2 3c bd
       0.17593579 -0.041458312 0.047829702 -0.046129543
000210 f1 7f dd 3d c4 f0 a0 3d 42 5b 9e b9 f5 0b b1 3c
       0.108154185 0.078584224 -0.000302041 0.021612147
000220 8e 88 d6 bd b9 21 fa 3d 09 49 70 be 6f 42 df bc
       -0.104752645 0.12213463 -0.2346536 -0.027253358
000230 82 81 22 be a9 e1 a7 3e 9f ec 69 be 45 f6 17 3e
       -0.15869716 0.32789353 -0.2284417 0.14840038
000240 c5 93 c5 bd 34 97 a9 be 62 07 06 3d c2 1a 89 3e
       -0.096473254 -0.3312317 0.032721885 0.26778227
000250 71 fa a8 3c 7b b6 70 bd 8e 71 16 be 7f a6 9b bd
       0.020627232 -0.058767777 -0.14691755 -0.07600116
000260 7a a1 2a b8 11 f0 7d 3d f3 e1 b7 bc 6e 2d 62 bc
       -4.0681545e-05 0.061996523 -0.022446608 -0.013804777
000270 61 1a 9e bd 52 35 86 3e 6e 1e be bd 5f ed 56 be
       -0.07719875 0.26212555 -0.09283148 -0.20988987
000280 8b 12 1b 3d 16 2e 17 3e 33 d2 9a bd 5b ea 1f 3e
       0.03785948 0.14763674 -0.075596236 0.15616743
000290 1f e9 1d be ae 1b 40 be 26 0f 06 3d f6 42 e4 3e
       -0.1542096 -0.18760559 0.03272929 0.44582337
0002a0 5f 80 8c be 66 99 a0 be 82 6e c1 3d 43 2e af 3e
       -0.2744169 -0.31367034 0.09444906 0.34214982
0002b0 78 85 54 3e 30 88 f7 3e e2 da 05 be 54 85 87 3d
       0.2075404 0.4834609 -0.13071778 0.06617227
0002c0 56 ea 2e 3e 42 42 57 bd fd 6d 4c 3e 56 f3 80 3c
       0.1708158 -0.052553423 0.19963832 0.015741032
0002d0 35 0f db bd 86 c6 81 3e 36 93 0f be a1 d5 3e be
       -0.1069626 0.25346774 -0.14021 -0.1863618
0002e0 f6 79 1d 3d 10 b5 3a be 0c 9b 02 3e bb 83 47 be
       0.03844639 -0.18233132 0.12754458 -0.19483845
0002f0 77 d2 62 3d 7c ae 26 3d 96 8d 46 3c df 8a 62 be
       0.055376496 0.040693745 0.012118718 -0.22123288
000300 b5 2c 09 3f 05 f5 29 3e 5a 52 81 3e 7c 3c 5f 3e
       0.5358384 0.16597374 0.25258142 0.21800417
000310 c1 f3 04 be 5a 8c 57 bd 6d be 21 be 4c 4c 37 bd
       -0.1298361 -0.052624084 -0.15795298 -0.044750497
000320 9f 26 ac 3e 78 75 d5 3e 69 a0 5f 3f f2 f8 8c 3e
       0.33623216 0.41691184 0.8735414 0.2753368
000330 c8 0c e4 3e 96 bc 10 3f 88 84 58 3f d3 e1 36 be
       0.44541 0.5653776 0.84577227 -0.17859583
000340 98 8c 9c 3e 8f 3b 1e 3e f2 24 14 3f c1 53 02 3f
       0.30576015 0.15452407 0.57868874 0.5090905
000350 e8 bb ef bd dd 32 9f 3d c7 75 9b be 28 37 f6 3e
       -0.11705762 0.07773373 -0.30363294 0.48088956
000360 a4 f1 9c 3e de 87 ac bd 91 44 d2 3e 5d df 8a 3e
       0.30653107 -0.08424352 0.41067937 0.27123538
000370 66 b4 02 3f c5 f0 00 be 94 77 0d 3f 8d c4 0a bd
       0.51056516 -0.12591846 0.55260587 -0.03387885
000380 cf 05 62 bd 08 97 22 3f e2 92 d8 3e ee 0c d7 3d
       -0.05518132 0.63511705 0.42299563 0.10500513
000390 92 13 91 be bd 2d af ba cf 4f 09 bd 49 2f 06 3f
       -0.28335243 -0.0013365071 -0.033523377 0.524159
0003a0 16 07 9f 3e 42 2b 3b 3e e0 e0 f8 3e 70 f4 1a 3f
       0.31060094 0.1827822 0.48609066 0.6052923
0003b0 e7 68 8d 3e d4 7d a9 3e bc 94 f5 3e 67 28 ee bc
       0.27619097 0.33103812 0.47965038 -0.029072
0003c0 40 6a 2c 3f 70 c7 e9 3e 54 99 cf 3e 79 49 05 3f
       0.67349625 0.4565997 0.40546668 0.52065235
0003d0 5e ed 1e be 56 a9 c5 3e f3 cc 32 be 08 1a a5 3e
       -0.15520236 0.38605756 -0.17460994 0.32246423
0003e0 36 25 84 3e 3f 21 33 be 36 ff 34 3f f1 87 12 3f
       0.2580964 -0.17493151 0.7070192 0.5723868
0003f0 20 e0 16 3f 82 d3 09 3d a1 c6 f1 3e 37 68 a3 3d
       0.5893574 0.033648975 0.47221854 0.07978862

h2.bias f4 [16]
000000 ba 24 bb 39 02 fd 83 be 49 41 18 be 1c b3 56 be
       0.00035694783 -0.25778967 -0.14868654 -0.20966762
000010 cd c4 8e be 34 d3 05 bf a4 46 5a 3e 31 60 ca be
       -0.27884522 -0.52275395 0.2131601 -0.39526513
000020 2b 82 49 3f 3b 0d dd 3e dc 25 ac 3e c3 c9 5b 3e
       0.78714246 0.43174157 0.33622634 0.21463685
000030 b2 91 68 3e 70 e2 58 be a9 41 82 be bf c7 ce be
       0.22711828 -0.21180129 -0.2544072 -0.4038677

h3.weight f4 [8, 16]
000000 d8 39 cd 3e 03 c7 d7 3d a4 c8 bb 3c 9b a8 b8 3e
       0.40083194 0.10536005 0.022922821 0.36066136
000010 a0 d0 99 3c 17 ee a5 bd fa 93 48 3f 16 cd 1a 3f
       0.018776238 -0.08102053 0.78350794 0.60469186
000020 37 85 c5 be 71 7a 1f be 4a bc c4 3d 71 47 1d bc
       -0.38578197 -0.15574051 0.09606226 -0.0095995525
000030 db d7 55 be 6a 9e 0a be 9d 39 19 3e 6b 10 67 3e
       -0.20883124 -0.13536993 0.14963384 0.22564857
000040 3c 46 42 bf 92 d6 04 bf d8 63 c9 be 60 c8 fe 3a
       -0.7588842 -0.5188991 -0.39333987 0.0019438379
000050 5d 0c 8f bf 63 d3 44 be 5b fd 36 bf b0 53 94 be
       -1.1175648 -0.19221263 -0.7148034 -0.28970098
000060 c2 a8 01 bd ca f1 16 3e 8c a3 8b 3d 13 87 f8 be
       -0.03165508 0.14740673 0.068183035 -0.48540553
000070 fd 9b 17 bf 98 b9 ab be 9e 05 58 bf 3f 5c d9 bd
       -0.59222394 -0.33540034 -0.8438357 -0.10613298
000080 c9 de 96 be 3d 4a d7 be 5c b0 87 be 83 c8 e6 be
       -0.29466847 -0.42048827 -0.2650174 -0.45074853
000090 0f 63 24 bc 72 4d d7 be 3c 3d df be 4d 96 4b bf
       -0.010033383 -0.42051274 -0.43601406 -0.79526216
0000a0 8f ae ea 3e 0e 47 9f 3e e3 97 bc 3e b3 ad 47 bf
       0.45836303 0.31108898 0.3683463 -0.7799942
0000b0 71 21 12 bf 63 42 97 3c 68 9c df be bc 11 b0 be
       -0.5708228 0.018464273 -0.43674016 -0.3438853
0000c0 93 ff 99 be 80 b6 56 bd 30 75 2b be 28 28 88 bd
       -0.300778 -0.05242014 -0.16743922 -0.06648284
0000d0 ca 74 21 be 96 bb a3 bd 77 6c e8 bd 78 19 ce 3b
       -0.15767208 -0.079947636 -0.11348813 0.006289657
0000e0 9f 51 ba be 78 87 96 be 09 6d 1b 3e 80 99 08 3e
       -0.36390397 -0.2940023 0.15178312 0.13339806
0000f0 01 52 06 bd e0 18 7a be d2 31 ce bd 06 d9 30 3e
       -0.03279305 -0.24423552 -0.10068096 0.17270288
000100 05 17 49 3e e3 b6 95 3d cc 79 e6 bc 45 4a 10 3f
       0.19637688 0.073102735 -0.02813425 0.56363326
000110 a4 2e b5 3c 17 ca 4f 3e 36 62 2c 3f 26 af 22 3f
       0.022116967 0.20291935 0.6733736 0.63548505
000120 ef 53 e4 be 57 4b 16 be 90 a3 93 bb b3 a6 52 be
       -0.44595286 -0.14677177 -0.004505582 -0.20571403
000130 e6 ac 63 bd ee dc 7c 3d fa e7 ac bd 69 5e 8d 3e
       -0.05558481 0.061734132 -0.084426835 0.27611092
000140 c1 77 c2 be 0c 0d 04 bf 51 e4 9b be d8 52 11 bd
       -0.3798199 -0.5158241 -0.3044763 -0.035479397
000150 39 99 d8 be 80 26 b2 be 0a 31 36 bf 28 85 d3 be
       -0.423044 -0.34794998 -0.7116858 -0.41312528
000160 51 eb e1 3e 1f fe f7 3e cd 7d 94 3e 91 e5 de bd
       0.44124845 0.48436067 0.29002228 -0.1088363
000170 d1 54 6a be e0 21 bf bd 01 a4 86 bf 45 1a 50 3e
       -0.22883917 -0.09332633 -1.05188 0.20322521
000180 eb 45 f4 3c a5 db da be 12 3f 0b 3d eb af e0 bd
       0.029818496 -0.427457 0.033995695 -0.10971054
000190 a8 6c 92 bd 73 b7 39 bd 23 88 57 be 6b 8d 9b bc
       -0.07149631 -0.045340966 -0.21048026 -0.018988332
0001a0 32 f5 6c be 69 00 a5 3d 53 65 c6 3d e2 e9 0d 3e
       -0.2314041 0.08056719 0.09687295 0.1385875
0001b0 ae cf d0 3d 56 5b a3 be 32 97 77 be 70 39 6e be
       0.10195862 -0.3190562 -0.2417877 -0.23264098
0001c0 ad ac 17 be 9c 42 0a bd 19 64 ff 3d 1f b3 97 3e
       -0.14811964 -0.03375493 0.12470264 0.29628846
0001d0 21 3a 4f bd 01 24 21 3d 51 81 7e 3e 59 67 46 3e
       -0.050592545 0.039340977 0.24854018 0.19375362
0001e0 f5 74 11 bf 5d 31 2c be a4 0a 7b 3e 33 aa fe be
       -0.5681909 -0.16815706 0.24515778 -0.49739227
0001f0 ba 99 bf be 18 af 2b 3d 15 15 15 be ce e1 e9 bd
       -0.37421972 0.04191503 -0.14558823 -0.11420022

h3.bias f4 [8]
000000 70 ad b6 be 6c 88 9e 3e e0 d5 0f 3f ef 95 2b 3d
       -0.35679197 0.30963457 0.5618572 0.041891035
000010 bf 88 cc be 4a 15 05 3f d3 22 db bd ea 69 ef be
       -0.3994808 0.5198561 -0.107000016 -0.46760494

h4.weight f4 [1, 8]
000000 b3 1b e7 bc d6 ea 1e 3e 6c cc 5c 3e 7d b0 83 3e
       -0.02821145 0.1551927 0.21562356 0.25720587
000010 c5 87 e7 bc 61 b6 64 3e 99 88 51 3e 66 69 1d 3c
       -0.028262982 0.22335197 0.20462264 0.0096076485
