src/models/saved_models/best_model_lr0.001_roc_auc0.9182349148439781.pt (torch, 23957 bytes, 9 tensors)

input.weight f4 [64, 30]
0	0xbdcf4633	-0.10120811
1	0x3e77561d	0.24153943
2	0x3d2deca0	0.04246199
3	0x3da11924	0.07866123
4	0x3d4d750e	0.05016046
5	0x3cb68512	0.02228025
6	0xbd42ab78	-0.047526807
7	0xbdf0899e	-0.117449984
8	0x3e5effeb	0.21777312
9	0xbe32f177	-0.17474924
10	0x3e9e69ab	0.30939993
11	0xbc193cf5	-0.009352912
12	0xbd99aedd	-0.07504056
13	0xbc2c0d21	-0.010501177
14	0x3e5eb317	0.21748005
15	0x3e003bc1	0.12522794
16	0xbcc65e94	-0.02421502
17	0xbb0280a2	-0.0019913097
18	0x3d9bd8b3	0.076096915
19	0x3d93c17a	0.07214637
20	0x3cac4599	0.02102928
21	0xbdcbb5e7	-0.099468045
22	0xbe0376ac	-0.12838238
23	0xbd924ad4	-0.071431786
24	0x3e40604d	0.18786736
25	0xbdfa0bb8	-0.122092664
26	0x3e1f1c9a	0.15538254
27	0xbd54191d	-0.051781762
28	0xbe66895f	-0.2251334
29	0x3cd7dbc6	0.026349913
30	0x3e1a53f0	0.15071082
31	0x3eb5d3ac	0.35513055
32	0xbe1eda5b	-0.15512984
33	0x3dceb0e1	0.10092331
34	0x3c908057	0.017639322
35	0x3df9f979	0.12205786
36	0x3e415694	0.18880683
37	0xbc5b0044	-0.013366763
38	0xbd5cef1a	-0.053938963
39	0xbdb430c6	-0.08798365
40	0x3cccf60b	0.025019666
41	0xbe0dfb67	-0.13865434
42	0x3e26c69e	0.16286704
43	0x3e7d01e6	0.24707755
44	0xbdb518f6	-0.088426515
45	0xbcfe4eb7	-0.031043394
46	0x3e018032	0.12646559
47	0xbd7bb010	-0.061447203
48	0xbd311234	-0.04323025
49	0xbd6f5855	-0.05843385
50	0x3d4d17b1	0.050071422
51	0xbd6deb07	-0.058085468
52	0x3df590b8	0.119904935
53	0x3db41eb7	0.08794921
54	0xbdc7bf36	-0.097532675
55	0x3c5b1de7	0.0133738285
56	0x3d40e478	0.047092885
57	0xbe44b3d3	-0.19209222
58	0xbdc25f03	-0.09490778
59	0x3c990322	0.018678252
60	0x3d54dec0	0.051970243
61	0x3ecaf3ab	0.3963903
62	0xbd0fab73	-0.035075616
63	0xbdb95d3d	-0.09050987
64	0xbc8d3ca0	-0.017240822
65	0x3c7cf464	0.015439127
66	0xbdefe9f8	-0.11714548
67	0x3bba782d	0.0056905956
68	0x3ee9fa24	0.45698655
69	0x3ac651d5	0.0015130589
70	0x3e139790	0.14413285
71	0x3d81b49b	0.06333276
72	0x3e184ff9	0.14874257
73	0xbdfdb51e	-0.12388061
74	0x3e080508	0.1328317
75	0x3e9ff7ca	0.31243736
76	0xbdc38d14	-0.09548393
77	0x3dcd86d2	0.100354806
78	0xbd4ade57	-0.049528446
79	0xbe061c97	-0.13096844
80	0x3e06bba4	0.13157517
81	0xbd183a0c	-0.037164733
82	0xbe6b2cc1	-0.22966291
83	0x3e0aaad3	0.13541727
84	0x3cab2ecb	0.020896336
85	0xbe858333	-0.2607666
86	0x3e34bbef	0.17649816
87	0x3d8854f4	0.066568285
88	0xbe45604e	-0.19275019
89	0xbd284add	-0.04108702
90	0xbe9aae84	-0.3021127
91	0x3df905e5	0.121593274
92	0x3dd0a97b	0.10188576
93	0xbe3dd349	-0.1853763
94	0x3ebd7faf	0.37011477
95	0xbc4b36bc	-0.012403186
96	0xbdaae954	-0.08345285
97	0xbe0120f2	-0.12610224
98	0xbdec565a	-0.11539908
99	0x3d3d2523	0.046177994
100	0xbeb11de5	-0.3459312
101	0xbc8369ce	-0.016041663
102	0xbe91cb2b	-0.28475317
103	0x3c467275	0.01211225
104	0xbea741f0	-0.32667494
105	0xbdcdf925	-0.10057286
106	0xbb0eac59	-0.0021770208
107	0x3cc40bbb	0.023931375
108	0xbe2b29b9	-0.16715135
109	0x3e2219f9	0.1583022
110	0xbe9509a8	-0.2910893
111	0x3d4888a1	0.048958424
112	0x3e86c80f	0.26324508
113	0xbe10d71f	-0.14144562
114	0xbeb35bb6	-0.35030907
115	0xbd0d0a19	-0.034433458
116	0xbd9a44ed	-0.07532678
117	0x3daaaf0b	0.08334168
118	0x3e03dce4	0.12877232
119	0x3d6daf94	0.058028772
120	0x3e1bae9d	0.15203328
121	0xbd543a29	-0.05181328
122	0x3d098c18	0.03358087
123	0xbe0ecd7c	-0.13945574
124	0x3e159879	0.14608945
125	0xbd3d2c9e	-0.04618513
126	0xbda40215	-0.080082096
127	0x3e3f2bff	0.18669127
128	0xbdc192d3	-0.094518326
129	0xbdcb7183	-0.0993376
130	0x3db64541	0.08899928
131	0x3de02360	0.10944247
132	0x3dac1516	0.08402459
133	0xbd84042b	-0.064461075
134	0xbdeba256	-0.115055725
135	0x3e709222	0.23493245
136	0xbd3c05a6	-0.045903824
137	0x3d0fb2f9	0.03508279
138	0x3e409d37	0.18809973
139	0x3dd4afec	0.10385117
140	0x3e2a5cfc	0.16637033
141	0x3d941788	0.07231051
142	0xbe1b766f	-0.15181898
143	0x3e75437e	0.23951527
144	0xbd2815d6	-0.04103645
145	0x3dc4791f	0.095934145
146	0xbe05dd51	-0.13072707
147	0xbc50664e	-0.012719704
148	0x3e13f5eb	0.14449279
149	0x3b2c5abe	0.0026299204
150	0x3e3e82a5	0.18604524
151	0xbc1e4194	-0.00965919
152	0x3e9cce4b	0.3062614
153	0xbe3cc3b7	-0.18434034
154	0xbf01b8f6	-0.50672853
155	0x3e85fd77	0.2616994
156	0x3c8091b0	0.01569447
157	0x3e23aacc	0.15983123
158	0x3e3f5c01	0.1868744
159	0x3e41de10	0.18932366
160	0xbb7eafb8	-0.003886206
161	0xbd836bb4	-0.06417027
162	0xbe0b5572	-0.13606814
163	0xbda33d7b	-0.07970711
164	0x3ec09fdd	0.37621966
165	0xbe6dde99	-0.23229446
166	0x3da413a5	0.080115594
167	0x3dbeaa20	0.093097925
168	0x3d8fe381	0.07025815
169	0x3d9e3d44	0.07726529
170	0xbd8d1ac1	-0.068898685
171	0x3c2f5712	0.0107019115
172	0xbc90a2e0	-0.01765579
173	0xbd7cae03	-0.061689388
174	0x3e8a9687	0.27067968
175	0x3dde173e	0.10844277
176	0x3e9d7bf7	0.3075864
177	0x3d20203c	0.03909324
178	0xbe4d225b	-0.20032637
179	0xbe495a9c	-0.19663471
180	0xbdb781e0	-0.089603186
181	0x3e35bfa5	0.17748888
182	0x3cd98044	0.02655042
183	0xbcc9e10a	-0.02464344
184	0xbe2d2c90	-0.1691153
185	0x3d87f69c	0.06638834
186	0xbe116695	-0.14199288
187	0x3c9dceae	0.019263592
188	0x3e1117e7	0.14169274
189	0xbd41e489	-0.04733709
190	0x3e6dcb9d	0.23222204
191	0xbe8bcc70	-0.2730441
192	0x3db94596	0.090464756
193	0xbe232ddc	-0.15935463
194	0x3eb015b2	0.34391552
195	0xbe939a30	-0.28828573
196	0xbdb59c1e	-0.088676676
197	0x3c066e3b	0.008204992
198	0xbe6088ed	-0.21927233
199	0x3e277ca8	0.16356146
200	0x3de3ee34	0.11129418
201	0x3d2f60c3	0.04281689
202	0x3dcefbbf	0.101066105
203	0x3d2d206c	0.042267248
204	0xbe3ae2be	-0.18250558
205	0x3c262a3f	0.010141908
206	0xbe77f896	-0.24215922
207	0xbd8fccb8	-0.07021469
208	0xbd6aca83	-0.057322036
209	0xbeaea4c7	-0.3411009
210	0xbcbbeef1	-0.022941085
211	0x3ddde435	0.10834543
212	0x3d310812	0.043220587
213	0xbe0164fd	-0.1263618
214	0x3ca3018a	0.019898195
215	0xbcf05eda	-0.029342104
216	0x3e692438	0.22767723
217	0x3e3817ed	0.17977877
218	0x3d495252	0.049150772
219	0x3eaec109	0.3413165
220	0xbdc5a266	-0.09650116
221	0x3e2ca912	0.1686137
222	0x3ebe0a84	0.37117398
223	0xbe15c6f9	-0.14626683
224	0x3e21d1e7	0.15802728
225	0x3e12466c	0.14284676
226	0x3dea29db	0.114337645
227	0xbc865cac	-0.016401611
228	0x3c8b2f0f	0.016990213
229	0xbe36f8b3	-0.17868309
230	0xbe4f1bcb	-0.20225446
231	0xbc4ff83b	-0.01269346
232	0x3e196b19	0.14982261
233	0xbdda77d1	-0.106673844
234	0x3d68779c	0.056754693
235	0xbe0e4d9f	-0.13896798
236	0xbd81b779	-0.06333823
237	0xbe2e3de5	-0.17015798
238	0xbe131ab8	-0.14365661
239	0x3e0cc3c8	0.1374656
240	0x3e351740	0.1768465
241	0x3e57f0cc	0.2108795
242	0xbe66bc67	-0.22532807
243	0x3e2b74d5	0.16743787
244	0xbe778beb	-0.24174468
245	0xbdd0263a	-0.10163541
246	0x3e0483c0	0.12940884
247	0xbe8a5424	-0.2701732
248	0xbcbe3fe8	-0.023223832
249	0x3d9933f5	0.07480613
250	0x3e64de32	0.22350386
251	0xbe2535d0	-0.16133809
252	0xbdbecd79	-0.093165345
253	0x3e3d83e8	0.1850735
254	0x3e238808	0.1596986
255	0xbe371908	-0.17880642

input.bias f4 [64]
0	0x3d692586	0.05692055
1	0x3e38b076	0.18036065
2	0x3e46e725	0.19424112
3	0x3e286108	0.16443264
4	0x3c1778dd	0.009245125
5	0x3cc079e7	0.023495628
6	0x3e337b1d	0.17527433
7	0x3d7557cf	0.059898194
8	0x3dfd6443	0.12372639
9	0x3ea553c4	0.3229047
10	0xbdb28481	-0.08716679
11	0x3e9257d1	0.28582624
12	0xbd1b29e2	-0.03788174
13	0x3e3523c1	0.1768942
14	0x3dd33999	0.1031372
15	0xbd01c4bb	-0.031681757
16	0xbdf9bf35	-0.12194673
17	0xbdec8704	-0.1154919
18	0x3d0151f3	0.031572293
19	0x3edbe9c4	0.42951787
20	0x3e7c5a46	0.24643812
21	0x3da315e4	0.0796316
22	0x3e2ac29f	0.16675805
23	0xbdf24456	-0.1182944
24	0xbd88b5e1	-0.06675316
25	0x3a892ed3	0.0010466225
26	0x3e6dac18	0.2321018
27	0x3d650e2e	0.055921726
28	0xbe652d95	-0.2238067
29	0x3e8e2a4f	0.27766654
30	0xbc1dffd0	-0.00964351
31	0x3dab399d	0.08360598
32	0x3e429f9f	0.19006203
33	0x3e2c0d1b	0.16801874
34	0xbc82295e	-0.015888866
35	0x3f01a496	0.50641763
36	0x3d321b62	0.043483146
37	0x3d4433e2	0.04790104
38	0x3ea3bb93	0.31979045
39	0x3d774e7d	0.060377587
40	0xbd99b1b0	-0.07504594
41	0x3e900e90	0.2813611
42	0xbcd96f57	-0.026542349
43	0x3d74cb13	0.05976398
44	0xbe895018	-0.2681892
45	0x3ed7d8ac	0.42157495
46	0x3e5e739f	0.21723793
47	0xbdd56705	-0.1042004
48	0x3c82da87	0.015973343
49	0x3e8d9045	0.2764913
50	0x3e8a2d6e	0.26987785
51	0x3e43d534	0.191243
52	0x3d53aa1d	0.051675905
53	0xbd9412e8	-0.072301686
54	0x3e79871c	0.24367946
55	0xbd197f21	-0.037474755
56	0x3ea04069	0.3129914
57	0x3e74be71	0.23900773
58	0x3e104083	0.1408711
59	0x3e944b24	0.28963578
60	0xbd8371bb	-0.06418177
61	0x3d22b2f2	0.039721437
62	0xbe228972	-0.15872744
63	0x3d54c14d	0.05194216

h1.weight f4 [32, 64]
0	0xbde97f50	-0.11401236
1	0xbd58ce91	-0.052931372
2	0x3d2e8187	0.042603996
3	0xbe6c579e	-0.23080298
4	0xbdb29959	-0.08720655
5	0x3e494578	0.19655406
6	0x3d8f3d6a	0.06994136
7	0xbcb23d0e	-0.021757629
8	0x3e66cec0	0.22539806
9	0xbd057bbc	-0.032588705
10	0xbbbddf30	-0.0057944283
11	0xbdde2e66	-0.108486935
12	0xbdda3d5e	-0.10656236
13	0x3cc7b017	0.024375958
14	0x3e4f2473	0.20228748
15	0xbe075214	-0.13214904
16	0xbe1878b2	-0.14889792
17	0xbe27b4f9	-0.1637763
18	0x3e17f50c	0.14839572
19	0x3c4748e8	0.012163378
20	0x3cffcd87	0.031225933
21	0xbe2cbba0	-0.16868448
22	0xbda5f5e1	-0.08103538
23	0x3eb6071e	0.35552305
24	0xbd49cb5c	-0.049266204
25	0xbd8a99c0	-0.06767607
26	0xbd2f503e	-0.042801134
27	0x3ec0a248	0.3762381
28	0xbd2c601a	-0.042083837
29	0xbe3f5639	-0.18685235
30	0x3d2f1e99	0.04275379
31	0xbdd29e38	-0.10284084
32	0x3b0e127b	0.0021678496
33	0xbc580d44	-0.0131867565
34	0x3c8f6ad6	0.017506998
35	0xbe3651c1	-0.17804624
36	0xbdeea4d7	-0.116525345
37	0xbe006ffc	-0.12542719
38	0x3d3de71e	0.04636299
39	0x3da306d4	0.07960287
40	0xbc7ddcf4	-0.015494574
41	0x3cabb1b8	0.020958766
42	0xbd24bc15	-0.04021843
43	0x3a8813a3	0.0010381829
44	0x3b6aeff5	0.0035848592
45	0xbc74de35	-0.014945556
46	0xbd5d7060	-0.054062247
47	0x3c8a73ac	0.01690086
48	0x3c1c52de	0.009541241
49	0xbe78b8c5	-0.24289234
50	0xbddbd841	-0.107346065
51	0xbe4e642b	-0.20155399
52	0x3e3b40b2	0.18286398
53	0x3dcad731	0.09904326
54	0x3c93704d	0.017997885
55	0x3d5f3dfc	0.054502472
56	0x3c424076	0.011856189
57	0xbc5265f5	-0.012841691
58	0xbe2d312e	-0.16913292
59	0x3cb487b9	0.022037374
60	0x3bc03734	0.0058659557
61	0xbd4f903b	-0.05067466
62	0xbd112f08	-0.035445243
63	0xbcc52358	-0.024064705
64	0xbd7ed7bb	-0.062217455
65	0xbd51cf45	-0.05122306
66	0x3d49ca87	0.04926541
67	0xbe94b645	-0.2904531
68	0xbd9c4d4b	-0.0763193
69	0x3e998839	0.29986742
70	0x3ede8e61	0.43468
71	0x3d678937	0.056527343
72	0x3ecf5626	0.40495414
73	0x3efcc6df	0.49370477
74	0xbcd607d3	-0.026126778
75	0x3dc168c2	0.09443809
76	0xbe248af1	-0.16068627
77	0x3e23859a	0.15968934
78	0x3ed35b5a	0.41280633
79	0xbde64f67	-0.112456135
80	0xbbcc60ea	-0.006237139
81	0xbd2bf62b	-0.04198281
82	0x3e9707da	0.29498178
83	0x3ed68867	0.41900942
84	0x3ec15c30	0.37765646
85	0xbc9d98a3	-0.019237822
86	0x3e816eac	0.25279748
87	0x3e29df5d	0.16589113
88	0xbda1d3e3	-0.07901742
89	0x3f01bce8	0.50678873
90	0x3e7a18d2	0.2442353
91	0x3cba8571	0.022768708
92	0xbd5972ef	-0.053088125
93	0xbeaeae27	-0.34117243
94	0xbd382461	-0.04495657
95	0xbe4bb6ae	-0.19893906
96	0x3ee56170	0.448009
97	0x3e6c2375	0.23060401
98	0xbe0da5ac	-0.1383273
99	0xbe470503	-0.19435506
100	0xbe28635e	-0.16444156
101	0xbe42a8b1	-0.19009663
102	0x3e920763	0.2852126
103	0xbcfdc719	-0.030978726
104	0xbd7378b5	-0.059441287
105	0x3e940d0d	0.28916207
106	0xbd9df91a	-0.07713528
107	0x3ccba41b	0.024858525
108	0xbcfbc4e2	-0.03073353
109	0x3ed2fa3a	0.41206533
110	0x3e9555bf	0.29166982
111	0xbd51c9c0	-0.051217794
112	0x3e2187ec	0.15774506
113	0xbd95fdc3	-0.07323792
114	0x3ea72b1c	0.32650077
115	0x3e296519	0.16542472
116	0x3eb4e03f	0.35327336
117	0x3cd74033	0.02627573
118	0x3f7279ef	0.94717306
119	0x3e6f744c	0.23384207
120	0x3ecc3c03	0.39889535
121	0x3e1bd156	0.15216574
122	0x3ec4e544	0.38456166
123	0x3e82de06	0.25560015
124	0x3d4dccc9	0.050244126
125	0x3e2311c4	0.15924746
126	0xbdaafaec	-0.08348641
127	0x3e3e3cef	0.18577932
128	0x3e8843b1	0.26614144
129	0xbdab893d	-0.083757855
130	0x3dc6fea1	0.09716535
131	0xbe14caf1	-0.14530541
132	0xbda03bb0	-0.078238845
133	0x3e27aa24	0.16373497
134	0x3e22e558	0.159078
135	0xbc458973	-0.012056696
136	0x3f1ed3fb	0.62042207
137	0x3e933741	0.28753093
138	0xbb10bceb	-0.002208526
139	0x3de8f38d	0.113745786
140	0xbd121556	-0.03566488
141	0x3e265b20	0.16245699
142	0x3e155133	0.14581756
143	0xbb066731	-0.0020508284
144	0x3c5f7d10	0.013640657
145	0xbcf52664	-0.029925533
146	0xbd2eeafb	-0.042704564
147	0x3f415851	0.75525385
148	0x3ebee5d2	0.37284714
149	0xbc99d77a	-0.018779505
150	0x3e24d175	0.16095527
151	0x3e9757da	0.29559213
152	0xbd787924	-0.060662404
153	0x3e873488	0.26407266
154	0x3ed7ccca	0.4214843
155	0x3ec3743d	0.3817462
156	0x3ddb0fd5	0.10696379
157	0xbe421d34	-0.18956453
158	0x3bbaf4fc	0.005705474
159	0xbde00201	-0.10937882
160	0x3ee249af	0.4419684
161	0x3e2387e3	0.15969805
162	0xbe752e5d	-0.23943467
163	0xbe81736a	-0.25283366
164	0x3c31020e	0.0108037125
165	0xbdc30a0b	-0.095234
166	0x3e9ca4de	0.30594534
167	0x3e51b7a3	0.20480208
168	0xbc1127d9	-0.008859598
169	0x3db3bb65	0.08775977
170	0xbdf98f07	-0.121854834
171	0xbd2f8490	-0.04285103
172	0xb9b8a7ff	-0.00035220382
173	0x3e6d4cc2	0.23173812
174	0x3e50ff62	0.20409921
175	0x3d59a901	0.05313969
176	0x3f10e798	0.56603384
177	0xbe0f1d5d	-0.13976045
178	0x3eb00f37	0.34386608
179	0x3e10333e	0.14082047
180	0x3e72e9a2	0.23721936
181	0x3d707e15	0.05871399
182	0x3e82e766	0.25567168
183	0x3db8b3d3	0.09018674
184	0x3edf09eb	0.43562254
185	0x3de8d7df	0.11369299
186	0x3f3c8817	0.73645157
187	0x3e1c6039	0.15271081
188	0xbd860574	-0.06544009
189	0xbdcbfa0e	-0.099598035
190	0x3d81fcf6	0.063470766
191	0x3f0bdcbc	0.5463369
192	0x3f16dbef	0.5892934
193	0x3f0d58dd	0.5521372
194	0x3f32717e	0.69704425
195	0xbcd58fa5	-0.026069472
196	0x3ef87242	0.48524672
197	0x3e159e0e	0.14611074
198	0x3e326565	0.17421491
199	0x3f13dbe2	0.5775739
200	0x3db0332e	0.08603512
201	0x3e10ea61	0.14151908
202	0x3dc8819e	0.097903475
203	0x3e46a66f	0.19399427
204	0x3f61396c	0.87978244
205	0x3da1cf2f	0.07900845
206	0x3f98374e	1.1891878
207	0x3f29ab6d	0.662772
208	0x3e44a5a7	0.19203816
209	0x3e0849c7	0.13309394
210	0x3f2eccf2	0.6828147
211	0x3f0d76f9	0.5525966
212	0x3f11f849	0.5701948
213	0x3cf2cd51	0.029638918
214	0x3fa9aa7b	1.3255152
215	0x3e9fd75d	0.31218997
216	0x3c9011c9	0.017586606
217	0x3f92cefd	1.1469418
218	0x3f187b1f	0.5956287
219	0x3f801c26	1.000859
220	0x3f264634	0.6495087
221	0xbe0559bb	-0.1302251
222	0x3e52c5ed	0.20583315
223	0x3f3f3517	0.74690384
224	0x3f582f24	0.8444693
225	0x3ff91e06	1.9462287
226	0x3ef60db1	0.4805732
227	0xbdaba9e5	-0.08382014
228	0x3e35e068	0.17761385
229	0x3ec029b1	0.37531808
230	0x3dcfd525	0.10148076
231	0x3f2062c5	0.6265071
232	0x3f3a7523	0.72834986
233	0x3f62fb9d	0.8866518
234	0x3da6e597	0.081492595
235	0x3f25ce71	0.6476813
236	0x3e18e88a	0.14932457
237	0x3eeff6d3	0.46868
238	0x3faf52c5	1.3697134
239	0x3e4fc084	0.20288283
240	0x3f396a60	0.7242794
241	0xbdfd2f09	-0.12362487
242	0x3f557504	0.83381677
243	0x3e96f9f3	0.2948757
244	0x3f29d0fc	0.6633451
245	0x3f073e30	0.52829266
246	0x3e32a6ee	0.17446491
247	0x3f82a628	1.0206957
248	0x3eb868df	0.3601751
249	0x3e4dc98d	0.20096417
250	0x3eb8dc50	0.36105585
251	0x3f2248f6	0.6339258
252	0xbd23fad2	-0.040034123
253	0x3e22f233	0.15912704
254	0x3ba4dbbe	0.005031078
255	0x3f400c79	0.7501903

h1.bias f4 [32]
0	0xbe1db04c	-0.15399283
1	0xbe574afb	-0.21024697
2	0xbeaba5f7	-0.3352506
3	0x3dca83b3	0.09888401
4	0x3e504506	0.2033883
5	0x3e1a5b67	0.1507393
6	0xbbabef2d	-0.005247018
7	0x3e77c5a6	0.2419649
8	0xbda7a743	-0.081861995
9	0xbdd7ea3a	-0.10542722
10	0xbe8e41ec	-0.2778467
11	0xbe4b9625	-0.19881494
12	0xbe88fcc3	-0.26755342
13	0xbea2cd98	-0.3179748
14	0xbebb7f6e	-0.3662066
15	0x3d29faf5	0.041499097
16	0xbe603184	-0.21893889
17	0x3d2e5229	0.042558823
18	0xbeaf02ca	-0.34181815
19	0xbe812d77	-0.2523
20	0x3e6c42e3	0.2307239
21	0xbdb67e89	-0.089108534
22	0x3e47e1fe	0.19519803
23	0xbe3e55d6	-0.18587431
24	0xbea0f8e9	-0.31439903
25	0x3e4b4850	0.19851804
26	0xbe68d8ba	-0.22738925
27	0xbe5c1894	-0.21493751
28	0xbe27e7cc	-0.16397017
29	0x3e8d2a1d	0.27571192
30	0xbeeb2432	-0.45926052
31	0x3b96ab19	0.004598033

h2.weight f4 [16, 32]
0	0xbd510d75	-0.051038224
1	0x3e5b2e1c	0.21404308
2	0x3b8f4da9	0.0043732715
3	0x3d1839c1	0.037164453
4	0xbe87fa2b	-0.2655805
5	0xbe4d6973	-0.20059757
6	0x3d827c7c	0.063714
7	0xbe62270b	-0.22085206
8	0xbe32e159	-0.17468776
9	0x3d1e954f	0.03871661
10	0x3e119a5a	0.14219037
11	0x3b134d09	0.0022476336
12	0x3d8c9dee	0.0686606
13	0xbcfde3e5	-0.030992458
14	0x3e04aa9a	0.12955704
15	0xbdbe8001	-0.093017586
16	0x3e103d55	0.14085896
17	0xbdf77b33	-0.12084045
18	0x3dffbf9c	0.124877185
19	0xbdcd8033	-0.10034218
20	0x3d2daf81	0.0424037
21	0x3c0d2775	0.008615364
22	0xbe449b66	-0.19199905
23	0x3e03ad3b	0.12859051
24	0x3d7dc84f	0.061958607
25	0xbdfc6534	-0.123239905
26	0xbdf237cf	-0.11827051
27	0xbe19c200	-0.15015411
28	0x3a7d8df0	0.00096723344
29	0xbdca6b59	-0.09883756
30	0xbd3b3434	-0.04570408
31	0x3cf52617	0.02992539
32	0xbe5bf066	-0.21478423
33	0x3d312481	0.043247703
34	0xbd8d3be7	-0.06896191
35	0xbe0ce41a	-0.13758889
36	0xbd16acb1	-0.036785785
37	0xbe146ecd	-0.14495392
38	0xbe205b74	-0.15659887
39	0xbdf40a72	-0.11916055
40	0x3e3598c1	0.17734052
41	0x3e8d0f18	0.27550578
42	0xbdecf94d	-0.11570988
43	0x3dee1ce1	0.11626602
44	0xbd6ce723	-0.057837617
45	0x3e5edf1e	0.217648
46	0xbdd4d451	-0.10392059
47	0x3d5f0ee8	0.054457575
48	0x3e81c117	0.25342628
49	0xbe2f008b	-0.17090051
50	0xbd8e58fc	-0.06950566
51	0x3de22e0c	0.11043939
52	0xbe194e7c	-0.14971346
53	0x3d5c5791	0.053794447
54	0x3db76a3e	0.08955811
55	0x3d1464a0	0.036228776
56	0xbe6517aa	-0.22372308
57	0xbbd8c1df	-0.006614908
58	0x3a3c603c	0.0007185971
59	0x3e022b20	0.12711763
60	0xbe6eb160	-0.2330985
61	0xbd04a42a	-0.03238312
62	0xbdfa7404	-0.122291595
63	0xbd806640	-0.06269503
64	0x3d9ab16d	0.075533725
65	0xbd643f65	-0.05572452
66	0xbc4cc308	-0.012497671
67	0xbe1bba87	-0.15207873
68	0xbe3ef113	-0.1864665
69	0x3dd7b7aa	0.10533078
70	0x3dea2a25	0.1143382
71	0xbd83e306	-0.06439786
72	0x3e370af9	0.1787528
73	0xbc3ebb24	-0.0116412975
74	0x3d4e4f3e	0.05036854
75	0x3e37eb3d	0.1796083
76	0xbe018fc5	-0.126525
77	0x3df3a60f	0.118969075
78	0x3df2745a	0.118385985
79	0xbe131800	-0.14364624
80	0xbda5948b	-0.08084973
81	0xbe22546f	-0.15852521
82	0xbd813ecf	-0.06310808
83	0x3c348521	0.0110180685
84	0x3ddd80e8	0.108156025
85	0x3e1d12ce	0.15339205
86	0x3da613f3	0.08109274
87	0xbe041e76	-0.12902245
88	0xbda54258	-0.08069295
89	0xbd1df399	-0.03856239
90	0x3e13ea90	0.14444947
91	0xbdde204b	-0.10846003
92	0xbd38c6ee	-0.04511159
93	0xbc320abf	-0.01086682
94	0x3d9fcc90	0.07802689
95	0x3e6b35a5	0.22969683
96	0x3e1743fb	0.14772026
97	0x3ef8188b	0.48456225
98	0x3eedce7c	0.46446598
99	0x3f012de5	0.50460654
100	0xbd945e42	-0.07244541
101	0xbdd624f4	-0.10456267
102	0x3dd90c81	0.10598088
103	0xbe5c961b	-0.21541636
104	0x3ec6993b	0.3878878
105	0x3e858200	0.26075745
106	0x3ea31dd4	0.31858695
107	0x3ee7e7cf	0.45294043
108	0x3e9593f7	0.2921445
109	0x3ecf557c	0.40494907
110	0x3ebda2e8	0.3703835
111	0xbd1e340f	-0.038623866
112	0x3f049199	0.51784664
113	0xbcee1410	-0.0290623
114	0x3fa271c2	1.2690966
115	0x3ec7e31a	0.39040452
116	0x3c1859c7	0.009298748
117	0x3e87f78c	0.2655605
118	0x3d925f91	0.07147134
119	0x3e9af214	0.30262816
120	0x3ee2162d	0.44157544
121	0x3d985667	0.07438355
122	0x3eb43e96	0.35204
123	0x3e923fb7	0.28564236
124	0x3ea5c637	0.32377788
125	0xbd943fda	-0.07238741
126	0x3e7357ed	0.2376401
127	0x3d9b9dfa	0.07598491
128	0x3d01d812	0.0317002
129	0x3cee554c	0.029093407
130	0x3dae7efb	0.08520313
131	0x3d5bf2a8	0.053698212
132	0xbda7320d	-0.08163843
133	0xbd84ebb4	-0.06490269
134	0xb9a1de0e	-0.00030873757
135	0xbd874074	-0.0660409
136	0xbd24114c	-0.040055558
137	0x3e25d32d	0.16193838
138	0xbe4b8876	-0.19876274
139	0x3d2b1b90	0.041774333
140	0xbdf9ab98	-0.12190932
141	0x3ebf02f2	0.37306935
142	0xbe4f4d11	-0.20244242
143	0x3e1113cc	0.14167708
144	0xbcdaab04	-0.026692875
145	0xbe934f87	-0.28771612
146	0x3de277af	0.11057984
147	0x3ec3a854	0.38214362
148	0xbe50778d	-0.20358105
149	0x3cebaf7d	0.028770203
150	0xbe665a8c	-0.22495478
151	0xbd25f802	-0.04051972
152	0x3dea09fa	0.11427684
153	0xbdc74dee	-0.09731661
154	0xbca4dda5	-0.02012522
155	0x3daeba4a	0.085316256
156	0x3bb3efe7	0.005491245
157	0xbd0e8988	-0.03479913
158	0xbd855112	-0.065096036
159	0xbe28f418	-0.16499364
160	0x3e4aa03f	0.19787692
161	0x3e6ec021	0.23315479
162	0x3defafc3	0.11703446
163	0x3edfd31e	0.43715757
164	0xbcfc342a	-0.030786593
165	0xbe72ed77	-0.23723398
166	0x3d047105	0.032334346
167	0xbdbbac31	-0.09163702
168	0xbd97420e	-0.07385646
169	0xbde3c598	-0.111216724
170	0x3e80cbb1	0.25155404
171	0x3eedef11	0.46471456
172	0x3eac3106	0.33631152
173	0x3f29e07b	0.66358155
174	0xbbf97ac1	-0.0076135104
175	0x3d04568e	0.032309107
176	0x3e956b73	0.2918354
177	0xbd52b180	-0.05143881
178	0x3ea53662	0.32268053
179	0x3e22d7ed	0.15902682
180	0xbc98ef36	-0.018668752
181	0x3ee52bb4	0.44759905
182	0xbe997642	-0.29973036
183	0xbcc7dcf7	-0.024397356
184	0x3e301d88	0.17198765
185	0xbd91506e	-0.07095419
186	0x3e74dccc	0.23912352
187	0xbd148449	-0.03625897
188	0x3e253d1c	0.16136593
189	0x3e093e6d	0.1340272
190	0x3e4c917d	0.19977374
191	0xbe63f608	-0.22261822
192	0xbe0572ea	-0.13032117
193	0xbe002194	-0.12512809
194	0xbde2de36	-0.110775396
195	0xbdc37c4e	-0.095451936
196	0xbe8e08c3	-0.2774106
197	0xbbd04c07	-0.0063567194
198	0xbe21be6d	-0.15795298
199	0xbdee33c0	-0.11630964
200	0xbd64ab40	-0.05582738
201	0x3c767736	0.015043071
202	0x3ed93868	0.42425847
203	0xbcc0e87d	-0.023548359
204	0x3c0d99d7	0.008642635
205	0x3e2e7368	0.17036211
206	0x3e50e0a6	0.20398197
207	0xbe36e1d3	-0.17859583
208	0xbce71130	-0.028206438
209	0x3d1f65b5	0.038915355
210	0x3c8bc68c	0.017062448
211	0x3dbd5401	0.09244538
212	0xbe239bac	-0.15977353
213	0xbe7e6889	-0.24844564
214	0xbe1380af	-0.14404558
215	0x3e19bb1e	0.15012786
216	0xbce81644	-0.02833093
217	0xbe4f7481	-0.20259286
218	0xbd97559a	-0.07389374
219	0xbdd351e1	-0.103183515
220	0x3d879771	0.06620682
221	0xbe78659c	-0.24257511
222	0x3d67c3b1	0.05658311
223	0x3ca8107f	0.020515678
224	0x3d6a132f	0.0571472
225	0x3f311660	0.69174767
226	0x3f16abd9	0.5885597
227	0x3ea6f46e	0.3260836
228	0xbe4968fd	-0.19668956
229	0xbc6a9b7c	-0.014319297
230	0xbd0ae317	-0.033907976
231	0x3dce85ae	0.10084091
232	0x3ef993f9	0.48745707
233	0x3ebc522b	0.3678144
234	0x3f1f832f	0.62309545
235	0x3f33ab7d	0.70183545
236	0x3ec49ab2	0.38399273
237	0x3efb0f7f	0.4903526
238	0x3f139712	0.5765239
239	0xbdbcc243	-0.0921674
240	0x3f43f083	0.76538867
241	0xbdf22979	-0.118243165
242	0x3f015b93	0.50530356
243	0x3f20af9c	0.6276796
244	0xbdaa08a5	-0.0830243
245	0x3f1083cb	0.564511
246	0xbe80ccf0	-0.25156355
247	0x3eee0ea1	0.46495536
248	0x3eb1bc60	0.3471403
249	0xbe11e9f7	-0.14249407
250	0x3f4b9ca1	0.7953587
251	0x3f3285e8	0.69735575
252	0x3f28e9c9	0.6598173
253	0xbadc88e4	-0.0016825465
254	0x3f20f2e2	0.6287061
255	0x3de104c6	0.109872386

h2.bias f4 [16]
0	0x3afa3291	0.0019088556
1	0xbeb7a102	-0.35865027
2	0x3c9809c4	0.018559344
3	0x3e31c62e	0.17360756
4	0xbe7208e8	-0.2363621
5	0xbe4b3471	-0.19844224
6	0xbd95df14	-0.073179394
7	0xbd2f19bf	-0.042749163
8	0x3eadf544	0.33976185
9	0x3ea864bc	0.32889354
10	0x3e1774be	0.14790627
11	0x3e280f88	0.16412175
12	0x3e286acb	0.16446988
13	0xbe6bd9fb	-0.23032372
14	0xbe9f5f8f	-0.31127593
15	0xbdb4cdf4	-0.08828345

h3.weight f4 [8, 16]
0	0x3e2fb895	0.17160256
1	0x3d4f93de	0.050678127
2	0xbc62d551	-0.013844804
3	0x3f08389c	0.5321138
4	0x3da6da38	0.08147091
5	0x3dcd294b	0.10017642
6	0x3e5e03de	0.21681163
7	0x3f415cf3	0.75532454
8	0xbe4be27d	-0.19910617
9	0xbe4614e7	-0.19343911
10	0x3cf0029d	0.029298121
11	0x3dd2bdcb	0.102901064
12	0xbda32a0b	-0.079670034
13	0xbdac4005	-0.08410648
14	0x3e9f5eca	0.31127006
15	0x3ec62ccf	0.3870606
16	0xbf1d5bad	-0.6146801
17	0xbee8618d	-0.45386925
18	0xbe931012	-0.28723198
19	0x3c9edbd7	0.019391937
20	0xbf0c703d	-0.5485876
21	0xbe05f17c	-0.130804
22	0xbeaa9f02	-0.33324438
23	0xbe35e8f4	-0.17764646
24	0x3d1c13fe	0.038105004
25	0x3e6a5691	0.22884585
26	0x3e20e94a	0.15713993
27	0xbeaa44df	-0.3325567
28	0xbf0fe82e	-0.56213653
29	0xbdc9a9f7	-0.09846871
30	0xbf4ba2ec	-0.79545474
31	0xbe24a1bb	-0.1607732
32	0xbe17aefb	-0.14812844
33	0xbe4ae44a	-0.19813648
34	0xbe7076c1	-0.23482801
35	0xbe9f2d94	-0.3108946
36	0xbca2238c	-0.01979234
37	0xbe93e59d	-0.2888612
38	0xbe5f17ea	-0.21786466
39	0xbe080e80	-0.13286781
40	0x3ec2b016	0.38024968
41	0x3e8824e7	0.26590654
42	0x3eb26b84	0.34847653
43	0xbee8dcd1	-0.4548097
44	0xbee41716	-0.44548863
45	0xbbf15018	-0.0073642842
46	0xbed6ffb2	-0.41991955
47	0xbecb5d26	-0.39719504
48	0xbe99ff93	-0.300778
49	0xbd56b680	-0.05242014
50	0xbe2b7530	-0.16743922
51	0xbd882828	-0.06648284
52	0xbe2174ca	-0.15767208
53	0xbda3bb96	-0.079947636
54	0xbde86c77	-0.11348813
55	0x3bce1978	0.006289657
56	0xbeba519f	-0.36390397
57	0xbe968778	-0.2940023
58	0x3e1b6d09	0.15178312
59	0x3e089980	0.13339806
60	0xbd065201	-0.03279305
61	0xbe7a18e0	-0.24423552
62	0xbdce31d2	-0.10068096
63	0x3e30d906	0.17270288
64	0xbd11d07e	-0.035599224
65	0x3c4c5c79	0.012473219
66	0xbd98038c	-0.074225515
67	0x3f3ab81b	0.7293717
68	0x3d79a240	0.06094575
69	0x3ec21cbd	0.3791255
70	0x3dc320d9	0.095277496
71	0x3f47b8f0	0.7801657
72	0xbe8c6695	-0.27422014
73	0xbe429968	-0.19003832
74	0xbd4886d4	-0.048956707
75	0xbdcf46b2	-0.10120906
76	0x3d82452b	0.06360849
77	0x3dd3e6de	0.10346769
78	0x3d8f3a4d	0.06993542
79	0x3edce036	0.4313981
80	0xbe75a7f4	-0.2398985
81	0x3d254bf2	0.04035563
82	0xbe68f3cf	-0.22749256
83	0xbd82a106	-0.06378369
84	0xbe259470	-0.16169906
85	0xbea32475	-0.31863752
86	0xbeb5a289	-0.35475567
87	0xbdaf99cc	-0.08574256
88	0x3ea9252d	0.33036175
89	0x3efa520b	0.4889072
90	0x3ea270ef	0.31726786
91	0xbe059d6a	-0.1304833
92	0xbe970886	-0.2949869
93	0x3d0a5f23	0.033782136
94	0xbf5aa588	-0.8540883
95	0x3e54a5fa	0.2076644
96	0x3cf445eb	0.029818496
97	0xbedadba5	-0.427457
98	0x3d0b3f12	0.033995695
99	0xbde0afeb	-0.10971054
100	0xbd926ca8	-0.07149631
101	0xbd39b773	-0.045340966
102	0xbe578823	-0.21048026
103	0xbc9b8d6b	-0.018988332
104	0xbe6cf532	-0.2314041
105	0x3da50069	0.08056719
106	0x3dc66553	0.09687295
107	0x3e0de9e2	0.1385875
108	0x3dd0cfae	0.10195862
109	0xbea35b56	-0.3190562
110	0xbe779732	-0.2417877
111	0xbe6e3970	-0.23264098
112	0x3ddb0e6f	0.10696112
113	0xbc15e190	-0.009148017
114	0x3e0f27d6	0.1398004
115	0x3f0b39df	0.5438518
116	0x3e4ab9aa	0.19797388
117	0x3e8c7830	0.27435446
118	0xbd95f985	-0.07322983
119	0x3ee2f932	0.44330746
120	0xbe8a16bf	-0.2697048
121	0xbe8df173	-0.27723274
122	0xbdcc0bd3	-0.09963193
123	0xbe318cda	-0.17338887
124	0xbcf5f8c9	-0.030025857
125	0x3dc248b3	0.094865225
126	0xbb80031a	-0.0039066197
127	0x3e052eb1	0.13006093

h3.bias f4 [8]
0	0x3c8ef7e7	0.017452193
1	0x3ebb8bb2	0.36630017
2	0x3ec5714e	0.38563007
3	0x3d2b95ef	0.041891035
4	0xbd0d3d40	-0.03448224
5	0x3ea96cd7	0.3309085
6	0xbddb22d3	-0.107000016
7	0xbe3cd6c5	-0.18441303

h4.weight f4 [1, 8]
0	0xbca3eaae	-0.020009365
1	0x3e92fd78	0.28709006
2	0x3e829e56	0.25511426
3	0x3e83b07d	0.25720587
4	0xbc9fd6e3	-0.019511646
5	0x3e8a6461	0.27029708
6	0x3e518899	0.20462264
7	0xbc2b876b	-0.010469298
