src/models/saved_models/best_model_lr0.001_roc_auc0.926132860070845.pt (torch, 23941 bytes, 9 tensors)

input.weight f4 [64, 30]
000000 5c 93 71 bd 97 c6 5b 3d bd b2 60 bb 19 fb 3a bd
       -0.058978423 0.053656187 -0.0034286224 -0.04564962
000010 a0 e7 8a bd 3b f7 e4 3d eb ab 34 3e fb 08 9b bd
       -0.0678246 0.11179968 0.17643707 -0.07570072
000020 0e e0 9b bd 3d 79 14 bd 17 16 a6 bd 00 92 3b be
       -0.076110944 -0.036248434 -0.08109682 -0.18317413
000030 65 fa 08 3d 51 80 83 3d 28 92 61 3d 03 03 cf 3d
       0.03344192 0.06420959 0.055071026 0.10107996
000040 98 e2 2a bd 4c 97 8c bd a0 1f 89 3d 96 4b 99 bd
       -0.041720003 -0.06864795 0.06695485 -0.0748512
000050 fd 48 11 be 47 f5 6a 3c a4 f2 a3 3d 20 ba aa 3c
       -0.14187999 0.014340705 0.080052644 0.020840704
000060 be 1a ae 3d cb 6a 0b be 83 ba 4d be 64 03 8b bb
       0.085011944 -0.13614957 -0.2009068 -0.0042423476
000070 e0 63 b8 bd 0d 1c fe 3d bf 9a 1d 3e c9 a7 02 3e
       -0.09003425 0.12407694 0.15391062 0.12759317
000080 b0 62 31 be ff f1 2f bd 50 5c 00 be f2 b9 ef bc
       -0.17322803 -0.042955395 -0.12535214 -0.02926347
000090 99 41 bb bc a8 6f ed bd 80 a5 a6 3d 14 ca 25 3e
       -0.022858428 -0.11593562 0.08137035 0.16190368
0000a0 47 9c cb 3c 3f d6 ec bc 79 b8 5d 3e d1 19 20 3e
       0.024854792 -0.028910754 0.21652402 0.15634848
0000b0 c3 2c 95 3e 59 b6 a8 bb 57 65 e3 bd bb cb 18 bc
       0.29135713 -0.0051486907 -0.111033134 -0.009325917
0000c0 27 39 46 3e e5 84 02 3e 48 b9 8b bd c4 f6 6d be
       0.1935774 0.12746008 -0.06822449 -0.23238665
0000d0 cb 4b ce bd 9a f2 10 3e 92 a9 5e 3e 41 f7 2b be
       -0.1007305 0.14155045 0.21744373 -0.16793539
0000e0 f5 fd 4a bd ed 28 26 3e 26 5a c5 bd a8 2d e5 3d
       -0.0495586 0.1622655 -0.09636335 0.11190349
0000f0 a9 22 1f 3e 30 0d 38 bd 68 dd b9 3d 26 20 9f 3e
       0.15540566 -0.04493445 0.09075433 0.31079215
000100 08 91 49 be 00 cf 6f be 91 17 8a 3d 9b 7c 06 3e
       -0.19684231 -0.23418808 0.06742776 0.1313347
000110 ee f7 26 bd d0 47 16 be f7 35 80 3e d4 d3 05 be
       -0.040763788 -0.14675832 0.25041172 -0.13069087
000120 06 fa 5b be b3 ec 9a 3e 3c 12 22 3e 54 9a 69 3d
       -0.21482095 0.30258712 0.15827268 0.057031944
000130 c5 ca db 3d f5 84 4d 3e 8a 05 e8 3d 74 db 96 3e
       0.107320346 0.2007025 0.113291815 0.29464304
000140 50 c1 19 bd 2e 0c d8 3d 84 51 2a be a7 94 6e bd
       -0.037537873 0.10549198 -0.16632658 -0.058247235
000150 0d 57 35 3e c0 0d b6 be 0d ae 18 be e3 53 6d 3d
       0.17708988 -0.35557365 -0.14910145 0.05794133
000160 e5 18 11 3e d1 a4 35 be 08 ee eb bc 99 c4 4f 3e
       0.14169653 -0.17738654 -0.028800026 0.2028984
000170 2d ed 4a 3d e1 8b 34 3d c3 78 fc bd 59 3b af 3c
       0.049542595 0.04407871 -0.12327721 0.021390604
000180 fd 54 12 3d 97 1a 95 bd 83 45 ab bd 37 65 5a bc
       0.035725582 -0.07280462 -0.08362868 -0.013329796
000190 5d ed 1f bd 45 05 b0 bc 5a 2a fb 3d 0a d3 66 3b
       -0.039044727 -0.021486888 0.12263937 0.0035221004
0001a0 23 b2 96 3d 1d d3 4f 3e 0e fd 0a bd 5c a5 9c bd
       0.07358196 0.20295377 -0.033932738 -0.07648727
0001b0 e8 96 10 be 0d 61 e1 3b d0 27 13 bb de c5 ed bd
       -0.14120066 0.0068780244 -0.002245415 -0.11610006
0001c0 a8 fd cc 3a c6 cc 5f 3d 0f 22 0f 3d 4d d4 10 be
       0.001563956 0.054638647 0.03494459 -0.14143486
0001d0 60 b1 fc bd 46 26 ba bc 1b 5a 9a 3d 5b 91 cb bb
       -0.12338519 -0.022723328 0.075367175 -0.006212396
0001e0 16 f8 5d bc 9f e3 68 be 38 37 1a 3e 8c 4a d3 bc
       -0.013547918 -0.2274308 0.15060127 -0.025792383
0001f0 c5 d2 0a 3c b5 54 40 bd 89 a3 18 bd e6 ce 08 be
       0.008473103 -0.046955783 -0.037265334 -0.13360175
000200 77 e5 d2 3d e1 06 85 be dc 98 4a be 42 02 11 3e
       0.10297673 -0.2598181 -0.19784874 0.14161018
000210 9b bc 6f be ba 91 91 bd 69 95 a0 bd 78 68 d9 3d
       -0.23411791 -0.07107873 -0.07840998 0.10615629
000220 c8 41 a0 be 4c 7c 9e be 47 79 9f be 70 7f 82 3e
       -0.31300187 -0.30954206 -0.31147215 0.25487852
000230 45 f7 c8 3d 43 d1 be bd 33 ab 92 3d 24 7b 09 bd
       0.09812788 -0.09317257 0.0716156 -0.0335647
000240 28 79 2d be a4 fe 8e bd 39 6b 3c bd 70 ed e5 bc
       -0.16940749 -0.069821626 -0.046000693 -0.02806732
000250 04 7f ee 3c 9b c9 09 bc d8 bf 75 b9 12 8b 3d bd
       0.0291133 -0.008409883 -0.00023436488 -0.046275206
000260 6d 7c e7 bd 0d f7 cf 3c 1d 6c d1 bc d9 c4 ac 3b
       -0.11303029 0.025386358 -0.025564248 0.0052724895
000270 d2 b3 78 3e 6d 51 a2 bd 8b 28 52 3d 24 6f 3f bd
       0.24287346 -0.07925687 0.051308196 -0.04673685
000280 77 e6 d6 bc 53 ae fb 3d 68 d3 6b 3e e8 c1 41 3e
       -0.026232941 0.12289109 0.23029864 0.18921626
000290 70 82 fd bd 70 4b 02 3e d8 e1 4e bd ce 83 8e 3d
       -0.123783946 0.1272409 -0.05050835 0.069587335
0002a0 3c 42 39 3e 8e fb 80 be 1b 78 9b bb 86 40 16 be
       0.18091673 -0.2519192 -0.0047445423 -0.14673051
0002b0 e8 aa 67 3d 0e f6 f0 3d ef 41 2c be 6d b0 23 bd
       0.056559473 0.11765681 -0.16822027 -0.039963175
0002c0 8b 38 a2 bd 80 87 41 ba fd 03 25 bd cc a1 17 bc
       -0.07920941 -0.0007382557 -0.040287007 -0.009254884
0002d0 cf a1 14 be 55 b6 08 3d 58 0a 81 bc 18 81 7a 3e
       -0.1451485 0.03337701 -0.015752003 0.24463308
0002e0 62 aa 37 bd 39 71 45 be 63 99 cc bd 6c 1b 7f bd
       -0.044840224 -0.19281472 -0.09990194 -0.06228201
0002f0 a5 9e d8 3c d3 d6 7e 3e 1c 82 07 3e 5a 30 54 be
       0.026442835 0.24886636 0.13233227 -0.2072157
000300 29 13 1a bd 1a 15 fd 3d d5 d3 aa bd 1b de 88 bd
       -0.03761593 0.123575404 -0.08341185 -0.06682988
000310 17 e7 26 be d4 e7 09 3e 06 1a 46 3d 14 ab 3d bd
       -0.16299091 0.13467342 0.04836466 -0.04630573
000320 a6 bf 11 bd 66 29 1f be 7a 3e 13 3d bb 62 be 3d
       -0.03558316 -0.15543136 0.035948254 0.09296175
000330 99 b5 cc 3d 03 16 8d be bf 6d 97 bd da 98 fa 3d
       0.099955745 -0.27555856 -0.07393979 0.12236185
000340 86 a8 18 be d4 f1 f4 3b 8d 13 f0 bd 3f 9c 69 bd
       -0.14908037 0.007475117 -0.11722479 -0.057033774
000350 d4 02 1b 3d 18 01 73 be 21 83 bb 3e ca df 0b 3e
       0.037844494 -0.23730886 0.3662348 0.13659588
000360 c6 da 9b 3d f8 a9 8d be 65 e0 86 bc 80 c4 79 be
       0.07610087 -0.27668738 -0.016464422 -0.24391365
000370 af f0 15 be 34 70 c8 3e 72 27 bd be e7 eb 92 be
       -0.14642595 0.39148104 -0.36944157 -0.28695604
000380 6c a8 c2 be 6f 59 81 3d 74 30 35 bd fc 64 b5 bd
       -0.3801912 0.06315886 -0.04423566 -0.08857152
000390 91 52 1f be 9c fb 58 bd 58 19 0b 3a da 60 8a 3d
       -0.1555884 -0.05297433 0.0005306206 0.06756754
0003a0 e2 91 13 3e 23 2b 3f bd 2a 6f 3e bd 27 e6 41 3e
       0.14411119 -0.046671998 -0.046492733 0.18935452
0003b0 91 cb 2f bd da 7f 8a bd ea e9 90 3e 17 8a 16 be
       -0.042918745 -0.06762667 0.28303462 -0.14701115
0003c0 8c dc e2 bc 09 df 22 be f4 18 a8 be 2a 7d 1e 3e
       -0.027693056 -0.15905394 -0.32831538 0.15477434
0003d0 cb 8f fc bd 83 c4 98 be d9 5c fb 3d cf ef 7f 3c
       -0.12332114 -0.29837427 0.12273569 0.01562114
0003e0 2f 76 06 3e 90 a8 21 be 3c e0 7e 3e 24 70 10 be
       0.13131021 -0.15786958 0.24890226 -0.14105278
0003f0 ef 4d fe bc 76 ca ae 3d df 12 bc bc 0f aa da bd
       -0.031043021 0.0853471 -0.022958217 -0.10676967

input.bias f4 [64]
000000 24 0d 9b bd 99 0e ad 3e 50 5a a2 3e fd 3e 4d bd
       -0.07570866 0.338002 0.31709528 -0.0501089
000010 8b bf 3c 3e 9c ea 5e be fd b5 22 3e 42 fe 72 3e
       0.18432443 -0.21769184 0.15889736 0.23729804
000020 4f ed 98 bd f0 de 3f be 7b 3d 84 3e 1a af fe 3d
       -0.07467138 -0.18737388 0.25828156 0.12435742
000030 e3 8b 74 3e bb d7 26 be ad 82 ec 3e 25 4b 4a 3e
       0.23881488 -0.16293232 0.46193448 0.19755228
000040 e1 f9 59 3e d5 61 8e 3e e6 b3 e3 3e e1 66 33 3d
       0.21286727 0.27809015 0.4447319 0.043799285
000050 2f 38 b9 3d 85 e4 1e 3f f4 91 c3 3e 19 c0 a5 3d
       0.09043919 0.62067443 0.3819729 0.0809328
000060 43 a1 f8 bc bc a9 90 3d dc 23 94 3d 17 19 52 bd
       -0.030350333 0.07063624 0.07233402 -0.05129346
000070 7a bf 9b be 6d 73 a0 bd 2b 34 0b 3e 57 b4 19 bd
       -0.30419523 -0.07834516 0.13594119 -0.0375255
000080 bc de fd 3e 08 87 79 3e fb d2 8b 3d f9 a5 19 3e
       0.49583995 0.24367917 0.06827351 0.1500472
000090 8d 64 21 be 43 d1 43 3d 9f 68 b0 3e 1a 9a 49 3f
       -0.15761013 0.04780699 0.3445482 0.78750765
0000a0 7e da 6b 3e c0 18 44 b7 16 3a 71 3e 82 15 ef 3d
       0.23032567 -1.1688273e-05 0.23557314 0.11674024
0000b0 b1 7a 8d 3e bb e5 60 3e 17 df f4 3c ce df 60 3e
       0.2763267 0.21962635 0.029891534 0.21960375
0000c0 0c 88 81 bd 65 38 9f 3e 66 ed 26 be cc a4 0d bd
       -0.06324777 0.31097713 -0.16301498 -0.03458099
0000d0 4f fd ec 3d 27 2b 10 3d 4a cc 01 3f 7e 09 1e bd
       0.11571752 0.035197403 0.50702345 -0.03858327
0000e0 21 2e 92 3e 17 b5 c2 3d 19 2d 6f bd 69 32 e3 3e
       0.2855082 0.095071964 -0.058392618 0.44374397
0000f0 76 06 69 3e ed 20 b5 bd ec 24 cb 3d 80 e3 0f 3c
       0.22756371 -0.08844171 0.09919152 0.008782268

h1.weight f4 [32, 64]
000000 77 80 b5 3d 9f 99 b6 3c 53 82 27 bf 09 25 59 bd
       0.08862393 0.02229005 -0.65433234 -0.053013835
000010 28 5d 91 3e 01 f7 88 3c 37 e0 a6 ba b4 ba 31 3e
       0.28391385 0.016719343 -0.0012731616 0.17356378
000020 be de 10 be a1 ac 76 3c bf 35 33 bd 46 21 f4 bc
       -0.1414747 0.015055806 -0.04375243 -0.029801022
000030 39 76 52 3d 4d 1f ca 3c 4e 28 dd bd a0 dc 03 be
       0.051382277 0.024673129 -0.10798703 -0.1287713
000040 2f 5b 70 be 3e 98 35 be 35 91 86 be c7 31 b7 3e
       -0.23472284 -0.17733857 -0.2628266 0.35780165
000050 e7 64 b8 bd 52 fb b4 be ac ad ed 3b f8 e2 86 be
       -0.090036206 -0.35347992 0.0072533693 -0.26345038
000060 78 3a 20 be 3b dc a9 3e e3 75 b5 bb 71 7e cf bc
       -0.15647304 0.33175835 -0.005537735 -0.025328847
000070 41 21 32 3d ab 48 83 bd 57 d8 09 bf 06 18 75 be
       0.043488745 -0.06410345 -0.53845733 -0.23934945
000080 f3 bd 85 bd 65 e4 eb 3d 5c 26 b0 bd 44 d6 49 be
       -0.065303706 0.11518172 -0.086010665 -0.19710642
000090 23 4d 7a 3c cf 6a 3b 3e 46 c4 9d be ca b3 85 bf
       0.01527718 0.18302463 -0.30813807 -1.0445492
0000a0 c7 7e 60 3e 62 d4 8b 3d a7 f8 92 bd f2 b1 c2 be
       0.21923362 0.06827618 -0.07176333 -0.38026386
0000b0 bb e2 c3 3c df 85 e8 be cc e5 32 be e1 3d 36 3d
       0.023911824 -0.45414636 -0.17470473 0.044492606
0000c0 05 69 70 3d ca 80 32 bf 4a 9a 40 3d ea 02 15 3e
       0.058693904 -0.69727767 0.04702214 0.14551893
0000d0 d8 98 d7 3c b9 9e 15 3b 1f 4d d6 3c 13 b3 0b bd
       0.026317999 0.0022830202 0.026159821 -0.034106325
0000e0 74 ab 41 bc 63 2c 98 bd 9c 5d 5c bc 8a 6a 74 be
       -0.011820663 -0.07430341 -0.013450053 -0.23868766
0000f0 36 57 a1 bd 56 f5 38 be 87 cd 33 be 02 26 12 be
       -0.07877962 -0.18062338 -0.17558871 -0.14272311
000100 95 eb 94 bc 71 58 65 3e 5a 51 9a 3e 45 e4 54 3c
       -0.01817874 0.22397019 0.3014019 0.012993877
000110 42 ec b8 bc 0c 92 17 3d c4 2b 69 3e 88 6b 26 be
       -0.022573594 0.037004516 0.22770602 -0.16251957
000120 ff 3f f9 3d 96 8d a7 bd 01 30 82 3e 19 38 3c 3e
       0.121704094 -0.08181302 0.2542725 0.18380775
000130 6f 0e 3b 3e a2 52 53 bd 0f d9 60 3e a4 e5 ed 3c
       0.18267225 -0.051592477 0.21957801 0.029040165
000140 02 9b c4 3e ba ef 80 3e 86 55 c2 3e 85 fb 07 be
       0.38399512 0.25182897 0.37955874 -0.13279541
000150 8a e0 8f 3e cd e0 1d 3f ed 90 70 3f d4 97 1e 3f
       0.28100997 0.61671144 0.9397114 0.6195042
000160 16 ef 26 3e e7 d8 3c be f8 ca 2d 3e 1b a7 80 3d
       0.16302142 -0.18442117 0.16971958 0.06281873
000170 e7 40 b5 3e ac 67 1d bd b7 5c d9 3e 07 f1 9c ba
       0.3540108 -0.038428947 0.42453548 -0.0011973687
000180 a4 23 99 3e 12 73 1c be 69 c2 9d 3e fa a8 a3 bd
       0.29910004 -0.15278271 0.30812386 -0.07991214
000190 f9 a1 53 3d 1c 00 48 bd dd 9d 8b 3e 2c 36 2d 3f
       0.05166814 -0.04882823 0.27268878 0.67660785
0001a0 a9 2c f0 3c 8d 35 09 3e 9d 08 d6 3d 72 5a c2 3e
       0.02931817 0.13399334 0.104508616 0.3795963
0001b0 44 9c 87 bd dd f1 ee bd 31 a9 62 3e 54 71 04 bb
       -0.06621602 -0.116672255 0.22134854 -0.002020915
0001c0 9d fb 8f bc d9 4a fa 3d d8 6c e4 3d 64 ed 9b 3d
       -0.017576033 0.12221307 0.11153573 0.07613638
0001d0 0b dd ee 3d 45 0a c7 3d 6d 6c a8 3e 3e 51 97 3e
       0.11663254 0.09718756 0.32895222 0.2955417
0001e0 f0 c6 d2 3e ee 59 95 3d ff dc 9e bc 77 6b 62 3e
       0.41167402 0.07292543 -0.019392489 0.22111307
0001f0 13 2e bc 3e a5 91 5a 3e 14 49 c7 3d f9 3b 5e 3e
       0.36753902 0.21344621 0.097307354 0.21702565
000200 35 92 54 3c 33 0e 49 3e 0a e2 47 3e 3a cb 88 3d
       0.012974312 0.19634323 0.19519821 0.066793874
000210 7d d7 19 3d db cc bd 3d e2 7f 4b 3e f7 6e 87 bd
       0.03755902 0.09267589 0.19873002 -0.06612962
000220 99 4d 05 3e 9d 5b 30 3e e2 42 cd 3e 76 c5 f9 3e
       0.13017882 0.17222448 0.4009009 0.48783463
000230 4a d7 8f 3c 66 9a 25 3d 1a d1 9f bc 9c 73 5c 3d
       0.017558713 0.04043045 -0.019508887 0.05382119
000240 95 06 23 3f f0 e9 b2 3e 18 f3 dc 3e c0 d6 90 3c
       0.6368192 0.34944105 0.43154216 0.017680526
000250 e7 33 32 3e c5 3e 9b 3e eb ee 2b bd 33 c1 f3 3e
       0.17402612 0.30321327 -0.041975897 0.47608337
000260 0f 25 bd 3d 98 ac 5a be 25 e1 1f 3e e1 73 4b 3d
       0.09235584 -0.21354902 0.1561323 0.049671058
000270 89 96 c4 3d 0a 92 d2 bc 19 48 2f 3e c8 ca 87 3d
       0.09599025 -0.025704402 0.17117347 0.06630474
000280 b0 5e cd 3e 52 88 40 be 41 59 1f 3f 72 fa 86 3e
       0.40111303 -0.18802002 0.62245566 0.2636295
000290 e4 40 34 bd 1c b0 4d be ba df db 3c b9 4b 32 3f
       -0.044007197 -0.20086712 0.02684008 0.69646794
0002a0 60 fe 5e bd e8 b7 ac bd d6 30 30 3e a9 06 01 3c
       -0.05444181 -0.08433515 0.1720613 0.007875123
0002b0 e1 16 82 be d7 7b a7 3d b2 0d 81 3e 13 06 8d bd
       -0.2540808 0.081779175 0.2520576 -0.06885924
0002c0 1e a4 ce bc c6 9b 82 3e 76 0e 42 bc 5f 29 b1 bc
       -0.025224742 0.2550947 -0.011844268 -0.021626173
0002d0 10 99 5d 3d c0 a2 16 3e 2b f8 00 3f 13 4f bb 3d
       0.05410105 0.14710522 0.50378674 0.091459416
0002e0 77 eb 0f 3f b0 6b 2f 3e ca 6c a0 3d e5 6b 76 3e
       0.56218666 0.17130923 0.0783325 0.24064596
0002f0 18 c2 cf 3e 9f c1 5e 3e a0 b6 6c 3d 7c e3 7e 3c
       0.4057777 0.21753548 0.057791352 0.015557166
000300 22 19 21 bd 3f 6e dc 3d bd cf 11 3e 45 b0 b0 bd
       -0.03933061 0.10763215 0.14239402 -0.08627371
000310 b0 e9 9e bd 97 e2 b9 bd 07 ff af bc 5a f2 6a 3d
       -0.07759416 -0.09076422 -0.021483911 0.05736003
000320 2a ec 5f 3d ed 4c 7f 3d 75 c5 2c 3e a8 9b 04 3e
       0.054668583 0.06232922 0.16872199 0.12950003
000330 10 92 5b bd c5 0e 00 3b a4 98 e4 3d d8 b7 86 3d
       -0.053606093 0.0019540053 0.111619264 0.06578034
000340 5c ff 54 be 73 1e 01 3e ad 69 0a 3e 66 17 2f 3d
       -0.20800537 0.12609272 0.13516875 0.042746924
000350 82 07 23 bc c7 67 40 be 80 bd 43 3d 1f 65 21 3e
       -0.0099505205 -0.18789588 0.047788143 0.15761231
000360 49 56 19 be 23 1c a0 3d 5f e2 d4 bd 0c 8a a4 3c
       -0.14974321 0.07817867 -0.10394739 0.020085357
000370 9b 5c d0 3d 4b 0b 45 3d 81 1f bb 3e a0 37 36 3e
       0.10173913 0.048106473 0.36547473 0.17794657
000380 c6 78 60 3e d7 f0 84 3d 0a 66 d2 3d 90 bc c1 3b
       0.21921071 0.06491249 0.10273369 0.005912371
000390 50 18 8e bb 13 9e 84 3d d2 58 b1 3d bd 09 ac 3e
       -0.0043363944 0.06475463 0.08659519 0.3360118
0003a0 1b d1 ee 3c 00 5c 90 3d af 12 df bd 8d 8a 4c bd
       0.029152444 0.070487976 -0.108922355 -0.04993682
0003b0 92 5b f9 3d 93 08 05 3e 7d 2d 98 3e 3f e0 a3 3d
       0.12175669 0.12991552 0.29722205 0.08001756
0003c0 27 4e 78 3d 2f 09 8f 3e f0 cc 1e bd 9b ab 29 3c
       0.060621407 0.27936694 -0.038769662 0.010355855
0003d0 14 67 b1 bc ab d1 a6 bd 81 99 e0 3e 0c a9 b1 3d
       -0.021655597 -0.0814546 0.43867114 0.08674821
0003e0 5f 06 85 3e a2 37 1f 3e 92 1f da bc 0a 9f dd bc
       0.25981423 0.15548566 -0.026626382 -0.027053375
0003f0 ea 4e 28 3e 48 54 97 3e 53 5c 85 3d ba 4b c1 bc
       0.16436353 0.2955649 0.0651175 -0.02359568

h1.bias f4 [32]
000000 1e 53 69 3e cb c8 46 be 22 c9 bb bd 31 be dd 3d
       0.22785613 -0.19412534 -0.091692224 0.10827292
000010 1a 02 c1 3c e3 41 3b be f8 f9 a7 bd 7d b9 58 bd
       0.023560572 -0.18286853 -0.08201975 -0.05291127
000020 9d b8 08 bd c4 21 4b be 8b 38 d3 bd a9 af 43 3e
       -0.033379186 -0.198371 -0.10313519 0.19109978
000030 15 0d 88 bd e0 f2 5b be b4 cf 0f be d2 bc 08 be
       -0.0664312 -0.21479368 -0.14044076 -0.13353279
000040 44 e7 8a ba 08 3b da bd 01 b6 56 be 00 22 82 bd
       -0.0010597487 -0.106557906 -0.20967866 -0.06354141
000050 e7 fe 8b 3d d1 90 56 3e b5 c7 22 bd 42 43 3e 3c
       0.06835728 0.2095368 -0.039741237 0.011612715
000060 df 26 b8 bd 5d 0a 41 3a 0b 70 c0 bd 07 65 8a 3e
       -0.08991789 0.000736391 -0.093963705 0.27030203
000070 0e 2e 3e bd 9c 0b 47 bd ba 69 10 bd 33 16 70 bd
       -0.04643064 -0.048595056 -0.03525708 -0.05861492

h2.weight f4 [16, 32]
000000 d8 c3 cc bd 2f 18 87 3d 92 e8 8a 3e bc 06 4d bd
       -0.09998292 0.065964095 0.27130562 -0.05005525
000010 52 9b 8a 3d 10 f7 75 bd d3 40 b9 bc 37 65 77 3e
       0.06767906 -0.06005007 -0.022613918 0.24159704
000020 4a bd 87 3e 64 b9 90 3d ae 21 cf 3d 84 24 ba bd
       0.26511604 0.070666105 0.10113846 -0.09088996
000030 8b c6 5a 3d 79 74 18 bc 0c 45 53 3d 56 2a 84 bc
       0.053412 -0.009305113 0.05157952 -0.016133469
000040 26 30 76 3d 57 05 1f 3e 15 ed 19 3e e1 36 ac bb
       0.06010451 0.1552938 0.15031846 -0.0052555655
000050 82 0a 35 3e a7 5a 63 bc 4a c7 ac 3d 3b c1 fe bc
       0.1767979 -0.013876594 0.08436449 -0.031097999
000060 23 15 b2 bd 6e d2 e6 bd 42 d1 bf 3b b2 91 88 bd
       -0.08695438 -0.11270605 0.005853803 -0.06668414
000070 95 f7 cf 3d 2e 95 b0 3d 79 6e eb 3d 47 d6 92 3d
       0.101546444 0.08622204 0.1149568 0.071697764
000080 23 92 65 bd 6e 5a 43 3e 34 c0 ca 3d 9b ee 32 be
       -0.05604757 0.19077465 0.09899941 -0.17473833
000090 80 a7 02 be d2 fe f3 3d 6e 39 a8 3c 66 a4 07 bd
       -0.12759209 0.119138375 0.020535197 -0.033115767
0000a0 6d 1d 8b bd b5 1a 7c 3d 5a 9e 8d 3d e1 92 49 3d
       -0.06792722 0.061548907 0.06914969 0.04921234
0000b0 43 a5 a2 3e aa e3 29 3e 04 76 b8 3d 14 ce 94 bd
       0.3176671 0.16590753 0.09006885 -0.07265869
0000c0 1e 9b 38 3e cf 95 24 3d 2e 0e 5b 3e d9 a4 3e 3e
       0.18027923 0.04018193 0.21392128 0.18617572
0000d0 a1 1b b5 3e 40 89 aa be 41 ea 53 3d 1c c6 c2 3e
       0.35372642 -0.33307838 0.051737074 0.3804177
0000e0 3d bf 26 3e ec e5 89 3e a0 2e c9 bc 7d 54 9e be
       0.16283889 0.2693323 -0.024558365 -0.30923834
0000f0 ab 20 b3 3d fa 35 ad 3d 0c 3d 6a bc 39 7a 3a 3e
       0.08746465 0.08457561 -0.014296781 0.18210687
000100 49 af 12 be 8c b6 54 bc 70 4e 0f 3e 33 55 5c bd
       -0.14324678 -0.012982976 0.13994765 -0.05379219
000110 67 b7 35 bd 86 35 91 3c 02 5b c4 bc ac 44 40 bd
       -0.04436436 0.017725717 -0.023969177 -0.04694049
000120 40 ae ad 3d 54 87 0f be 1e fb 2b 3e f5 ec 06 be
       0.08480501 -0.14016467 0.16795012 -0.1317633
000130 d2 34 3e 3e 5f 1b 3e 3d d2 84 97 3d c9 eb 35 be
       0.18574837 0.04641282 0.0739838 -0.17765726
000140 ce 95 a6 3d 6b 9e 14 bc e2 70 58 3e 74 b7 7b bd
       0.08134042 -0.009070973 0.21136811 -0.06145425
000150 05 63 1c 3e 93 e7 42 bd b3 c4 fe bc e2 0c ba 3d
       0.15272148 -0.047584128 -0.031099653 0.090844885
000160 07 fb fc bd 16 dd 44 3e 3d 0d 1c 3e c7 6f 1e be
       -0.12352567 0.19224963 0.15239425 -0.15472327
000170 ae 53 d0 3d 21 15 53 bd e9 96 a6 bc 8f f4 e3 3d
       0.10172211 -0.051533822 -0.020335631 0.1113063
000180 0d 92 22 be f3 16 95 bd d2 89 30 3e 1e 6f 7a bd
       -0.15876026 -0.07279768 0.17240074 -0.061141126
000190 31 14 bb bd 02 7d 4b 3e c4 91 3f 3e 9b 3c 58 3e
       -0.091347106 0.19871905 0.18707949 0.21116869
0001a0 c9 89 59 3e 9d fe b1 3d 71 a9 17 3b b1 5f 26 3d
       0.21243967 0.08691142 0.0023141766 0.040618602
0001b0 07 7c 16 3e 96 7a 71 3d 12 fa 48 3c 7b 0d 84 bd
       0.1469575 0.058954798 0.012266653 -0.06447884
0001c0 f6 1b 42 3e 63 e5 7e 3e 14 6a 9c 3e ae 3e 0e 3e
       0.18955979 0.24892192 0.3054968 0.13891098
0001d0 2c 87 a4 3e c4 2d 38 be 6f 43 71 3e 2d 3f 40 3e
       0.32134378 -0.17986208 0.2356088 0.187741
0001e0 7c 1f 37 bd 3a 9d fd 3c ac 86 6d bd 2c 07 3f be
       -0.04470776 0.03095876 -0.05798976 -0.1865508
0001f0 75 69 a1 3d 58 6b de 3d 42 c8 ef 3d 8f 08 9e 3e
       0.078814425 0.10860318 0.11708118 0.30865905
000200 01 18 c5 bd e5 66 48 bd 5b 4c 4c 3e a9 89 85 bd
       -0.09623719 -0.048926253 0.19951002 -0.06520397
000210 7c 9e 2c 3e bd 93 0d 3e f2 e4 19 3d c5 89 61 3e
       0.16857332 0.13825889 0.037571855 0.22025211
000220 71 33 4a 3e 62 60 3a 3e 79 d1 14 bc eb 84 24 3d
       0.19746186 0.1820083 -0.009083145 0.040165823
000230 01 64 24 3c de 2d 42 3e 18 7b a6 bd 64 ca eb 3c
       0.010033608 0.1896281 -0.08128947 0.02878303
000240 61 c7 a3 bd e5 42 8a 3c 05 b0 2e 3d 6e ae 28 bc
       -0.07997013 0.0168776 0.042648334 -0.0102954935
000250 0e 44 86 3e cc f4 b4 bd 06 8b 44 3e db 6d 45 3e
       0.26223797 -0.08835754 0.19193658 0.19280188
000260 99 52 92 bd d6 ab 58 3e f8 0e 29 3d 50 9f 71 be
       -0.071446605 0.211593 0.04127404 -0.23595929
000270 06 0c 16 3e da dd bb 3c 4c b5 d9 3d f6 a9 a2 bd
       0.14653024 0.022932936 0.10630283 -0.07942574
000280 84 e6 10 be d0 62 b0 3d 14 94 2e bc c9 b8 60 bb
       -0.14150435 0.08612597 -0.010655422 -0.0034289828
000290 b1 1a 21 be e1 4e da 3d f0 c1 25 be 32 59 78 3d
       -0.15732838 0.10659576 -0.16187263 0.06063194
0002a0 a0 ee 46 3a 6d 63 d3 3d b1 71 fc bd d0 48 fa bc
       0.00075886585 0.10321698 -0.123263724 -0.030552298
0002b0 a7 44 3d 3e c0 cc 08 be e4 db 22 3d a6 25 a2 3d
       0.1848322 -0.13359356 0.039760485 0.07917337
0002c0 6e 93 9c 3e d8 32 21 3e 98 73 66 3e a8 5e 41 3e
       0.3058123 0.15742052 0.22505033 0.18883765
0002d0 5e 74 df 3d 3d 21 4d be d3 92 49 3e 17 b6 09 3e
       0.10910867 -0.2003221 0.19684915 0.13448368
0002e0 5c 86 3a bd ec 26 cc bc 30 63 94 3d a9 a6 80 bc
       -0.04553829 -0.024920903 0.07245481 -0.01570447
0002f0 f1 4a 6f bd 24 f1 13 be c0 12 e9 3d cc e1 0d 3e
       -0.05842108 -0.14447457 0.113805294 0.13855666
000300 81 ce 64 3e 9a 73 95 be 35 07 97 3d 6b a5 ab 3d
       0.223444 -0.2918976 0.073744215 0.0838116
000310 8f 1a 0c bb 70 0a 93 be f3 f6 ed bd f9 df d8 bd
       -0.0021378135 -0.287189 -0.116193675 -0.105895944
000320 99 b3 42 be 11 f6 05 bf 5c 07 f4 3c 0b 52 cc 3e
       -0.19013824 -0.5232859 0.029788665 0.39906344
000330 bb c6 dc bd ab 72 10 be 7e 30 c5 be 4b ec 4b 3d
       -0.10780092 -0.14106242 -0.3851356 0.049785893
000340 c7 6b 59 be 8a c8 e7 be 63 32 55 be 59 9e 86 bd
       -0.2123252 -0.45270187 -0.20820002 -0.06573171
000350 b5 e5 c0 be b9 90 ca 3d 1a c9 5d be 65 d1 c3 bd
       -0.37675253 0.09890885 -0.21658745 -0.09561423
000360 9f e1 91 3c 55 70 a8 be 3f f1 87 be 17 51 b0 3d
       0.01780778 -0.32898203 -0.26551244 0.08609217
000370 5f ad ac bd 12 20 2c bd 5c a3 00 3e 8b 84 8b 3d
       -0.084315054 -0.042022772 0.12562317 0.0681239
000380 8c ae b7 bc 11 d3 10 3e a8 24 b7 bc 27 9d c4 3a
       -0.022422098 0.14143015 -0.022356346 0.0015000448
000390 3e 17 62 3d 9e fa d0 3d 4f d7 20 be 7d 40 93 bd
       0.055197947 0.102040514 -0.15707134 -0.071900345
0003a0 64 d6 8d bd cf f4 1e be 6e 25 0f 3d fb 89 45 3d
       -0.069256574 -0.15523075 0.034947805 0.04822729
0003b0 d1 74 41 3d bf f3 b1 bd 60 63 a0 3d f0 c5 41 3d
       0.047230545 -0.08689069 0.07831454 0.04730791
0003c0 a6 cf 55 bd ee 33 26 be e4 14 07 3e ad 89 ec 3b
       -0.052199982 -0.16230747 0.13191563 0.0072185607
0003d0 78 92 1e 3e 7c 3c 0b be fe fb 10 3e c2 af a3 3e
       0.15485561 -0.13597292 0.14158627 0.3197003
0003e0 52 30 1d be 7f 2c 93 3c 4d df c9 bd 19 fe 22 be
       -0.15350464 0.017965553 -0.09857044 -0.15917243
0003f0 08 b3 93 bd 0d 46 0c be e6 34 eb bd c9 94 ee 3d
       -0.07211882 -0.13698597 -0.11484699 0.11649472

h2.bias f4 [16]
000000 e2 53 64 3b aa 6b 70 bd 49 77 b3 3c 9e f2 36 3d
       0.0034840037 -0.058696426 0.021907466 0.04466497
000010 6e 83 81 be 75 ab 5f be 2e 3b 8a 3d 4b 2e 88 be
       -0.25295585 -0.2184275 0.06749569 -0.2659782
000020 1d fe 78 3d 23 64 92 3e ce 3f 39 3e f5 eb 2a be
       0.060789216 0.28592023 0.18090746 -0.16691573
000030 72 d5 7c be 04 b8 92 bd ba 07 ab bd 79 66 c7 bd
       -0.24690798 -0.071640044 -0.08351083 -0.09736342

h3.weight f4 [8, 16]
000000 fe 85 41 be be 91 49 3c 9e 8f 64 be 8d f3 1b be
       -0.1889877 0.012302814 -0.2232041 -0.15229626
000010 6a be 3e be 8c f3 cf bd 6a 63 b4 3e c4 92 83 be
       -0.18627325 -0.10153875 0.35232097 -0.2569791
000020 25 47 d4 bc a1 0f 21 bd f8 bd 11 bd 47 a9 f9 be
       -0.02591283 -0.039321546 -0.03558156 -0.4876196
000030 90 06 71 be 08 8e 29 be c0 88 65 bc 10 0e 47 be
       -0.2353766 -0.16558087 -0.0140096545 -0.19438958
000040 42 a8 c5 be 49 ef 0b be c6 50 c5 be 8c cb 0a be
       -0.38604933 -0.13665499 -0.38538188 -0.1355421
000050 6b ae 4d be b7 d8 56 bf 4c 27 98 3e c0 aa f7 be
       -0.20086066 -0.8392443 0.2971748 -0.4837246
000060 76 01 91 be 36 04 e7 3e 32 a2 d2 3d 16 51 88 be
       -0.28321427 0.451204 0.102848426 -0.26624364
000070 78 60 ed be 24 67 c5 be b9 50 34 3d 7c 48 24 be
       -0.46362662 -0.38555253 0.044022296 -0.16043276
000080 d1 97 fb bc 5c 97 98 bc c2 c5 ae be 62 aa ae be
       -0.03071204 -0.018626861 -0.34135252 -0.34114367
000090 c3 3f 7b be 95 74 35 bf db 6e 06 3e a6 ea ec be
       -0.24536042 -0.70881015 0.13128226 -0.46272773
0000a0 6c 8c 81 be 67 27 d2 3e e9 ea 85 3e 5b 6b a5 be
       -0.25302446 0.41045687 0.26155785 -0.32308468
0000b0 49 30 71 be 94 78 21 bf b6 23 8a be a5 6f 1e be
       -0.23553576 -0.6307461 -0.2698037 -0.15472277
0000c0 d2 66 93 3e 2d fa d8 3e 67 ac d2 3d d4 56 38 3e
       0.28789383 0.4237837 0.102867894 0.18001872
0000d0 07 d5 5a 3e 0d 09 39 3e eb ce a3 be ba c2 0d bd
       0.21370326 0.18069859 -0.31993803 -0.034609534
0000e0 79 55 37 3d 77 ad 15 3e a5 38 dc bd 87 50 03 3e
       0.044759247 0.14616953 -0.107529916 0.12823687
0000f0 69 3b 02 3d aa c1 ae 3c 6d 64 19 bd 27 c1 0a 3e
       0.03179494 0.02133258 -0.03744929 0.13550244
000100 cf bd a0 3b 6e 36 41 be ab bb cd 3d e2 1a 0a be
       0.0049054394 -0.1886842 0.100455604 -0.13486817
000110 ed e0 3d bd 3b 66 41 be 5a f3 ad 3e ab ff 7d bd
       -0.046357084 -0.18886654 0.33974725 -0.062011402
000120 42 64 99 be e2 a2 d6 bd 8b d5 58 bd 81 ff 69 be
       -0.29959303 -0.10480286 -0.052938025 -0.22851373
000130 51 ab 66 be ab 11 78 be 59 06 6b be 34 10 30 be
       -0.2252629 -0.2422549 -0.2295164 -0.17193681
000140 20 f4 8e bd 13 96 dc 3d 81 14 b5 3d a1 22 0f 3b
       -0.06980157 0.10770812 0.088418014 0.0021840709
000150 d8 39 52 3d 84 0d 01 3e d9 8a 51 3c b6 93 03 3e
       0.051324695 0.12602812 0.0127894515 0.12849316
000160 68 31 2b 3e 4e 42 f8 bd 7d 5a b3 bd ff 65 b1 3d
       0.16718066 -0.121220216 -0.08757494 0.08662032
000170 91 14 15 3e c0 e1 52 3e 32 43 42 3e e5 60 4e be
       0.14558627 0.2059393 0.18970945 -0.2015415
000180 4f ac c7 be 46 68 31 be 97 46 ab 3d 24 ae 33 bf
       -0.3899865 -0.17324933 0.08363073 -0.7018759
000190 25 4c ae 3d c7 b5 bd be a8 f5 6b 3e 59 54 50 be
       0.08510617 -0.37052748 0.23042929 -0.20344676
0001a0 00 53 83 be 23 81 00 bd ad 0a 8a 3e 42 93 93 be
       -0.2564926 -0.031373154 0.2696127 -0.28823286
0001b0 7e ec bb bc 37 9f ee bd bb 06 a9 be 13 22 04 be
       -0.022939917 -0.116514616 -0.33012947 -0.12903623
0001c0 c7 46 e4 bd 60 28 34 be 38 d2 67 bd fe ee bd bd
       -0.11146312 -0.17593527 -0.056596965 -0.092741
0001d0 8e c9 2f be 92 1a 34 be a3 70 48 3e 60 87 89 be
       -0.17166731 -0.17588261 0.19574217 -0.26861095
0001e0 ec 28 1d 3d 89 7d 80 be 07 cc 3c be 42 a4 39 be
       0.038369104 -0.25095776 -0.18437205 -0.18129066
0001f0 43 2a 53 3d ca 4f 42 bb 27 94 e2 bb 7d 2f f3 bc
       0.051553976 -0.0029649609 -0.006914634 -0.02968573

h3.bias f4 [8]
000000 e3 d6 06 be 8b 8c ba 3e 1e 90 a3 3e 88 8e 2c be
       -0.1316791 0.3643535 0.3194589 -0.16851246
000010 94 4b 25 3d 85 36 6c bd 69 47 a8 3e d2 40 0c be
       0.04035528 -0.05766918 0.32866982 -0.13696602

h4.weight f4 [1, 8]
000000 ca da a5 3e 99 b0 ff 3e 15 15 0a 3f 50 21 d4 bd
       0.32393485 0.4993942 0.5393842 -0.10357916
000010 2a 61 b0 3e 56 d3 52 be 82 f9 f8 3e 1a bc a3 3e
       0.3444913 -0.20588431 0.4862786 0.31979448
