src/models/saved_models/best_model_lr0.0001_roc_auc0.954123872475799.pt (torch, 23957 bytes, 9 tensors)

input.weight f4 [64, 30]
0.14473863 -0.014567798 -0.10756479 -0.09819816 -0.09388443 0.05969053 -0.047238808 0.020134993
-0.1329389 -0.013370697 -0.09142158 0.18493414 0.018541548 0.052823063 0.0023620469 0.13733757
-0.2017074 -0.15500134 -0.17520544 0.26708776 0.16705282 -0.089843675 -0.023914726 0.112582915
-0.10068272 -0.096845165 -0.093459286 -0.010494419 0.05878604 -0.06196139 -0.077279046 0.25550818
-0.14584744 0.05791419 0.14059573 0.053312242 0.12983447 0.019697769 0.29893714 0.16310157
-0.14383346 -0.04178891 0.13570592 -0.15033643 0.2419031 0.0043210727 0.16992117 -0.14480428
0.015490769 0.1531537 0.09937005 0.13291535 -0.05610309 0.019596638 0.25034413 0.27539253
0.22476944 -0.16408364 -0.12953113 0.009189419 0.047046594 -0.115901165 -0.0037650971 0.11882551
-0.19676252 0.056637127 -0.059452012 -0.010041729 0.11127887 -0.051648162 0.08296534 0.07744377
0.012278895 -0.14839156 0.01781329 -0.17944776 0.16776061 -0.008473757 0.23325978 0.17593983
0.04805698 -0.110340714 -0.051515844 -0.17814334 -0.019068081 0.15312059 0.16654658 0.09238499
0.13607745 0.15039185 -0.12239829 0.034434803 -0.026090935 0.026229821 0.22148462 0.015929654
-0.13786066 0.028598081 -0.19605385 0.098395355 -0.10814352 0.20199667 -0.17818819 -0.116344355
-0.11710121 -0.13486047 0.05186465 -0.05961885 0.065832175 0.020934463 0.101194605 0.013650848
0.12292485 0.055525992 0.071505465 0.08450004 -0.15664415 -0.030641213 0.09046764 0.20866574
-0.09877983 0.2484528 -0.12313009 -0.11172726 -0.21675313 -0.1843351 0.04456407 -0.16810025
0.057337943 0.10843161 -0.06799617 -0.037761852 -0.1137972 0.1030104 0.14257197 -0.013676389
-3.3152246e-05 -0.1732709 0.06459772 0.08354637 -0.108981155 0.10783184 -0.008350253 0.04539305
-0.11529993 0.2115542 0.20736638 0.12891367 -0.1452644 0.13170004 -0.12459377 0.011378407
0.02965968 -0.26103052 -0.0906441 0.070477284 0.04477495 -0.10920383 -0.018815273 0.09996125
0.07688952 -0.14304219 -0.055934552 -0.15593883 -0.09428694 0.082719885 -0.25146657 -0.09571346
-0.13065253 0.19659133 0.12127755 0.14742696 0.041212127 -0.044394612 -0.0708996 0.10473762
0.089591555 -0.03827645 -0.026869206 0.12895514 -0.14709322 0.098751135 -0.106580354 0.2216886
-0.17319795 -0.1774198 0.14017735 0.04984222 0.099939995 0.17285453 0.2129288 0.024879178
-0.046143863 0.089471295 -0.06392953 0.04812331 -0.023166489 0.11664716 -0.26776278 -0.18872325
-0.10435695 0.22824061 0.17295125 -0.09823868 -0.019583177 0.21703154 0.108627856 -0.086939834
0.15518525 0.16507097 -0.25017422 -0.18129033 -0.016088586 0.1528649 0.20150764 0.02302563
-0.17586444 -0.13125882 0.10117174 -0.12154286 -0.19724672 -0.022139285 0.056465246 -0.15857099
-0.0062769 0.17949145 0.051215664 -0.035282187 -0.09686035 -0.027716115 -0.06503249 0.05348265
-0.03564181 0.013620286 -0.17257698 0.018442975 0.047588218 -0.026561026 0.015147455 -0.19594836
0.0075804424 0.055758048 0.09454561 -0.08618856 -0.25891724 0.013331306 0.17158489 0.064681046
0.07604996 -0.14251222 -0.13001956 -0.09051818 0.25937733 0.015756937 0.020194607 0.12532826
00000000: 5d36 143e c6ad 6ebc ee4a dcbd 1e1c c9bd
00000010: 7b46 c0bd 0f7e 743d 7b7d 41bd 24f2 a43c
00000020: 2321 08be c510 5bbc 3d3b bbbd 605f 3d3e
00000030: 72e4 973c ff5c 583d 92cc 1a3b 38a2 0c3e
00000040: 628c 4ebe acb8 1ebe 0e69 33be babf 883e
00000050: e50f 2b3e f6ff b7bd d1e8 c3bc df91 e63d
00000060: be32 cebd c256 c6bd 9567 bfbd c9f0 2bbc
00000070: a1c9 703d 3acb 7dbd 7a44 9ebd f8d1 823e
00000080: 0859 15be 6e37 6d3d 54f8 0f3e f05d 5a3d
00000090: 54f3 043e 375d a13c 4a0e 993e 1904 273e
000000a0: 1449 13be d92a 2bbd 7ef6 0a3e cbf1 19be
000000b0: 72b5 773e c997 8d3b d1ff 2d3e 9347 14be
000000c0: ffcc 7d3c 53d4 1c3e 8682 cb3d f61a 083e
000000d0: 5bcc 65bd 2189 a03c 1b2d 803e 4000 8d3e
000000e0: f629 663e 8b05 28be cfa3 04be 388f 163c
000000f0: eeb3 403d 975d edbd d9bf 76bb ca5a f33d
00000100: 1d7c 49be 55fc 673d f483 73bd 1086 24bc
00000110: 2de6 e33d 068d 53bd bbe9 a93d d79a 9e3d
00000120: 6b2d 493c f5f3 17be 2ded 913c 27c1 37be
00000130: 70c9 2b3e 83d5 0abc a7db 6e3e 9229 343e
00000140: 65d7 443d 50fa e1bd 4702 53bd 356b 36be
00000150: aa34 9cbc a5cb 1c3e 308b 2a3e 5734 bd3d
00000160: e357 0b3e 5200 1a3e f4ab fabd 820b 0d3d
00000170: a8bc d5bc ecdf d63c ddcc 623e e87e 823c
00000180: 582b 0dbe 8646 ea3c 57c2 48be 8183 c93d
00000190: 5a7a ddbd 37d8 4e3e f776 36be f345 eebd
000001a0: c2d2 efbd dd18 0abe 0770 543d e532 74bd
000001b0: 05d3 863d c07e ab3c 1e3f cf3d cea7 5f3c
000001c0: 06c0 fb3d 396f 633d 7571 923d 5b0e ad3d
000001d0: 5367 20be 4803 fbbc 1947 b93d 79ac 553e
000001e0: 144d cabd 696a 7e3e a12b fcbd 43d1 e4bd
000001f0: 88f4 5dbe 57c2 3cbe d088 363d 7922 2cbe
00000200: 31db 6a3d 6411 de3d 9341 8bbd 2cac 1abd
00000210: 820e e9bd 1ef7 d23d 63fe 113e ef12 60bc
00000220: f40c 0bb8 ed6d 31be cf4b 843d 5c1a ab3d
00000230: 8331 dfbd f1d6 dc3d 80cf 08bc 10ee 393d
00000240: 5f22 ecbd aaa1 583e da57 543e f201 043e
00000250: 31c0 14be 60dc 063e 052b ffbd 7f6c 3a3c
00000260: dbf8 f23c cba5 85be 9da3 b9bd 6556 903d
00000270: f065 373d 42a6 dfbd 7d22 9abc 7cb8 cc3d
00000280: 4178 9d3d a779 12be a11b 65bd 6eae 1fbe
00000290: 8319 c1bd 0b69 a93d 3ac0 80be 6b05 c4bd
000002a0: c7c9 05be 3d4f 493e 5d60 f83d 18f7 163e
000002b0: 0cce 283d 20d7 35bd cf33 91bd ad80 d63d
000002c0: c77b b73d c4c7 1cbd cf1c dcbc d10c 043e
000002d0: 9b9f 16be 093e ca3d cd46 dabd 5602 633e
000002e0: ce5a 31be 89ad 35be a78a 0f3e 5b27 4c3d
000002f0: 57ad cc3d c700 313e 020a 5a3e 6bcf cb3c
00000300: 5901 3dbd ba3c b73d 7ced 82bd f31c 453d
00000310: a6c7 bdbc b5e4 ee3d 3418 89be ab40 41be
00000320: 19b9 d5bd e8b7 693e 221a 313e 5c31 c9bd
00000330: e66c a0bc 843d 5e3e 4878 de3d 830d b2bd
00000340: e2e8 1e3e 5d08 293e d616 80be 2ca4 39be
00000350: 36cc 83bc 9e88 1c3e 0558 4e3e 3fa0 bc3c
00000360: cf15 34be b668 06be 2133 cf3d 77eb f8bd
00000370: 0bfb 49be 725d b5bc 1a48 673d 6f60 22be
00000380: 74ae cdbb 9bcc 373e 84c7 513d 0e84 10bd
00000390: b85e c6bd e80c e3bc c12f 85bd a010 5b3d
000003a0: 26fd 11bd 9f27 5f3c 05b8 30be b915 973c
000003b0: ddeb 423d 8296 d9bc 082d 783c b0a6 48be
000003c0: 5c65 f83b 8d62 643d 21a1 c13d a183 b0bd
000003d0: cd90 84be 8d6b 5a3c f3b3 2f3e 7f77 843d
000003e0: 15c0 9b3d b9ee 11be d923 05be 9861 b9bd
000003f0: 1bcd 843e b114 813c 296f a53c 0d56 003e

input.bias f4 [64]
0.29991916 0.23430732 0.19734621 0.24058852 0.24554586 0.13465525 0.0662461 -0.024193719
0.031364866 -0.09145427 0.17172633 0.018070979 0.004250274 0.20886576 0.15118526 -0.010097798
-0.24963932 0.12212263 0.14565304 0.20946638 -0.14544797 0.22360267 -0.1510711 0.11505649
0.36355004 0.2609235 0.02410027 0.09362448 0.019475568 -0.074144356 0.08157643 0.045077685
0.0020456954 0.3143305 -0.03708059 0.021101607 0.36185762 0.24172775 0.06896075 -0.068052195
-0.06735328 -0.10929648 0.15380251 -0.1726061 0.03324907 -0.10661479 0.04275744 -0.11969039
-0.036572862 0.12082428 0.17967916 0.18647517 0.18865378 -0.08998689 0.21765673 0.06839337
-0.10779753 0.29784635 -0.018775739 0.16634381 -0.023281148 0.25950742 0.2711788 0.1660624
00000000: 018f 993e 42ee 6f3e 2015 4a3e d65c 763e
00000010: 6070 7b3e 11e3 093e 09ac 873d e831 c6bc
00000020: 7278 003d 604c bbbd 07d9 2f3e 9709 943c
00000030: e245 8b3b e8e0 553e 4fd0 1a3e 3c71 25bc
00000040: 73a1 7fbe 6e1b fa3d 1226 153e 5b7e 563e
00000050: 50f0 14be 19f8 643e 62b2 1abe bda2 eb3d
00000060: 3b23 ba3e c497 853e ee6d c53c 31be bf3d
00000070: 3a8b 9f3c ffd8 97bd 8b11 a73d 61a3 383d
00000080: 1311 063b edef a03e d1e1 17bd 47dd ac3c
00000090: 6745 b93e 7b87 773e 4b3b 8d3d f35e 8bbd
000000a0: 84f0 89bd d5d6 dfbd 687e 1d3e a7bf 30be
000000b0: 2d30 083d db58 dabd 6d22 2f3d 3c20 f5bd
000000c0: 6dcd 15bd b872 f73d d0fd 373e 59f3 3e3e
000000d0: 752e 413e 0c4b b8bd 68e1 5e3e d311 8c3d
000000e0: f4c4 dcbd 517f 983e 94cf 99bc 0856 2a3e
000000f0: 1bb8 bebc 28de 843e f3d7 8a3e 430c 2a3e

h1.weight f4 [32, 64]
-0.035873562 0.22921132 0.024941234 0.04035784 0.09083053 0.07627023 0.1739749 0.115538985
-0.015635816 0.2736659 0.17486444 -0.055718623 0.20685147 0.04868439 0.21312305 0.08029239
0.26674348 0.024445906 0.1793112 0.07947747 0.11461328 0.20292899 0.017675484 0.1480643
0.15920796 0.18096922 0.06386704 -0.042182703 0.038944583 0.25885233 0.04911953 0.09248826
0.06359007 0.13967846 -0.10120888 0.24327762 0.17538296 0.21197349 0.15157735 0.022039723
0.13849767 0.13313112 0.058244336 0.17354953 -0.065145865 0.3062063 0.13842551 0.010976979
0.13261934 0.09614395 0.16813496 0.06968754 0.20825389 0.12139192 0.22285895 0.030447595
0.13372035 0.087009 0.0891774 0.12805939 -0.043565623 -0.052690037 0.06583727 0.16457805
0.05498826 -0.0024430223 -0.07420843 0.25534195 -0.039809056 0.11137203 -0.15064648 -0.041408196
0.11652927 -0.005240449 0.07702189 0.16866004 0.085598074 0.037528496 0.061234932 0.13896988
0.02213557 0.20953482 0.028659817 -0.122784436 -0.068105616 0.06374239 -0.09277747 0.12745638
0.13406189 0.025735619 -0.14303595 -0.0037019819 0.06448203 -0.026101418 0.07683658 -0.08398713
-0.018159535 -0.0619812 0.08486758 0.075626336 0.1286816 -0.04073476 0.030500028 0.15994631
0.08552614 0.04217787 0.15787862 0.0288927 0.10806809 -0.103676185 0.1633005 0.030259043
-0.13302274 -0.10443492 0.018988283 0.1442492 0.11822864 0.04675355 0.11612517 0.0027367927
-0.0054112417 0.09586751 0.11511166 0.076273024 0.0069102896 0.23478515 0.030305391 0.12534846
0.05432516 0.13659766 0.1836676 -0.04412489 0.059385438 0.008952163 0.27731848 0.07355716
0.09726979 0.38691938 0.21868938 0.0930608 0.3821526 0.11650774 -0.006854328 -0.022675259
0.20315008 -0.07313597 0.16046362 0.36032 0.22378805 0.09457999 -0.052094676 0.21246278
0.24487011 0.21713464 -0.0009697857 0.001807558 0.009076991 0.21695219 0.17631514 0.31973496
0.13471138 0.10482226 -0.0068937256 0.032555424 0.066936195 0.27432573 0.0908854 -0.06949749
-0.03484128 0.20438169 -0.043259185 0.18798818 0.06867852 -0.046282392 -0.06550825 -0.08512299
0.18603499 0.13799538 0.07613567 -0.07207916 0.222956 0.14163029 0.008884271 -0.0013573201
0.09232594 -0.041640684 -0.075615264 0.027366087 -0.08813041 -0.07212841 0.263122 -0.016082205
0.17110653 0.083857544 0.032849733 0.17032835 0.26458323 -0.050231647 0.19058912 0.10509466
0.09462471 0.085562676 0.20971103 0.09348987 0.20156936 -0.0084182 0.16158901 0.04397387
0.179657 0.13313703 0.21685554 0.31174794 0.12134314 0.24875078 0.13773328 0.11404425
0.17720191 0.21086328 0.12855372 0.25263786 0.11138544 0.13468388 0.1799995 0.1811575
0.13379247 0.010305472 0.14596653 0.16276908 0.12526731 0.29406014 0.080141045 0.16602466
0.022936083 0.141861 0.07456901 0.13455385 -0.03398604 0.03495611 0.08718759 0.039039895
0.047736295 0.1989026 0.17673732 -0.00549111 0.07819757 0.22399615 0.05363241 0.1279331
0.06332215 0.024896022 0.16673987 0.268564 0.019547239 0.18240145 0.10563402 0.035355486
00000000: 28f0 12bd 5fb6 6a3e 8f51 cc3c 434e 253d
00000010: 5b05 ba3d 9133 9c3d 7a26 323e b49f ec3d
00000020: af16 80bc f01d 8c3e aa0f 333e 3639 64bd
00000030: dfd0 533e 4869 473d ee3c 5a3e 5670 a43d
00000040: 9a92 883e c842 c83c 5b9d 373e 15c5 a23d
00000050: 5eba ea3d 9ecc 4f3e 2dcc 903c 2b9e 173e
00000060: 6907 233e ff4f 393e b9cc 823d c5c7 2cbd
00000070: 5b84 1f3d 4b88 843e 8f31 493d 7c6a bd3d
00000080: 833b 823d df07 0f3e 9a46 cfbd c51d 793e
00000090: 9797 333e 940f 593e 1837 1b3e a68c b43c
000000a0: 55d2 0d3e 8653 083e 9d91 6e3d f8b6 313e
000000b0: 326b 85bd 12c7 9c3e 6bbf 0d3e c9d8 333c
000000c0: 5dcd 073e 1fe7 c43d 922b 2c3e 57b8 8e3d
000000d0: 8240 553e 549c f83d 2335 643e 3c6d f93c
000000e0: fded 083e c631 b23d a4a2 b63d 0022 033e
000000f0: de71 32bd 82d1 57bd b1d5 863d 2687 283e
00000100: 5f3b 613d 1d1b 20bb 97fa 97bd 2ebc 823e
00000110: d20e 23bd 0517 e43d 1243 1abe a49b 29bd
00000120: e6a6 ee3d 13b8 abbb a7bd 9d3d 38b5 2c3e
00000130: 0b4e af3d 7bb7 193d 7bd1 7a3d 1f4e 0e3e
00000140: a855 b53c 4c90 563e fec7 ea3c 6876 fbbd
00000150: f57a 8bbd 5f8b 823d 1d02 bebd ed83 023e
00000160: 8547 093e 81d3 d23c 0478 12be f39c 72bb
00000170: 280f 843d a4d2 d5bc 7f5c 9d3d 7201 acbd
00000180: 4ec3 94bc 00e0 7dbd 0ecf ad3d fbe1 9a3d
00000190: 1cc5 033e 7ed9 26bd 32db f93c f7c8 233e
000001a0: 5428 af3d b4c2 2c3d efaa 213e 62b0 ec3c
000001b0: ce52 dd3d 2e54 d4bd 3f38 273e d0e1 f73c
000001c0: 1d37 08be fae1 d5bd 518d 9b3c 10b6 133e
000001d0: db21 f23d a780 3f3d 08d3 ed3d c35b 333b
000001e0: c950 b1bb 2f56 c43d a9bf eb3d 0835 9c3d
000001f0: b66f e23b 856b 703e 0343 f83c 595b 003e
00000200: 0f84 5e3d 42e0 0b3e 5c13 3c3e 4dbc 34bd
00000210: 253e 733d 18ac 123c b0fc 8d3e 23a5 963d
00000220: 6235 c73d 4c1a c63e 1cf0 5f3e a996 be3d
00000230: 81a9 c33e 9c9b ee3d 459a e0bb 77c1 b9bc
00000240: 9306 503e 50c8 95bd 9350 243e dd7b b83e
00000250: b228 653e 27b3 c13d 3a61 55bd d88f 593e
00000260: 3bbf 7a3e 8b58 5e3e 3739 7eba 95eb ec3a
00000270: a9b7 143c b728 5e3e f58b 343e 4db4 a33e
00000280: c8f1 093e 0ead d63d c3e4 e1bb d658 053d
00000290: d815 893d 6c74 8c3e 2022 ba3d b354 8ebd
000002a0: bbb5 0ebd 6f49 513e 8b30 31bd f97f 403e
000002b0: 53a7 8c3d 9b92 3dbd 3029 86bd f654 aebd
000002c0: f57f 3e3e a94e 0d3e 05ed 9b3d 3d9e 93bd
000002d0: 944e 643e 8807 113e 558f 113c 1be8 b1ba
000002e0: 6215 bd3d 6c8f 2abd 2ddc 9abd d82e e03c
000002f0: b77d b4bd 0fb8 93bd edb7 863e d4be 83bc
00000300: 8d36 2f3e 81bd ab3d 718d 063d 8e6a 2e3e
00000310: 7477 873e b3bf 4dbd cb29 433e de3b d73d
00000320: 9aca c13d 7c3b af3d 7dbe 563e 9e77 bf3d
00000330: 3368 4e3e 7dec 09bc 9777 253e f21d 343d
00000340: 01f8 373e 1355 083e 610f 5e3e 6d9d 9f3e
00000350: c182 f83d 86b8 7e3e f409 0d3e 0890 e93d
00000360: 6b74 353e 8bec 573e 96a3 033e c059 813e
00000370: 0d1e e43d 92ea 093e ca51 383e 5a81 393e
00000380: e500 093e 48d8 283c 4078 153e f0ac 263e
00000390: 1346 003e 0d8f 963e fd20 a43d 5e02 2a3e
000003a0: 74e4 bb3c 0344 113e a3b7 983d 7cc8 093e
000003b0: f234 0bbd 232e 0f3d 688f b23d 4ce8 1f3d
000003c0: 2287 433d 20ad 4b3e a1fa 343e c5ee b3bb
000003d0: 0c26 a03d 3f5f 653e a8ad 5b3d e500 033e
000003e0: 0baf 813d bef2 cb3c dbbd 2a3e 3881 893e
000003f0: 8821 a03c 72c7 3a3e a656 d83d ead0 103d

h1.bias f4 [32]
0.1551262 0.045774378 0.056530777 0.08836095 -0.13365985 -0.06921241 0.026704414 0.015956715
0.13452613 0.035275813 -0.07474351 0.021080786 0.08619887 0.108044 0.24285413 0.062505
-0.04774599 0.076356694 0.14852361 0.0832293 0.045741547 0.14936525 0.10455149 0.032781668
0.061432853 0.04970946 0.023191342 0.04186664 0.0023323856 0.08584798 0.051569674 0.014360747
00000000: 67d9 1e3e ea7d 3b3d d18c 673d 96f6 b43d
00000010: 21de 08be 3cbf 8dbd 37c3 da3c a8b7 823c
00000020: 38c1 093e 5f7d 103d 2013 99bd 9db1 ac3c
00000030: 0889 b03d 2c46 dd3d c1ae 783e 9f02 803d
00000040: 4d91 43bd e660 9c3d 9316 183e 2074 aa3d
00000050: 7d5b 3b3d 34f3 183e 171f d63d 1246 063d
00000060: 04a1 7b3d 269c 4b3d c5fb bd3c 5b7c 2b3d
00000070: f0da 183b 11d1 af3d b93a 533d 5749 6b3c

h2.weight f4 [16, 32]
0.03272096 0.06253299 -0.06546326 0.05535595 -0.057990313 -0.060963277 -0.026596505 -0.08339032
-0.139149 0.059051037 -0.11525006 -0.046738047 0.056345403 0.10700687 0.13977905 -0.19583283
-0.19080262 -0.104127094 -0.10220247 -0.1474909 -0.04246689 0.04248245 -0.16345318 0.06795029
-0.11901314 -0.118742414 -0.070752025 -0.14693752 0.106963396 -0.19163425 0.019804565 -0.072141804
-0.075184755 -0.031033214 0.073528 0.0099518895 -0.07052576 0.061707307 -0.06434753 0.013103362
-0.076977186 -0.057399932 -0.14213897 -0.03675264 -0.19846347 -0.07620662 -0.071314655 -0.09579877
0.15306206 0.007190344 -0.12908788 -0.017602066 -0.059469495 0.06100719 0.0807174 -0.14188842
-0.043330394 0.0035138084 0.05224146 0.015536789 0.055465493 -0.09711568 -0.059513234 -0.039666686
0.15842852 -0.068922915 0.04294806 0.10180714 0.0879835 0.052569564 0.041804418 -0.22685714
-0.27643353 0.20065269 -0.033907708 0.030106645 -0.03632006 -0.22510001 0.06918434 0.13083114
-0.06233187 -0.11075932 0.13171443 0.007942507 -0.17226757 0.091597885 0.21491593 0.028343325
-0.2692022 -0.2486978 0.017795509 -0.0064544464 -0.09161905 0.12726122 0.19513904 0.09951938
-0.11175051 0.23017213 -0.110495366 -0.15573257 -0.17818025 0.061595544 0.020740533 0.104011595
0.23863989 -0.020108087 0.07005933 -0.11970342 0.29586327 0.21483532 0.26241222 -0.112651706
0.110146195 0.3257895 0.19132963 0.24811907 0.24401973 -0.1458793 0.16624756 0.060340494
0.25943938 0.06471687 -0.1625267 0.28285718 -0.059890322 0.07862212 -0.11672005 0.050386123
0.06229482 -0.08692203 0.27738142 0.16069876 0.23062514 0.110718116 0.25424966 -0.16091965
-0.09555388 0.24308157 0.05940329 0.07118973 -0.18876097 -0.21633776 -0.16282174 0.10847075
-0.023157308 -0.1325392 0.14404769 -0.004324973 -0.25710487 0.2927835 0.32139948 0.25623298
-0.038412847 -0.24231985 -0.031665605 -0.110340446 0.0114925625 0.18608047 0.3407583 0.28475773
0.30287102 -0.0012620474 0.22306846 0.25509697 0.2364226 -0.059325658 0.11565842 -0.015974943
-0.14312078 0.27589482 -0.038559128 0.16689618 -0.16129428 -0.14675753 0.1356148 0.21061328
0.028381469 -0.20342363 0.06659029 -0.031455427 -0.22630693 0.27600786 0.070141345 0.0008149245
-0.09177248 -0.02684661 0.09514436 -0.13745454 -0.11574751 0.15472336 0.25350493 0.15046522
0.012655684 -0.0024643773 0.103410766 0.054941013 -0.06397247 -0.022765718 -0.120962396 -0.017327812
-0.14200383 0.18082458 -0.047102425 0.1795323 -0.20923448 -0.12339535 0.13523293 0.011542519
0.017489877 0.058773845 -0.06423624 -0.13035157 -0.035105616 0.10585538 0.0863133 0.14704739
-0.117743574 -0.014474323 0.07193555 0.05188462 0.10758492 0.17232758 0.07070474 -0.113760926
-0.051826287 0.14492215 0.13332038 0.11479833 -0.112771854 0.17109838 0.08797101 0.2728903
0.26228914 0.077168815 0.080143645 -0.109516196 0.20040281 0.2147791 -0.010745311 0.27334017
0.13147697 0.032782853 0.2153778 -0.041952945 0.2148344 0.043543376 -0.070261866 0.25858325
0.18475245 0.20576875 0.08726765 0.1786075 -0.06595302 0.25917244 0.24637303 0.040780038
00000000: 6a06 063d 4c11 803d 9a11 86bd ecbc 623d
00000010: 4087 6dbd a1b4 79bd eae0 d9bc 8bc8 aabd
00000020: 137d 0ebe 80df 713d 3908 ecbd 6570 3fbd
00000030: 70ca 663d 6b26 db3d 3d22 0f3e 6788 48be
00000040: c361 43be 9640 d5bd 874f d1bd db07 17be
00000050: c3f1 2dbd 1402 2e3d 4560 27be 8629 8b3d
00000060: 29bd f3bd 392f f3bd 70e6 90bd ca76 16be
00000070: a00f db3d c53b 44be 2f3d a23c 15bf 93bd
00000080: 77fa 99bd 5e39 febc d995 963d 400d 233c
00000090: cf6f 90bd cdc0 7c3d a3c8 83bd 7caf 563c
000000a0: 37a6 9dbd 311c 6bbd e18c 11be f089 16bd
000000b0: 023a 4bbe 3712 9cbd 6b0d 92bd 2532 c4bd
000000c0: 4dbc 1c3e fa9c eb3b 9d2f 04be 3532 90bc
000000d0: 4996 73bd ade2 793d 2a4f a53d 334b 11be
000000e0: 367b 31bd ec47 663b 24fb 553d 048e 7e3c
000000f0: c92f 633d 96e4 c6bd 26c4 73bd 8979 22bd
00000100: 163b 223e 7527 8dbd 4eea 2f3d 4380 d03d
00000110: b130 b43d 2f53 573d 1c3b 2b3d 3d4d 68be
00000120: b288 8dbe e677 4d3e cfe2 0abd 36a2 f63c
00000130: 58c4 14bd 9e80 66be 85b0 8d3d 99f8 053e
00000140: b44f 7fbd c8d5 e2bd 26e0 063e 4a21 023c
00000150: e966 30be ac97 bb3d ec12 5c3e 4330 e83c
00000160: dfd4 89be a3aa 7ebe e3c7 913c d27f d3bb
00000170: c5a2 bbbd c450 023e 87d2 473e d1d0 cb3d
00000180: 74dd e4bd 3eb2 6b3e 654b e2bd 5c78 1fbe
00000190: e274 36be 9c4b 7c3d 0de8 a93c 0804 d53d
000001a0: 045e 743e b7b9 a4bc 447b 8f3d 1127 f5bd
000001b0: 647b 973e cafd 5b3e e55a 863e f0b5 e6bd
000001c0: 5494 e13d e2cd a63e eaeb 433e ed12 7e3e
000001d0: 4fe0 793e 6261 15be cd3c 2a3e 9827 773d
000001e0: 3dd5 843e 478a 843d 666d 26be a8d2 903e
000001f0: 8e4f 75bd a204 a13d ec0a efbd ae61 4e3d
00000200: da28 7f3d 2d04 b2bd f004 8e3e 378e 243e
00000210: ff28 6c3e 2ec0 e23d 032d 823e 1fc8 24be
00000220: c1b1 c3bd 60ea 783e dd50 733d eccb 913d
00000230: 8e4a 41be a587 5dbe beba 26be ea25 de3d
00000240: 65b4 bdbc 5bb8 07be 3d81 133e 81b8 8dbb
00000250: 40a3 83be b8e7 953e 798e a43e f830 833e
00000260: ca56 1dbd b222 78be cbb3 01bd 2cfa e1bd
00000270: 4d4b 3c3c e18b 3e3e df77 ae3e c4cb 913e
00000280: e911 9b3e 496b a5ba 0f6c 643e 129c 823e
00000290: c418 723e 76ff 72bd 52de ec3d e2dd 82bc
000002a0: 418e 12be 1642 8d3e 2df0 1dbd d5e6 2a3e
000002b0: 542a 25be 9b47 16be 9bde 0a3e 02ab 573e
000002c0: 4180 e83c 494e 50be 7d60 883d 68d7 00bd
000002d0: 01bd 67be e750 8d3e 44a6 8f3d a8a0 553a
000002e0: 36f3 bbbd 6ced dbbc 0cdb c23d e2c0 0cbe
000002f0: 080d edbd cd6f 1e3e 66cb 813e 8e13 1a3e
00000300: c959 4f3c 6481 21bb 06c9 d33d d409 613d
00000310: 0004 83bd 2c7f babc 22bb f7bd 0ef3 8dbc
00000320: 7469 11be 142a 393e 79ee 40bd 51d7 373e
00000330: 9041 56be b4b6 fcbd 807a 0a3e d51c 3d3c
00000340: ee46 8f3c d8bc 703d 4a8e 83bd e27a 05be
00000350: e8ca 0fbd b5ca d83d 07c5 b03d 9793 163e
00000360: 8b23 f1bd b625 6dbc f252 933d f884 543d
00000370: 7c55 dc3d a476 303e a6cd 903d 7dfb e8bd
00000380: cd47 54bd 7966 143e 2385 083e 631b eb3d
00000390: eef4 e6bd 6a34 2f3e 252a b43d 47b8 8b3e
000003a0: c34a 863e af0a 9e3d 5a22 a43d 074a e0bd
000003b0: 6536 4d3e 0def 5b3e 1a0d 30bc 3ef3 8b3e
000003c0: e6a1 063e 5047 063d ff8b 5c3e dad6 2bbd
000003d0: 8dfd 5b3e 8a5a 323d 74e5 8fbd 0665 843e
000003e0: bf2f 3d3e 0bb5 523e 62b9 b23d e2e4 363e
000003f0: 6012 87bd 40b2 843e 3649 7c3e f808 273d

h2.bias f4 [16]
-0.052053902 -0.14567617 0.18330154 -0.00033817807 0.19171377 0.2442816 0.08962496 0.27969816
-0.0199085 0.09812635 0.057552714 -0.058461078 -0.009855197 0.033100054 0.17683306 -0.15313917
00000000: 7936 55bd 222c 15be 66b3 3b3e 7e4d b1b9
00000010: 9d50 443e f524 7a3e 4b8d b73d 9934 8f3e
00000020: 2717 a3bc 78f6 c83d 65bc 6b3d e274 6fbd
00000030: b177 21bc ec93 073d ba13 353e 84d0 1cbe

h3.weight f4 [8, 16]
0.02050642 -0.028088868 0.057177864 0.22748876 -0.3301425 -0.2709255 0.13046062 -0.25253814
-0.039082885 0.018380689 -0.0114453025 0.21787377 0.15004735 -0.061862953 -0.15574259 -0.16139
-0.047562692 -0.15992655 0.15297072 0.094935514 -0.08289834 0.31487048 0.21765113 -0.14195919
-0.11324452 -0.18017392 0.014676613 0.05053843 0.04516768 -0.17646456 0.07232387 0.03603213
-0.03795324 0.0158953 0.088960126 0.2790927 -0.0986543 0.06515854 -0.07320898 0.20084415
-0.1314296 0.27119267 -0.05720308 0.20016421 -0.157984 0.17358828 0.08077508 0.08167689
-0.016843066 -0.0012630243 -0.26560763 0.3124656 -0.13026927 0.16737202 0.27879745 0.21700238
0.23810618 0.31601563 0.06317016 0.20709051 -0.0048915814 0.39002013 -0.24479108 -0.09788849
-0.14825585 0.06308304 0.29245934 -0.22726974 0.2991396 0.16583009 -0.084717795 -0.08012025
0.22259647 -0.18827295 0.13302243 -0.02944181 0.18747605 -0.024800044 0.3923575 0.1109916
0.06440231 -0.15880199 0.054004908 0.13167441 0.30187497 -0.0327073 0.22496282 -0.012578413
-0.0325504 -0.27973604 0.084327444 0.19368766 0.22803463 -0.32256633 0.33489832 0.07480152
-0.12766008 -0.17198429 0.19377707 -0.24986126 0.245278 0.26195908 0.1963149 0.18503559
0.12280822 -0.18806069 -0.1527568 -0.05416164 -0.03733724 -0.09906402 0.081202365 -0.28119093
0.22703803 0.112179026 -0.20757715 -0.067557685 -0.02425331 -0.005454862 -0.09676065 0.2209538
-0.0067500947 0.12191032 -0.15913329 0.18687242 -0.024365164 0.15234134 0.039828654 -0.21807134
00000000: 14fd a73c a01a e6bc 5633 6a3d d0f2 683e
00000010: 7008 a9be bfb6 8abe 7897 053e ae4c 81be
00000020: 6015 20bd 1993 963c 1485 3bbc 4d1a 5f3e
00000030: 03a6 193e 0264 7dbd fc7a 1fbe 6c43 25be
00000040: 19d1 42bd c9c3 23be 5ba4 1c3e 8d6d c23d
00000050: 9bc6 a9bd b436 a13e f0df 5e3e c05d 11be
00000060: beec e7bd 837f 38be 2d76 703c 6301 4f3d
00000070: bf01 393d 20b3 34be 8a1e 943d 6d96 133d
00000080: db74 1bbd dc36 823c ba30 b63d 3de5 8e3e
00000090: 440b cabd d771 853d 97ee 95bd 17aa 4d3e
000000a0: 7b95 06be c4d9 8a3e c74d 6abd d9f7 4c3e
000000b0: 8fc6 21be 20c1 313e 686d a53d 3746 a73d
000000c0: 78fa 89bc 108c a5ba b9fd 87be 7efb 9f3e
000000d0: 4f65 05be 9263 2b3e 8abe 8e3e df35 5e3e
000000e0: 1bd2 733e cdcc a13e 5b5f 813d 890f 543e
000000f0: 8f49 a0bb b8b0 c73e 83aa 7abe c379 c8bd
00000100: 62d0 17be ae31 813d 3bbd 953e 66b9 68be
00000110: d328 993e 5dcf 293e 8680 adbd 1616 a4bd
00000120: 54f0 633e a0ca 40be 0837 083e f32f f1bc
00000130: b9f9 3f3e 7629 cbbc 15e3 c83e 904f e33d
00000140: 5ce5 833d fd9c 22be 4034 5d3d a8d5 063e
00000150: 5b8f 9a3e 17f8 05bd a75c 663e b015 4ebc
00000160: 9153 05bd 9039 8fbe deb3 ac3d 0f56 463e
00000170: e981 693e 6a27 a5be cb77 ab3e 8a31 993d
00000180: 53b9 02be a61c 30be 7f6d 463e a1db 7fbe
00000190: 282a 7b3e 801f 863e c606 493e f879 3d3e
000001a0: e082 fb3d fb92 40be 476c 1cbe 99d8 5dbd
000001b0: efee 18bd 14e2 cabd 6d4d a63d 42f8 8fbe
000001c0: a87c 683e 1ebe e53d 1b8f 54be af5b 8abd
000001d0: e1ae c6bc b3be b2bb 732a c6bd b741 623e
000001e0: e62f ddbb 1eac f93d d6f3 22be 7c5b 3f3e
000001f0: 7499 c7bc 5eff 1b3e 5f23 233d 184e 5fbe

h3.bias f4 [8]
0.20312233 -0.12848793 -0.064367354 0.05285618 0.24990468 -0.11890246 0.29926473 -0.006468303
00000000: 4dff 4f3e 5792 03be 08d3 83bd b97f 583d
00000010: 03e7 7f3e 2283 f3bd 3a39 993e 0ff4 d3bb

h4.weight f4 [1, 8]
0.11746561 -0.16585006 0.28621265 0.3861065 -0.23082519 -0.26186866 -0.4131105 0.4031844
00000000: cf91 f03d 99d4 29be 778a 923e c0af c53e
00000010: 705d 6cbe a613 86be 3883 d3be 306e ce3e
