src/models/saved_models/best_model_lr0.0001_roc_auc0.9021717161838819.pt (torch, 23973 bytes, 9 tensors)

input.weight f4 [64, 30]
0	0x3e1b9fe9	0.1519772
1	0xbd7b9da8	-0.06142965
2	0xbda7a1ca	-0.08185156
3	0xbdf214fa	-0.11820407
4	0xbdbddeaf	-0.09270989
5	0x3daebeb7	0.0853247
6	0xbd46d85f	-0.04854619
7	0xbc8c1b22	-0.017102782
8	0xbe2d47c6	-0.1692191
9	0xbd0e52b7	-0.03474685
10	0xbda54c8b	-0.0807124
11	0x3e60605e	0.21911761
12	0xbd3a37e5	-0.04546346
13	0x3dc30bf6	0.09523766
14	0xbc6f92a1	-0.014622361
15	0x3d7778f1	0.060418073
16	0xbe5294a7	-0.20564519
17	0xbe20ee5c	-0.15715927
18	0xbe576b24	-0.21036965
19	0x3e4b71f4	0.19867688
20	0x3e055c0a	0.13023391
21	0xbd8e1b1d	-0.06938765
22	0xbd4f8154	-0.050660446
23	0x3dfbb914	0.1229116
24	0xbe0260c6	-0.12732229
25	0xbdebd08b	-0.11514386
26	0xbd9ec0de	-0.0775163
27	0x39ed7b31	0.00045295947
28	0x3d823605	0.0635796
29	0xbd88c412	-0.066780224
30	0xbd5e26ac	-0.0542361
31	0x3e67a809	0.22622694
32	0xbe04246a	-0.12904516
33	0x3d6b48c0	0.057442427
34	0x3e170f6c	0.14751977
35	0x3d1e6c48	0.038677484
36	0x3e361405	0.17781074
37	0x3d9b5c31	0.075859435
38	0x3e6b3119	0.22967948
39	0x3e0166ce	0.12636873
40	0xbe0e241c	-0.13880962
41	0x3c48ef73	0.01226412
42	0x3e08633a	0.13319102
43	0xbe048757	-0.12942253
44	0x3e5e0d36	0.21684727
45	0xbc676467	-0.014123059
46	0x3e3d3e0e	0.18480703
47	0xbe1e3b90	-0.15452409
48	0x3cf561dc	0.02995389
49	0x3e356204	0.17713171
50	0x3dea99e3	0.11455133
51	0x3dd1ec80	0.10250187
52	0xbcc57481	-0.024103405
53	0x3cc3b8db	0.023891857
54	0x3e63a6c2	0.22231582
55	0x3e6f98eb	0.23398177
56	0x3e5cfaf5	0.21580108
57	0xbe5a6443	-0.2132731
58	0xbe2a16b5	-0.16610225
59	0x3d1ba283	0.03799678
60	0x3d64f96c	0.05590193
61	0xbdf06a05	-0.117389716
62	0xbd10bb98	-0.035335153
63	0x3de3e5e6	0.11127834
64	0xbe677ba5	-0.2260576
65	0x3d0733ad	0.033008266
66	0xbd79ecae	-0.06101673
67	0xbd188e29	-0.03724495
68	0x3da0b33d	0.07846687
69	0xbcde167a	-0.027110327
70	0x3db45db6	0.088069364
71	0x3de146ae	0.10999809
72	0x3d3488ae	0.04407566
73	0xbe282e73	-0.16423969
74	0x3d376b0f	0.044779833
75	0xbdf4ad4d	-0.11947117
76	0x3e10ce85	0.14141281
77	0xbcf36fd9	-0.029716419
78	0x3e4cbb13	0.19993238
79	0x3e6845c6	0.22682866
80	0x3d8c6b84	0.068564445
81	0xbde06a2f	-0.10957753
82	0xbd133da9	-0.035947476
83	0xbe11e8d4	-0.14248973
84	0x3d11d9b5	0.035608012
85	0x3db68cb7	0.08913558
86	0x3e389dea	0.1802899
87	0x3dc42225	0.09576825
88	0x3df3b824	0.119003564
89	0x3e0e4ce3	0.13896517
90	0xbe12d3b4	-0.14338571
91	0x3d47fac3	0.04882313
92	0xbcb8f390	-0.022577077
93	0x3cb8396c	0.022488318
94	0x3e46da27	0.19419156
95	0xbcf3c5d0	-0.02975741
96	0xbe34ae6c	-0.17644662
97	0xbcbf1938	-0.023327455
98	0xbe247d43	-0.16063409
99	0x3dde3e62	0.10851742
100	0xbdd65275	-0.10464946
101	0x3e56f528	0.20991957
102	0xbe24aba4	-0.160811
103	0xbdd07a0a	-0.10179527
104	0xbdd64d43	-0.10463955
105	0xbe1256bd	-0.142909
106	0x3d58dee7	0.05294695
107	0xbd79acdb	-0.060955863
108	0x3da10a5d	0.07863305
109	0x3c26c304	0.010178331
110	0x3df74249	0.1207319
111	0x3ceb6c19	0.028738068
112	0x3de4cca2	0.11171843
113	0x3d8455c6	0.064616725
114	0x3d7f2c61	0.062298182
115	0x3de66a01	0.112506874
116	0xbe09cf24	-0.13457924
117	0xbc4562a1	-0.012047441
118	0x3e046877	0.12930475
119	0x3e4370bd	0.19085975
120	0xbe109e30	-0.14122844
121	0x3e33ae7e	0.17547032
122	0xbdd80d0c	-0.105493635
123	0xbe050c58	-0.1299299
124	0xbe2cebfc	-0.16886896
125	0xbe14a1e4	-0.14514881
126	0x3d91b8bc	0.071153134
127	0xbdf20184	-0.11816695
128	0x3d3226ef	0.04349416
129	0x3e0ca416	0.13734469
130	0xbda6de0d	-0.081478216
131	0xbd67eb6f	-0.05662101
132	0xbe0da611	-0.1383288
133	0x3e13f306	0.14448175
134	0x3db77a32	0.08958854
135	0xbd592669	-0.053015146
136	0xbd26626e	-0.040621214
137	0xbe23e58f	-0.16005538
138	0x3d91e706	0.07124142
139	0x3dd07dce	0.10180245
140	0xbe056fbc	-0.13030905
141	0x3d8612c2	0.065465465
142	0xbd865566	-0.06559257
143	0x3cf26ad2	0.029591952
144	0xbe19bfd0	-0.15014577
145	0x3e3b7ce6	0.18309364
146	0x3e21ef18	0.15813863
147	0x3de37cd7	0.11107796
148	0xbe133366	-0.14375076
149	0x3e2140df	0.15747403
150	0xbe1ae076	-0.15124688
151	0x3adeb17f	0.0016990154
152	0x3d5e0523	0.054204118
153	0xbe6f62f1	-0.23377587
154	0xbd038023	-0.032104623
155	0x3d629173	0.055314492
156	0x3caeb025	0.021324227
157	0xbe0d5ce1	-0.13804962
158	0xbaf2fa1d	-0.0018537674
159	0x3d86265a	0.06550284
160	0x3dc5953c	0.09647605
161	0xbde17ce4	-0.11010149
162	0xbd5aa874	-0.053383306
163	0xbe23d150	-0.15997815
164	0xbe0ad2c8	-0.13556969
165	0x3cbcd9f9	0.023053156
166	0xbe6aacd3	-0.2291749
167	0xbdc73ca8	-0.09728366
168	0xbe364e66	-0.17803344
169	0x3df61fc9	0.12017781
170	0x3df963db	0.12177249
171	0x3e319bc8	0.17344582
172	0x3c8457c5	0.016155133
173	0xbd14bf12	-0.03631503
174	0xbd109ed2	-0.035307713
175	0x3e1c1e54	0.15245944
176	0x3e0bee19	0.13665046
177	0xbc70bc90	-0.014693394
178	0xbce1ee57	-0.02757947
179	0x3dffc2c9	0.12488324
180	0xbe1af238	-0.15131462
181	0x3de5b61f	0.112163775
182	0xbd6b4696	-0.057440363
183	0x3e4a73f3	0.19770794
184	0xbe0e197f	-0.13876913
185	0xbe089061	-0.13336326
186	0x3e261843	0.16220193
187	0x3d407bfd	0.046993244
188	0x3dbf2ecd	0.093350984
189	0x3e2434a0	0.160357
190	0x3e555770	0.20834136
191	0x3c75cd69	0.015002587
192	0xbdae731e	-0.085180506
193	0x3dcefe3e	0.101070866
194	0xbd8c7ead	-0.06860099
195	0x3d1d77f0	0.03844446
196	0xbd6ca1f5	-0.05777164
197	0x3e139e08	0.14415753
198	0xbe33ed35	-0.17570956
199	0xbe0fe14b	-0.14050786
200	0xbde168ef	-0.110063426
201	0x3e37d348	0.17951691
202	0x3e105016	0.1409305
203	0xbdd85d79	-0.105647035
204	0xbdb48820	-0.08815026
205	0x3e371cd4	0.17882091
206	0x3dce3556	0.10068767
207	0xbdde8b56	-0.1086642
208	0x3dc58578	0.09644598
209	0x3e0336d4	0.12813884
210	0xbe5f9381	-0.21833612
211	0xbe280e56	-0.16411719
212	0xbbb5ec20	-0.00555183
213	0x3c8de5f9	0.017321574
214	0x3e6186d0	0.22024083
215	0x3c788c56	0.015170177
216	0xbe5fbf91	-0.2185042
217	0xbe151682	-0.14559367
218	0x3df11f5f	0.11773562
219	0xbdde1346	-0.1084352
220	0xbe67146a	-0.22566381
221	0xbd31975f	-0.04335725
222	0x3dc9908c	0.09842023
223	0xbdfbc61f	-0.12293648
224	0xbd036e81	-0.032087807
225	0x3de3a899	0.11116142
226	0xbb7ee094	-0.0038891183
227	0xbd5e20f3	-0.05423064
228	0xbd9301d5	-0.07178084
229	0xbd3c1800	-0.045921326
230	0xbdbea1fe	-0.09308241
231	0x3dd981f2	0.10620488
232	0xbd9b5bc2	-0.07585861
233	0xbc373fd4	-0.011184651
234	0xbe3da2b4	-0.18519098
235	0x3d4f28fe	0.050576203
236	0x3c15eaa9	0.009150186
237	0xbacdfea2	-0.0015716145
238	0x3d0faa63	0.035074603
239	0xbe39a913	-0.18130903
240	0xbb1f20f2	-0.0024281112
241	0x3d905bd9	0.070487686
242	0x3d641b5f	0.055690166
243	0xbddb82c5	-0.10718302
244	0xbe658d8b	-0.22417276
245	0xbd1491d1	-0.036271874
246	0x3e39c3fe	0.18141171
247	0x3dcf5abd	0.10124729
248	0x3d419a5d	0.047266353
249	0xbe017bfa	-0.1264495
250	0xbe1262b1	-0.1429546
251	0xbdda4807	-0.106582694
252	0x3e73388b	0.23752038
253	0x3c551103	0.013004544
254	0x3a6e300f	0.0009086141
255	0x3dc6cab2	0.0970663

input.bias f4 [64]
0	0x3e5cb346	0.21552762
1	0x3e88797a	0.2665518
2	0x3e2be917	0.16788135
3	0x3e33157c	0.17488664
4	0x3e61735f	0.22016667
5	0x3e047dee	0.12938663
6	0x3d95669d	0.072949626
7	0xbd46c577	-0.04852816
8	0x3d6fdb59	0.058558796
9	0xbdbbf3b2	-0.091773406
10	0x3e443afd	0.19163127
11	0xbc81ba4b	-0.015835902
12	0x3caf468e	0.021395948
13	0x3e128ec1	0.14312269
14	0x3e072df0	0.13201118
15	0xbd74c73c	-0.059760317
16	0xbe506fd3	-0.20355158
17	0x3db5b945	0.08873228
18	0x3de783ba	0.11304422
19	0x3e75291e	0.23941466
20	0xbde9921b	-0.114048205
21	0x3e509ec2	0.20373061
22	0xbe1126a7	-0.14174901
23	0x3dcb7cbe	0.09935902
24	0x3eb98416	0.36233586
25	0x3e8c89e3	0.2744895
26	0x3d0f1363	0.034930598
27	0x3be2173b	0.006899742
28	0xbc2e3e7b	-0.010635014
29	0xbde04fa8	-0.10952693
30	0x3d0c526b	0.034258287
31	0x3d7d4759	0.06183562
32	0x3cabe6fa	0.020984162
33	0x3e9961db	0.2995747
34	0xbdc40cbb	-0.09572741
35	0x3d6a6226	0.057222508
36	0x3ec2d72a	0.38054782
37	0x3e7f6450	0.2494061
38	0x3d3ac722	0.045600064
39	0xbdceca14	-0.10097137
40	0xbdb53038	-0.088470876
41	0xbdf300c7	-0.11865383
42	0x3dea707d	0.11447237
43	0xbe056ffe	-0.13031003
44	0x3956c92d	0.00020483574
45	0xbdc8493e	-0.09779595
46	0x3b37f4fa	0.0028069601
47	0xbe099f11	-0.13439585
48	0xbd30f711	-0.04320437
49	0x3df73154	0.120699555
50	0x3e575960	0.21030188
51	0x3e0807a0	0.13284159
52	0x3e3f2def	0.18669866
53	0xbd9d69f6	-0.07686226
54	0x3e52143d	0.20515533
55	0x3d18ce89	0.037306342
56	0xbdef2668	-0.11677247
57	0x3e695928	0.22787917
58	0xbd479bf6	-0.04873272
59	0x3e25cccf	0.1619141
60	0xbd352501	-0.044224743
61	0x3e568100	0.20947647
62	0x3e8ecac0	0.2788906
63	0x3dfb2844	0.122635394

h1.weight f4 [32, 64]
0	0xbbe54383	-0.0069965734
1	0x3e62605c	0.2210707
2	0x3d16ad2d	0.036786247
3	0x3dbf141c	0.093300074
4	0x3d8c3bc6	0.068473384
5	0x3ddbce55	0.10732714
6	0x3e027969	0.12741627
7	0x3daace1e	0.08340095
8	0xbb94dc72	-0.0045428807
9	0x3e4363ec	0.19081086
10	0x3e14f48c	0.14546412
11	0xbd68d3b0	-0.056842506
12	0x3e23e184	0.16003996
13	0x3d83dd2b	0.06438669
14	0x3e1439bf	0.14475153
15	0x3dc9821c	0.098392695
16	0x3e2cd94d	0.16879769
17	0x3d82a0e7	0.06378346
18	0x3e33342c	0.1750037
19	0x3d566e20	0.052351117
20	0x3dbc3e89	0.09191615
21	0x3e17609c	0.14782947
22	0x3c83ff4a	0.016112942
23	0x3da7c350	0.0819155
24	0x3e107c68	0.14109957
25	0x3e418b3c	0.1890077
26	0x3d32e6fd	0.04367732
27	0xbd8af6ff	-0.06785392
28	0x3d8a073c	0.06739661
29	0x3e3adb06	0.18247613
30	0x3c7dfd03	0.015502217
31	0x3dbae89a	0.091263965
32	0x3d6b177d	0.057395447
33	0x3e0eb70a	0.13937011
34	0xbd518474	-0.051151708
35	0x3e60afd0	0.21942067
36	0x3e2d7ca0	0.16942072
37	0x3e32ef56	0.17474112
38	0x3e27a4a5	0.163714
39	0x3d4ff033	0.05076618
40	0x3e3e3511	0.1857493
41	0x3dc51fac	0.096251816
42	0x3d5c5760	0.053794265
43	0x3e1ae157	0.15125023
44	0xbc9c14d8	-0.019052908
45	0x3e8da14d	0.27662125
46	0x3e0dd879	0.13852109
47	0x3cc086b2	0.023501728
48	0x3dd5eb8c	0.104453176
49	0xbadcbe2e	-0.0016841346
50	0x3dad523b	0.0846295
51	0x3dedfa39	0.11619992
52	0x3e266e02	0.16252902
53	0x3d8a7e1c	0.06762335
54	0x3e44d7f3	0.19223003
55	0x3d67a8a5	0.056557316
56	0x3dee25e2	0.11628319
57	0x3e03e7f0	0.12881446
58	0x3db852af	0.09000146
59	0x3dc5fa59	0.09666891
60	0xbc9669ff	-0.01836109
61	0xbc956b72	-0.01823971
62	0x3d3b3eb3	0.04571409
63	0x3e1c3f02	0.1525841
64	0x3c78c2a8	0.015183128
65	0x3c40dbb1	0.0117711285
66	0xbda1e274	-0.07904521
67	0x3e4c9e5b	0.19982283
68	0x3b0926ad	0.0020927594
69	0x3dad8957	0.08473461
70	0xbdbf6288	-0.09344965
71	0xbc459470	-0.012059316
72	0x3db7f405	0.0898209
73	0x3dafb750	0.08579886
74	0x3db4c97a	0.08827491
75	0x3e3424c4	0.1759215
76	0x3dced8a6	0.10099916
77	0x3bcb0293	0.006195375
78	0x3e10a43e	0.14125153
79	0x3dfcedeb	0.12350067
80	0x3de5bdeb	0.112178646
81	0x3e2d55b0	0.16927218
82	0x3c6fc83e	0.014635144
83	0xbdc194c5	-0.09452204
84	0xbd499e35	-0.049223144
85	0x3e187183	0.14887051
86	0xbd7dd58e	-0.06197124
87	0x3e1ab34b	0.15107457
88	0x3e0cba27	0.13742886
89	0x3c64adb8	0.013957433
90	0xbde3a4a8	-0.1111539
91	0x3c5c0905	0.013429885
92	0x3d6a793c	0.057244524
93	0x3d5675e8	0.052358538
94	0x3df70bb7	0.12062781
95	0xbd8a161c	-0.06742498
96	0xbca6d2c5	-0.020364175
97	0xbd919405	-0.071083106
98	0x3d3d9511	0.04628474
99	0x3dd5977b	0.10429283
100	0x3dee31ad	0.11630569
101	0xbc9a0f33	-0.018806076
102	0x3c140db1	0.009036467
103	0x3e0c6c83	0.13713269
104	0x3d13e5a6	0.03610768
105	0x3d8c343a	0.06845899
106	0x3e300861	0.17190696
107	0x3d2284c2	0.03967739
108	0x3d8e6889	0.06953532
109	0xbdae45ea	-0.08509429
110	0x3e1ae979	0.15128125
111	0x3c5fee70	0.013667688
112	0xbdc137b6	-0.09434454
113	0xbc9d8c78	-0.01923202
114	0x3daf8ced	0.08571801
115	0x3df3f7d0	0.11912501
116	0x3e110bfd	0.1416473
117	0x3dde702e	0.1086124
118	0x3e01ed88	0.12688267
119	0xbcb9026c	-0.022584163
120	0x3adce4fa	0.0016852908
121	0x3d3c93e6	0.046039484
122	0x3ded1de6	0.11577968
123	0x3ddfc721	0.10926653
124	0xbc233edf	-0.00996372
125	0x3e502e70	0.20330215
126	0x3d26c2e5	0.04071321
127	0x3e00e995	0.12589104
128	0x3d77972b	0.0604469
129	0x3ded168c	0.11576566
130	0x3e3e664d	0.18593712
131	0xbb959722	-0.0045651356
132	0x3cfd8f7e	0.030952211
133	0x3d1211d2	0.035661526
134	0x3e6b2be8	0.22965968
135	0x3cd457bd	0.025920743
136	0x3daef101	0.085420616
137	0x3e9d16fe	0.30681604
138	0x3e27054d	0.16310616
139	0x3dc45151	0.095858224
140	0x3eb0365a	0.34416467
141	0x3deaf97a	0.11473365
142	0xbdb045fe	-0.086071
143	0xbbfd7092	-0.0077343667
144	0x3dcde45a	0.1005332
145	0xbd40adbf	-0.047040697
146	0x3e11555a	0.14192715
147	0x3e9f7698	0.31145167
148	0x3e47b294	0.19501716
149	0x3d0a3615	0.033742983
150	0xbd6529e6	-0.05594816
151	0x3ddcca40	0.107807636
152	0x3e533b0f	0.20627998
153	0x3e5bb278	0.21454799
154	0xbca1434a	-0.019685406
155	0xbd290e75	-0.041273553
156	0x3d3fb3a2	0.04680217
157	0x3e12fbe1	0.14353897
158	0x3e125707	0.14291011
159	0x3ea3b13d	0.3197116
160	0x3dd83a8a	0.105580404
161	0x3daf316e	0.0855435
162	0x3d43cae6	0.04780092
163	0x3ba60ca1	0.0050674235
164	0x3ce261f8	0.027634606
165	0x3e542442	0.20716956
166	0x3dc5437f	0.096320145
167	0xbd31e912	-0.043435164
168	0x3bb4a5f8	0.005512949
169	0x3e1bd2db	0.15217154
170	0xbd529e1c	-0.051420316
171	0x3e193d57	0.14964806
172	0x3dee5720	0.116377115
173	0xbda9d1ce	-0.0829197
174	0xbd94ffbd	-0.07275341
175	0xbdaaec18	-0.083458126
176	0x3e269e57	0.1627134
177	0x3cbdc19d	0.023163611
178	0xbd164dcf	-0.036695298
179	0xbcbdbbdd	-0.02316087
180	0x3e177954	0.14792377
181	0x3dc13360	0.09433627
182	0xbd402016	-0.0469056
183	0x3c5e1667	0.013555146
184	0x3d7a7381	0.06114531
185	0xbc463010	-0.01209642
186	0xbdad5256	-0.0846297
187	0xbbb72ace	-0.0055898195
188	0xbd837797	-0.06419294
189	0xbd1dae2f	-0.038496193
190	0x3e6fa47b	0.23402588
191	0xbd5d4c62	-0.054027922
192	0x3dd3d496	0.10343282
193	0xbdf3870e	-0.11890994
194	0xbddde002	-0.10833742
195	0x3d81330d	0.06308565
196	0x3d7e6ef1	0.06211752
197	0xbe03d8f5	-0.12875731
198	0x3b864f1a	0.004098785
199	0xbd577702	-0.05260373
200	0xbd8d03cf	-0.06885492
201	0xbe0a49c1	-0.13504697
202	0x3c982b88	0.018575445
203	0xbcebbad3	-0.028775608
204	0x3d16c0e2	0.03680504
205	0xbdfbf82b	-0.12303194
206	0xbb5259f5	-0.0032097076
207	0xbd9290b5	-0.07156507
208	0xbd0e3a50	-0.03472358
209	0x3c950421	0.018190445
210	0x3d611734	0.05495377
211	0x3b76cfbc	0.003766044
212	0xbbd33b97	-0.0064463126
213	0x3d421376	0.04738184
214	0x3b94026c	0.0045168903
215	0xbdc1ba87	-0.094594054
216	0xbd0381e9	-0.032106314
217	0x3d2fad9b	0.042890172
218	0xbd18582e	-0.03719347
219	0x3dc11ec0	0.09429693
220	0x3d564797	0.052314367
221	0xbda04f11	-0.07827581
222	0x3b0cf794	0.0021509873
223	0xbc8c2aa0	-0.017110169
224	0xbbbfa302	-0.0058482895
225	0xbe0c9446	-0.13728437
226	0x3da8167d	0.08207414
227	0x3bf5779c	0.007491065
228	0xbd884674	-0.06654063
229	0x3d1437f6	0.03618618
230	0xbd2a5880	-0.041588306
231	0x3d86836f	0.06568038
232	0xbd6e0698	-0.058111757
233	0xbd069423	-0.032856118
234	0xbd703f90	-0.058654368
235	0xbd1f57b2	-0.038901992
236	0xbde77e39	-0.11303372
237	0xbe164048	-0.14672959
238	0xbd193581	-0.03740454
239	0xbd80d7f8	-0.06291193
240	0xbe02e3f6	-0.12782273
241	0xbc9c960e	-0.01911452
242	0xbdbb48ff	-0.09144782
243	0xbd99dfc9	-0.07513387
244	0xbdeffcea	-0.117181614
245	0x3d560bdd	0.052257407
246	0xbdf94bd6	-0.12172668
247	0x3d346a6c	0.044046804
248	0xbdace34e	-0.084417924
249	0xbda9c09a	-0.08288689
250	0x3ca80db8	0.020514354
251	0x3db34300	0.087530136
252	0xbd879a22	-0.066211954
253	0x3d92e89e	0.071732745
254	0xbd9dbbf5	-0.077018656
255	0xbe0b9b1f	-0.13633393

h1.bias f4 [32]
0	0x3e4c0801	0.19924928
1	0xbc66b718	-0.014081739
2	0x3d9b3909	0.07579238
3	0xbd5c8736	-0.053839885
4	0xbdbd9a6f	-0.092579715
5	0xbd2dfe35	-0.04247876
6	0x3d851708	0.064985335
7	0xbbaf8b3a	-0.0053571733
8	0x3db458e2	0.088060156
9	0x3d8519e8	0.06499082
10	0xbd84b782	-0.06480314
11	0x3bd6627a	0.006542501
12	0x3d051792	0.03249318
13	0x3d73cf7c	0.059524044
14	0x3e396823	0.18106131
15	0x3dc70f6d	0.09719739
16	0xbd525b65	-0.051356692
17	0x3d063138	0.032761782
18	0x3dc85a0b	0.09782799
19	0x3d091481	0.03346682
20	0xbbc64c28	-0.006051559
21	0x3e439b70	0.19102263
22	0x3e133630	0.1437614
23	0x3d822df0	0.06356418
24	0x3b3534a5	0.0027649787
25	0xbbb7f7fb	-0.0056142784
26	0x3d6d1b23	0.057887208
27	0xbc46d654	-0.012136061
28	0x3c28ea78	0.010309808
29	0x3dd27339	0.10275883
30	0x3daec7ea	0.08534224
31	0x3d512b6a	0.051066794

h2.weight f4 [16, 32]
0	0x3d06066a	0.03272096
1	0x3d80114c	0.06253299
2	0xbd86119a	-0.06546326
3	0x3d62bcec	0.05535595
4	0xbd6d8740	-0.057990313
5	0xbd79b4a1	-0.060963277
6	0xbcd9e0ea	-0.026596505
7	0xbdaac88b	-0.08339032
8	0xbe0e7d13	-0.139149
9	0x3d71df80	0.059051037
10	0xbdec0839	-0.11525006
11	0xbd3f7065	-0.046738047
12	0x3d66ca70	0.056345403
13	0x3ddb266b	0.10700687
14	0x3e0f223d	0.13977905
15	0xbe488867	-0.19583283
16	0xbe4361c3	-0.19080262
17	0xbdd54096	-0.104127094
18	0xbdd14f87	-0.10220247
19	0xbe1707db	-0.1474909
20	0xbd2df1c3	-0.04246689
21	0x3d2e0214	0.04248245
22	0xbe276045	-0.16345318
23	0x3d8b2986	0.06795029
24	0xbdf3bd29	-0.11901314
25	0xbdf32f39	-0.118742414
26	0xbd90e670	-0.070752025
27	0xbe1676ca	-0.14693752
28	0x3ddb0fa0	0.106963396
29	0xbe443bc5	-0.19163425
30	0x3ca23d2f	0.019804565
31	0xbd93bf15	-0.072141804
32	0xbd99fa77	-0.075184755
33	0xbcfe395e	-0.031033214
34	0x3d9695d9	0.073528
35	0x3c230d40	0.0099518895
36	0xbd906fcf	-0.07052576
37	0x3d7cc0cd	0.061707307
38	0xbd83c8a3	-0.06434753
39	0x3c56af7c	0.013103362
40	0xbd9da637	-0.076977186
41	0xbd6b1c31	-0.057399932
42	0xbe118ce1	-0.14213897
43	0xbd1689f0	-0.03675264
44	0xbe4b3a02	-0.19846347
45	0xbd9c1237	-0.07620662
46	0xbd920d6b	-0.071314655
47	0xbdc43225	-0.09579877
48	0x3e1cbc4d	0.15306206
49	0x3beb9cfa	0.007190344
50	0xbe042f9d	-0.12908788
51	0xbc903235	-0.017602066
52	0xbd739649	-0.059469495
53	0x3d79e2ad	0.06100719
54	0x3da54f2a	0.0807174
55	0xbe114b33	-0.14188842
56	0xbd317b36	-0.043330394
57	0x3b6647ec	0.0035138084
58	0x3d55fb24	0.05224146
59	0x3c7e8e04	0.015536789
60	0x3d632fc9	0.055465493
61	0xbdc6e496	-0.09711568
62	0xbd73c426	-0.059513234
63	0xbd227989	-0.039666686
64	0x3e42d8df	0.19028042
65	0xbcc90091	-0.024536403
66	0x3d70a337	0.058749404
67	0xbd93b929	-0.07213051
68	0x3d453b18	0.04815206
69	0x3d4fa506	0.050694488
70	0x3d55070c	0.052008674
71	0xbe31f839	-0.17379846
72	0xbe50b2b1	-0.20380665
73	0x3e44ed8c	0.19231242
74	0xbd9fedee	-0.07809053
75	0xbd347114	-0.044053152
76	0x3ce6bd44	0.02816642
77	0xbe2dde12	-0.16979244
78	0x3df28438	0.11841625
79	0x3e0c9994	0.1373046
80	0xbd31db96	-0.043422304
81	0xbca755bf	-0.02042663
82	0x3e1bc456	0.15211615
83	0x3da59fcd	0.0808712
84	0xbde0d07a	-0.10977264
85	0x3da3f740	0.080061436
86	0x3e501da4	0.20323807
87	0x3d4b5e3d	0.04965042
88	0xbe4a2eea	-0.19744459
89	0xbe1d6902	-0.15372089
90	0xbca6c23b	-0.020356288
91	0x3d22871a	0.039679624
92	0xbdc14f52	-0.09438957
93	0x3e0c1fd5	0.13684018
94	0x3e40c5f9	0.1882552
95	0x3dd7d2b4	0.10538235
96	0xbe201aaf	-0.15635179
97	0x3e33bed8	0.1755327
98	0xbe135f92	-0.14391926
99	0xbd6e2edf	-0.05815017
100	0xbe1e7408	-0.1547395
101	0x3d31212b	0.043244522
102	0xbbf7df9c	-0.007564498
103	0x3cf9c17d	0.03048777
104	0x3e2d53bd	0.16926475
105	0xbd039028	-0.0321199
106	0x3db4406f	0.08801352
107	0xbdb188e6	-0.086686894
108	0x3e6e5111	0.23273112
109	0x3e251da2	0.16124585
110	0x3e548258	0.20752847
111	0xbe0cb68e	-0.13741514
112	0x3dc85bec	0.09783158
113	0x3e809a09	0.2511752
114	0x3e1d15b0	0.15340304
115	0x3e35ed08	0.17766201
116	0x3e412a99	0.18863906
117	0xbe1ef521	-0.15523197
118	0x3e225112	0.15851238
119	0x3cd6c1dc	0.026215486
120	0x3e475ef6	0.19469818
121	0x3bc97d32	0.0061489576
122	0xbdfe2d99	-0.12411041
123	0x3e713ab6	0.23557553
124	0xbd703127	-0.058640625
125	0x3d4ce505	0.050023098
126	0xbe02ddeb	-0.12779967
127	0x3ce5c02e	0.02804574
128	0x3db8e443	0.090279125
129	0xbd38fbd0	-0.045162022
130	0x3e950681	0.29106525
131	0x3b9032ad	0.0044005723
132	0x3e41d2b4	0.18928033
133	0x3ddd58c7	0.108079486
134	0x3e867683	0.26262292
135	0xbde0b1d5	-0.10971419
136	0xbcb7b2c9	-0.022424119
137	0x3e6eac49	0.23307909
138	0x3c500bc0	0.012698114
139	0xbc2382f8	-0.009979956
140	0xbe00c474	-0.12574941
141	0xbe259826	-0.16171321
142	0xbded2d13	-0.11580863
143	0x3de6c2b5	0.11267606
144	0xbb9d85f1	-0.004807227
145	0xbd34b9f4	-0.04412265
146	0x3e258140	0.16162586
147	0x3d875125	0.06607274
148	0xbe48f448	-0.19624436
149	0x3e8eb2df	0.27870843
150	0x3e9e0357	0.30861923
151	0x3e8c8772	0.27447087
152	0x3d027523	0.03184999
153	0xbe1a8feb	-0.15093963
154	0xbd945762	-0.072432294
155	0xbd7f1a91	-0.062281195
156	0x3b916201	0.004436732
157	0x3e454dff	0.19268034
158	0x3eaa1f16	0.33226842
159	0x3e938e01	0.28819278
160	0x3ea30020	0.31836033
161	0x3cfdba4b	0.03097262
162	0x3e6632ca	0.22480312
163	0x3dc69700	0.0969677
164	0x3e3d0f1c	0.18462795
165	0xbd96ad6a	-0.07357295
166	0x3de31503	0.11087992
167	0x3d045158	0.032304138
168	0xbd8d44da	-0.06897898
169	0x3e819444	0.2530843
170	0xbdc016be	-0.09379338
171	0x3dc3ea9c	0.095662326
172	0xbdcfc5eb	-0.10145172
173	0xbdbe25e2	-0.09284569
174	0x3e33425d	0.17505784
175	0x3e4e35b8	0.2013768
176	0x3d479232	0.048723407
177	0xbdedc359	-0.11609525
178	0x3d91d132	0.07119979
179	0x3d07d13c	0.033158526
180	0xbe2aa7ab	-0.16665523
181	0x3e7e78e5	0.24850805
182	0x3d3b2509	0.045689616
183	0x3bf9149a	0.007601333
184	0xbcbd2e5d	-0.023093397
185	0x3d8cb72f	0.06870877
186	0x3d499e54	0.04922326
187	0xbdb2aa4e	-0.08723889
188	0xbdef15e1	-0.11674095
189	0x3e16f3b1	0.14741398
190	0x3e6f9553	0.23396806
191	0x3e107135	0.14105685
192	0x3d0f0815	0.034919817
193	0x3d000499	0.031254385
194	0x3de777d5	0.11302153
195	0xbd84f5aa	-0.06492169
196	0xbdd23fd8	-0.102660835
197	0xbcda28ec	-0.026630841
198	0xbded6353	-0.1159121
199	0x3c2dfba2	0.010619076
200	0xbda28e0a	-0.07937248
201	0x3e2f30b9	0.1710843
202	0xbdc168e9	-0.09443838
203	0x3e0b3ee7	0.13598214
204	0xbe21ddca	-0.15807262
205	0xbda2d279	-0.07950301
206	0x3e35a692	0.17739323
207	0x3c628651	0.013825969
208	0x3d3ab3f0	0.045581758
209	0x3e0d70b1	0.1381252
210	0xbd553e36	-0.052061282
211	0xbd8d05b9	-0.06885857
212	0x3c748d56	0.014926275
213	0x3db6bb7e	0.0892248
214	0x3d93ba02	0.072132125
215	0x3e25317a	0.16132155
216	0xbd5c7c7d	-0.05382966
217	0x3d73f228	0.05955711
218	0x3ce1b74d	0.027553225
219	0x3db7d13f	0.089754574
220	0x3ddb1a06	0.10698323
221	0x3e335815	0.1751407
222	0x3d793762	0.060843833
223	0xbde634ad	-0.11240516
224	0xbdc14a50	-0.09438002
225	0x3de38641	0.11109591
226	0x3dc1933f	0.09451913
227	0x3e311cc8	0.17296135
228	0xbddd7de5	-0.10815028
229	0x3e165e7b	0.14684479
230	0x3d4e39c3	0.050348055
231	0x3e4bb4bf	0.19893168
232	0x3e6a6238	0.2288903
233	0x3d54f247	0.051988866
234	0x3dc7862c	0.09742388
235	0xbdd661f0	-0.10467899
236	0x3e2ab926	0.16672191
237	0x3e42af89	0.19012274
238	0xbd46a834	-0.048500255
239	0x3e718002	0.23583987
240	0x3e004fc0	0.12530422
241	0xba893775	-0.0010468798
242	0x3e2f6629	0.17128815
243	0xbdacf116	-0.08444421
244	0x3e44de12	0.19225338
245	0x3c9ffd19	0.019529866
246	0xbdad9f32	-0.0847763
247	0x3e6ab6b2	0.22921255
248	0x3e190975	0.14945014
249	0x3e522025	0.20520075
250	0x3dec6240	0.11542177
251	0x3e298fb4	0.16558725
252	0xbd84daf6	-0.06487076
253	0x3e60e631	0.21962811
254	0x3e688904	0.22708517
255	0x3baf453a	0.0053488286

h2.bias f4 [16]
0	0xbd553679	-0.052053902
1	0xbe152c22	-0.14567617
2	0x3e64582d	0.22299261
3	0xbd6b0120	-0.05737412
4	0x3e694536	0.22780308
5	0x3e88c2f1	0.26711228
6	0x3df460f3	0.11932554
7	0x3e58e889	0.21182455
8	0x3d168e82	0.036757
9	0x3d2623ff	0.040561672
10	0x3d6bbc65	0.057552714
11	0xbd6f74e2	-0.058461078
12	0x3d0228b4	0.0317771
13	0xbcbf166c	-0.023326121
14	0x3e51ce3f	0.20488833
15	0xbe0d4a24	-0.13797814

h3.weight f4 [8, 16]
0	0x3ca7fd14	0.02050642
1	0xbce61aa0	-0.028088868
2	0x3e2615cc	0.16219252
3	0x3e8b1c06	0.27169818
4	0xbe81880f	-0.25299117
5	0xbe815a24	-0.25264084
6	0x3e22eab7	0.15909849
7	0xbe5a8415	-0.21339448
8	0xbcb5a27d	-0.022172207
9	0x3d7e2b0b	0.062052768
10	0xbc3b8514	-0.0114453025
11	0x3e5f1a4d	0.21787377
12	0x3e432260	0.19056082
13	0xbc9ed66b	-0.019389352
14	0xbddfd2c6	-0.10928874
15	0xbd7f4c31	-0.06232852
16	0xbd42d119	-0.047562692
17	0xbe23c3c9	-0.15992655
18	0x3e0b0366	0.13575515
19	0x3e1357e9	0.14389004
20	0xbdc9f0f9	-0.09860415
21	0x3e9bd1be	0.30433458
22	0x3e4fe6e2	0.20302919
23	0xbe0a949f	-0.13533257
24	0xbe0116c1	-0.12606336
25	0xbe07b247	-0.13251601
26	0x3c70762d	0.014676613
27	0x3d4f0163	0.05053843
28	0x3d0431d4	0.032274082
29	0xbe01fdac	-0.12694424
30	0x3d5955b2	0.05306024
31	0xbc212b0e	-0.009836925
32	0xbd1b74db	-0.03795324
33	0x3c8236dc	0.0158953
34	0x3d8d8c25	0.06911496
35	0x3e625919	0.221043
36	0xbdf6b4ec	-0.12046227
37	0x3d0a6411	0.033786837
38	0xbdc32023	-0.09527614
39	0x3e1ed1e5	0.15509756
40	0xbe21ebc0	-0.15812588
41	0x3e57a513	0.21059065
42	0xbd6a4dc7	-0.05720308
43	0x3e4cf7d9	0.20016421
44	0xbe3e7a3e	-0.18601319
45	0x3de61229	0.112339325
46	0x3d8047b3	0.062636755
47	0x3e48c85a	0.19607678
48	0xbc89fa78	-0.016843066
49	0xbaa58c10	-0.0012630243
50	0xbe841cfa	-0.25803357
51	0x3e814ee0	0.2525549
52	0xbe002cb0	-0.12517047
53	0x3e259f4d	0.1617405
54	0x3e8f96e5	0.2804481
55	0x3e41d75d	0.18929811
56	0x3e73d6ee	0.23812458
57	0x3e81e85a	0.25372583
58	0x3d815f5b	0.06317016
59	0x3e540f89	0.20709051
60	0xbbf8a111	-0.00758756
61	0x3ea78f6f	0.3272662
62	0xbe70f7f7	-0.23532091
63	0x3c7299c9	0.014807173
64	0xbe17d062	-0.14825585
65	0x3d8131ae	0.06308304
66	0x3e908b2d	0.28231183
67	0xbe18b301	-0.14912035
68	0x3e94f539	0.2909334
69	0x3e2ac984	0.16678435
70	0xbdb6d41e	-0.08927177
71	0xbd57622c	-0.05258386
72	0x3e5fc24d	0.21851464
73	0xbde06cce	-0.10958253
74	0x3e083708	0.13302243
75	0xbcf12ff3	-0.02944181
76	0x3e3e7af0	0.18601584
77	0x3d60cca8	0.054882675
78	0x3ec28358	0.37990832
79	0x3e01da72	0.12680987
80	0x3d83e55c	0.06440231
81	0xbe229cfd	-0.15880199
82	0x3d24e498	0.040257066
83	0x3e43d581	0.19124414
84	0x3e945ef5	0.28978696
85	0xbd1bae04	-0.03800775
86	0x3e5d3234	0.21601182
87	0x3b64a33b	0.0034887332
88	0xbd27810c	-0.040894553
89	0xbe61b2e3	-0.22040896
90	0x3dacb3de	0.084327444
91	0x3e46560f	0.19368766
92	0x3e61718e	0.22015974
93	0xbe8678c7	-0.2626402
94	0x3ea37140	0.3192234
95	0x3d76202c	0.060089275
96	0xbe02b953	-0.12766008
97	0xbe301ca6	-0.17198429
98	0x3e3bfb8d	0.18357678
99	0xbe26df80	-0.16296196
100	0x3e72ce08	0.23711407
101	0x3e86f94a	0.26362067
102	0x3e448db3	0.19194679
103	0x3e5cd804	0.21566778
104	0x3df3eaf6	0.119100496
105	0xbdced6f2	-0.10099591
106	0xbe1c6c47	-0.1527568
107	0xbd5dd899	-0.05416164
108	0xbd1c8dfa	-0.038221337
109	0xbc355d78	-0.011069648
110	0x3d8cb58d	0.068705656
111	0xbe8324aa	-0.2561391
112	0x3e687ca8	0.22703803
113	0x3de5be1e	0.112179026
114	0xbe6e73e1	-0.23286392
115	0xbdc15d1c	-0.09441587
116	0xbd4bbae8	-0.049738795
117	0xbd2ef89f	-0.042717572
118	0xbdf5ceed	-0.120023586
119	0x3e3f40cc	0.18677062
120	0xbd1e5baf	-0.038661655
121	0x3dbb3a82	0.09142019
122	0xbe22f3d6	-0.15913329
123	0x3e3f5b7c	0.18687242
124	0xbd6a7f53	-0.057250332
125	0x3df8b452	0.12143768
126	0x3c78ab9a	0.015177632
127	0xbdbe888a	-0.093033865

h3.bias f4 [8]
0	0x3e4f4cfe	0.20244214
1	0xbdf1eb3a	-0.11812444
2	0xbe002a97	-0.12516247
3	0x3c2f8098	0.0107118115
4	0x3e9041a2	0.28175074
5	0xbdc881e5	-0.097904004
6	0x3eaaf725	0.3339168
7	0xbd847441	-0.06467486

h4.weight f4 [1, 8]
0	0x3e13034b	0.14356725
1	0xbdf2e182	-0.118594185
2	0x3e72e199	0.23718871
3	0x3ea51996	0.32246083
4	0xbe5d0700	-0.21584702
5	0xbe6db7ed	-0.23214693
6	0xbecf0b2f	-0.4043822
7	0x3ec2821d	0.37989894
