src/models/saved_models/best_model_lr0.0001_roc_auc0.9183474656677094.pt (torch, 23973 bytes, 9 tensors)

input.weight f4 [64, 30]
0.14474289 -0.026404662 -0.10475394 -0.09909874 -0.09268609 0.05840039 -0.044111382 0.017790759
-0.14748052 -0.01919531 -0.08603484 0.19269304 0.0062950808 0.061808974 -0.0041440097 0.11949548
-0.20501499 -0.15629019 -0.18498121 0.25468838 0.15777062 -0.08974599 -0.022911703 0.11493014
-0.10866085 -0.10479788 -0.0983912 -0.01065544 0.049757462 -0.053895798 -0.07105518 0.2524862
-0.13935874 0.056912113 0.14072242 0.05048115 0.13565646 0.033413056 0.28503248 0.1504593
-0.1437611 -0.036824685 0.12962209 -0.15095842 0.24621505 0.004870627 0.1727384 -0.14912723
0.009110973 0.15473834 0.103320174 0.12520877 -0.046623062 0.015174134 0.2427809 0.26945227
0.22677837 -0.17252037 -0.13733855 0.01243235 0.050211914 -0.11544379 -0.005912967 0.11529009
-0.2033806 0.055782247 -0.064521946 -0.02051086 0.108830966 -0.050454356 0.08137152 0.082671404
0.015564688 -0.15333381 0.02224814 -0.16104817 0.16740397 -0.006355287 0.2304196 0.1864719
0.05628432 -0.111462116 -0.05239113 -0.16876377 -0.010297836 0.1354416 0.17634994 0.096643575
0.13824873 0.13919158 -0.12899663 0.031180473 -0.026553933 0.02886473 0.21862632 0.004441463
-0.14566734 0.020612838 -0.1896091 0.10256233 -0.10512502 0.2071323 -0.17324373 -0.1147964
-0.118901126 -0.13709003 0.05215098 -0.06254234 0.06822728 0.02411008 0.10630213 0.017981863
0.1293065 0.05871533 0.07284485 0.091273434 -0.15439184 -0.029097026 0.09594563 0.20869729
-0.10719034 0.23489344 -0.11648016 -0.117421314 -0.21236901 -0.17090927 0.04760167 -0.16253614
0.054405756 0.12656341 -0.071158096 -0.042657934 -0.117889 0.109890565 0.13947721 -0.017701566
-0.013263807 -0.16838628 0.06459425 0.09549451 -0.114781305 0.108569466 -0.021350471 0.04399931
-0.12174737 0.20531148 0.20138545 0.12673664 -0.1393264 0.12907988 -0.1260268 -0.0014810994
0.03515341 -0.2543548 -0.07633993 0.0675141 0.040459394 -0.10553149 -0.016011426 0.09140435
0.08265055 -0.13290757 -0.06101729 -0.16252616 -0.10896307 0.071997866 -0.2545121 -0.09345077
-0.14244984 0.19033128 0.11903398 0.1500014 0.042908475 -0.039232664 -0.058147263 0.10620442
0.095085174 -0.03797707 -0.0357063 0.13710462 -0.14895763 0.10885262 -0.09517733 0.21518196
-0.16362263 -0.16617477 0.14853916 0.045347 0.09772999 0.16803348 0.21517825 0.018687265
-0.056446973 0.0942535 -0.052712563 0.04451646 -0.036748312 0.11925837 -0.24881424 -0.18180814
-0.0993244 0.2208948 0.16019288 -0.11148119 -0.04598391 0.21658476 0.112957776 -0.08538442
0.14420448 0.15235357 -0.24480636 -0.18022208 -0.010940248 0.11866803 0.20411338 0.024413817
-0.18591982 -0.13690421 0.10010366 -0.11772342 -0.20477907 -0.028111514 0.06762766 -0.13880718
-0.01830099 0.15771835 0.027840035 -0.045037407 -0.09937169 -0.030887045 -0.07596011 0.060752325
-0.04849624 0.0061498387 -0.16921471 0.02921382 0.03016642 -0.021406922 0.019769982 -0.18931937
0.0020213579 0.061993364 0.0876117 -0.0861469 -0.24718398 -0.0014390761 0.17633452 0.0712225
0.07887391 -0.1419465 -0.12713122 -0.100663364 0.25566873 0.019214146 0.020007392 0.119230606
00000000: 7b37 143e 974e d8bc 3c89 d6bd 48f4 cabd
00000010: 34d2 bdbd 3f35 6f3d 23ae 34bd edbd 913c
00000020: 2205 17be 7c3f 9dbc 0933 b0bd 5351 453e
00000030: f746 ce3b 682b 7d3d 79ca 87bb 0cba f43d
00000040: 73ef 51be 890a 20be b76b 3dbe 8466 823e
00000050: 9f8e 213e bfcc b7bd 53b1 bbbc 7e60 eb3d
00000060: 9489 debd 45a0 d6bd 5381 c9bd 2894 2ebc
00000070: 7bce 4b3d d7c1 5cbd 6185 91bd df45 813e
00000080: 0fb4 0ebe ad1c 693d 8a19 103e 53c5 4e3d
00000090: 87e9 0a3e 21dc 083d c7ef 913e 0112 1a3e
000000a0: 1c36 13be 7bd5 16bd a7bb 043e d894 1abe
000000b0: cc1f 7c3e c899 9f3b 56e2 303e cfb4 18be
000000c0: 3146 153c ba73 1e3e 8799 d33d ba36 003e
000000d0: d3f7 3ebd ee9c 783c 8e9b 783e a6f5 893e
000000e0: 9738 683e 2ea9 30be 7aa2 0cbe 0eb1 4b3c
000000f0: 02ab 4d3d cb6d ecbd 90c1 c1bb 361d ec3d
00000100: 0143 50be ed7b 643d 1524 84bd 6406 a8bc
00000110: c5e2 de3d 3aa9 4ebd 1da6 a63d a04f a93d
00000120: 0803 7f3c 8a03 1dbe bb41 b63c d0e9 24be
00000130: f26b 2b3e 0340 d0bb 1ef3 6b3e 7df2 3e3e
00000140: 638a 663d 4046 e4bd 1598 56bd 69d0 2cbe
00000150: 41b8 28bc 34b1 0a3e 1495 343e 11ed c53d
00000160: 1391 0d3e 3d88 0e3e b117 04be 316e ff3c
00000170: a287 d9bc ba75 ec3c 94df 5f3e b189 913b
00000180: d229 15be 41dc a83c e328 42be 330c d23d
00000190: c94b d7bd 7d1a 543e ce66 31be 601a ebbd
000001a0: 6f82 f3bd 5461 0cbe 449c 553d 3316 80bd
000001b0: bfba 8b3d 8182 c53c eeb4 d93d b34e 933c
000001c0: ec68 043e 7c7f 703d ae2f 953d 91ed ba3d
000001d0: e518 1ebe e35c eebc 247f c43d beb4 553e
000001e0: 9c86 dbbd e887 703e 268d eebd 967a f0bd
000001f0: 4377 59be d702 2fbe f8f9 423d e06f 26be
00000200: 92d8 5e3d d799 013e 56bb 91bd 16ba 2ebd
00000210: ca6f f1bd 4e0e e13d 1dd3 0e3e e002 91bc
00000220: 7050 59bc 746d 2cbe fd49 843d a092 c33d
00000230: 7612 ebbd ab59 de3d 2fe7 aebc 9f38 343d
00000240: af56 f9bd 2c3d 523e fd37 4e3e 40c7 013e
00000250: 94ab 0ebe 842d 043e 2b0d 01be 7321 c2ba
00000260: 06fd 0f3d cb3a 82be 1c58 9cbd d544 8a3d
00000270: c0b8 253d e520 d8bd 652a 83bc 3432 bb3d
00000280: b144 a93d ec18 08be 44ed 79bd 426d 26be
00000290: 0828 dfbd 9e73 933d 694f 82be 1e63 bfbd
000002a0: 5fde 11be 34e6 423e 16c8 f33d f899 193e
000002b0: ccc0 2f3d 6eb2 20bd d32b 6ebd b481 d93d
000002c0: 04bc c23d d88d 1bbd c540 12bd 2765 0c3e
000002d0: 5988 18be 1fee de3d 55ec c2bd a958 5c3e
000002e0: b18c 27be b829 2abe a61a 183e c7bd 393d
000002f0: a926 c83d f810 2c3e b057 5c3e 0916 993c
00000300: f134 67bd fb07 c13d 21e9 57bd e456 363d
00000310: 6685 16bd bb3d f43d 29c9 7ebe ea2b 3abe
00000320: 976a cbbd 3f32 623e 9a09 243e 4050 e4bd
00000330: a059 3cbd 65c8 5d3e 6856 e73d 07de aebd
00000340: 57aa 133e 9302 1c3e 85ae 7abe 238c 38be
00000350: ba3e 33bc 3908 f33d 1903 513e 7cff c73c
00000360: c461 3ebe 9e30 0cbe 2603 cd3d fa18 f1bd
00000370: 9bb1 51be 1e4a e6bc 5f80 8a3d 7823 0ebe
00000380: f5eb 95bc eb80 213e c910 e43c 2579 38bd
00000390: 6283 cbbd d406 fdbc f990 9bbd 6ed7 783d
000003a0: fea3 46bd 9684 c93b 9f46 2dbe d251 ef3c
000003b0: 911f f73c 925d afbc a8f4 a13c f0dc 41be
000003c0: c278 043b c1ec 7d3d c36d b33d c96d b0bd
000003d0: cc1d 7dbe 629f bcba 0991 343e 1add 913d
000003e0: a588 a13d 6c5a 11be b02e 02be 9828 cebd
000003f0: 03e7 823e fc66 9d3c 8be6 a33c 2d2f f43d

input.bias f4 [64]
0.2823887 0.24641871 0.19393669 0.22482985 0.24468288 0.13615361 0.07153402 -0.04203485
0.037731435 -0.08707464 0.1798873 0.007322626 0.014551011 0.1975232 0.16067663 -0.022142978
-0.23663163 0.11197204 0.13944192 0.21764198 -0.14010449 0.22923122 -0.14194973 0.11038098
0.36501393 0.2637762 0.029552402 0.07104597 0.014566914 -0.07856475 0.07533899 0.04849245
0.011052561 0.31127775 -0.04961972 0.036511388 0.3718652 0.23956548 0.065969564 -0.073202774
-0.073015936 -0.10218889 0.1427831 -0.16017297 0.025821306 -0.10503213 0.028768415 -0.12465903
-0.038347952 0.121869884 0.18911816 0.1763584 0.1913003 -0.086774096 0.2216748 0.06731561
-0.11407401 0.28251037 -0.02606001 0.16794124 -0.027548224 0.24802114 0.27808085 0.14758603
00000000: 4095 903e 3055 7c3e 5797 463e cc39 663e
00000010: 268e 7a3e da6b 0b3e 6e80 923d bc2c 2cbd
00000020: 478c 1a3d 3054 b2bd 6034 383e a4f2 ef3b
00000030: 5d67 6e3c 8643 4a3e 6a88 243e 3165 b5bc
00000040: 904f 72be 9951 e53d ddc9 0e3e 8add 5e3e
00000050: 8d77 0fbe 97bb 6a3e 455b 11be 6c0f e23d
00000060: 1be3 ba3e ad0d 873e e117 f23c 8d80 913d
00000070: 11aa 6e3c 8ee6 a0bd 544b 9a3d 05a0 463d
00000080: cd15 353c cc5f 9f3e 0c3e 4bbd f78c 153d
00000090: 1e65 be3e a750 753e 0d1b 873d 56eb 95bd
000000a0: 6189 95bd 6948 d1bd bc35 123e 6204 24be
000000b0: 3487 d33c 161b d7bd bdab eb3c 3c4d ffbd
000000c0: be12 1dbd eb96 f93d 31a8 413e 4c97 343e
000000d0: 3ae4 433e 9eb6 b1bd b8fe 623e c4dc 893d
000000e0: a29f e9bd 33a5 903e cd7b d5bc caf8 2b3e
000000f0: d0ac e1bc 41f9 7d3e 9d60 8e3e cb20 173e

h1.weight f4 [32, 64]
-0.029211234 0.22525245 0.027985705 0.048527677 0.08416503 0.08446814 0.1633355 0.10906521
-0.022222973 0.26374027 0.16535214 -0.052433513 0.20599246 0.05524771 0.19789141 0.08604614
0.23619081 0.033531684 0.18287696 0.0747582 0.10262816 0.19090843 0.012538143 0.12579909
0.15305023 0.17894173 0.056826312 -0.05117367 0.049490903 0.24277379 0.04285173 0.09486925
0.056489777 0.13742122 -0.089007825 0.2352162 0.16981703 0.19696958 0.15492055 0.027543867
0.15034673 0.1223841 0.056637894 0.16115943 -0.056305587 0.29468802 0.1454666 0.017290153
0.1290939 0.07593222 0.13993429 0.07800707 0.1953715 0.10316711 0.20881394 0.037298985
0.12512183 0.095626235 0.09148257 0.12436945 -0.034814313 -0.047220465 0.06548001 0.15623313
0.0477671 0.0060863527 -0.07471718 0.24746737 -0.023201568 0.10638221 -0.13512066 -0.035235908
0.120388985 0.0033289252 0.085034356 0.1681797 0.084842436 0.029556965 0.08153425 0.13531376
0.05214567 0.20007488 0.02373471 -0.11668556 -0.055378534 0.080364875 -0.07931236 0.14629921
0.1387785 0.026086073 -0.13186827 0.0042450214 0.05958135 -0.007575389 0.087285705 -0.080661535
-0.014405872 -0.060886938 0.076008 0.08690521 0.13170089 -0.027867943 0.027376186 0.15593907
0.07384237 0.05115042 0.16339326 0.039334796 0.10175497 -0.09369586 0.1562281 0.025135683
-0.12538186 -0.08542919 0.04360136 0.13913682 0.12913182 0.06843022 0.12728299 -0.0040845415
0.0018826268 0.08617653 0.11447734 0.08188017 -0.00014233094 0.23177357 0.029913597 0.13003029
0.054118726 0.13165325 0.18754365 -0.040758327 0.055653352 0.01817455 0.26918325 0.0597557
0.08224071 0.37137175 0.2010062 0.09991366 0.3757605 0.11894811 -0.028697228 -0.017224474
0.17159599 -0.06928962 0.16053101 0.35109994 0.20913176 0.0833004 -0.053746965 0.17724088
0.23228694 0.21001479 -0.0033672038 -0.013538155 0.02232476 0.20326674 0.17359364 0.3247473
0.11743533 0.09358271 0.0077154385 0.027144382 0.04836248 0.25031996 0.0931274 -0.06448845
-0.025998631 0.18873812 -0.04695182 0.1697813 0.08063146 -0.060805187 -0.0627811 -0.08119309
0.18747477 0.11434877 0.033576604 -0.0637251 0.20293601 0.12672707 -0.014783412 0.0014975186
0.0784285 -0.037244193 -0.074985676 0.026524644 -0.08088445 -0.063588776 0.26128986 -0.037770547
0.17862707 0.0792794 0.03519804 0.17804618 0.2587234 -0.04152029 0.17989287 0.09876056
0.08806117 0.07574398 0.19968703 0.097491056 0.20093822 -0.0021949732 0.14943936 0.050296523
0.14875534 0.14268333 0.22022274 0.30701005 0.109253496 0.23781188 0.13268681 0.09169422
0.17038551 0.2091489 0.120962195 0.2436381 0.12418338 0.118095405 0.17317812 0.1835105
0.12664236 0.007606409 0.15884283 0.15381822 0.11924004 0.27925152 0.083269954 0.17228682
0.03505706 0.13077413 0.074778445 0.12227349 -0.025145303 0.022996161 0.094598584 0.046050902
0.04356749 0.17842108 0.14861673 0.004063006 0.06531217 0.20490888 0.03946266 0.13504043
0.05408216 0.0328789 0.16950001 0.26457688 0.028980887 0.18793757 0.10489097 0.026885377
00000000: 664c efbc 94a8 663e 4742 e53c f5c4 463d
00000010: b75e ac3d a2fd ac3d 6c41 273e 955d df3d
00000020: f40c b6bc f708 873e 1252 293e 86c4 56bd
00000030: b0ef 523e 6c4b 623d 0ca4 4a3e f538 b03d
00000040: 01dc 713e 8558 093d 1944 3b3e d41a 993d
00000050: b62e d23d 807d 433e c96c 4d3c 7ad1 003e
00000060: 33b9 1c3e 803c 373e b5c2 683d 7b9b 51bd
00000070: f9b6 4a3d b199 783e 4c85 2f3d cf4a c23d
00000080: d361 673d 26b8 0c3e bc49 b6bd 84dc 703e
00000090: 84e4 2d3e 65b2 493e 7ea3 1e3e ada3 e13c
000000a0: 7ef4 193e 84a4 fa3d 23fd 673d fa06 253e
000000b0: b0a0 66bd 59e1 963e 32f5 143e 14a4 8d3c
000000c0: 3131 043e 5a82 9b3d ef4a 0f3e 2cc2 9f3d
000000d0: 770f 483e 4749 d33d 52d3 553e d2c6 183d
000000e0: f01f 003e b0d7 c33d 375b bb3d 69b5 fe3d
000000f0: 7499 0ebd 3f6a 41bd 621a 863d 94fb 1f3e
00000100: 6fa7 433d 0770 c73b 5205 99bd 1668 7d3e
00000110: 3711 bebc ebde d93d 125d 0abe 8753 10bd
00000120: 808e f63d 192a 5a3b 7e26 ae3d 4d37 2c3e
00000130: dfc1 ad3d 7321 f23c 6efb a63d b18f 0a3e
00000140: b396 553d 6ee0 4c3e 4b6f c23c d7f8 eebd
00000150: 9ad4 62bd 5796 a43d 856e a2bd 76cf 153e
00000160: f31b 0e3e 76b2 d53c 7a08 07be d219 8b3b
00000170: 930b 743d f83a f8bb d9c2 b23d e031 a5bd
00000180: 9b06 6cbc 9564 79bd 15aa 9b3d 5cfb b13d
00000190: 99dc 063e 504b e4bc 0644 e03c 7eae 1f3e
000001a0: ab3a 973d 1a83 513d 9050 273e 861d 213d
000001b0: e964 d03d 9de3 bfbd 42fa 1f3e 59e9 cd3c
000001c0: 1a64 00be 80f5 aebd 5797 323d e279 0e3e
000001d0: 223b 043e 2525 8c3d 7956 023e 9ed7 85bb
000001e0: 79c2 f63a 527d b03d 1873 ea3d cab0 a73d
000001f0: ac3e 15b9 0d56 6d3e 5c0d f53c a926 053e
00000200: 99ab 5d3d 1cd0 063e 710b 403e 34f2 26bd
00000210: c5f4 633d cbe2 943c 63d2 893e 65c2 743d
00000220: d16d a83d 7024 be3e 92d4 4d3e 889f cc3d
00000230: ae63 c03e 119b f33d 7316 ebbc 571a 8dbc
00000240: dcb6 2f3e b7e7 8dbd 3e62 243e 5fc3 b33e
00000250: a326 563e 6699 aa3d c725 5cbd a27e 353e
00000260: a1dc 6d3e 1e0e 573e 4eac 5cbb 23cf 5dbc
00000270: 6ae2 b63c 2825 503e 88c2 313e 4745 a63e
00000280: ef81 f03d 4ba8 bf3d cad1 fc3b e55d de3c
00000290: bc17 463d f029 803e 94b9 be3d 8512 84bd
000002a0: 15fb d4bc 9144 413e 8d50 40bd 26db 2d3e
000002b0: 1b22 a53d dc0e 79bd 6193 80bd 9048 a6bd
000002c0: 63f9 3f3e b02f ea3d 9f87 093d 4e82 82bd
000002d0: 75ce 4f3e bec4 013e 2036 72bc 6348 c43a
000002e0: 1f9f a03d 5e8d 18bd 1792 99bd 364a d93c
000002f0: bfa6 a5bd d53a 82bd c9c7 853e 4ab5 1abd
00000300: 04ea 363e 3d5d a23d d22b 103d bd51 363e
00000310: 6577 843e 2e11 2abd d635 383e fa42 ca3d
00000320: 6a59 b43d a91f 9b3d c27a 4c3e 64a9 c73d
00000330: c0c2 4d3e 8ad9 0fbb a206 193e ba03 4e3d
00000340: 5253 183e 941b 123e 1282 613e 6c30 9d3e
00000350: 4cc0 df3d f584 733e 0ddf 073e 2eca bb3d
00000360: 8a79 2e3e 212b 563e 07bb f73d 447c 793e
00000370: db53 fe3d 01dc f13d 9b55 313e 2dea 3b3e
00000380: 89ae 013e 2f3f f93b b2a7 223e 8682 1d3e
00000390: 1f34 f43d 0efa 8e3e 7089 aa3d f56b 303e
000003a0: fe97 0f3d a7e9 053e 7125 993d 866a fa3d
000003b0: 86fd cdbc 7262 bc3c e7bc c13d df9f 3c3d
000003c0: d373 323d 04b4 363e fc2e 183e f722 853b
000003d0: 63c2 853d a2d3 513e 99a3 213d 0a48 0a3e
000003e0: 4185 5d3d 07ac 063d 6991 2d3e 9f76 873e
000003f0: 5369 ed3c b572 403e 14d1 d63d b93e dc3c

h1.bias f4 [32]
0.16589734 0.033483684 0.059835266 0.09840476 -0.12163008 -0.06189514 0.036437806 0.010538328
0.12041677 0.04455705 -0.06881215 0.033225793 0.073793046 0.09565353 0.23179226 0.070876054
-0.049712423 0.062568985 0.12771863 0.072408535 0.033349298 0.15974152 0.11633081 0.04067815
0.04811 0.033208985 0.030857006 0.028799523 0.0023323856 0.089731716 0.060323186 0.024163364
00000000: fee0 293e 3026 093d d315 753d 6f88 c93d
00000010: 3119 f9bd c285 7dbd cf3f 153d f4a8 2c3c
00000020: 119d f63d 7481 363d 62ed 8cbd c517 083d
00000030: cf20 973d ffe5 c33d f35a 6d3e 7727 913d
00000040: 419f 4bbd 2b24 803d acc8 023e ed4a 943d
00000050: 4699 083d 4893 233e d93e ee3d 229e 263d
00000060: fe0e 453d 2506 083d d5c7 fc3c faec eb3c
00000070: f0da 183b 43c5 b73d 7215 773d 3ff2 c53c

h2.weight f4 [16, 32]
0.03272096 0.06253299 -0.06546326 0.05535595 -0.057990313 -0.060963277 -0.026596505 -0.08339032
-0.139149 0.059051037 -0.11525006 -0.046738047 0.056345403 0.10700687 0.13977905 -0.19583283
-0.19080262 -0.104127094 -0.10220247 -0.1474909 -0.04246689 0.04248245 -0.16345318 0.06795029
-0.11901314 -0.118742414 -0.070752025 -0.14693752 0.106963396 -0.19163425 0.019804565 -0.072141804
-0.075184755 -0.031033214 0.073528 0.0099518895 -0.07052576 0.061707307 -0.06434753 0.013103362
-0.076977186 -0.057399932 -0.14213897 -0.03675264 -0.19846347 -0.07620662 -0.071314655 -0.09579877
0.15306206 0.007190344 -0.12908788 -0.017602066 -0.059469495 0.06100719 0.0807174 -0.14188842
-0.043330394 0.0035138084 0.05224146 0.015536789 0.055465493 -0.09711568 -0.059513234 -0.039666686
0.16891634 -0.053827625 0.05122348 0.114072815 0.07995149 0.05728325 0.048305444 -0.20266554
-0.25071564 0.20424578 -0.035022784 0.033679087 -0.01560397 -0.20355842 0.08584988 0.1372899
-0.056166947 -0.080344625 0.13972719 0.032553613 -0.14952834 0.09168988 0.21426752 0.036523107
-0.2466343 -0.21466567 0.014146664 0.013279429 -0.09161905 0.13366118 0.19721764 0.10585456
-0.11858054 0.21872832 -0.11532535 -0.1633977 -0.16426602 0.060960617 0.01886915 0.07751628
0.21893701 -0.019807966 0.075397775 -0.11917165 0.28036395 0.19810908 0.25072077 -0.11448838
0.10438656 0.30599812 0.18660498 0.2298079 0.22840303 -0.14169228 0.17102958 0.054919127
0.24396813 0.035988107 -0.15110502 0.26972163 -0.059890322 0.07568199 -0.11481595 0.049424343
0.069498695 -0.07502726 0.2828408 0.17010514 0.2196427 0.112477206 0.25763884 -0.13772027
-0.07194471 0.24363185 0.05529067 0.07208262 -0.17019805 -0.1970185 -0.14888588 0.11196643
-0.017095556 -0.10382181 0.148812 0.017678495 -0.23656999 0.28954926 0.3175483 0.2612105
-0.018072022 -0.21056674 -0.037129946 -0.0928211 0.0114925625 0.18910939 0.3399128 0.28810397
0.30722657 0.0076893116 0.22643746 0.2619163 0.22487023 -0.05915572 0.11678389 0.0020998903
-0.12173078 0.27426553 -0.044989366 0.16582747 -0.14589852 -0.13083282 0.14733212 0.21206878
0.03490445 -0.17745078 0.068817005 -0.011940466 -0.20814767 0.27002874 0.064523414 0.0039409585
-0.07339029 4.036965e-05 0.08768357 -0.12132037 -0.11574751 0.15535127 0.25134552 0.15193832
0.01943031 0.0077288314 0.10981559 0.06315257 -0.07161655 -0.018960997 -0.11604138 -0.0036776804
-0.12353011 0.18261686 -0.052409995 0.17874275 -0.19548981 -0.110555306 0.1484422 0.016498383
0.023535458 0.082149446 -0.059227582 -0.11136089 -0.020086229 0.10421323 0.08505672 0.15293409
-0.099760905 -0.00084032683 0.06480218 0.06571253 0.10758492 0.17605555 0.07188334 -0.10897798
-0.06376105 0.13532674 0.11994344 0.10379277 -0.11270252 0.16021062 0.07509778 0.24766678
0.24970722 0.06749121 0.08178601 -0.113426544 0.18986733 0.20492902 -0.023439165 0.26102456
0.12633206 0.0243592 0.20169295 -0.055901464 0.20770967 0.036604486 -0.07596495 0.24836929
0.17263564 0.19085936 0.08832697 0.17163362 -0.06595302 0.24673386 0.23817912 0.028494604
00000000: 6a06 063d 4c11 803d 9a11 86bd ecbc 623d
00000010: 4087 6dbd a1b4 79bd eae0 d9bc 8bc8 aabd
00000020: 137d 0ebe 80df 713d 3908 ecbd 6570 3fbd
00000030: 70ca 663d 6b26 db3d 3d22 0f3e 6788 48be
00000040: c361 43be 9640 d5bd 874f d1bd db07 17be
00000050: c3f1 2dbd 1402 2e3d 4560 27be 8629 8b3d
00000060: 29bd f3bd 392f f3bd 70e6 90bd ca76 16be
00000070: a00f db3d c53b 44be 2f3d a23c 15bf 93bd
00000080: 77fa 99bd 5e39 febc d995 963d 400d 233c
00000090: cf6f 90bd cdc0 7c3d a3c8 83bd 7caf 563c
000000a0: 37a6 9dbd 311c 6bbd e18c 11be f089 16bd
000000b0: 023a 4bbe 3712 9cbd 6b0d 92bd 2532 c4bd
000000c0: 4dbc 1c3e fa9c eb3b 9d2f 04be 3532 90bc
000000d0: 4996 73bd ade2 793d 2a4f a53d 334b 11be
000000e0: 367b 31bd ec47 663b 24fb 553d 048e 7e3c
000000f0: c92f 633d 96e4 c6bd 26c4 73bd 8979 22bd
00000100: 68f8 2c3e 5b7a 5cbd b6cf 513d 029f e93d
00000110: 9bbd a33d d7a1 6a3d eedb 453d 8e87 4fbe
00000120: cd5d 80be ce25 513e 0d74 0fbd 15f3 093d
00000130: cba7 7fbc 9e71 50be 10d2 af3d b995 0c3e
00000140: 500f 66bd b98b a4bd a514 0f3e f056 053d
00000150: f51d 19be e7c7 bb3d f268 5b3e 4199 153d
00000160: b48d 7cbe 51d1 5bbe 69c7 673c f691 593c
00000170: c5a2 bbbd 7ade 083e 6cf3 493e 47ca d83d
00000180: 5bda f2bd 51fa 5f3e b22f ecbd ba51 27be
00000190: 5a35 28be d7b1 793d 7a93 9a3c dbc0 9e3d
000001a0: 0631 603e 5144 a2bc 266a 9a3d 4410 f4bd
000001b0: dd8b 8f3e 1bdd 4a3e 795e 803e e278 eabd
000001c0: 9fc8 d53d c9ab 9c3e 6015 3f3e c352 6b3e
000001d0: 7ce2 693e c817 11be 6122 2f3e e1f2 603d
000001e0: c8d2 793e 4468 133d 46bb 1abe f418 8a3e
000001f0: 8e4f 75bd 29ff 9a3d a024 ebbd 2e71 4a3d
00000200: 5555 8e3d e4a7 99bd 82d0 903e 0b30 2e3e
00000210: 04ea 603e 735a e63d 3de9 833e 8b06 0dbe
00000220: c057 93bd a17a 793e 7878 623d 0da0 933d
00000230: 6648 2ebe 38bf 49be 8a75 18be a84e e53d
00000240: fb0b 8cbc 87a0 d4bd 2c62 183e 7ed2 903c
00000250: 673f 72be cd3f 943e b195 a23e 62bd 853e
00000260: c70b 94bc cf9e 57be 9215 18bd fd18 bebd
00000270: 4d4b 3c3c e4a5 413e 0d09 ae3e 5d82 933e
00000280: cd4c 9d3e 9ff6 fb3b 39df 673e e519 863e
00000290: 6244 663e 454d 72bd 642c ef3d 509e 093b
000002a0: fd4d f9bd 886c 8c3e c546 38bd adce 293e
000002b0: 6c66 15be 0af9 05be 3bde 163e 8f28 593e
000002c0: f8f7 0e3d a8b5 35be eeef 8c3d f2a1 43bc
000002d0: aa24 55be 3541 8a3e da24 843d 2823 813b
000002e0: a64d 96bd 9552 2938 7293 b33d d076 f8bd
000002f0: 080d edbd 6714 1f3e 5cb0 803e b895 1b3e
00000300: 502c 9f3c 2342 fd3b ffe6 e03d 2256 813d
00000310: b3ab 92bd 1854 9bbc 1aa7 edbd 3d05 71bb
00000320: 5bfd fcbd eaff 3a3e ddab 56bd 5708 373e
00000330: 7b2e 48be d26a e2bd 3b01 183e 9e27 873c
00000340: 6fcd c03c f83d a83d 9f98 72bd 2e11 e4bd
00000350: e08b a4bc bf6d d53d 3832 ae3d c19a 1c3e
00000360: 724f ccbd 6149 5cba 01b7 843d 4a94 863d
00000370: 7c55 dc3d e847 343e 9337 933d d92f dfbd
00000380: 2795 82bd 1893 0a3e e8a4 f53d 4e91 d43d
00000390: 94d0 e6bd 410e 243e ddcc 993d 5c9c 7d3e
000003a0: 40b3 7f3e d538 8a3d 6c7f a73d 2d4c e8bd
000003b0: 956c 423e ead8 513e 7e03 c0bc 03a5 853e
000003c0: 315d 013e f28c c73c 9988 4e3e eff8 64bd
000003d0: d8b1 543e 96ee 153d 8393 9bbd 8554 7e3e
000003e0: 66c7 303e a370 433e c5e4 b43d b9c0 2f3e
000003f0: 6012 87bd cda7 7c3e 3ae5 733e 846d e93c

h2.bias f4 [16]
-0.052053902 -0.14567617 0.1961935 -0.010460032 0.20142667 0.25045416 0.09881188 0.26205403
-0.005080688 0.08534488 0.057552714 -0.058461078 -0.00021727459 0.020881178 0.18412164 -0.12567005
00000000: 7936 55bd 222c 15be f3e6 483e 8e60 2bbc
00000010: cb42 4e3e 873b 803e e25d ca3d f22b 863e
00000020: e67b a6bb 4cc9 ae3d 65bc 6b3d e274 6fbd
00000030: 34d4 63b9 010f ab3c 628a 3c3e a6af 00be

h3.weight f4 [8, 16]
0.02050642 -0.028088868 0.057177864 0.22748876 -0.3301425 -0.2709255 0.13046062 -0.25253814
-0.039082885 0.018380689 -0.0114453025 0.21787377 0.15004735 -0.061862953 -0.15574259 -0.16139
-0.047562692 -0.15992655 0.1482787 0.11081018 -0.08647491 0.31275293 0.2128188 -0.13903569
-0.1165154 -0.16494364 0.014676613 0.05053843 0.041160144 -0.16167584 0.06802686 0.044538207
-0.03795324 0.0158953 0.089041986 0.26289055 -0.10026747 0.060843185 -0.073103786 0.1915117
-0.1331158 0.2543313 -0.05720308 0.20016421 -0.16038999 0.15684426 0.08009697 0.093576394
-0.016843066 -0.0012630243 -0.2645996 0.2962421 -0.13097343 0.16390614 0.2799114 0.20827824
0.23730893 0.2991387 0.06317016 0.20709051 -0.0063549057 0.3732817 -0.24459492 -0.08604881
-0.14825585 0.06308304 0.28921565 -0.20191574 0.29744402 0.16662633 -0.08800523 -0.0717177
0.22104064 -0.1636913 0.13302243 -0.02944181 0.1865113 1.2625919e-05 0.38983235 0.13599707
0.06440231 -0.15880199 0.049796496 0.14917102 0.29885447 -0.034018107 0.22055899 -0.008457401
-0.035318464 -0.2626711 0.084327444 0.19368766 0.22508273 -0.3054791 0.33121344 0.08703013
-0.12766008 -0.17198429 0.19056226 -0.22233997 0.24368037 0.26304471 0.19299573 0.1942705
0.121296704 -0.16147372 -0.1527568 -0.05416164 -0.038135108 -0.07208999 0.07870182 -0.25295523
0.22703803 0.112179026 -0.22328906 -0.08828551 -0.04172308 -0.025084067 -0.11262525 0.19984531
-0.02442142 0.10064684 -0.15913329 0.18687242 -0.042434692 0.13118786 0.02339606 -0.20721613
00000000: 14fd a73c a01a e6bc 5633 6a3d d0f2 683e
00000010: 7008 a9be bfb6 8abe 7897 053e ae4c 81be
00000020: 6015 20bd 1993 963c 1485 3bbc 4d1a 5f3e
00000030: 03a6 193e 0264 7dbd fc7a 1fbe 6c43 25be
00000040: 19d1 42bd c9c3 23be 5fd6 173e 73f0 e23d
00000050: c219 b1bd 2721 a03e 2ced 593e 5f5f 0ebe
00000060: a09f eebd fce6 28be 2d76 703c 6301 4f3d
00000070: 8a97 283d 5a8e 25be ab51 8b3d b26d 363d
00000080: db74 1bbd dc36 823c a55b b63d 9799 863e
00000090: 0859 cdbd b436 793d 70b7 95bd a51b 443e
000000a0: 824f 08be b637 823e c74d 6abd d9f7 4c3e
000000b0: 463d 24be c89b 203e e109 a43d fba4 bf3d
000000c0: 78fa 89bc 108c a5ba 9979 87be 0bad 973e
000000d0: e61d 06be 03d7 273e 8c50 8f3e e446 553e
000000e0: 1d01 733e b528 993e 5b5f 813d 890f 543e
000000f0: d03c d0bb c71e bf3e 1777 7abe 5c3a b0bd
00000100: 62d0 17be ae31 813d 1314 943e 00c3 4ebe
00000110: 954a 983e 18a0 2a3e 163c b4bd bbe0 92bd
00000120: 7a58 623e b19e 27be 0837 083e f32f f1bc
00000130: d1fc 3e3e e9d3 5337 1b98 c73e d142 0b3e
00000140: 5ce5 833d fd9c 22be 69f7 4b3d 4ac0 183e
00000150: 7403 993e 9256 0bbd 37da 613e e990 0abc
00000160: 18aa 10bd d47c 86be deb3 ac3d 0f56 463e
00000170: 167c 663e c267 9cbe cf94 a93e da3c b23d
00000180: 53b9 02be a61c 30be c122 433e 17ad 63be
00000190: 5987 793e ccad 863e aca0 453e d9ee 463e
000001a0: 686a f83d 5e59 25be 476c 1cbe 99d8 5dbd
000001b0: 8f33 1cbd eba3 93bd 6b2e a13d 5983 81be
000001c0: a87c 683e 1ebe e53d e3a5 64be 09cf b4bd
000001d0: d2e5 2abd 1a7d cdbc 11a8 e6bd 40a4 4c3e
000001e0: 6e0f c8bc ee1f ce3d d6f3 22be 7c5b 3f3e
000001f0: 00d0 2dbd 1c56 063e 18a9 bf3c 7730 54be

h3.bias f4 [8]
0.20312233 -0.12601766 -0.07664497 0.041286208 0.2583028 -0.11412037 0.3087458 -0.03176817
00000000: 4dff 4f3e c60a 01be 0af8 9cbd ba1b 293d
00000010: 4440 843e f1b7 e9bd ee13 9e3e 571f 02bd

h4.weight f4 [1, 8]
0.11746561 -0.15013595 0.27098724 0.36892465 -0.22574383 -0.25271162 -0.40953052 0.38244116
00000000: cf91 f03d 3dbd 19be d7be 8a3e b1e3 bc3e
00000010: 6429 67be 6b63 81be fcad d1be 54cf c33e
