src/models/saved_models/best_model_lr0.0001_roc_auc0.8941682545597667.pt (torch, 23973 bytes, 9 tensors)

input.weight f4 [64, 30]
00000000: 0e7b 123e dcec 6dbd 5d5a 9bbd 69b5 e5bd
00000010: 04a9 cbbd bf95 bd3d f06d 5ebd 18d5 a8bc
00000020: bcd2 26be a168 1cbd 5482 a7bd babe 5f3e
00000030: ea01 2abd be0e ca3d 45c2 c2bb 23f2 573d
00000040: a3f7 49be de99 16be 6e67 58be 3877 403e
00000050: 8fb0 023e 8e69 81bd a91c 69bd 22be f93d
00000060: 8dcf 0abe 6902 e5bd e03f 92bd 2a46 0d3c
00000070: 5afb 8d3d a4ab 9ebd da33 4dbd 0585 5a3e
00000080: 573b 08be 47ff 563d 621d 233e abb9 273d
00000090: 224c 3f3e f439 bb3d c6e4 573e 23ea ef3d
000000a0: 7b91 08be 17a3 e53c 5c1f f73d 16bd 0abe
000000b0: ee03 553e 55b2 c7bc e2b5 3e3e 5f19 18be
000000c0: e8cc 363d efea 2f3e b7ea ea3d 8ef4 cc3d
000000d0: 6883 46bc e58b e43c f4d5 5f3e 0975 663e
000000e0: 2671 513e a7d3 5bbe beed 28be 36df 4a3d
000000f0: f5a2 583d 7bae 03be 90a9 40bd 7a65 dd3d
00000100: d744 55be db64 113d d4d8 66bd 2cd1 0bbd
00000110: 9ed8 723d 0f5c 95bc 9978 b93d cfb8 f03d
00000120: a14c 343d cf5f 33be 5ad1 373d df2b dcbd
00000130: d41c 083e 667a f4bc e1b0 473e 5b76 6c3e
00000140: db17 863d 30ba e2bd 0f27 debc 35bb 12be
00000150: 47b4 363d 8e90 a03d d81e 333e f781 c73d
00000160: af99 f73d ef3f 173e 9eee 11be 07f2 603d
00000170: 3f2c d2bc 50fc e53c 7a4a 2e3e d791 26bd
00000180: 5bf3 3ebe d903 09bd 96d7 14be dcaa db3d
00000190: 3e63 cebd 174b 553e ef33 11be fb14 bebd
000001a0: 950f bbbd 750b 0bbe 3c9b 413d 6441 96bd
000001b0: 8099 8c3d e4ec a83c af49 033e c478 fd3c
000001c0: 61c0 ed3d 6ddd 893d 1287 883d 2db1 dd3d
000001d0: 70d2 febd 92fa 45bc dfe6 083e 2faf 393e
000001e0: 3dd3 1abe 81f7 223e f2a4 d9bd 56f8 08be
000001f0: 263f 1cbe 772a 11be c06f 9b3d b3fa ddbd
00000200: 015e 0c3d ab0a 123e 21cc aabd 460e 74bd
00000210: baf2 16be 8afd 173e 3fce a33d 5996 87bd
00000220: ab2b 2fbd 9602 1cbe 8c0c 9c3d e61c c63d
00000230: 974b 0abe 7768 823d 28df 99bd 18aa e43c
00000240: edc9 19be a184 343e 0fbe 153e 5262 e53d
00000250: 4760 0fbe 5c43 2b3e 2c50 23be 97d7 6f3b
00000260: 626d 553d 7072 64be b3db 09bd 7ff2 493d
00000270: bbc5 a33c fd44 12be 2c93 c73b ef2c 793d
00000280: 4c75 d43d 53f8 d3bd fad3 2cbd a763 1dbe
00000290: 818f 02be d8bb 333c 3f8b 59be fc50 c3bd
000002a0: 07b1 34be 5e78 df3d 8468 033e 6e55 323e
000002b0: 6682 383c 984d 18bd f28d 09bd 4dd3 1a3e
000002c0: c66a 0f3e 0e3e f2bb f4f7 dfbc 3fec f33d
000002d0: 1308 21be 7377 d03d ef04 2fbd e3ed 443e
000002e0: 2286 eabd 6e58 edbd 3cd7 203e cb0a 813d
000002f0: 27a9 a43d 5dc4 1d3e 6b8f 4c3e 3fcd b33c
00000300: d4c4 d7bd ab59 b93d e646 b5bd 0442 c63c
00000310: ea10 44bd 33ec 213e f785 1abe d25c 16be
00000320: 829d 00be 3836 2f3e 64bc 053e d208 cabd
00000330: 69f2 c0bd 38db 343e 80f9 b83d 9725 f1bd
00000340: 9b27 bc3d 84fc 053e 9170 52be 6531 23be
00000350: 805a eabb e5a0 c33b 2a7a 4f3e 10ad 973b
00000360: 0903 61be 5b2f 13be 73bb 013e 5d39 e4bd
00000370: 1ec1 64be 2dca 4dbd d329 f73d b509 e5bd
00000380: be73 8cbc d389 e33d 2c6f 7abc 2b3c 7cbd
00000390: 0a0b 9fbd 9c4a 09bd c38d afbd 725e e73d
000003a0: 7c06 8ebd 2cdd 1abc 56a4 44be 981d 373d
000003b0: 1f72 143c e16b 80bb 727c 0b3d 3e74 35be
000003c0: 6bf0 21bc 5611 773d 3ff5 453d 1cba e8bd
000003d0: 6438 56be b4ad 2dbd 7fa7 3a3e 6222 f03d
000003e0: 6131 f13c eacc f1bd 8ce4 18be 6172 ddbd
000003f0: cb06 663e 0f18 f03a e87e 92ba 8301 bf3d
0.14304754 -0.058087215 -0.07585595 -0.11216242 -0.099443465 0.092570774 -0.054304063 -0.020609424
-0.16291326 -0.03818572 -0.08179155 0.218501 -0.04150573 0.09866093 -0.005943569 0.052721154
-0.19723372 -0.14707133 -0.21133205 0.18795478 0.12762664 -0.06318961 -0.056912098 0.12194468
-0.13555737 -0.111821 -0.071410894 0.008622685 0.06932707 -0.077475816 -0.050098278 0.21339805
-0.13303886 0.052489545 0.15929177 0.04094855 0.18681386 0.09141913 0.21083364 0.1171458
-0.13336746 0.028031869 0.12066528 -0.13548693 0.2080228 -0.024377028 0.1862407 -0.14853428
0.044629008 0.17179464 0.114705496 0.100075826 -0.012116291 0.027898738 0.2185896 0.22505583
0.20453319 -0.21467458 -0.16496941 0.049529277 0.052889783 -0.12859528 -0.047036707 0.10810371
-0.20827042 0.035496574 -0.056359127 -0.03413503 0.059288613 -0.018232374 0.09056205 0.117539994
0.04401839 -0.17517017 0.044877388 -0.10750555 0.13292247 -0.02984352 0.19501068 0.23092024
0.06547519 -0.11070669 -0.027118234 -0.14329226 0.04460552 0.078400716 0.17492235 0.09741586
0.1208986 0.14770482 -0.14251181 0.054918315 -0.025655864 0.028074414 0.17020598 -0.040666427
-0.1864752 -0.033450935 -0.14535365 0.10725948 -0.10077523 0.20829426 -0.14179967 -0.092813455
-0.091338314 -0.1357859 0.047267184 -0.07336691 0.06865215 0.02062077 0.12821077 0.030941375
0.11608959 0.06731687 0.066663876 0.10824809 -0.124424815 -0.012083666 0.1336932 0.18133233
-0.15119644 0.15914728 -0.10627164 -0.13375983 -0.15258464 -0.14176355 0.07589674 -0.10838833
0.034269337 0.14261882 -0.08339716 -0.059583925 -0.1474103 0.14842811 0.07998323 -0.066204734
-0.042766254 -0.15235361 0.076195806 0.09673481 -0.13505398 0.06367581 -0.07513267 0.027913138
-0.15018435 0.17628719 0.14623283 0.11200394 -0.1400157 0.16724914 -0.15948552 0.0036597007
0.05210627 -0.2230928 -0.033656787 0.049303528 0.019991746 -0.1428413 0.0060905423 0.060833868
0.10373935 -0.103500985 -0.042194344 -0.15370046 -0.12750055 0.010970078 -0.21244524 -0.09536931
-0.17645656 0.1091163 0.12832838 0.17415401 0.011261558 -0.037183374 -0.033582635 0.15119667
0.14005575 -0.0073926514 -0.027339913 0.11910295 -0.15725736 0.10179033 -0.042729314 0.19231372
-0.11451365 -0.11589132 0.15707105 0.06300887 0.08040076 0.15406938 0.19976585 0.021948455
-0.10535589 0.09050306 -0.088514134 0.0242014 -0.047867693 0.15812759 -0.15090166 -0.14683846
-0.12560084 0.17110527 0.13060147 -0.098649636 -0.09421236 0.1766175 0.09031963 -0.11774748
0.09187242 0.13084608 -0.20550753 -0.15936811 -0.0071519017 0.005970108 0.20261446 0.004628785
-0.21973814 -0.14373533 0.12669162 -0.11143754 -0.22339293 -0.050241638 0.12068524 -0.11183492
-0.017145034 0.11110272 -0.0152852945 -0.06158082 -0.077657774 -0.03351842 -0.08571961 0.11297311
-0.069348305 -0.009452146 -0.19203314 0.044705957 0.009060412 -0.00391911 0.034054227 -0.17720124
-0.00988398 0.060319267 0.048329588 -0.113636225 -0.20919949 -0.042401984 0.18227957 0.11725308
0.029442491 -0.118066624 -0.14930934 -0.10812832 0.22463529 0.0018317717 -0.0011176737 0.0932646

input.bias f4 [64]
00000000: bb55 483e 1973 863e 169d 233e c903 213e
00000010: 90d9 4a3e 4070 dc3d 9e24 963d c519 70bd
00000020: 307e 3f3d 0aaf d8bd 2b5b 423e e596 d5bc
00000030: 09c0 583c f5d5 053e a812 093e 9d95 99bd
00000040: 83e5 47be 0378 903d e286 c93d 1300 6e3e
00000050: 60f9 dcbd c80d 233e 18d9 14be 3d90 ac3d
00000060: 9969 b23e b7a4 883e b367 0a3d 807c a6bb
00000070: c7df 3bbc 91ae 01be 778c 3e3c 2a45 6c3d
00000080: 3bcc 893c 63cf 913e f221 ddbd 3eca 3a3d
00000090: ff43 bc3e f1e7 763e 19c9 a53c 0fc2 ebbd
000000a0: b743 c4bd c80d fbbd 8ca1 c43d 92ed 00be
000000b0: a5b5 56bc ef67 c2bd e3b8 1dbc 5913 10be
000000c0: fbea 36bd 4534 eb3d 5073 4c3e 244c 023e
000000d0: 0393 283e 484c 9bbd 0286 3d3e 447e b03c
000000e0: 79ab 00be a508 523e c0ec 81bd bdd4 0f3e
000000f0: fa34 5dbd 267f 403e 2c56 873e f682 ad3d
0.19563954 0.26259688 0.15977892 0.157241 0.19809556 0.107635975 0.07331203 -0.058618326
0.0467512 -0.10580261 0.1898009 -0.026072929 0.0132293785 0.130699 0.13386023 -0.074992396
-0.19521146 0.070541404 0.0984018 0.23242216 -0.10789752 0.15923226 -0.1453594 0.08425949
0.3484619 0.26688167 0.0337903 -0.0050807595 -0.011466927 -0.12664248 0.011630169 0.057683147
0.016821017 0.28478536 -0.1079749 0.04560303 0.36770627 0.24111916 0.020237492 -0.11511623
-0.09583228 -0.12258488 0.09601125 -0.12590626 -0.013104831 -0.0949248 -0.0096266 -0.1406988
-0.04465769 0.11484579 0.19965863 0.12724358 0.1646233 -0.07582909 0.18508151 0.021544583
-0.12565412 0.2051111 -0.063439846 0.14045997 -0.0540056 0.18798503 0.2643293 0.084722444

h1.weight f4 [32, 64]
00000000: 4add 96bd df79 2e3d e892 15be 9783 a2bb
00000010: 3c0e eabc 3bdb 0b3d f279 a4bd e24b c4bb
00000020: 29e5 06be 6d4f debc d298 a9bd f7e5 febd
00000030: a2e3 14ba fc72 3abd 36ac ab3d b22e 073d
00000040: 8580 563d 519c 34bc 9f97 42bc 1c8e 3dbe
00000050: 402d 7abc 136c 5b3d 3dca c4bd 6955 a1bd
00000060: f45c 8abc 875e 4b3c a208 dfbd 1592 18be
00000070: 41fe 913c 7bef 423d f45a 0fbe 9378 06be
00000080: 60f9 3dbd 796e cf3a 57ae dfbd ef7b 963d
00000090: d8a0 9d3c 6964 143d 3032 853d 54f9 3dbb
000000a0: 07c3 b63d ed48 2ebd bccd 573c d007 f5bb
000000b0: 0161 b0bd f473 ac3d 71fa 243d 98f3 2cbd
000000c0: 74e5 bdbd 6cc0 09be 6e04 b9bd f74f aa3d
000000d0: d60a 2f3d 0bb8 f5bc a459 ca3d 6a40 0aba
000000e0: 056b a9bc 569a 1ebd f70e 9d3c f76a aabc
000000f0: 8c04 b0bd 8c80 d5bd ec72 41be ad34 2b3d
00000100: 6615 b63a 679e 6abc b2c3 bebd 1fcf 2d3e
00000110: 0f32 33bc d013 8f3d 9493 e6bd a9ee c8bc
00000120: 3182 983d 692e ab3d 8972 903d 458a 253e
00000130: 3774 b63d 7669 4ebc cc31 0a3e 5ae0 d03d
00000140: 5bc1 cd3d 175c 163e a7db 833b e7d8 d9bd
00000150: 4a8c 7fbd b255 163e 7d2c 95bd 8491 093e
00000160: 9557 f23d 4ffb f9bb b96b 01be 6e8d 633b
00000170: acc8 523d 2d7b 533d d386 da3d cd9b 98bd
00000180: 4b37 e7bc b143 c4bd 5f04 f43c 4635 bf3d
00000190: fcb4 b23d 78b3 20bd a327 16bc 508e e93d
000001a0: 7cae ae3c b678 5b3d f5d9 233e c2ee fa3c
000001b0: 59c7 383d ea35 cfbd 10e5 043e 8b45 f6bb
000001c0: 03dc d4bd 284a f9bc 9975 923d 2a3e d23d
000001d0: 53db ed3d 46e5 d33d 5479 cf3d 7a41 01bd
000001e0: a984 22bc 8af5 cf3c 094b c23d fe88 cf3d
000001f0: f969 d1bc b282 343e ca74 b73c 82d9 d73d
00000200: ed0a 3e3d 350c d73d 4195 393e e0b0 b83b
00000210: a2bc bb3c fddd 123d 7e58 623e feae c73c
00000220: 6afc ab3d 0925 903e 0129 1c3e f0ed c63d
00000230: 94b0 ab3e 0ae6 ea3d 2dbc bebd 7e40 1bbb
00000240: b922 cc3d 3181 23bd 13d1 053e b516 953e
00000250: d736 4e3e 445d d63c fbce 5dbd 1f23 af3d
00000260: 0dea 473e 863e 513e fa8d acbc 3542 4fbd
00000270: 3a9e 253d aff0 fe3d db3e 043e 20c0 9c3e
00000280: 3ca7 de3d 16bf a03d f0b3 553d 8672 13ba
00000290: 9824 3e3c d8af 463e 8e4b ba3d 9eea 1dbd
000002a0: d601 473c 3930 1b3e 7a21 53bd cade 173e
000002b0: 4546 fb3d 7b46 adbd 786c 93bd 0f13 a6bd
000002c0: 503a 293e c643 6a3c 94f7 29bd d2b9 99bc
000002d0: 5516 fc3d 060a c63d 21d6 46bd 3ca3 353c
000002e0: 044d 823d 501c bebb 56e5 a0bd e0a9 a9bc
000002f0: 9c4b 79bd 15c3 ecbc fba5 603e f8d9 4fbd
00000300: 44d8 d43d 38d9 f6bd a488 dabd ffd1 823d
00000310: ba60 7f3d 39a1 03be 3165 8b3b 9270 56bd
00000320: fbbc 8bbd 7336 0bbe 33c0 983c e9c5 e8bc
00000330: a222 203d e0f0 fabd 058a 44bb 2ccd 91bd
00000340: b64f 0dbd da71 993c cdfb 633d 8f4d 963b
00000350: 2c85 0ebc 352f 433d a8bf 933b 9eac c1bd
00000360: f26f 03bd 1350 2a3d 1f03 1bbd 3798 c13d
00000370: 380a 583d 0a55 a0bd f912 883b dd85 91bc
00000380: 04ce 8abb 34a6 0cbe 7bc6 a83d 4014 f73b
00000390: 8563 88bd 6b7f 233d b629 27bd ad0e 873d
000003a0: 0c4a 6cbd 7985 03bd 65e1 6ebd 0c20 19bd
000003b0: 7d74 e7bd 5c47 16be 3247 16bd 93dc 7fbd
000003c0: a29d 02be efc3 9cbc 1643 b7bd c295 98bd
000003d0: 73ef efbd 67dc 583d a14a f9bd dcd0 353d
000003e0: c08a afbd ecae a5bd 7e56 aa3c 2866 b53d
000003f0: b09a 87bd 91bb 933d 0335 9ebd 42a2 0abe
-0.07366426 0.042596694 -0.14606822 -0.0049595344 -0.02857124 0.03414462 -0.08031072 -0.0059904912
-0.13173355 -0.027137483 -0.08281101 -0.12446206 -0.0005679672 -0.045519814 0.08382456 0.033003516
0.05236866 -0.011023597 -0.01187697 -0.18511242 -0.0152695775 0.053569864 -0.096088864 -0.07877619
-0.016890027 0.012412674 -0.108903185 -0.14899476 0.017821433 0.047591668 -0.1399954 -0.13131933
-0.0463804 0.001582577 -0.109219246 0.07347857 0.019241735 0.03622857 0.06503713 -0.0028987722
0.08923917 -0.042550016 0.0131716095 -0.007477738 -0.08612252 0.08420554 0.040277902 -0.042224497
-0.0927228 -0.1345231 -0.09034048 0.08316033 0.042734943 -0.029994985 0.09880379 -0.00052738807
-0.020680914 -0.038721405 0.019172175 -0.020802958 -0.08594617 -0.10424909 -0.18891495 0.041798282
0.0013891875 -0.014319993 -0.0931467 0.16973542 -0.010937228 0.06986201 -0.11258617 -0.024527865
0.07446707 0.083584614 0.07053096 0.16166027 0.08908885 -0.012598386 0.13495559 0.10199042
0.10046645 0.14683567 0.0040239873 -0.10637074 -0.06238965 0.14681128 -0.07283876 0.13434416
0.11833111 -0.0076288353 -0.12638749 0.003472175 0.051460907 0.05163114 0.10670247 -0.07451592
-0.028224608 -0.095832236 0.02978724 0.09336333 0.08725926 -0.039233655 -0.009164724 0.11404097
0.021323435 0.053581916 0.16001113 0.030631427 0.045111988 -0.10117705 0.12978005 -0.0075156144
-0.103935264 -0.030430868 0.07151336 0.10265763 0.116140984 0.10346465 0.101305634 -0.031556584
-0.009919324 0.025385637 0.09486968 0.10133551 -0.025563227 0.17627981 0.022394557 0.10539533
0.04639714 0.10500375 0.18123342 0.0056363195 0.022917096 0.035856236 0.2210407 0.024375435
0.083977535 0.28153256 0.15250017 0.09713352 0.33533156 0.11469658 -0.093132354 -0.0023689563
0.0996756 -0.03991813 0.13068037 0.29118887 0.20138107 0.02616752 -0.05415247 0.08551621
0.19522877 0.20434007 -0.021063793 -0.05060025 0.0404341 0.124482505 0.12914602 0.3061533
0.10871741 0.07848947 0.052173555 -0.00056246703 0.011605404 0.19403017 0.09096442 -0.038553827
0.012146434 0.15155114 -0.051545598 0.14831081 0.12269262 -0.08460709 -0.07198423 -0.08109104
0.1652615 0.014298385 -0.041495875 -0.018765364 0.12308947 0.096698806 -0.048544053 0.011086281
0.06362346 -0.005801715 -0.07856242 -0.020710886 -0.060863122 -0.028901616 0.21938317 -0.05074498
0.10392812 -0.1205315 -0.106705934 0.0638771 0.062348105 -0.1285447 0.0042540063 -0.05235345
-0.068231545 -0.1359499 0.018646335 -0.028414683 0.03909553 -0.122529745 -0.0029989493 -0.071192116
-0.034499846 0.018731046 0.055660058 0.0045868824 -0.008698743 0.047652442 0.004508931 -0.09456752
-0.03208918 0.04158027 -0.037844773 0.09452861 0.05274412 -0.0782872 0.0041526523 -0.017764026
-0.0042359848 -0.13735276 0.08240982 0.007540256 -0.06659607 0.039916437 -0.040811263 0.06594596
-0.057687804 -0.03210971 -0.05832042 -0.037384078 -0.11301515 -0.14675659 -0.03668899 -0.062466215
-0.12755445 -0.019136397 -0.089483425 -0.07450439 -0.11715593 0.052944567 -0.121724375 0.044388637
-0.08571386 -0.08090004 0.020793196 0.088573754 -0.06621301 0.0721351 -0.07724955 -0.13538459

h1.bias f4 [32]
00000000: fab8 233d 58bb 41bd 7eaa 893d a55d 58bd
00000010: be34 b4bd 5789 45bd ded5 853d 7623 b8bc
00000020: d066 923d 9fa0 6b3d 5d2e 7bbd 538c 963b
00000030: d535 bb3c e150 2e3d 75d6 173e ec5b c23d
00000040: d0bb 50bd 465a 8f3c ebd2 b33d bfb8 943c
00000050: 8f67 97bc 57ad 423e b6bf 123e 5bfa 00bd
00000060: 7b23 b3bc 4204 8abc 80a7 2c3d dc39 efbc
00000070: f09e 5f3c fd87 bf3d 4e81 a73d b1d8 4f3d
0.03997133 -0.047297806 0.06721972 -0.05282368 -0.08799122 -0.04822668 0.065349326 -0.022477847
0.07148516 0.057526227 -0.061323512 0.0045943647 0.022852818 0.0425576 0.14827903 0.09490189
-0.050960362 0.0174991 0.08780464 0.0181545 -0.018481998 0.19011436 0.14330944 -0.031488758
-0.021867504 -0.016847733 0.042151928 -0.029202394 0.0136487335 0.093521096 0.0817896 0.050743762

h2.weight f4 [16, 32]
00000000: 6a06 063d 4c11 803d 9a11 86bd ecbc 623d
00000010: 4087 6dbd a1b4 79bd eae0 d9bc 8bc8 aabd
00000020: 137d 0ebe 80df 713d 3908 ecbd 6570 3fbd
00000030: 70ca 663d 6b26 db3d 3d22 0f3e 6788 48be
00000040: c361 43be 9640 d5bd 874f d1bd db07 17be
00000050: c3f1 2dbd 1402 2e3d 4560 27be 8629 8b3d
00000060: 29bd f3bd 392f f3bd 70e6 90bd ca76 16be
00000070: a00f db3d c53b 44be 2f3d a23c 15bf 93bd
00000080: 77fa 99bd 5e39 febc d995 963d 400d 233c
00000090: cf6f 90bd cdc0 7c3d a3c8 83bd 7caf 563c
000000a0: 37a6 9dbd 311c 6bbd e18c 11be f089 16bd
000000b0: 023a 4bbe 3712 9cbd 6b0d 92bd 2532 c4bd
000000c0: 4dbc 1c3e fa9c eb3b 9d2f 04be 3532 90bc
000000d0: 4996 73bd ade2 793d 2a4f a53d 334b 11be
000000e0: 367b 31bd ec47 663b 24fb 553d 048e 7e3c
000000f0: c92f 633d 96e4 c6bd 26c4 73bd 8979 22bd
00000100: 24fb 5b3d c944 7fbc 25a4 693d 8369 9fbd
00000110: 8831 1c3d cd04 2e3d bc62 3d3d ee9b 2bbe
00000120: 3d05 43be 0560 3b3e f096 a9bd 157c 65bd
00000130: fe66 253d 2b44 1fbe 5ae9 fe3d fda2 043e
00000140: ac21 2cbd 6a23 7cbb aba2 1a3e db18 bc3d
00000150: c794 bfbd 786c 973d 20d8 4a3e 7419 94ba
00000160: 919b 38be 5787 19be e6c3 34bd 4abe 593d
00000170: 2be1 c2bd 12cb 053e a74c 363e a2ae cf3d
00000180: 25c4 5bbd 6985 1b3e 00e6 1fbe 7d4e 67bd
00000190: 6698 2abe 3ac7 f93c 8538 c4bc 0a2f 823c
000001a0: 32a8 1e3e 13d6 2cbd c127 ac3d d863 a9bd
000001b0: 903a 593e b691 0f3e 3c7b 483e 2a66 1cbe
000001c0: 38fb c73d b06b 673e f872 0b3e fc2a 2a3e
000001d0: adeb 323e 18fe 2bbe d913 163e 2ccb 0c3d
000001e0: d4ae 2f3e 78f7 7c3b 7e9d ecbd 48f9 663e
000001f0: ced7 6ebd 7405 083d 812d 10be ab6f 5c3c
00000200: 710a 8fbd 2846 1fbd 4c23 933e d31c 773b
00000210: 9144 353e 1744 c73d 55dc 813e ec9b d5bd
00000220: 2e55 50bc 81e5 643e 6b06 a83b 312a 06bd
00000230: 0394 ebbd 1772 19be 5ba0 e5bd 1bd2 cf3d
00000240: 8801 89bb f517 e6bc beb0 213e 69e0 933d
00000250: 9821 3dbe caf7 893e d8b8 993e cc34 3a3e
00000260: 5547 3a3d 3892 19be 41bc c4bd 336e 61bd
00000270: c09c 6a3a 1a30 3b3e e151 a33e cadc 8f3e
00000280: cbaa 3e3e cbc1 f13c f20e 5d3e 6b35 c63d
00000290: a13d 2c3e fe27 b6bd d905 c23d fed6 183d
000002a0: cd46 7dbd 318a 723e 8ec9 d1bd 956c bc3d
000002b0: 1874 c2bd 8334 a6bd 997e 323e 6791 3c3e
000002c0: 8a24 483d 1018 d4bd 880e 753d ee0a 0e3d
000002d0: e69e 21be 8e3d 6f3e 2d9d 063d 45a1 aebd
000002e0: 6377 4cbc a628 8d3d 122a 053d d29c aabd
000002f0: 54b4 efbd c64a 053e e7fa 5d3e 36df 023e
00000300: 8dcb cabd dc7a 9f3c aa6d b63d df4f 85bd
00000310: 1373 08be 4e64 6bbd f5a6 1abe a05e 023c
00000320: 4efc 99bd 4680 0c3e 7f95 efbd 91ab 093e
00000330: 1354 25be 54c0 9abd 21c8 2b3e aa74 a1bc
00000340: 9848 3c3d fcff 123e 3c25 9abd 2ba1 a0bd
00000350: 5f7d b93c 98cb 613d 39c5 453d 5ac0 6a3d
00000360: 67d3 48bd 3ba3 723d d711 773c b37a bf3d
00000370: 08cc da3d 9e9e 153e dab7 eb3c e9f7 0fbe
00000380: 8569 10be 1d16 af3d 666c 973d 72ba 323e
00000390: 883d 03be 5d36 023e 497f c63c 0412 393e
000003a0: bad6 563e 257a e23c b4d2 ae3d 61e6 d3bd
000003b0: dc65 133e cee0 293e 2c1e 8fbd f46f 563e
000003c0: 64e7 fd3d 935b b6bc c01a 173e 4029 debd
000003d0: 8978 313e f879 d2bb 64a4 d9bd 9562 0a3e
000003e0: d205 073e f10b 453e 5620 e43d 1929 153e
000003f0: 258d 84bd 79ec 443e a39a 523e fc31 8fbc
0.03272096 0.06253299 -0.06546326 0.05535595 -0.057990313 -0.060963277 -0.026596505 -0.08339032
-0.139149 0.059051037 -0.11525006 -0.046738047 0.056345403 0.10700687 0.13977905 -0.19583283
-0.19080262 -0.104127094 -0.10220247 -0.1474909 -0.04246689 0.04248245 -0.16345318 0.06795029
-0.11901314 -0.118742414 -0.070752025 -0.14693752 0.106963396 -0.19163425 0.019804565 -0.072141804
-0.075184755 -0.031033214 0.073528 0.0099518895 -0.07052576 0.061707307 -0.06434753 0.013103362
-0.076977186 -0.057399932 -0.14213897 -0.03675264 -0.19846347 -0.07620662 -0.071314655 -0.09579877
0.15306206 0.007190344 -0.12908788 -0.017602066 -0.059469495 0.06100719 0.0807174 -0.14188842
-0.043330394 0.0035138084 0.05224146 0.015536789 0.055465493 -0.09711568 -0.059513234 -0.039666686
0.053706303 -0.0155803645 0.057041306 -0.07783797 0.038133174 0.042485047 0.04623674 -0.16758701
-0.19044967 0.18298347 -0.08280742 -0.056026537 0.040381424 -0.15553348 0.12446852 0.129528
-0.0420243 -0.0038473257 0.15101115 0.09184428 -0.09354549 0.07393736 0.19809008 -0.001129909
-0.18028094 -0.14993034 -0.044132136 0.05315999 -0.09515604 0.13065746 0.17802678 0.101407304
-0.053653855 0.1518761 -0.15615082 -0.056471337 -0.16659698 0.030490506 -0.023952732 0.01589157
0.15493849 -0.042196345 0.0840602 -0.08270997 0.21213746 0.14020428 0.1957826 -0.15273347
0.09764713 0.22599673 0.13618076 0.1661796 0.17472716 -0.16796148 0.14656009 0.034373447
0.17156535 0.0038599651 -0.11553477 0.22556031 -0.058311276 0.033208326 -0.14079858 0.013454358
-0.069844134 -0.038885266 0.28737867 0.003770639 0.17701937 0.09729784 0.25363412 -0.1043013
-0.012715621 0.22353174 0.005127718 -0.03275508 -0.1150284 -0.14984928 -0.11212226 0.10147496
-0.0041810907 -0.028087595 0.15790078 0.07220537 -0.18469846 0.2694686 0.30023837 0.18184203
0.045478184 -0.14997184 -0.09606219 -0.055036735 0.0008949749 0.18280068 0.31898406 0.28098136
0.1861984 0.029511353 0.21587732 0.096781574 0.16820385 -0.08894347 0.094737716 0.037314408
-0.0618351 0.23685528 -0.10243522 0.09200398 -0.094947994 -0.081154846 0.17431106 0.18414842
0.04886297 -0.10356152 0.05982831 0.034678392 -0.15783271 0.23363325 0.03286474 -0.085268535
-0.012479636 0.06892519 0.032510825 -0.08330692 -0.11704317 0.13016805 0.21677743 0.1278046
-0.099021055 0.019467764 0.089076355 -0.06509375 -0.13325147 -0.057468705 -0.15102752 0.007957131
-0.075188264 0.13720807 -0.11698436 0.13444354 -0.16145353 -0.07556215 0.16775562 -0.01970895
0.04596767 0.14355463 -0.07526633 -0.0784324 0.02264279 0.055125803 0.04828379 0.057312347
-0.049029734 0.0592377 0.015079937 0.09349575 0.10683447 0.14611289 0.02877419 -0.14059414
-0.14102753 0.0854914 0.07393722 0.17453936 -0.12816441 0.1271605 0.024230616 0.18073279
0.20980349 0.027646134 0.08536282 -0.10346676 0.14394325 0.16589662 -0.06988177 0.20941144
0.1239765 -0.022260463 0.14756298 -0.108477116 0.17331137 -0.006423231 -0.10627058 0.13514169
0.13185814 0.19242837 0.1113898 0.14566459 -0.06472234 0.19230832 0.20566802 -0.01747989

h2.bias f4 [16]
00000000: 7936 55bd 222c 15be ac2a 653e 013f 9fbd
00000010: 99b5 663e 2880 823e 66da bd3d d766 393e
00000020: f772 953c 0469 ac3c 65bc 6b3d e274 6fbd
00000030: e3f1 ba3c 4430 3abd f4c5 4f3e 6332 1abe
-0.052053902 -0.14567617 0.2237956 -0.07775689 0.22530212 0.254884 0.09270172 0.18105637
0.018243296 0.02104617 0.057552714 -0.058461078 0.022820419 -0.045456186 0.20290357 -0.15058284

h3.weight f4 [8, 16]
00000000: 14fd a73c a01a e6bc c304 2d3e a8ce 853e
00000010: 5a66 70be be78 77be 90d9 2e3e fa00 66be
00000020: 8eee 96bc 9e3e 453d 1485 3bbc 4d1a 5f3e
00000030: 15ca 673e 09fb 05bd ce35 d2bd 44a9 8fbd
00000040: 19d1 42bd c9c3 23be c9b8 ec3d 4b89 1a3e
00000050: 015a f9bd 6b22 923e 8ae7 373e 287e 1abe
00000060: 782c 14be 4998 02be 2d76 703c 6301 4f3d
00000070: a549 3bbd a55c f7bd fc33 0d3d a05c edbb
00000080: db74 1bbd dc36 823c 50bc 8c3d 6148 523e
00000090: 43c2 f9bd 0a5b 043d 304e c1bd d336 103e
000000a0: 9f3c 25be 3833 453e c74d 6abd d9f7 4c3e
000000b0: f83a 3cbe 2f8b c53d 3a99 7d3d d730 3e3e
000000c0: 78fa 89bc 108c a5ba dc48 8bbe ea29 663e
000000d0: 60bd 0fbe d6f4 163e 4c1b 893e 2c70 283e
000000e0: 6525 643e 67b5 6a3e 5b5f 813d 890f 543e
000000f0: 9e99 acbc b533 9a3e 29ee 7ebe 9f87 0dbb
00000100: 62d0 17be ae31 813d b97f 893e 8b73 0dbe
00000110: 6267 8e3e 36ba 1e3e 8fd0 d8bd 1eaa 68bd
00000120: 1f1f 563e f6c2 c8bd 0837 083e f32f f1bc
00000130: 57c6 223e b8bb 853d d3b1 bb3e bcf0 073e
00000140: 5ce5 833d fd9c 22be 3e6b c73c 5e10 503e
00000150: 5d80 8c3e 59d6 5bbd 3ed3 4c3e 1f6a 31bb
00000160: 7636 62bd c2c6 55be deb3 ac3d 0f56 463e
00000170: 8ff0 443e 65f2 7fbe a63a 9b3e 1e11 8a3d
00000180: 53b9 02be a61c 30be dd7d 2d3e 4d2c 19be
00000190: 78d7 643e e1e5 803e 7066 353e 58aa 593e
000001a0: d138 e03d af20 b4bd 476c 1cbe 99d8 5dbd
000001b0: e77e 85bd c98b aa3a 7dbb 623d 0309 7fbe
000001c0: a87c 683e 1ebe e53d c221 71be d537 f1bd
000001d0: 71d0 63bd 87ae 51bd 9ad8 fcbd cb08 2b3e
000001e0: 1cda 4abd 714e 913d d6f3 22be 7c5b 3f3e
000001f0: 41d6 6abd 8d78 d03d e83f 1a3c 4edf e4bd
0.02050642 -0.028088868 0.16896348 0.2613423 -0.23476544 -0.24167153 0.17075181 -0.2246131
-0.018424299 0.04815542 -0.0114453025 0.21787377 0.22635682 -0.03271011 -0.10264169 -0.07014707
-0.047562692 -0.15992655 0.115586825 0.15091436 -0.1217537 0.28541884 0.17959419 -0.15087187
-0.14470088 -0.12753405 0.014676613 0.05053843 -0.04572453 -0.120782174 0.034473404 -0.007243708
-0.03795324 0.0158953 0.06871855 0.20535423 -0.121952556 0.032313384 -0.09438741 0.14083414
-0.16136406 0.1925782 -0.05720308 0.20016421 -0.1838187 0.09645688 0.061913706 0.18573318
-0.016843066 -0.0012630243 -0.27204025 0.22476926 -0.14037085 0.14741835 0.26778638 0.1644904
0.2227989 0.22920762 0.06317016 0.20709051 -0.021069344 0.30117574 -0.24895538 -0.002159573
-0.14825585 0.06308304 0.26855257 -0.13813607 0.2781325 0.15500721 -0.105866544 -0.05680286
0.2091031 -0.09802811 0.13302243 -0.02944181 0.15895973 0.06529945 0.36659107 0.13275427
0.06440231 -0.15880199 0.02434313 0.20318744 0.27441683 -0.053671215 0.20002457 -0.002707131
-0.05522772 -0.20876601 0.084327444 0.19368766 0.19232391 -0.2499481 0.30318183 0.06741546
-0.12766008 -0.17198429 0.16942544 -0.14958306 0.2234782 0.25175384 0.17714858 0.21256387
0.10948337 -0.087952964 -0.1527568 -0.05416164 -0.06518345 0.001301163 0.055354584 -0.24905781
0.22703803 0.112179026 -0.23548034 -0.11778227 -0.055618707 -0.051191833 -0.12346001 0.16702573
-0.04952441 0.0709504 -0.15913329 0.18687242 -0.057333235 0.10179243 0.0094146505 -0.111754045

h3.bias f4 [8]
00000000: 9861 453e fcb8 0abe fd76 0cbe b336 3abc
00000010: 8904 8d3e beec d9bd 2d09 a83e 33a4 adbd
0.1927551 -0.13547128 -0.13717265 -0.01136558 0.27542523 -0.10640858 0.328195 -0.08478584

h4.weight f4 [1, 8]
00000000: b369 043e c325 d9bd c599 5d3e f820 973e
00000010: 96db 4ebe 0bb3 59be d622 c8be 8516 ba3e
0.12930946 -0.106029056 0.2164069 0.2951734 -0.20200953 -0.21259706 -0.39089078 0.36345306
