src/models/saved_models/best_model_lr0.001_roc_auc0.9341785282538597.pt (torch, 23957 bytes, 9 tensors)

input.weight f4 [64, 30]
000000 58 91 48 3d 1c 2c 7c 3e 19 8f 29 3e c2 99 df bd
       0.048966736 0.24626201 0.16558494 -0.10917999
000010 c1 7f 61 be 8d cf 0a 3e 0b b8 21 be 51 9f f3 bd
       -0.2202139 0.13555737 -0.15792863 -0.118956216
000020 4e 56 5b 3d e1 21 a8 3d 4f 5a 45 bd 34 75 b1 3c
       0.053549103 0.08209587 -0.048181828 0.021662332
000030 8b 1a 93 3d 0e 56 4c bd 88 00 96 3d 41 7d 0b be
       0.07182797 -0.049886756 0.0732432 -0.13622
000040 da 0f c9 bd 5e 02 27 3e 57 85 a6 3d 64 0c 90 3d
       -0.098174766 0.16309497 0.08130901 0.07033613
000050 e2 3d ee bd 43 3b a5 3d 1e 4f d5 bd 7a 19 58 3d
       -0.11632897 0.08067944 -0.10415481 0.05275867
000060 32 63 08 3e c1 e9 8d 3d e6 be 3f be 39 51 66 3d
       0.1331909 0.06929351 -0.18725166 0.056229804
000070 0b f4 21 be f4 75 14 be e7 13 28 be ce 5c c9 3d
       -0.15815751 -0.1449812 -0.16413842 0.09832154
000080 dd 38 21 bc 30 78 70 bd 5f 37 8f 3d 78 f9 21 3d
       -0.009840217 -0.05870837 0.06992983 0.039544553
000090 df b6 35 bd 1e 5e 71 be f0 1d 0b be 88 13 a9 bd
       -0.044363853 -0.23571059 -0.13585639 -0.082556784
0000a0 8d ff c5 bc f0 25 14 3e fe e1 35 be 20 b9 24 be
       -0.024169708 0.14467597 -0.1776199 -0.16086245
0000b0 71 85 8c be 55 eb d2 bd da 5c 5d be 9d ba 34 be
       -0.27445558 -0.10298792 -0.21617451 -0.17649312
0000c0 40 17 b6 3d 80 09 c3 bd 64 5c 15 3e 82 a3 50 3e
       0.08891153 -0.09523296 0.14586025 0.20374873
0000d0 24 8c ac bd d1 8d d6 bd 41 40 b4 3d 3c 69 16 be
       -0.08425167 -0.10476268 0.08801318 -0.14688581
0000e0 a8 9e ed bd ff 0c 77 3d 55 fd e5 3d 51 22 a5 bc
       -0.11602527 0.06031513 0.1122996 -0.020157965
0000f0 bd fb 13 bd 38 6e 99 3b 5c d9 a4 bd 2e 17 36 3d
       -0.03612875 0.0046823286 -0.080492705 0.0444557
000100 d0 09 04 be 1b 9e c5 3d 02 3c 32 be 99 82 4f 3e
       -0.12894368 0.09649297 -0.17405704 0.20264663
000110 88 c1 7c 3d 1e 35 9f bd dd 8f 2d 3e 65 f6 22 3d
       0.061708003 -0.07773803 0.1694941 0.03978576
000120 ab 11 05 3e da 6a 27 bd 0c 08 0b 3d 5e 12 ac 3c
       0.12995021 -0.040873386 0.03394322 0.021004852
000130 7e 79 1d be a0 cf 84 3d 20 c2 00 be 0e 8f 37 bd
       -0.15378377 0.06484914 -0.12574053 -0.044814162
000140 40 4c cd bd 5a 68 08 bd f5 3a 54 be c1 7a b3 3d
       -0.10024309 -0.033302642 -0.20725615 0.08763648
000150 ef 06 e3 bd 51 a8 51 be 04 dd 67 3d 17 b8 bf 3c
       -0.11085307 -0.20474364 0.05660726 0.02340321
000160 c3 42 fe bb ec 70 ee bb 77 3d 66 3e 51 e8 57 3a
       -0.0077594235 -0.007276645 0.22484384 0.0008236217
000170 a1 09 3c 3e 7b c7 66 3c 87 f4 86 be 02 05 1c 3e
       0.18363048 0.014085646 -0.26358435 0.15236285
000180 84 82 99 3d b2 c9 b8 3e 55 37 fa bc 99 a6 8e 3e
       0.07495597 0.3609138 -0.030543962 0.2786148
000190 e9 78 50 bd ab 6a dd 3d f7 6f 71 3e 35 81 62 3e
       -0.05089656 0.10811361 0.23577867 0.22119601
0001a0 5b 0c 9f 3d 89 0e 26 be fc 57 54 3e 9d ec 8e bd
       0.077660285 -0.16216482 0.20736688 -0.06978724
0001b0 08 fe e4 3d 1f e4 77 3e 3c 3c 50 3e b3 40 8d bd
       0.11181265 0.24208115 0.20335478 -0.06897106
0001c0 18 e9 55 bc e2 c7 37 be f4 16 9f 3d 29 bd 7d 3c
       -0.013056062 -0.17947343 0.0776805 0.015486994
0001d0 5d 50 11 be ca 1a 8d bd a6 aa 09 be fd 81 a5 3d
       -0.14190812 -0.06889875 -0.13444003 0.08081434
0001e0 58 6a 8b 3e ce b2 9f be 0d a8 8b 3e 15 01 b2 3e
       0.2722957 -0.31191105 0.2727665 0.3476645
0001f0 5d 07 d9 be 68 08 be 3e d3 d9 85 bd 94 e0 79 3e
       -0.4238843 0.37115788 -0.06535687 0.24402076
000200 e1 1f e1 3e 70 90 0c 3e 9d a6 10 be 98 86 ca be
       0.43969634 0.13726974 -0.14126058 -0.39555812
000210 d0 4c 83 3e 93 b2 14 be e6 29 ac 3d 78 6f 13 be
       0.2564454 -0.14521246 0.08406429 -0.1439799
000220 cc a9 30 be db e7 66 be 12 84 9b 3e 54 b8 3c be
       -0.17252272 -0.22549383 0.303742 -0.1842969
000230 3a 89 01 bd 85 4a 2f 3e 07 fc ec 3e a7 55 34 bc
       -0.03162501 0.1711827 0.46286032 -0.011006749
000240 5f 05 66 3e 1b 50 7f be 7f 81 60 be 91 63 77 3e
       0.22462986 -0.24932902 -0.21924399 0.24159075
000250 ef 85 b4 3e b2 c4 84 be 04 5e 33 3c 8e 99 b0 3d
       0.35258433 -0.25931317 0.010947708 0.08623038
000260 9b f1 8a 3d bc ac 0a 3e 70 2d 2a be 3c 7b a3 bd
       0.06784364 0.13542455 -0.16618896 -0.079824895
000270 8e 49 f7 3d 1a 08 ae bb 7e 3d 8e 3e cb 1a 9f 3c
       0.12074576 -0.0053110244 0.2778129 0.019421956
000280 b2 4f 92 3d 0e 29 11 3e bb 9d 92 3e 08 f5 e7 bd
       0.07144107 0.14175817 0.28635964 -0.11326033
000290 dd fe d2 3c 4a 38 e4 3d 42 ec 80 3e c1 82 93 bc
       0.025756294 0.11143549 0.2518025 -0.018006684
0002a0 2c 24 65 bd 07 6b 34 3e 66 17 ac bd 3c bf af 3c
       -0.0559427 0.17618953 -0.084029004 0.021453492
0002b0 2a 25 f7 bd ff fc d3 3d e5 a4 6f 3c 27 03 2c 3d
       -0.12067635 0.103509896 0.014626716 0.041995194
0002c0 3b 0f 83 be ad b4 20 be a7 fa 33 be 34 e6 15 be
       -0.25597557 -0.15693922 -0.17576085 -0.14638597
0002d0 53 05 08 be 35 65 91 bd 17 b3 f2 3d dc ed 8c 3e
       -0.13283281 -0.07099382 0.11850565 0.27525222
0002e0 f6 74 9e 3b 75 5c 0c be 54 2f 0d be dd 10 41 3e
       0.00483572 -0.13707145 -0.13787585 0.18854089
0002f0 d2 d3 ce bc 4c ea bf 3d f9 c5 54 3d 28 b7 72 3a
       -0.025247488 0.093708605 0.051946614 0.000925886
000300 f7 ed 10 3e f3 1c 0d 3e 76 c3 31 3e 95 57 56 bd
       0.14153276 0.13780575 0.17359719 -0.05232962
000310 59 ea 70 be 27 f8 f2 3d 83 cb ec bc 71 bd d1 3d
       -0.23526897 0.118637376 -0.028905636 0.10241211
000320 58 e6 87 bc f4 9f 6e 3d 71 5a 1d be bc 33 01 3d
       -0.016589329 0.058258012 -0.15366532 0.03154348
000330 67 97 29 3d 4d 12 76 3e 88 b5 d5 3d 5b 79 ee bd
       0.041404154 0.24030419 0.10435015 -0.116442405
000340 68 67 86 3d ff 9e 5b bc c3 1d 8a bd df 86 5a 3d
       0.06562692 -0.013404607 -0.06743958 0.05335128
000350 93 55 d9 bc d1 60 ed bc 73 5e 27 be 08 df 01 bd
       -0.026530063 -0.02897683 -0.16344623 -0.03170684
000360 b8 f4 eb bd 38 d9 d1 bd 17 b2 58 3e 1d f5 24 3d
       -0.11521286 -0.10246509 0.21161686 0.04027282
000370 3c 4d 4a 3e dc e2 54 be 96 e6 04 3e ca 83 94 bd
       0.19756025 -0.20789665 0.12978587 -0.07251699
000380 be cf 25 3e 65 73 bd bd e4 7d ca 3d 83 8c 7a bc
       0.16192529 -0.092505254 0.09887293 -0.01529229
000390 13 42 bf 3d 3f 1d 8c bd 1d 0b 26 bd 61 81 4c bd
       0.093387745 -0.06841516 -0.040537942 -0.049928073
0003a0 cd b6 83 3d 36 79 81 bb e2 bd 90 bd fb 28 ab 3e
       0.06431351 -0.003951217 -0.07067467 0.33429703
0003b0 10 6d a0 3e f6 48 b2 bc d8 d6 8b bc c4 ca e5 3d
       0.31333208 -0.021763306 -0.017070219 0.11220315
0003c0 1f 28 99 3e 3a 2c a4 bd 9a 0a 84 be 8f 7d 21 3c
       0.29913422 -0.08016248 -0.25789338 0.009856596
0003d0 bd 4a a5 bd 50 ac c7 bd 4e 3f 87 be bd 33 99 bd
       -0.08070896 -0.09749663 -0.26415485 -0.074805714
0003e0 da f5 ec 3c 64 c5 ce bd 49 98 95 3d b1 a6 97 be
       0.028925825 -0.10096243 0.07304437 -0.29619363
0003f0 ad 64 89 3d 6d 52 03 bb 30 e5 e1 3d 2c 73 b3 bc
       0.067086555 -0.0020038143 0.11030042 -0.021905504

input.bias f4 [64]
000000 49 f8 5f bd 40 bc 22 bd e1 9e 17 bd 0b 42 56 3e
       -0.054680143 -0.03973031 -0.037016753 0.20923631
000010 ce 48 d4 3e 9b fd da 3d 6c 44 67 3e f4 ed 68 be
       0.41461796 0.10692903 0.22584695 -0.22747022
000020 83 34 07 bd 1e 3b 86 3d ee b3 7e bc 67 bd cc 3d
       -0.033009063 0.065542445 -0.015545828 0.09997063
000030 63 d9 2c 3e 04 4a 62 3c e6 8a 1b 3e 9f 20 1a bd
       0.16879801 0.013811592 0.15189704 -0.037628766
000040 90 91 fe bc 03 42 20 bd 59 01 ec bd f7 a7 27 be
       -0.031075269 -0.039125454 -0.115236945 -0.16372667
000050 7f 58 aa 3d 1a 2d ca 3e f2 af 76 3e 77 7e fc bd
       0.083176605 0.39487535 0.24090555 -0.12328809
000060 6d 0f a4 3e e0 14 24 3e e8 3b b4 ba fc 53 2c 3e
       0.3204302 0.16023588 -0.0013750764 0.16828912
000070 d5 0f 45 bd 1f 03 e5 3c 11 07 45 3b 58 d3 71 bb
       -0.0481108 0.02795559 0.0030064026 -0.0036899652
000080 a5 89 87 be 50 de b3 3c 15 56 72 3d 9a d4 4d 3d
       -0.26472202 0.021956593 0.059164125 0.05025158
000090 d6 44 bc 3e a8 49 5a bd a0 78 b3 3e 64 6d e4 3c
       0.36771268 -0.0532929 0.35052967 0.027884193
0000a0 27 b8 7f 3d da 8b 06 be e7 cc 6b bd 31 76 92 3d
       0.06243148 -0.13139287 -0.057568457 0.071514495
0000b0 5c 02 24 be b2 34 a5 bc be 90 1c 3e 04 c1 28 3e
       -0.16016525 -0.020166729 0.1528959 0.1647988
0000c0 3d 14 f5 3d 73 c5 3d 3f 9e 7a fd bc 8a fc ae bc
       0.11966751 0.7412941 -0.030942257 -0.021360654
0000d0 b9 3b 64 3d ac 56 2c 3d 85 5b 81 3e f8 e2 18 3d
       0.05572102 0.042074844 0.25265136 0.03732583
0000e0 46 fb 8c 3d 36 2e e6 3d c5 c1 04 3e 12 95 1c 3e
       0.06883864 0.11239283 0.12964542 0.15291241
0000f0 9c 46 87 3e 1d 29 4f 3b 73 95 e5 3d 0a 79 6c be
       0.26421058 0.0031610199 0.11210146 -0.23093048

h1.weight f4 [32, 64]
000000 45 33 08 3e 9b 2e 04 be 72 d0 00 be f4 be 12 3f
       0.13300808 -0.12908404 -0.12579516 0.5732262
000010 68 55 18 3f 88 e4 69 3f 2b f8 a0 3e 40 ea ea 3d
       0.5950532 0.91364336 0.31439337 0.11470461
000020 38 f3 0e 3e b4 6c 00 3e 11 da 47 be 9e c6 8c 3d
       0.13959968 0.12541467 -0.1951678 0.06873821
000030 53 90 f8 3e 12 dc 54 3e 8f 21 32 be ae 7f a9 3c
       0.4854761 0.20787075 -0.17395614 0.020690765
000040 2a a6 ca 3d 8a 81 c9 3b 01 98 83 bd 68 62 ce bd
       0.098949745 0.0061494755 -0.06425477 -0.10077363
000050 ca 1e 97 bc 77 f9 b8 3e a3 25 3b 3d ad be 01 3e
       -0.018447299 0.36127827 0.04569019 0.12670393
000060 9a 6b 0c 3f b2 82 8f 3d e8 8a ce bd f6 58 8e 3e
       0.54851687 0.0700735 -0.10085088 0.27802247
000070 77 19 d1 bd e3 18 1e 3d 47 7d 9b bd 7e ef 7e 3c
       -0.10209935 0.038597953 -0.07592254 0.015560029
000080 6a e6 ac bc 63 cf ad 3c fe 00 73 3b 44 ba 80 3e
       -0.021105964 0.021217054 0.0037079449 0.2514211
000090 54 08 07 bd 01 30 75 3e 7b 48 88 3e 5e 57 0c be
       -0.032966927 0.23944093 0.26617798 -0.13705203
0000a0 9c 68 60 bd b1 ec dc bd ff 2e f6 bd a5 9f f2 3d
       -0.054787263 -0.10787333 -0.120206825 0.11846856
0000b0 fd d7 88 bc 2a 58 8f 3e 55 8d 9d 3c c5 16 b9 3e
       -0.016704554 0.2799695 0.019232431 0.36150184
0000c0 da 32 0c 3e f1 61 04 3f e3 4e 29 3e 08 2b a9 3d
       0.13691273 0.51711947 0.16533999 0.08260161
0000d0 1a 06 4e 3e 71 63 61 3d 71 0c 2c 3e 8b e3 92 bd
       0.20119515 0.055026475 0.16801621 -0.071723066
0000e0 29 ec a6 bd dd c5 a0 3e f7 56 2d 3e de 27 61 3e
       -0.08150513 0.31400958 0.16927706 0.21987864
0000f0 dc 48 a4 3e 8c 68 90 3d b2 d4 e3 bc 59 af 16 be
       0.32086837 0.07051191 -0.027811382 -0.14715327
000100 f6 a4 01 3e ff 8d 0c be d1 8e 2e 3e 98 de 2c 3e
       0.12660584 -0.13726042 0.17046668 0.16881788
000110 be 99 8e 3e 55 0f 52 3f 4c ac 0b 3e 12 8e 10 3e
       0.2785167 0.82054645 0.13639945 0.14116696
000120 eb 47 30 bc 60 d4 45 3e aa ff 75 be c8 17 7c 3d
       -0.010759334 0.19319296 -0.2402331 0.061546117
000130 34 d4 40 3e 48 24 04 3f 10 6a a7 bd 6c 22 53 3f
       0.18830949 0.5161786 -0.08174527 0.824744
000140 0a 19 54 3e 52 32 d5 bd ef d9 37 3f a9 37 44 bd
       0.20712677 -0.104099885 0.71816915 -0.047904644
000150 95 ae 72 bd 3e 47 3a 3f 7e f1 e2 bd d5 ce 2b 3e
       -0.059248526 0.72764957 -0.11081217 0.16778119
000160 f5 95 f2 3e 14 76 33 3e 7e a3 fb 3d 83 50 4c 3e
       0.47380033 0.17525512 0.12287043 0.19952588
000170 68 b1 ae bc dc e1 46 3f eb 3c 63 3f ce da a2 3e
       -0.021324828 0.77688384 0.8876483 0.3180756
000180 6b 39 3f bb aa 8d 05 3d e7 57 cb 3d 70 0c 8b 3f
       -0.002917851 0.032605805 0.099288754 1.0863171
000190 f3 aa c9 3f 9c 04 a7 3d 6c 39 01 3e 8d 22 cc 3c
       1.5755295 0.08155176 0.12619561 0.024918819
0001a0 c0 c0 82 3d c4 2b e3 3d 47 4d 12 3e 25 49 5a 3f
       0.063844204 0.11092332 0.14287291 0.8526786
0001b0 f2 8e 13 3e 99 9b a0 3e 15 94 b9 3b 72 2d 81 3f
       0.14409998 0.31368712 0.0056634047 1.0091994
0001c0 cd 50 59 3e df b1 d4 3e f3 97 ad 3d c4 6f 37 3c
       0.2122223 0.41541955 0.08476248 0.011196081
0001d0 96 45 39 3e ab da 9d 3e 3d 26 60 3e 52 22 d2 3b
       0.18092951 0.30830893 0.21889587 0.0064127827
0001e0 45 d8 f7 3d e2 61 8d 3f 1a 48 89 3e 7d 66 f1 3c
       0.12101797 1.1045496 0.26812822 0.029467816
0001f0 40 28 74 3e f9 39 58 3f ad d6 ae 3e 96 e1 7a bd
       0.23843479 0.8446346 0.3414816 -0.06125029
000200 a3 6c f0 bc 4c c4 09 be 67 9b 56 bd af e0 b7 3e
       -0.029348677 -0.13453788 -0.052394297 0.35913607
000210 f3 13 1c 3f ba 31 cd 3e fa f2 6b 3e a5 b2 b3 3d
       0.6096794 0.40077 0.23041907 0.08774308
000220 a3 ed 46 bd 20 41 9b 3e 9f b3 63 be 77 82 8f 3e
       -0.04856647 0.30323124 -0.22236489 0.28029224
000230 ac d4 54 bd 32 a8 35 3e 7b 33 3c be 13 2c 02 bd
       -0.051960632 0.17739943 -0.18379013 -0.031780314
000240 49 a5 14 3e df d3 63 b9 6a 1b 60 bd 87 d7 fd bd
       0.14516176 -0.00021727335 -0.054713644 -0.12394624
000250 43 80 a5 bd d8 74 73 3e 2b 5c 00 bc 33 c3 e0 3d
       -0.080811046 0.23775041 -0.007834475 0.10974731
000260 fb 91 ca 3e 08 0f 55 bd 13 94 43 bd 6c bf 71 bd
       0.395645 -0.052016288 -0.047748636 -0.059020445
000270 1d 8b e8 bd 94 4e ab bd 5e 0d 88 3d ec d4 a3 39
       -0.11354659 -0.08364597 0.066431746 0.00031248422
000280 95 85 7f 3d 1f 3b b5 bd f3 20 c9 bd ce 45 89 bd
       0.062383253 -0.08849167 -0.09820738 -0.06702767
000290 cd e2 0f 3d bb 07 1f 3e 6b f6 ba 3e e4 71 10 be
       0.035128403 0.15530293 0.36516127 -0.14105946
0002a0 74 c9 a6 3d 92 ed fb bd d9 4f a2 bd e8 1e e9 3d
       0.08143893 -0.12301172 -0.07925386 0.11382848
0002b0 85 62 a0 3d d7 05 8f 3d b6 33 e2 3c 28 a1 21 3e
       0.07831291 0.06983536 0.027612548 0.15784132
0002c0 eb 5b 3d 3e 56 7d 07 3f 82 7a 38 3e d6 54 61 3e
       0.18492095 0.5292562 0.18015483 0.22005019
0002d0 31 f6 87 3e 37 ff 25 3d 91 1a a0 3c 51 f4 84 3c
       0.26555017 0.040526595 0.019543918 0.01622978
0002e0 39 b6 ac 3d e7 cb b4 3e 3e 96 b1 3d 19 31 15 bd
       0.08433194 0.35311815 0.086712345 -0.036423776
0002f0 93 d4 d8 3e 5f d9 0a be fb 3d 9e 3d b7 2a 1b be
       0.4234968 -0.13559483 0.077266656 -0.15153013
000300 63 b0 cf bc d3 b8 05 bd dd e3 74 3e 13 00 fa 3e
       -0.025352662 -0.032646965 0.23915048 0.48828182
000310 00 f8 94 3e fb a2 6d 3f 96 ba 2b bd e4 60 d5 3e
       0.2909546 0.92826813 -0.04192599 0.41675484
000320 80 d6 83 bd 4d aa 0f be a0 e7 b7 bd c4 03 10 3f
       -0.06437397 -0.14029808 -0.08979726 0.56255746
000330 de db a1 3d a0 37 17 3f b4 14 3b be 1e 79 af bc
       0.079032645 0.5906925 -0.18269616 -0.021420058
000340 a5 fc eb 3e 87 be 97 3e 77 87 6b 3e f9 47 36 bb
       0.4609119 0.29637548 0.23000894 -0.0027813895
000350 0a 54 f2 3b df 8d 09 3f 13 9a 64 be cf b8 cb 3e
       0.007395272 0.53732103 -0.223244 0.39789435
000360 25 c4 b6 3d 73 6e af bd f8 b0 ea bd cf 48 e0 3e
       0.0892413 -0.085659884 -0.11459535 0.4380555
000370 06 72 e3 3d 72 09 81 3e 19 97 98 3e c4 77 d6 3c
       0.111057326 0.2520252 0.29802778 0.026180156
000380 55 9d 24 bb 71 b4 81 be 20 f4 84 3d ad 58 c5 3e
       -0.0025118191 -0.25332978 0.06491876 0.38544217
000390 9f cc f4 3f 63 8e 56 be e1 51 05 3f 0c 5f d2 bd
       1.9124945 -0.20952754 0.5207806 -0.10272035
0003a0 4e e2 20 3e 33 9d 53 be 8b d9 c9 3e e4 20 96 3e
       0.15711328 -0.20665435 0.39423785 0.2932197
0003b0 62 4c 93 3e e7 66 78 3e 97 e7 c6 3e 6a d9 e4 3d
       0.28769213 0.24258004 0.38848564 0.11174281
0003c0 1f 3f 9b bd 3f f4 02 3f 3a 79 d2 3e 06 c6 b9 3e
       -0.07580399 0.5115394 0.41108114 0.36283892
0003d0 f7 73 c5 3d 2a 20 46 bd 8c cb 48 3e 92 52 b5 bd
       0.09641259 -0.048370518 0.19608897 -0.0885364
0003e0 9c cb 65 be d6 36 c5 3e 4d 18 05 3f 21 45 d4 bc
       -0.22440952 0.385184 0.51990205 -0.02591187
0003f0 93 c9 e1 bd 54 00 a7 bd 05 b3 5b bd 90 08 ee bd
       -0.11024775 -0.081543595 -0.053637523 -0.11622727

h1.bias f4 [32]
000000 a2 c1 13 be 3d fb fb bd 27 20 34 be 3d 47 9e be
       -0.14429334 -0.12303779 -0.1759039 -0.30913725
000010 fa cd 06 be 70 48 a2 bd 63 a8 4c be c0 32 3d 3d
       -0.13164511 -0.079239726 -0.1998611 0.046190977
000020 cb ef 0a be e4 e5 f5 bc 65 bf df 3d d7 fc 6e 3b
       -0.13568036 -0.030016847 0.109251775 0.0036466622
000030 5e cf b2 3d 15 09 1f bd 3d 19 8d 3d 9f c8 68 be
       0.087309584 -0.03882702 0.068895794 -0.22732781
000040 59 00 74 be 68 4d 7b bc 87 83 e5 bd 61 73 fe 3d
       -0.23828258 -0.015338279 -0.112067275 0.124243505
000050 40 3e 10 be 69 13 61 be e2 66 11 bb 8e bf f2 3d
       -0.14086246 -0.2198006 -0.0022186567 0.118529424
000060 fd 9a 87 bc d5 6f 4d 3e b4 69 63 3e 3d 6e 80 3c
       -0.016553396 0.20062192 0.22208291 0.015677566
000070 5c 69 79 3b 53 38 c3 bd eb 46 d0 bd ca 0b 20 be
       0.0038057184 -0.09532227 -0.101697765 -0.15629497

h2.weight f4 [16, 32]
000000 c6 b0 cd bc cf 09 f2 3d b3 54 24 3e 0d 0c de bd
       -0.025108706 0.11818277 0.16047935 -0.10842142
000010 b1 79 be bc f0 a9 17 3e 0c 92 c3 3d 93 db 0d bd
       -0.023251386 0.1481092 0.095493406 -0.03463323
000020 93 05 7e bd 5e b4 1f 3e 64 a0 86 3e 69 9c 31 3c
       -0.062017035 0.15596148 0.26294243 0.010840514
000030 99 b2 24 3e a9 06 cf 3d 2e 7c ac 3a 0a 23 27 3f
       0.16083755 0.10108692 0.0013159567 0.6528784
000040 b1 3c d0 bd 15 a6 4e 3d 69 de 90 bc cf 6c ca bd
       -0.10167826 0.050451357 -0.017684178 -0.09884035
000050 83 85 79 3d 7d 67 1d bc cf 0d f8 3d 8c 8f 9f bd
       0.060918342 -0.009607193 0.12112009 -0.07791051
000060 f1 6a 58 3d 04 29 e6 3d 6a 72 70 be be 79 8f bd
       0.052836362 0.11238292 -0.23481146 -0.07005642
000070 01 15 15 3e cf d0 18 3e fc 07 04 3e 1a 64 fb 3d
       0.14558794 0.14923404 0.12893671 0.12274952
000080 78 77 26 bd 67 16 62 bc df 27 6e 3e 84 67 a5 3d
       -0.040641278 -0.013799286 0.23257397 0.08076385
000090 fe 49 86 3e 1e 68 36 3e 9d d3 5d 3e 63 9b 00 3e
       0.26228327 0.17813155 0.21662755 0.12559275
0000a0 22 45 87 3e d3 09 27 3d 55 79 20 3f 17 9e 8f bd
       0.26419932 0.040780853 0.6268514 -0.07012575
0000b0 04 38 d0 3d d1 9a f7 3d e8 ab 56 3e 5b 30 43 3e
       0.10166934 0.12090076 0.20964015 0.19061415
0000c0 a3 b6 20 3e b8 eb 28 3e 9c 52 4f b9 39 df 8e bd
       0.1569467 0.1649617 -0.00019771833 -0.0697617
0000d0 4d 0f fc bc d1 b9 59 3d 73 d3 59 3d fb a5 82 3d
       -0.030769015 0.053155724 0.05318017 0.063793145
0000e0 34 8a 54 3e a1 45 f7 bd ee 5e 4c be 89 f7 3f 3e
       0.20755845 -0.120738275 -0.19958088 0.18746771
0000f0 d5 8f 5c 3e 55 71 be 3d 32 e9 37 3e 4e 40 b5 bd
       0.21539243 0.0929896 0.1796005 -0.08850156
000100 28 8d 4b 3e 5f ef 08 3e 3b 37 dd bb 2a 2f 2b 3e
       0.19878066 0.13372563 -0.0067509688 0.1671721
000110 26 f3 4f 3e bd 63 8b bd db 26 51 3d 9b a7 62 3e
       0.20307598 -0.06806133 0.051062446 0.22134249
000120 5a 8d 87 bd fc 90 e0 3d 9a d7 de 3e 0e 28 20 3e
       -0.066187575 0.109651536 0.43523866 0.1564028
000130 e1 e8 a2 bd 24 c1 5d 3e bf b9 06 3c 53 f8 19 3f
       -0.079545744 0.21655709 0.008222996 0.6014454
000140 0b a8 17 3e 0a eb 83 3d 1b a8 b2 bd ff 7a 1c be
       0.14810197 0.064413145 -0.0872347 -0.15281294
000150 6d 15 cc 3d 03 85 3d 3d cb 0a 9b 3e e8 85 22 be
       0.09965024 0.046269428 0.30281672 -0.15871394
000160 4f 1d b2 3d eb 16 ee bd 4f 92 2d be 9a 91 b8 3d
       0.086969964 -0.11625465 -0.16950344 0.09012146
000170 de 62 41 3d 82 7b fa bd a4 07 ff 3d fe f2 ad 3d
       0.047213428 -0.122305885 0.12452629 0.08493613
000180 8a 1d 1c 3e 3c 5a db 3e 3e f3 bd 3d 90 e6 aa 3e
       0.15245643 0.4284228 0.092749104 0.3337903
000190 22 5e b6 3e ff d1 07 3d eb f7 b0 3c 32 cf be 3e
       0.35618693 0.033159252 0.021602591 0.37267452
0001a0 21 2b 80 bd 2b fd 6f 3d 5d a9 4e 3e c6 89 8b bd
       -0.06258226 0.05859105 0.20181794 -0.068133876
0001b0 c5 0c 18 be 37 fd 58 3d 4b 23 10 3e 3f db 1c 3f
       -0.14848621 0.05297586 0.14075963 0.61272043
0001c0 1b a1 09 3f c2 cf e8 3a 7d 0b a1 bd 2a 89 40 be
       0.5376145 0.0017762112 -0.07863519 -0.18802324
0001d0 61 b4 14 be 96 25 1f 3d e3 f0 c2 3c 2c 45 73 be
       -0.14521934 0.038854204 0.023796504 -0.23756856
0001e0 ce 4a ce 3d 19 b8 ca bd e3 e2 48 be 1d 17 4e 3d
       0.100728616 -0.09898395 -0.196178 0.05031501
0001f0 9b 8a 2a 3e ea bd 9a bb 9a 58 af bd a0 50 f0 bc
       0.16654436 -0.0047223466 -0.08561821 -0.02933532
000200 af 8f 4c 3e 32 3a 45 3e d3 ac 56 3e 9a 48 d7 3e
       0.19976686 0.19260481 0.20964365 0.42047578
000210 72 52 a4 bd 94 53 92 3e 57 3a 3e 3e 6f 15 99 3e
       -0.08023538 0.2857939 0.18576942 0.29899165
000220 c1 03 43 3e b4 62 f7 3d 31 b2 fc 3e 01 13 8f ba
       0.19044401 0.12079373 0.493547 -0.0010915698
000230 ab e3 30 3c f7 5a 10 3e e9 2f 97 3c a3 37 6a 3e
       0.010796468 0.140972 0.018455463 0.22872786
000240 01 6b d4 3e 63 d2 16 be 06 a7 81 3c b7 ac 93 be
       0.41487888 -0.14728694 0.015826713 -0.28842708
000250 32 a7 0d 3e 48 7f 02 bd 66 21 a2 bd b8 ac 8d be
       0.13833311 -0.031859666 -0.079165265 -0.27670836
000260 7f 95 14 3e 4e 61 6e be 81 0f 2b be 57 89 aa 3c
       0.14510153 -0.23279306 -0.16705133 0.020817442
000270 54 89 5e 3e d3 5a 18 3d b4 1c 95 3d 08 c9 2a bd
       0.21732074 0.03719599 0.07280865 -0.041695625
000280 1c 2c 2a be a1 e0 28 bd 1d 2b c5 3b cd af 0f be
       -0.16618389 -0.041229848 0.0060171024 -0.14031906
000290 f0 7c 9e 3c a1 91 17 be a0 07 56 3d 0c f0 41 bd
       0.019346684 -0.14801647 0.052253366 -0.047348067
0002a0 59 3a 11 3d db 28 4a bd 9a 98 b3 bd 59 41 8f 3b
       0.035456035 -0.04935537 -0.08769341 0.0043718037
0002b0 23 9a 98 bd 46 3d 48 be 3a df b2 bd 8b 4f b3 3b
       -0.07451274 -0.19554624 -0.08733983 0.0054721287
0002c0 69 aa db bd f4 10 91 3d fd 9e 52 be 12 54 85 bd
       -0.107258625 0.07083312 -0.20568462 -0.06510176
0002d0 32 24 c8 bd 00 54 38 be 99 88 51 3d cd 13 81 bc
       -0.09772529 -0.18000793 0.05115566 -0.015756512
0002e0 a5 7d d9 3c 27 3b 35 3d ff a6 bf bd bc 1d 52 bd
       0.02654917 0.044245865 -0.09358024 -0.05129789
0002f0 6e b0 1f be e4 a6 e8 bc 0c 4a ec bc 5c 56 61 bc
       -0.15594646 -0.028399892 -0.028843902 -0.0137535
000300 49 5b 6f 3e e0 3b 94 3d 4c 4b 56 3e 1d 48 1f 3e
       0.23374666 0.07237983 0.20927161 0.15554853
000310 b6 2a 42 3d 51 53 96 3d 3c c3 c1 bc 3f 35 6f 3e
       0.047404014 0.0734011 -0.023652665 0.23360156
000320 ca b7 96 3d 09 22 fb bc b0 a9 71 3e 42 d2 79 bd
       0.07359274 -0.030655878 0.23599887 -0.060991533
000330 d4 30 5c 3d bd 55 ec 3d ba 84 87 3e 6d 27 82 3d
       0.053757504 0.11539791 0.2646845 0.06355176
000340 04 2f a9 bd 99 db e4 3d 74 f7 c0 3d 6e 61 1b bd
       -0.08260921 0.111746974 0.09422198 -0.037934713
000350 26 27 29 bd c4 10 a3 3c 0f da a7 3d 81 6e b4 bd
       -0.0412971 0.019905455 0.08195888 -0.088101394
000360 d0 f9 9f bd 97 58 b7 bd 87 ff 60 be 3b 0e 59 be
       -0.0781132 -0.08952444 -0.21972476 -0.21196835
000370 aa 7d 81 3e ed 69 1e 3e 22 f6 8f 3d b8 69 47 be
       0.25291187 0.15470095 0.07029368 -0.19473922
000380 65 67 1d 3e a3 42 f6 3d 74 bb e8 bc 3c ee 08 be
       0.15371473 0.12024429 -0.028409697 -0.13372129
000390 1b 9b f5 3d 0e 32 d0 bd 65 9c 3a 3e 6c 44 30 bf
       0.11992475 -0.10165797 0.18223722 -0.68854403
0003a0 66 17 b1 3d ee 5c 8b 3d 6c 0d 0c bf 51 27 7c bd
       0.08647041 0.06804834 -0.5470798 -0.061560933
0003b0 6a f9 9c 3d 57 b0 6e 3e 4c 0c 89 3c 50 63 3f 3e
       0.076647595 0.23309456 0.016729496 0.18690228
0003c0 3f 55 c6 be 07 07 dd bd a9 ee 60 bd b5 ec 8a bc
       -0.38736913 -0.10792356 -0.054915104 -0.016958574
0003d0 cc 84 d5 bd 49 ba 95 bd f3 c9 4c 3e 63 ec 68 3e
       -0.104257196 -0.07310922 0.19998913 0.22746424
0003e0 09 6a 68 bc ac 40 33 3e b8 fb 8d bb 05 ed 85 3e
       -0.014185437 0.17505139 -0.0043329857 0.26157394
0003f0 bf cd f4 bb a1 36 16 3d 5b 63 de 3d 54 e0 3e 3e
       -0.007470816 0.036673192 0.10858794 0.18640262

h2.bias f4 [16]
000000 b7 4b af 3d e6 34 1f 3e 8f 4a 53 be fb 75 8c be
       0.08559363 0.15547523 -0.2063391 -0.27433762
000010 2b 6c 75 be 41 36 8a bc c7 8f c9 bd 6d 21 27 3e
       -0.23967044 -0.016871573 -0.098418765 0.16321345
000020 db 6b 1f be 64 8a c8 3e 13 5f 34 be 4a 61 47 be
       -0.15568487 0.39168084 -0.17614393 -0.19470707
000030 4b b6 24 3e 5c f3 66 3c 01 9f 3b 3e 5d e6 af 3e
       0.16085164 0.014096107 0.18322374 0.3435544

h3.weight f4 [8, 16]
000000 9b 21 45 3c 72 18 39 3d 25 df 50 3e 8a 55 19 be
       0.012031938 0.04518933 0.20397623 -0.14974037
000010 d7 fe 1f 3e f6 e8 2a 3d 9f 9f a1 3e 2e 83 5a be
       0.15624557 0.041726075 0.31567094 -0.21339104
000020 7c 30 cd bd a2 25 66 be 6c 37 43 be 4e 53 2d 3c
       -0.10019013 -0.22475293 -0.1906411 0.010578943
000030 68 63 d5 bd 6c a7 ae 3d 4b 43 ef bc 51 14 a5 bd
       -0.10419351 0.08528027 -0.029206892 -0.08060516
000040 c9 38 91 be 2c 14 1f be 52 3a 17 be f7 bd 3e be
       -0.28363636 -0.15535039 -0.14768341 -0.18627153
000050 89 41 f5 bd f5 c4 04 be c0 42 fe 3c d3 ff d8 3c
       -0.119753905 -0.12965758 0.031037688 0.026489174
000060 86 1d 18 bd 79 61 b5 3e 59 b5 90 be 80 91 a5 3d
       -0.03713753 0.35425928 -0.28263357 0.080843925
000070 7f 53 6f 3e 56 d2 0d 3c e3 f5 55 3e 31 89 d2 3e
       0.23371695 0.008656105 0.2089458 0.41120294
000080 88 b3 60 bc 58 d2 a4 3d a3 de 55 3d ca 76 e0 3e
       -0.013714679 0.080479324 0.052214276 0.4384063
000090 39 72 a1 3e 1a 4c 03 be 05 67 f0 3d 10 8d c0 3d
       0.31532457 -0.12821999 0.117383994 0.094019055
0000a0 a3 a4 bc 3e 4e e9 9c bd 5b 4f 1d be 7d f6 12 3e
       0.36844358 -0.07661687 -0.15362303 0.1435184
0000b0 31 fa d1 bd 2b cf ed 3d a3 0d 2d 3c fe 2d ae bd
       -0.10252798 0.1161178 0.010562333 -0.08504866
0000c0 e1 71 8a bd 5d 4d 3e 3c 53 13 fd 3d 77 05 2f 3e
       -0.06760002 0.0116151245 0.123572014 0.17091928
0000d0 d8 f6 07 be 59 fb 74 3e a9 f6 76 3e 3a 88 06 bc
       -0.13277757 0.23924007 0.24117531 -0.00821119
0000e0 79 58 26 3f 66 66 3b be 1c 41 2a 3e 40 16 30 bb
       0.6497875 -0.1830078 0.166264 -0.002686873
0000f0 6e a7 3b 3d b7 44 b7 bb 8e 9f 1b 3d fc a4 6b be
       0.04581397 -0.0055929082 0.03799396 -0.23012155
000100 0f 1e 26 3d 8b 5a 01 3e 2b c2 6b bd 80 de 2e 3e
       0.04055601 0.12632196 -0.05755822 0.17077065
000110 7a f4 58 3e 2b 54 3f be 95 04 fc bd 45 cb 2d 3e
       0.2118701 -0.18684451 -0.123055615 0.16972072
000120 14 67 00 3e 40 d7 bf be f9 a9 e6 39 e0 54 61 3e
       0.12539321 -0.3746891 0.00043995658 0.22005033
000130 59 85 b3 bd 55 1f 50 3d 0e b0 6a 3e 67 b0 7c be
       -0.087656684 0.05081113 0.22918722 -0.24676667
000140 1d 84 5a bd cc 8f 3c be 4b 45 89 3d ab 9c 1c 3e
       -0.05334865 -0.18414229 0.0670267 0.15294139
000150 2e 7f b1 3d ee 7f c4 bd 82 6c 98 3e ad c8 9b bc
       0.08666836 -0.09594713 0.29770285 -0.019016588
000160 1b 48 ee bd 34 88 82 be ee 53 30 3e a0 08 c3 bd
       -0.11634847 -0.2549454 0.17219517 -0.095231295
000170 ed f2 0d be 88 c0 90 bd cf b0 b8 3d ca 89 04 3d
       -0.138622 -0.070679724 0.090180986 0.03235797
000180 0d 82 5a bf 20 7c 0d 3d 16 a3 63 be 9c b7 f5 bd
       -0.8535469 0.034542203 -0.22230181 -0.11997911
000190 7c f8 dd bd d0 d4 2b bd 23 ad e8 be d8 a5 42 be
       -0.1083841 -0.041951 -0.45444593 -0.19008577
0001a0 92 e5 ee bd 15 25 a6 3d c1 91 84 be bc cb 4b be
       -0.11664881 0.081125416 -0.2589245 -0.19901937
0001b0 e4 41 ba bd cb bf cd be 1b b6 9a 3e e3 62 b6 3e
       -0.09094599 -0.4018539 0.3021706 0.3562232
0001c0 11 40 24 3e 94 91 71 be b0 e8 52 3e 28 15 e1 3d
       0.16040064 -0.2359069 0.20596576 0.10990363
0001d0 2c 9a 59 bc 69 cb 3f be 7e 66 14 bd 6f 14 15 be
       -0.013281386 -0.18729939 -0.036230557 -0.14558576
0001e0 39 4f 04 3f fa d0 2b be fd e7 8c 3c e3 cd 32 be
       0.51683384 -0.16778937 0.017200464 -0.17461352
0001f0 02 97 15 3e 83 ee 94 3d 3d 73 aa be da f0 38 be
       0.14608386 0.07272055 -0.33291045 -0.18060628

h3.bias f4 [8]
000000 bc 74 92 be 92 1c 44 3e 0f 9b 50 be 3f a2 a3 be
       -0.28604686 0.19151524 -0.2037165 -0.3195972
000010 80 55 8a 3c 5c ab 5c be 81 c4 9d 3d 07 50 99 be
       0.016886473 -0.21549743 0.07703496 -0.2994387

h4.weight f4 [1, 8]
000000 90 ca 74 bd dd b8 c8 3e 6b d0 58 bd 55 03 70 bd
       -0.05976349 0.3920354 -0.052933138 -0.058596928
000010 a2 f2 a6 bd 0d 28 bf bb 19 81 f2 3e 73 b9 4c bd
       -0.08151747 -0.005833632 0.4736412 -0.049981546
