src/models/saved_models/best_model_lr0.0001_roc_auc0.8819872014615135.pt (torch, 23973 bytes, 9 tensors)

input.weight f4 [64, 30]
000000 29 ab 0f 3d 09 35 d2 3d b0 1e 14 3e 99 30 b9 bd
       0.03507534 0.10264022 0.14464831 -0.090424724
000010 05 18 09 3e c3 3c bd 3d c3 ec 98 bd 32 b5 3d 3e
       0.13388069 0.09240105 -0.07467034 0.18526152
000020 e9 ff 2c be 0a 51 20 bd 50 67 2f 3e c5 2b a4 bc
       -0.16894497 -0.039139785 0.17129254 -0.020040402
000030 f9 00 9b 3d d5 52 64 bd a3 9d e7 3d 2e 51 86 3c
       0.07568545 -0.055743057 0.11309364 0.016396131
000040 d1 13 0d 3d 2e a6 33 3c 16 f4 24 3e b6 6e 82 bd
       0.034442727 0.010964913 0.16108736 -0.06368773
000050 e1 60 af 3c 49 f4 43 3e f1 5c ea 3d c9 68 06 be
       0.0214085 0.19136156 0.114435084 -0.1312591
000060 7f c9 4c 3e fc 32 2d bd c7 15 0b be 8b 92 ad 3d
       0.1999874 -0.04228495 -0.13582526 0.084752165
000070 6a 0a 5f 3c 3b aa 2e be 0e 5d d8 bd 6f a4 c3 bd
       0.013613323 -0.17057125 -0.10564624 -0.095528476
000080 94 2b 22 bd 65 22 02 3d 7a 90 f1 3d 36 d1 1f be
       -0.03959234 0.031771082 0.11795135 -0.15607151
000090 ad 4d 95 3d 44 1e a0 3d 03 e7 19 be 36 0a 3b be
       0.07290206 0.07818273 -0.1502953 -0.18265614
0000a0 a3 0a 53 3d 53 05 89 3d 8c 1a 5e bd 12 a0 f3 bd
       0.051523816 0.06690469 -0.054224536 -0.11895765
0000b0 67 78 47 be b0 c9 b1 bd a8 37 78 3d ad 0e 5f 3d
       -0.19479524 -0.08681047 0.060599953 0.054457355
0000c0 37 40 a4 bd 93 e3 11 3e c0 ce e6 3d 68 35 c2 bd
       -0.080200605 0.14246969 0.11269903 -0.09482843
0000d0 ca 49 f7 3d 94 f8 c9 bd c8 57 01 be 4e 8d 9f bb
       0.12074621 -0.09861866 -0.12631142 -0.0048691398
0000e0 ee 93 c6 bd ce cf e7 3c 76 19 dd 3d ef 64 05 be
       -0.09696184 0.028297331 0.10795872 -0.13026784
0000f0 ef 94 c8 bc 67 73 13 3e aa e7 13 3e ce f9 32 3e
       -0.02448508 0.14399491 0.14443842 0.17478105
000100 22 4e 15 be 30 de c0 3d 9f 70 ec bd 1d 95 c6 bd
       -0.14580587 0.09417379 -0.11544918 -0.0969641
000110 63 f5 70 bd ce 73 b3 3c 6e 29 92 bd bd 2d 3d bd
       -0.05882777 0.021905806 -0.07136808 -0.046186198
000120 f0 f9 eb bd 7d 2d 38 be a9 0b 52 bd 40 4c 57 3e
       -0.11522281 -0.17986102 -0.05128065 0.21025181
000130 7c 13 36 3e f8 7a d9 3d 5f a2 18 3e 35 65 db bd
       0.1778087 0.106191576 0.1490569 -0.10712663
000140 b3 37 d8 bd 2d 6f a2 3d 7e 58 ce 3d d9 7f da bc
       -0.10557499 0.07931361 0.10075472 -0.02667229
000150 e2 37 e0 bd 1f db 12 be 9a 0b dd 3d 1c 4b 41 bd
       -0.10948159 -0.143414 0.107932284 -0.04719077
000160 de 39 d5 bd d1 73 96 3d 6a 17 0b 3d 33 92 28 3e
       -0.10411428 0.07346309 0.033957876 0.1646202
000170 1d 98 1b bc e2 6b 0f be b3 d4 f6 bd 2e 12 80 bd
       -0.009496716 -0.14005998 -0.12052288 -0.062534675
000180 cd 56 7e 3d 13 8a 0f be f8 93 ad bd f9 de 25 3d
       0.0620945 -0.14017515 -0.084754884 0.040495846
000190 37 3d 57 3e 38 8f ac bd 4d 31 de bd b3 fe 95 bd
       0.21019445 -0.08425754 -0.10849247 -0.07323971
0001a0 26 43 99 3c 48 19 07 be 73 21 31 3e 72 b6 54 bd
       0.018708777 -0.13193238 0.17297916 -0.051931806
0001b0 59 2f 15 3e 01 0a 11 be 2c e4 a8 bc 2b 33 35 bd
       0.14568843 -0.14163972 -0.020616613 -0.04423825
0001c0 e7 0b 07 be 19 b4 b5 3c a1 a1 27 3e a2 8b aa 3d
       -0.13188134 0.022180604 0.1637025 0.08327414
0001d0 54 45 21 be 7d a6 b2 bd 4f 0c a1 bd e0 e1 ef bd
       -0.15749103 -0.08723161 -0.07863676 -0.11713004
0001e0 4e 47 a5 3d 34 8d 22 be ff e3 b0 3d 25 90 20 3d
       0.08070241 -0.15874177 0.08637237 0.039199967
0001f0 41 a5 0c 3d 1d ba 98 bd 4f 9d 81 bd c2 e8 02 3e
       0.034337286 -0.07457373 -0.06328832 0.12784103
000200 39 a7 24 3d de 3f 1a 3e a8 93 10 3d 6d ca f0 bc
       0.04019854 0.15063426 0.035297066 -0.0293934
000210 b5 da 9f 3c 5c a7 f0 3d c4 8b 92 3c 63 5c db bd
       0.019513467 0.11750671 0.017888911 -0.10710981
000220 ec 23 21 3e 7d fd 8e bd 58 b2 16 bd 7e 00 0e be
       0.1573636 -0.06981943 -0.036791176 -0.13867375
000230 f3 e9 08 3e 77 3b 76 3d 11 a5 d4 3d e9 18 94 3d
       0.13370495 0.060115304 0.103830464 0.07231314
000240 db 62 24 3e 2d a2 9b 3d f0 e3 35 be 6b 04 3b 3e
       0.16053335 0.07599292 -0.17762733 0.18263404
000250 45 54 cb 3a 50 f1 10 be 66 be ca bd 30 ea 1d 3e
       0.0015512785 -0.14154553 -0.09899597 0.15421367
000260 35 00 bd 3d ab ed aa 3b d5 3c 37 bd 93 f3 b9 bd
       0.09228555 0.0052163205 -0.04473575 -0.09079661
000270 e0 67 71 3d f1 6e ee 3d ab a9 ea 3c 96 93 17 be
       0.058936954 0.11642254 0.028645357 -0.14802393
000280 87 a4 30 3e 65 4a eb bd e7 dc c0 3c 5d 77 16 3e
       0.17250262 -0.11488799 0.023542834 0.14693971
000290 f8 7e a7 bd 2d 02 0b be a4 b3 3a be a7 56 07 3e
       -0.08178514 -0.13575049 -0.1823259 0.13216649
0002a0 81 ae 15 3d 3e e3 dd 3d 27 ad 04 bb 53 a6 39 be
       0.036543373 0.10834359 -0.0020244808 -0.18129854
0002b0 15 5f 5a be a7 a4 18 3e 37 50 14 be 50 38 d4 bd
       -0.21325333 0.1490656 -0.14483725 -0.10362303
0002c0 86 78 d3 3d c7 e1 1b be ab 58 96 bd dc ad 93 3c
       0.103257224 -0.15222846 -0.07341131 0.018027239
0002d0 0b 73 7d bc 79 9c 75 3d ae 24 01 bd 11 bb d5 bd
       -0.015469323 0.059963677 -0.03152912 -0.10436071
0002e0 b4 eb 65 3e 43 9e 94 bd f1 7f a4 bc fb a0 4f be
       0.22453195 -0.072567485 -0.020080538 -0.20276253
0002f0 de 4f e3 bd 32 60 0e be 3d af 3a 3c 8f 05 7a bd
       -0.11099218 -0.13903883 0.011394319 -0.061040457
000300 32 db 15 3d 11 47 93 bd 7a b0 3b be c8 33 5e bd
       0.036585994 -0.07191289 -0.18329039 -0.0542486
000310 71 b6 d3 bd 67 46 ad bd 0f f5 ad 3c c7 5a 08 bd
       -0.10337532 -0.08460694 0.021235017 -0.033289697
000320 e3 a4 ea bd a1 d6 c6 bd 23 5f 93 3d bc a8 05 be
       -0.11457231 -0.09708906 0.0719588 -0.13052648
000330 b4 78 25 be b5 c9 e5 3d 64 80 36 bc 54 21 27 3c
       -0.16159326 0.11220113 -0.011139009 0.010200817
000340 ce 0d 41 3d 39 a8 24 3d b9 28 a9 bd ed 88 00 be
       0.047132306 0.040199492 -0.0825972 -0.12552233
000350 45 3f 1f 3e c8 03 ce bd cd 3b 35 be e4 38 24 3e
       0.15551479 -0.10059315 -0.17698593 0.16037327
000360 99 91 17 3e 43 fa e0 bd 9f 68 34 3e 62 af 05 3d
       0.14801635 -0.10985234 0.17618035 0.03263796
000370 db cc c6 3c 19 85 ed 3d 2c 5a 3d 3d 4e 03 0f be
       0.024267605 0.11597652 0.046228573 -0.13966104
000380 f2 aa 15 3e d6 5f 05 3e d9 aa 1a bd 6b dc 86 3d
       0.14615992 0.1302484 -0.03776059 0.0658501
000390 3e 01 aa 3d 56 87 d7 3c 52 0b 80 3d 26 d6 1b bd
       0.08301018 0.02630965 0.06252159 -0.038046025
0003a0 66 66 00 be 73 cd 51 bc bf 6d 01 be cd 28 50 be
       -0.12539062 -0.012805331 -0.12639521 -0.20328064
0003b0 d7 2c 72 bd 3c a8 00 3e 1a 2c 81 3c 0e 74 26 3e
       -0.059124794 0.12564176 0.0157681 0.16255209
0003c0 b1 10 be bc e9 f1 07 3e 23 4e d9 bd a9 9c d1 bd
       -0.023201318 0.13275875 -0.106106065 -0.10234959
0003d0 a4 6b d2 3a 5e d5 28 be b0 4e a0 3d bb 1c 1e be
       0.0016053808 -0.16487643 0.078275084 -0.15440647
0003e0 85 4c ed 3b 73 be 87 3d de f8 cc bd 97 4c d2 3d
       0.007241788 0.06628122 -0.10008405 0.102685146
0003f0 34 a7 a5 3d 1a c3 14 be fe 35 ec bd 52 c8 a8 bd
       0.08088532 -0.1452755 -0.11533736 -0.08241333

input.bias f4 [64]
000000 7f 0e ea bb 2d 83 fc 3d 25 bc 29 3d da ed 1a 3e
       -0.0071428414 0.12329707 0.041439194 0.15129796
000010 48 eb 1a 3e 2a 83 67 3e 8b 6a a5 bd 1b ac 89 3e
       0.15128815 0.22608629 -0.08076962 0.2688912
000020 88 57 cd 3d ef 7e ef bd 06 c4 27 bd 6c cf aa 3d
       0.10026461 -0.116941325 -0.040958427 0.08340344
000030 24 a9 ca 3e 9d 4d 55 3e 6a eb 34 bd e0 64 63 3e
       0.3958217 0.20830388 -0.04416982 0.2220645
000040 20 b0 92 3e 3f 29 25 3b 5a 75 28 bc 0b 74 fb 3d
       0.28649998 0.0025201587 -0.010281885 0.12277993
000050 a3 fc 75 3e de af fe 3c b5 12 b8 3d 65 eb 8c 3e
       0.24022155 0.03108972 0.08987943 0.27523342
000060 86 1b f8 3d 1a 92 a7 3d 17 4a 30 3e 4d 46 e2 3e
       0.12114625 0.081821635 0.17215763 0.4419426
000070 e8 10 ca 3e 75 95 20 3e 66 f3 9a 3d 19 93 ff bb
       0.39466023 0.15682013 0.07565956 -0.007799518
000080 b5 6c 9e bd 8c b6 2a be b9 6f 63 3e e7 78 da 3b
       -0.07735578 -0.16671199 0.22210588 0.0066672447
000090 31 ca 1a be 1e 36 4c 3c 98 09 55 3e bc c9 05 3e
       -0.15116192 0.012464074 0.20804441 0.13065237
0000a0 c2 0b aa 3d 09 ba 9b 3e 57 06 02 3e e6 30 60 bd
       0.08303024 0.3041537 0.12697731 -0.054734133
0000b0 9a 86 b1 bc a8 76 03 3e 36 87 6c bd 99 42 09 bd
       -0.021670628 0.12838233 -0.057746135 -0.033510778
0000c0 77 b1 90 3d da 13 57 3e b5 1a 5d 3b 33 ae 0f be
       0.07065099 0.21003667 0.0033737842 -0.14031295
0000d0 1d cb 83 3e e7 cb af bd 16 de 3d be ed 6c 51 3d
       0.257409 -0.08583813 -0.1854175 0.05112927
0000e0 6d 6d 1e be 7a 6e 9e 3d c8 06 86 3c 55 ef 3c 3c
       -0.1547143 0.077359155 0.016360655 0.011531671
0000f0 b9 e6 0f 3d 14 42 15 bd 4a 79 ea 3c 08 78 77 3d
       0.035132144 -0.03643997 0.028622288 0.060417205

h1.weight f4 [32, 64]
000000 bb a8 50 3e b9 5d db 3c f0 13 c7 3c 01 53 1a 3e
       0.20376866 0.026778089 0.0243015 0.15070726
000010 91 aa 3f 3e 63 ad b5 3d f0 47 8c bd 9e 58 6d 3e
       0.1871741 0.088709615 -0.068496585 0.23178336
000020 18 96 dd bd dd 54 3f 3d 2a 8d 98 3d 98 ec 39 3c
       -0.10819644 0.04671179 0.074488 0.011347912
000030 2c 89 63 3e 87 f3 9f 3d ca 1e 3f 3d 78 fe df bc
       0.22220296 0.07810121 0.046660222 -0.02734302
000040 ae 73 82 3e 98 2f 19 3d 90 71 f9 3d 6b ae 84 bd
       0.25478882 0.037398905 0.121798635 -0.0647858
000050 b4 88 30 3e a0 b5 cd 3d 77 6f 45 3d 5b a6 aa 3d
       0.17239648 0.10044408 0.048202004 0.08332511
000060 71 da 4a 3e ff 2e 36 bd 30 61 29 3e 13 4f a2 3d
       0.19809891 -0.044478413 0.1654098 0.079252385
000070 22 ad d8 3d a8 4a 94 bd 01 83 07 bd 4b 36 2e 3d
       0.105798975 -0.07240802 -0.03308392 0.042532247
000080 94 9f 7d 3c fa ad 7d 3d 06 86 5f bd 58 36 27 bc
       0.015479941 0.061933495 -0.054571174 -0.010205828
000090 e6 4b cc 3d af eb 23 3d cb 21 fa 3d 8f 14 ab 3c
       0.09975414 0.040019687 0.12213477 0.020883827
0000a0 32 50 6a bd 3c 3a ac 3d bf b9 2f 3e a5 bc a5 3c
       -0.057205386 0.08409545 0.171607 0.020231554
0000b0 13 3c e6 3d 5a 87 20 3e bd da 8e bc b2 3d ed 3d
       0.11241927 0.15676633 -0.017438287 0.11584033
0000c0 57 6e ae bd 40 eb 27 3d 66 47 d0 3d 01 66 ed bc
       -0.085171394 0.040995836 0.10169868 -0.028979303
0000d0 df 74 81 bc d0 ab b3 3c e0 77 ee bd 4b 30 6e bd
       -0.015802799 0.021932513 -0.11643958 -0.058151525
0000e0 8a 91 c2 3d fb 54 c8 3c 4b db 8c 3d 7e 56 e9 3d
       0.095004156 0.024454584 0.06877764 0.1139345
0000f0 40 ec ff 3d 2d 73 54 3d f4 75 86 bd ad c1 93 bd
       0.12496233 0.051867653 -0.065654665 -0.07214675
000100 77 3d 97 bd 3b 1d 18 3d 88 a6 21 3d 13 6f 43 3b
       -0.0738477 0.03713725 0.039465457 0.0029820844
000110 76 0e 06 be 2a 83 28 bd f8 a5 86 3d ed 42 5a 3c
       -0.13091454 -0.041140713 0.06574625 0.01332162
000120 db 87 f2 3b a8 71 2e bd ff 9f 8a 3d 8c cb a6 3d
       0.007401449 -0.04258886 0.06768798 0.08144292
000130 8f df 54 bd 6d 47 f5 3d 36 fd 20 bb c1 e1 bc bd
       -0.051971015 0.11976514 -0.0024564988 -0.09222747
000140 b3 f1 96 bc 8d 54 8b 3d 6a d7 fd 3d 7a 2c 18 3e
       -0.018425798 0.06803236 0.123946026 0.14860716
000150 02 49 96 bd 81 3f e0 bc bc 3f 8d 3d 81 99 c1 3d
       -0.07338144 -0.027374031 0.06896922 0.09453107
000160 15 23 c1 bd 58 f3 d8 3d 3c d3 f5 3d 4d d1 b9 3d
       -0.094305195 0.10593289 0.120031804 0.09073124
000170 d9 84 c7 bd 3b a4 e0 3c 7d a8 b2 3d 82 9c 66 3d
       -0.097421356 0.027422061 0.08723543 0.0563016
000180 4d 85 93 3d 8a b7 00 3e 04 02 8d 3d c6 a3 04 be
       0.072031595 0.12570015 0.0688515 -0.129531
000190 6b 5b 6b 3c 3c aa 4b 3d ef 56 cc 3d 5f 64 22 bc
       0.014365057 0.049722895 0.09977519 -0.009911626
0001a0 6f 46 12 3e 77 c2 10 3d 27 9e 59 bd 7c 04 23 3e
       0.14284681 0.035341706 -0.05312934 0.1591968
0001b0 ed 8e 50 39 c9 25 88 bd c6 a5 85 3d 13 f1 05 3e
       0.0001988967 -0.06647832 0.065257594 0.13080244
0001c0 a2 5d 9d bd 27 71 13 3e a1 b1 80 3d ee 52 bd 3d
       -0.07683875 0.14398633 0.0628388 0.09244333
0001d0 7f 01 bf 3d 29 41 bb bc 0f 12 b9 bd eb 5e e1 bc
       0.09326457 -0.02285822 -0.090366475 -0.02751108
0001e0 bd 07 4b 3d 01 15 ee bc 13 4d 95 bc 89 23 a1 bd
       0.049567927 -0.02906275 -0.018225228 -0.07868106
0001f0 ef ea 08 3d eb 17 b0 3a ec 6b 84 bd b3 35 e0 3d
       0.033427175 0.0013434862 -0.06465897 0.10947742
000200 c8 20 92 3d 9d 65 a5 3d 03 ba 1b 3e 48 54 94 3d
       0.07135159 0.08076022 0.15207677 0.07242638
000210 85 6a b7 ba 32 45 bf 3d cd c1 47 bb fb c9 e0 3d
       -0.0013993537 0.0933937 -0.0030480505 0.10976025
000220 22 33 cb 3d 8e 24 b7 bd 19 01 0e 3d e3 78 ae 3d
       0.09921862 -0.08942519 0.034669016 0.08519151
000230 c3 dd fb 3c 05 05 bc 3d fb 02 a6 bd 44 c4 e0 3d
       0.030745393 0.09180645 -0.08106037 0.10974935
000240 98 a5 00 bd b7 bc f1 3c f8 c4 1e 3e b3 9f 90 bd
       -0.031407923 0.029508932 0.15504825 -0.0706171
000250 52 8a d5 3d 18 69 90 bd a3 48 ac 3d 4e 0b ef 3d
       0.10426773 -0.07051295 0.08412292 0.11672078
000260 21 d6 27 be 90 13 a1 3d a2 7a 49 bd 3c f3 6e 3d
       -0.16390277 0.078650594 -0.049189217 0.058337435
000270 60 11 ba 3d ec 3c 62 3d 1f ef bb 3d 9d ef a6 3c
       0.09085345 0.05523388 0.09176468 0.020377928
000280 3f c6 2c 3e 64 72 25 3c ee a2 2a bc 5d 33 af bd
       0.168725 0.010098074 -0.010414822 -0.08554719
000290 93 ed aa 3c 06 d1 a1 3d b6 82 6c bd 78 bf 80 bd
       0.020865237 0.07901196 -0.057741843 -0.0628652
0002a0 86 e1 82 bd 60 75 d1 bd 53 f1 96 3d 7a 1c 26 3e
       -0.063906714 -0.10227466 0.07370248 0.162218
0002b0 ba dc 08 3e e9 22 95 3d b1 7e fb 3c 35 6c 65 3d
       0.1336545 0.07282049 0.03070006 0.056011397
0002c0 c8 23 37 bc 9c 5a 92 bd f1 f2 d2 3c 60 18 e4 3d
       -0.0111779645 -0.071461886 0.02575061 0.11137462
0002d0 2b 14 35 3e 1f 4e 35 3d 86 e2 62 3d bc f9 0c 3c
       0.17683475 0.044263955 0.05539181 0.008604463
0002e0 57 dc aa 3c 92 3a c3 bc d2 d4 71 bd 83 09 ab bd
       0.02085702 -0.02383164 -0.059040852 -0.083514236
0002f0 9f 7b 9d bc 39 58 4e 3b 13 b6 84 bd fa 7a 32 3e
       -0.019223986 0.003148569 -0.064800404 0.17429724
000300 55 1c 73 3d 24 42 93 bd 10 20 ac bd 96 37 0a 3c
       0.05935319 -0.0719035 -0.08404553 0.008436104
000310 c5 7f 74 39 31 48 0e 3e f6 80 e8 3d fc 22 01 3d
       0.00023317251 0.13894726 0.11352722 0.031527504
000320 d7 3e b5 3d 88 87 8a bd 7d 04 b4 3d 3f 1d 20 3d
       0.088498764 -0.06764132 0.087899186 0.03909039
000330 8b 75 19 3e 1a 64 e7 3d d3 a9 e3 bc 06 96 1a 3e
       0.14986245 0.1129839 -0.02779094 0.15096292
000340 e8 31 80 3c ed 34 72 3e b2 e0 db bc 1b c1 fe bc
       0.015648797 0.23653002 -0.026840542 -0.03109794
000350 d5 6f 99 bd 9c f6 b4 3d 96 53 8d bd aa e2 60 3d
       -0.074920334 0.088360995 -0.069007084 0.054903664
000360 00 72 43 bc a8 8e f6 3c b3 6a d9 3d 66 65 12 3e
       -0.011929035 0.03009732 0.106160544 0.14296493
000370 50 ff 4e 3d b0 fc ae 3c a8 16 a8 bd 12 2f db 3d
       0.050536454 0.021360725 -0.08207446 0.10702337
000380 4e b4 cc bd c2 30 cc 3d c6 d2 ee bc 62 8a 5a 3e
       -0.09995328 0.09970237 -0.029153239 0.21341851
000390 1d 39 62 3d 8d b8 ea 3d 36 10 fd 3d ba 5c 04 be
       0.05523025 0.114609815 0.123566076 -0.12925997
0003a0 f1 00 81 bd a9 0e 81 3c b7 ca 2c bd f0 2f 69 3d
       -0.06299008 0.01575406 -0.04218551 0.056930482
0003b0 6a fa da 3d c5 b9 78 bd 94 8d 9b bd 4b 4e 96 bd
       0.10692294 -0.06072404 -0.07595363 -0.07339152
0003c0 ed e7 be 3c 87 e3 62 3c 0e e6 69 bd 6d 14 da bd
       0.02330395 0.013848192 -0.057104163 -0.10648427
0003d0 2b eb 3a 3d 80 ed ba bd 3c 70 64 bd 35 e5 f1 3d
       0.04563443 -0.09127331 -0.055771098 0.11811296
0003e0 68 eb d0 3b c7 5d d6 bd 8f 32 c1 bd e1 ba 28 3e
       0.006375719 -0.10467105 -0.094334714 0.16477539
0003f0 21 0c 85 bd f7 1e 4d bd c3 15 a4 3d a6 d5 ba 3d
       -0.06496454 -0.05007836 0.08011963 0.091227815

h1.bias f4 [32]
000000 ae dc 23 3d 90 1f 15 3e d9 e4 1c bd 30 df 3b bc
       0.04000538 0.14562821 -0.038304184 -0.011466786
000010 0e cb 33 be b5 b1 7c 3e 7b 78 5e 3e 52 4e 65 3e
       -0.17557928 0.24677165 0.21725647 0.22393158
000020 c5 3b 1e bd 14 e3 1a 3e ac 10 3c 3e 0f cb 9b 3d
       -0.03863122 0.15125686 0.18365735 0.0760709
000030 00 5e 95 3d 31 a0 3d bd e2 db 7a 3c 15 cc 97 3d
       0.0729332 -0.04629535 0.015311213 0.074119724
000040 d4 d9 85 3d dc 19 16 3e 32 af 1f 3e 74 cc 87 bd
       0.06535688 0.14658302 0.15594175 -0.06630793
000050 0a 56 36 bd ad 98 e6 bd 7e 28 bc bd 51 b5 56 bd
       -0.044515647 -0.11259589 -0.09187411 -0.05241901
000060 48 e7 c4 3c e9 44 0b 3e 37 c7 83 3c eb bc 48 3c
       0.024036065 0.13600506 0.016086204 0.012252073
000070 75 20 af bd 00 cb 3a 3d 61 7c 14 3e f3 e9 23 3e
       -0.085511126 0.045603752 0.14500572 0.16007213

h2.weight f4 [16, 32]
000000 23 f7 67 be 65 b2 1c 3e f8 0e 21 3e 82 be b7 bd
       -0.22652869 0.15302427 0.15728366 -0.08971883
000010 c6 04 0e 3e d7 bc d4 3d 5b 52 45 3e cf dc be bc
       0.13869008 0.10387581 0.19269697 -0.02329865
000020 03 7b 06 3d 9e c9 ba bd a2 22 58 3d c4 60 1e be
       0.032832157 -0.09120487 0.052767403 -0.154666
000030 40 33 1e bc f2 17 1d 3d a2 d3 0c 3e 0e e3 50 bd
       -0.009655774 0.038352914 0.13752607 -0.050997786
000040 8f bc 34 3e 10 e9 1b be 58 99 31 3e 9f 0c 51 3e
       0.17650054 -0.15225625 0.17343652 0.20414971
000050 ee 7d 1b be 21 b8 87 3b 51 09 ad 3d bb 8b 43 3e
       -0.15184757 0.004141823 0.084490426 0.19096272
000060 57 69 b6 bd 59 c0 d3 bd 9b 02 82 bd a7 92 59 3e
       -0.08906811 -0.10339422 -0.06348153 0.2124735
000070 e6 45 27 3e ea dd 1c bd 89 48 3b be 39 98 3a be
       0.16335258 -0.03829757 -0.18289389 -0.18222131
000080 e5 98 e8 3d 14 18 f7 3d 22 dd 42 3d b9 b3 9c 3d
       0.11357287 0.120651394 0.04757417 0.07651467
000090 7b f7 00 be e3 f2 84 3e 43 c2 4c 3e 0b 73 38 3d
       -0.12594406 0.25966558 0.1999598 0.04503159
0000a0 16 3e 1b 3e c5 e0 ba 3d 07 e8 d6 3d bc 34 48 3e
       0.15160403 0.09124903 0.104934745 0.19551367
0000b0 1f 3f 20 be bc 04 0d be 97 8e 92 3d cb 68 21 3d
       -0.15649079 -0.13771337 0.07156103 0.03940658
0000c0 4c 97 7d bd bd 83 55 3e 51 63 57 3d 1a 10 24 be
       -0.061911866 0.20851035 0.05258495 -0.16021767
0000d0 ec 6e 31 3e 15 5a 27 3e 8a 42 33 be 79 0f 1f be
       0.1732747 0.16342957 -0.17505851 -0.15533246
0000e0 98 a7 1a be 2a be 20 bd 6b 22 57 3e 46 d2 51 3c
       -0.15102994 -0.039243855 0.21009223 0.012806481
0000f0 5c aa 5f 3d 28 df f8 bd ec aa 94 3e 47 82 5d 3e
       0.054605827 -0.12151939 0.29036653 0.21631728
000100 e9 c8 70 bc 0c 0b 59 3d 7a cd 0b be 5c 03 ba 3d
       -0.014696338 0.05298905 -0.13652602 0.09082672
000110 4b 10 e0 bd 68 66 66 3c c9 59 14 3e 4e f5 c2 3d
       -0.10940608 0.0140625015 0.14487375 0.095194444
000120 12 ba 0b bd fa 37 8b 3d 69 b3 5d 3d 05 ea b9 3d
       -0.034112997 0.06797786 0.054126177 0.09077839
000130 a5 be e0 3c 30 7f 35 bd ca 65 97 bd 8f 71 dc 3d
       0.027434656 -0.04431075 -0.073924616 0.10763847
000140 47 b1 bd 3c 96 8f f1 3d 52 22 5e 3d db 45 5b 3d
       0.023155821 0.11794965 0.05423195 0.053533416
000150 7a a8 49 3e 17 35 f7 3d a2 f0 85 bd a1 0c 66 bd
       0.19693175 0.12070673 -0.06540038 -0.056164388
000160 7b 16 00 be 04 45 38 bd 12 0f 13 3e 23 25 27 3e
       -0.12508576 -0.044987693 0.14361218 0.1632276
000170 97 61 d4 bd 50 43 28 be d7 a0 49 3e 87 30 23 3e
       -0.10370176 -0.16431928 0.19690262 0.1593648
000180 30 eb 3b 3e 9a 8c 1f bc e8 71 f8 bd 20 14 0c bd
       0.18351436 -0.009738112 -0.12131101 -0.03419888
000190 4b 8e 11 3d f9 27 09 3c 98 68 36 3e 87 fc ec 3d
       0.03553609 0.008371347 0.17813337 0.11571603
0001a0 63 fe 88 3b e7 b3 b6 3c a3 ce 06 3e 9b 87 e9 3d
       0.004180716 0.022302581 0.13164763 0.11402818
0001b0 f4 2e a1 bd cd 3c 0f bc fb 17 05 3e 87 69 8d 3d
       -0.07870284 -0.008742523 0.12997429 0.06904893
0001c0 11 d8 94 bc 10 df 91 bd 0c f5 d3 3d 19 2f 39 bb
       -0.018169435 -0.07122624 0.10349473 -0.0028256832
0001d0 ff a8 9c 3d a6 8f 6a 3d 2c 5a 25 bd cc b9 42 be
       0.07649421 0.0572659 -0.040369198 -0.19016188
0001e0 aa 20 d6 bc cb f5 ce bd 7a db ce 3d c8 b3 5b 3d
       -0.026138622 -0.10105475 0.101004556 0.05363825
0001f0 ba 7b 41 3d 14 ce 81 bd 31 d3 f8 3d 11 6e 0a bd
       0.047237135 -0.063381344 0.121496566 -0.033796374
000200 15 87 82 3e 14 9d ef bd ea a0 8e 3d af ca 08 3d
       0.25493684 -0.11699882 0.06964286 0.03339642
000210 96 98 cb bd 14 89 5d 3e 96 d9 a4 3c 60 36 83 3e
       -0.09941213 0.21634322 0.020123284 0.25627422
000220 a4 cc d6 bd 41 7e 58 3e c7 cd 35 3e 67 e9 e8 3d
       -0.10488251 0.21141912 0.17754279 0.11372643
000230 fa c4 b6 3d 63 62 22 bd 1e 35 02 3e 9d a7 03 3e
       0.08924289 -0.03964461 0.12715575 0.12856908
000240 23 fe 53 3d b8 98 21 3e 8c c1 bb 3d cc d3 21 be
       0.051756036 0.15780914 0.091677755 -0.1580345
000250 ff 79 d3 bc c3 1a 05 be ef f8 ac bd 6e e0 9c bd
       -0.025815008 -0.1299849 -0.08445918 -0.07659994
000260 8c 5e 10 3e 8c 02 18 3d d6 77 05 3e 20 64 13 3e
       0.14098567 0.037111804 0.13033995 0.14393663
000270 c7 9b cb bd 2f 27 44 3e 6e 5f df 3c dd 00 22 3e
       -0.099418215 0.19155572 0.027267184 0.15820642
000280 4c 6a 6e 3d 8e 82 2b 3e d0 40 b6 bd 36 30 a8 3d
       0.05820684 0.16749021 -0.08899081 0.082123205
000290 22 87 1d be c5 cf 60 3e 94 7a 33 3d ea a0 df 3d
       -0.1538358 0.21954258 0.04381807 0.10919364
0002a0 e9 24 2d bd 0d 63 11 3e 76 3f 58 3d 7b 28 9d bc
       -0.04227153 0.14197941 0.052794896 -0.019184342
0002b0 9f df 3a be 5a 24 cd bd 7b 54 8b bb 08 6c cf bc
       -0.18249367 -0.10016699 -0.004252014 -0.025320068
0002c0 72 93 0e 3e c1 e2 75 bd a4 2d 86 bd 2e a3 0f be
       0.13923433 -0.060030703 -0.06551674 -0.14027092
0002d0 b9 90 31 39 e6 32 89 bd f2 74 12 3e 71 b1 d9 3d
       0.00016933949 -0.06699161 0.14302424 0.106295474
0002e0 7e b0 3c bc 2a 0a fd 3d 4b 31 0a bd ef 88 ab bb
       -0.011516688 0.12355454 -0.033738416 -0.0052348296
0002f0 61 f9 05 be f6 08 f4 3d a5 2d 84 3d 03 5d 0e 3e
       -0.13083412 0.11915772 0.064540185 0.13902669
000300 e9 d1 fb 3c 4a e8 18 be d6 cc 04 be f4 77 df 3d
       0.030739741 -0.14932361 -0.12968764 0.10911551
000310 1f 09 18 bc 2b e2 07 3e 48 ba 28 3e 9b 83 19 3e
       -0.009279518 0.1326987 0.1647731 0.1499161
000320 69 76 36 bd 3e 26 f3 bd ee 0a 2e 3e 62 6c 11 3d
       -0.04454652 -0.118725285 0.16996357 0.035503753
000330 12 ac c3 bd 45 99 b1 3d e3 96 33 3e c1 56 c3 3d
       -0.09554304 0.08671812 0.17538027 0.09538031
000340 4c 46 f6 3d 7d ab 13 be a0 6a f4 bd 3c 3d db 3b
       0.12025127 -0.14420886 -0.119343996 0.0066906493
000350 70 fc f9 3d 63 00 36 be 2c 54 f6 3d 51 84 04 be
       0.12206352 -0.17773585 0.12027773 -0.129411
000360 3a 26 2f be b0 82 01 ba a1 68 1a be b4 55 28 be
       -0.17104426 -0.00049404334 -0.15078975 -0.16438943
000370 f6 a5 0a be 0e d7 ba 3d f8 6d 6a bb 90 7b 01 be
       -0.13539872 0.0912305 -0.0035771113 -0.12644792
000380 c6 aa 55 3c 52 d8 00 be d0 76 1c bc 7a 4c 90 3c
       0.013041204 -0.1258252 -0.0095498115 0.017614592
000390 f9 b3 79 bd 4f 68 0d 3e 95 75 9e bc 90 e7 6e 3c
       -0.06096265 0.13809322 -0.019343177 0.014581576
0003a0 dd 9d 96 3b 28 6e 9d 3d e7 74 23 3e 8c b9 40 3c
       0.0045964555 0.07687026 0.15962563 0.011762988
0003b0 c4 47 95 bd 41 97 8f bd 67 b0 2c be 47 1d 0e 3d
       -0.07289079 -0.07011271 -0.16864167 0.03469589
0003c0 cb 06 ec 3c b4 ff 94 3d f2 a9 23 be 7c 21 59 3d
       0.028811833 0.07275334 -0.15982798 0.05301045
0003d0 fb 70 09 be 68 26 ce bd f0 72 64 bd ca f4 57 3d
       -0.13422005 -0.10065919 -0.055773675 0.052723683
0003e0 48 c3 fa bc 7b 45 e0 3d ec 11 a0 3c ba a2 2d 3d
       -0.030610695 0.10950752 0.019539796 0.042391516
0003f0 02 bc d5 bd f5 5c fb 3c cc c5 05 bd 41 fe 2f be
       -0.1043625 0.030683974 -0.032659337 -0.17186834

h2.bias f4 [16]
000000 ac 14 e1 bd 36 1d 7b 3e e0 03 45 3e fa 17 4f 3e
       -0.10990271 0.24522862 0.1923976 0.2022399
000010 52 d8 f3 bb 92 a4 b7 3d 36 e3 94 bd 83 b1 22 bd
       -0.007441559 0.08966936 -0.072698995 -0.03972007
000020 35 10 c8 bc 7c dc 36 bb f4 4e 38 be e2 d4 2e 3e
       -0.02442179 -0.0027902415 -0.17998868 0.17073396
000030 97 bd c0 3d 6b c3 83 3d 79 75 81 3c 39 91 34 3d
       0.094111614 0.064337574 0.015803086 0.044083808

h3.weight f4 [8, 16]
000000 36 ae 50 3e 7c 62 d3 3c 43 23 ed 3c 5d 69 c6 bd
       0.20378956 0.025803797 0.028947478 -0.09688065
000010 6e 60 8a bd 74 1b f7 bd dd 7d 62 be c7 08 25 be
       -0.06756674 -0.12065783 -0.22118326 -0.1611663
000020 c5 4d 4f bd 85 84 7b 3e b6 a5 25 3e ff 9d c8 3d
       -0.050611276 0.24562271 0.16176495 0.0979576
000030 06 23 02 3e ea d4 af 3d 28 5e 37 3e 48 2a 84 bd
       0.12708673 0.08585532 0.17907012 -0.06453377
000040 de b6 b4 bd 79 64 aa bd 03 b0 04 be 9f 3f 85 3d
       -0.08823942 -0.08319945 -0.12957768 0.065062754
000050 ea 81 9c bd e6 da 9b 3d 82 77 0a 3e 72 9a 0f be
       -0.07641967 0.07610111 0.13522151 -0.1402376
000060 76 28 2c 3c 2f d6 70 3e 50 ce 10 3e c2 6a bf bd
       0.0105076935 0.23519205 0.14141202 -0.09346534
000070 0b ff 65 be 02 8b 45 3e c9 24 99 3e 07 7f 04 be
       -0.22460572 0.19291309 0.29910877 -0.12939082
000080 fd ae 29 be 4d 29 90 3e 63 26 38 3e 89 95 58 3e
       -0.16570659 0.2815651 0.17983393 0.21150793
000090 da fd 14 3e 0d 00 d5 3c 7a ad 9a bd 8f ca 59 3e
       0.14549962 0.026001 -0.07552619 0.21268676
0000a0 78 60 17 3d 5c e0 10 be 72 da 4f 3e c0 58 b5 35
       0.036957234 -0.14148086 0.20298174 1.351138e-06
0000b0 77 8d c1 3c c2 58 4b be 19 0c c8 bd b8 27 3c 3e
       0.023627026 -0.19858077 -0.097679324 0.18374527
0000c0 e8 f3 29 be cc 11 d0 3d 3b d7 86 3c 3b 90 b7 bd
       -0.16596949 0.101596445 0.016460052 -0.08963057
0000d0 de b8 fd bd 33 d0 9f be 3e 9a 8c 3d 7e d4 6c 3e
       -0.12388776 -0.3121353 0.06865357 0.23127934
0000e0 d3 59 18 3e 24 69 22 3e e7 4c 36 be 95 c5 5f be
       0.14878015 0.1586042 -0.17802773 -0.21852715
0000f0 8d 5e 0d 3e 62 7c dd bd 3a 86 19 be 5b 44 24 be
       0.138056 -0.1081474 -0.1499261 -0.160417
000100 cd 57 8b 3e 15 34 89 be 89 85 31 3e ff 6d ae 3d
       0.27215424 -0.26797548 0.17336096 0.08517074
000110 87 57 16 be df ed 41 3e 29 9c 2a be 12 c6 65 3e
       -0.14681827 0.18938397 -0.16661133 0.22438839
000120 bb fc 9f bd 8f 2e 97 3e 4b 44 cf 3d 8c ed f1 3d
       -0.078118764 0.2952771 0.10120448 0.118128866
000130 0e cb 71 3e c4 20 e2 bd e6 6d 69 3e db 94 3b be
       0.23612615 -0.11041406 0.22795829 -0.18318503
000140 60 ed 08 bd e8 d1 85 be fb 43 cf 3b 3c ba e4 bd
       -0.033429503 -0.26136708 0.0063252426 -0.11168334
000150 d6 1f 11 3e 72 a2 a5 bd 68 d1 6c be e9 56 05 3e
       0.141723 -0.080876246 -0.23126757 0.13021435
000160 96 c5 c7 3d 2d 91 63 3e 64 b5 4b 3e 09 14 60 3d
       0.097544834 0.22223349 0.19893414 0.054706607
000170 55 f1 85 be 7f 6f 96 bd c2 09 c2 bd 90 07 a8 bd
       -0.26160684 -0.07345485 -0.094745174 -0.082045674
000180 d5 25 d6 bd d2 49 b1 3e a5 1c 4d 3e ae 64 3a 3e
       -0.10456435 0.34626633 0.20030458 0.18202469
000190 15 dc 64 3e 5d ec 31 3e 2a 69 82 3c 1a a1 6c bc
       0.2234958 0.17375322 0.015919287 -0.0144427065
0001a0 3b 91 56 be 92 99 20 be 39 eb 55 be 18 e1 cc 3e
       -0.20953839 -0.15683582 -0.20890512 0.40015483
0001b0 80 bb 5e 3d 2d cd 2e bd 4f 6e 2d 3e d7 62 53 3e
       0.054378033 -0.04267614 0.1693661 0.20643173
0001c0 18 9a 45 3c 4b ad 07 3e 26 15 8a bd 8e 46 83 be
       0.012060665 0.132497 -0.06742315 -0.25639766
0001d0 7a b1 2d be 99 c0 ee bd c0 e3 92 be 57 e2 e7 bd
       -0.16962233 -0.11657829 -0.28689384 -0.11322468
0001e0 8d f8 da 3c 75 e0 c1 3d d8 96 5d be e4 b8 83 be
       0.026729846 0.0946664 -0.21639574 -0.25726998
0001f0 07 dc 79 be 3d e6 12 be 32 1e 89 be b0 f0 db bb
       -0.2440034 -0.14345641 -0.2678085 -0.006712042

h3.bias f4 [8]
000000 93 2f b0 bd dc 7f 7a 3e d1 38 9d 3e f2 2c 97 bd
       -0.08602824 0.24462837 0.3070741 -0.073816195
000010 e4 08 c0 bd b8 a5 2e 3e 9c 9d 2b be 5f d4 e1 bd
       -0.09376696 0.17055404 -0.16759342 -0.11026835

h4.weight f4 [1, 8]
000000 9c c1 bd 3e f4 f8 9b 3e 9b 8e 85 be 06 c6 69 3e
       0.37061775 0.30463374 -0.26085362 0.22829446
000010 21 4a ce 3e 89 87 1a 3e d9 da de be 3d d4 91 3e
       0.4029093 0.15090765 -0.43526343 0.28482237
