src/models/saved_models/best_model_lr0.001_roc_auc0.9263860994242408.pt (torch, 23957 bytes, 9 tensors)

input.weight f4 [64, 30]
0	0xbe1207c0	-0.14260769
1	0x3e61ca8e	0.22049925
2	0xbc8eff33	-0.017455673
3	0x3c63cf20	0.013904363
4	0xbd1f1daf	-0.038846668
5	0xbc5205fc	-0.01281881
6	0xbe2e7762	-0.17037728
7	0xbe0a6d7e	-0.1351833
8	0x3e86214d	0.2619728
9	0xbdf282b7	-0.11841338
10	0x3e9cf120	0.30652714
11	0xbc85131f	-0.01624447
12	0xbd95c10e	-0.07312213
13	0xbd0e6379	-0.034762833
14	0x3e596f15	0.2123378
15	0x3e0dd899	0.13852157
16	0xbdb62e70	-0.08895576
17	0x3ce0701e	0.027397212
18	0x3dcef4e8	0.10105306
19	0x3dfd27e2	0.12361123
20	0x3c884343	0.016633635
21	0xbd95c8ef	-0.07313716
22	0xbe4c0228	-0.19922698
23	0xbde7366b	-0.11289676
24	0x3e8e6191	0.27808812
25	0xbe354111	-0.17700602
26	0x3daa47d9	0.08314485
27	0xbd17e670	-0.037084997
28	0xbe63e80f	-0.22256492
29	0x3d1a45ae	0.037664108
30	0x3e24c373	0.16090183
31	0x3eb78213	0.35841426
32	0xbe093925	-0.13400705
33	0x3e3ee382	0.18641475
34	0xbd353681	-0.044241432
35	0x3dc68ee0	0.0969522
36	0x3e01bb32	0.12669066
37	0xbd9036a7	-0.07041674
38	0xbd0c0b22	-0.034190305
39	0xbd85e6c3	-0.06538155
40	0x3c18c1d3	0.009323555
41	0xbe0b5899	-0.13608016
42	0x3e6d3e5c	0.2316832
43	0x3e993df6	0.29930085
44	0xbd84282e	-0.06452976
45	0xbdbbcdeb	-0.09170135
46	0x3e10dd48	0.14146912
47	0xbd8ddadd	-0.069265105
48	0xbcf8d00d	-0.030372644
49	0xbd6024ab	-0.05472247
50	0x3df2ff0a	0.11865051
51	0xbc15073c	-0.009095963
52	0x3de2020b	0.11035546
53	0x3deead89	0.11654193
54	0xbd54d798	-0.05196342
55	0xbbde9261	-0.006792352
56	0x3d2ec200	0.04266548
57	0xbe1680dc	-0.14697593
58	0xbe01fc42	-0.12693885
59	0xbd33ba1f	-0.04387867
60	0x3db8040f	0.08985149
61	0x3efb2b2e	0.4905638
62	0x3c1e2c6d	0.009654147
63	0xbe3cec92	-0.1844962
64	0xbd168407	-0.036747005
65	0x3cb77f3d	0.02239954
66	0xbe3e89c8	-0.18607247
67	0xbcbf8e21	-0.023383202
68	0x3ed10bc1	0.4082928
69	0xbd1d653f	-0.038426634
70	0x3e4a7590	0.19771409
71	0xbd4eb197	-0.05046233
72	0x3e02c136	0.12769017
73	0xbdf9d0e2	-0.12198044
74	0x3e2d38d0	0.16916203
75	0x3ea53a5a	0.3227108
76	0xbdb0454e	-0.08606969
77	0x3e003ad2	0.12522438
78	0xbd74e008	-0.059783965
79	0xbe12fce9	-0.1435429
80	0x3dfc9f40	0.12335062
81	0xbd33b1d0	-0.043870747
82	0xbe70bb16	-0.23508868
83	0x3c047236	0.008083871
84	0xbcfbd4bf	-0.030741094
85	0xbe777db0	-0.2416904
86	0x3e38ced1	0.18047644
87	0x3dad9cba	0.08477159
88	0xbe4a907a	-0.19781676
89	0xbce87812	-0.028377566
90	0xbea0e6e1	-0.31426147
91	0x3e05668e	0.13027403
92	0x3d88207c	0.06646821
93	0xbe0511e6	-0.12995109
94	0x3ec423a3	0.3830844
95	0x3d28edf4	0.041242555
96	0xbda06245	-0.078312434
97	0xbdb5fb5d	-0.08885834
98	0xbe1f9d90	-0.15587449
99	0x3d112021	0.03543103
100	0xbea42aba	-0.32063848
101	0x3c0c8731	0.008577154
102	0xbe7ffa66	-0.24997863
103	0x3ce2ee65	0.027701566
104	0xbecf8d86	-0.4053766
105	0xbde6aa9a	-0.112630084
106	0x3d7e74fd	0.062123287
107	0x3d842aeb	0.064534985
108	0xbe10bcc9	-0.14134516
109	0x3dfb1653	0.122601174
110	0xbecfa8e8	-0.40558553
111	0x3b770ef9	0.0037698133
112	0x3e9f3217	0.31092903
113	0xbde8e899	-0.113724895
114	0xbeb67e02	-0.3564301
115	0x3d08855f	0.033330318
116	0xbc845131	-0.016151996
117	0x3dbd281f	0.09236168
118	0x3dba5dfd	0.09099958
119	0x3cd877fd	0.026424402
120	0x3d77df17	0.06051549
121	0xbda9f5ac	-0.08298811
122	0xbc77e9d1	-0.01513143
123	0xbd3175eb	-0.043325346
124	0x3d680f96	0.05665549
125	0xbe2c97f6	-0.16854843
126	0xbd3199a6	-0.04335942
127	0x3e4f7d28	0.20262587
128	0xbbbfced0	-0.0058535114
129	0xbdb9bb12	-0.09068884
130	0x3da04d90	0.07827294
131	0x3dea1880	0.11430454
132	0x3e152e15	0.1456836
133	0xbd50a080	-0.050934315
134	0xbd6bd216	-0.0575734
135	0x3eaa1442	0.3321858
136	0xbc2775e7	-0.010220981
137	0xbd2c99bf	-0.04213881
138	0x3df6cce0	0.120507956
139	0x3dfba260	0.1228683
140	0x3e54bba3	0.20774703
141	0x3ce4d4f8	0.027933583
142	0xbe095647	-0.13411818
143	0x3ead436c	0.338405
144	0xbb22ad9d	-0.002482272
145	0x3df9a8f1	0.12190426
146	0xbde5c241	-0.112186916
147	0x3cde9db0	0.0271748
148	0x3e020f69	0.12701191
149	0x3d48c007	0.049011257
150	0x3e41d5d0	0.18929219
151	0xbcafa8ed	-0.021442855
152	0x3e988348	0.2978766
153	0xbe784ab8	-0.24247253
154	0xbf0e00b3	-0.55469817
155	0x3e7759fb	0.24155419
156	0x3bb33583	0.0054690256
157	0x3e2407f8	0.16018665
158	0x3e40bc68	0.18821871
159	0x3e31c03f	0.17358492
160	0xbd30ab5a	-0.043132164
161	0xbdd28da8	-0.10280925
162	0xbe04e96f	-0.12979673
163	0xbdaba481	-0.08380986
164	0x3eb7080c	0.35748327
165	0xbe3b943d	-0.18318267
166	0x3d6b5a76	0.057459317
167	0x3dfc354e	0.123148546
168	0x3db920bd	0.090394475
169	0x3df382bb	0.11890169
170	0xbbcff70f	-0.0063465904
171	0xbad2d478	-0.0016085049
172	0xbd9e0b8d	-0.07717047
173	0xbd166db7	-0.036725726
174	0x3eb20cc6	0.3477537
175	0x3dc40312	0.09570898
176	0x3e813619	0.25236586
177	0x3d8b8f25	0.06814412
178	0xbdfe647b	-0.12421509
179	0xbe1070e2	-0.14105561
180	0xbdb474b6	-0.08811323
181	0x3e1f6b87	0.15568362
182	0x3c7e22b2	0.015511202
183	0xbd5bf4ea	-0.053700365
184	0xbe4d6013	-0.2005618
185	0x3d3918f4	0.045189813
186	0xbe39853a	-0.18117228
187	0x3d00e269	0.03146592
188	0x3e25f174	0.16205388
189	0xbd245c4b	-0.04012708
190	0x3e46e8d3	0.19424753
191	0xbe9523c2	-0.29128844
192	0x3d95d581	0.07316113
193	0xbe5619a0	-0.20908213
194	0x3ea515c2	0.32243162
195	0xbe7f16d9	-0.2491106
196	0xbe294d27	-0.16533338
197	0x3d848360	0.0647037
198	0xbe55f88e	-0.20895597
199	0x3e4f123c	0.202218
200	0x3e277e04	0.16356665
201	0x3d4ca96a	0.049966253
202	0x3d57db4e	0.05269938
203	0x3d9e90c3	0.07742455
204	0xbe152940	-0.14566517
205	0xbb957f58	-0.0045622997
206	0xbea273d6	-0.31729
207	0xbdb255b5	-0.087077536
208	0xbd80320d	-0.062595464
209	0xbe9745d3	-0.2954546
210	0xbd6af0a6	-0.057358406
211	0x3d4b9218	0.049699873
212	0x3dcab20c	0.09897241
213	0xbdacdc57	-0.08440464
214	0xbc657ff6	-0.014007559
215	0xbd2be59b	-0.041967016
216	0x3e64e8e3	0.22354464
217	0x3e33fdc7	0.17577277
218	0xbda206f6	-0.07911484
219	0x3e9cb616	0.3060767
220	0xbd9c8fde	-0.07644628
221	0x3e4278bb	0.18991368
222	0x3ee8da70	0.45479155
223	0xbd060bca	-0.032726087
224	0x3e3cd07a	0.18438902
225	0x3e40e348	0.18836701
226	0x3ddae820	0.106888056
227	0xbc5031d3	-0.0127071915
228	0x3c9e3d86	0.019316446
229	0xbe2035fb	-0.15645592
230	0xbe41a70a	-0.18911377
231	0x3c817b07	0.015805734
232	0x3e09add6	0.1344522
233	0xbd45057f	-0.048100945
234	0x3d5adfb9	0.053436015
235	0xbe23edaf	-0.16008638
236	0xbcb27227	-0.021782948
237	0xbe40a81b	-0.18814127
238	0xbe3a015e	-0.18164584
239	0x3dbec81d	0.09315512
240	0x3e2f961c	0.17147106
241	0x3e39d971	0.18149354
242	0xbe800799	-0.25005797
243	0x3e188a10	0.14896417
244	0xbe869018	-0.2628181
245	0xbdc6ba1c	-0.09703466
246	0x3e08901a	0.1333622
247	0xbe93461c	-0.28764427
248	0xbd016ac3	-0.031595957
249	0x3daa2e0e	0.083095655
250	0x3e57b12b	0.21063678
251	0xbe47c8ad	-0.19510145
252	0xbe09b67b	-0.13448517
253	0x3e4beb13	0.19913892
254	0x3e5c5566	0.21516952
255	0xbe11cb2f	-0.14237665

input.bias f4 [64]
0	0x3bff34d1	0.0077882786
1	0x3dad1788	0.08451754
2	0x3e2ebe10	0.1706469
3	0x3e573ffb	0.210205
4	0xbd2be695	-0.041967947
5	0x3c781c1d	0.0151434215
6	0x3e2f1d56	0.17101035
7	0xbc8f3938	-0.017483339
8	0x3d27b247	0.040941503
9	0x3e834e4d	0.25645676
10	0xbdfc3411	-0.123146184
11	0x3e5264fe	0.20546338
12	0xbdf0cbf5	-0.11757652
13	0x3d9af4ce	0.07566224
14	0x3dc2d138	0.095125616
15	0xbde81927	-0.113329224
16	0xbda8318c	-0.08212575
17	0xbe0a7a5b	-0.13523237
18	0xbc48b8b9	-0.012251073
19	0x3eda1f34	0.4260193
20	0x3ea29994	0.31757796
21	0x3da20aab	0.07912191
22	0x3e379c74	0.17930776
23	0x3afd36bb	0.0019318679
24	0xbe0e15e5	-0.1387554
25	0x3de252be	0.11050938
26	0x3e086474	0.1331957
27	0x3d4f0d51	0.05054981
28	0xbe78723d	-0.24262328
29	0x3ea1e3ef	0.31619212
30	0xbcdf757e	-0.027277704
31	0x3c6f49ac	0.014604967
32	0x3e04decc	0.12975615
33	0x3dd575ce	0.1042286
34	0xbdbcb210	-0.0921365
35	0x3f134496	0.5752653
36	0xbcd035f6	-0.025416356
37	0x3d336653	0.043798756
38	0x3e8baf76	0.27282304
39	0x3d743b06	0.0596266
40	0xbe235800	-0.15951538
41	0x3e5b7005	0.21429451
42	0xbdd4f864	-0.10398939
43	0x3d8c059b	0.06837007
44	0xbeb2641c	-0.34842002
45	0x3f0aa716	0.541612
46	0x3e850553	0.25980625
47	0xbdf6357f	-0.12021922
48	0x3e1b3ca2	0.15159848
49	0x3ea38295	0.31935564
50	0x3e85931b	0.26088795
51	0x3e439a7d	0.19101901
52	0x3df2ad4d	0.11849461
53	0xbddd99f9	-0.108203836
54	0x3e6408fa	0.2226905
55	0xbde28c3c	-0.11061904
56	0x3eda4672	0.4263187
57	0x3e1ce6c1	0.153224
58	0x3e1c66b7	0.15273558
59	0x3e8e6029	0.2780774
60	0xbe1023e1	-0.14076187
61	0x3d31ad4d	0.043378163
62	0xbe6b11b2	-0.22955969
63	0x3d88b231	0.06674612

h1.weight f4 [32, 64]
0	0xbde67301	-0.11252404
1	0x3f05f58b	0.52327794
2	0x3e2e0709	0.16994871
3	0x3e416a34	0.1888817
4	0xbe0c528d	-0.13703366
5	0x3e87c95b	0.2652081
6	0x3f1ee9a7	0.62075275
7	0xbd49bc78	-0.049252003
8	0x3e7e3199	0.24823608
9	0x3e04f731	0.12984921
10	0x3e72aa15	0.23697694
11	0xbdc0e2a3	-0.094182275
12	0x3c9b5ad2	0.018964205
13	0x3e9ffea7	0.31248972
14	0x3e97bffb	0.29638657
15	0x3d126943	0.035744917
16	0x3db0a285	0.08624748
17	0xbd140e4a	-0.03614644
18	0x3e2c3a07	0.1681901
19	0x3d6f4292	0.058413096
20	0x3e4fc225	0.20288904
21	0xbe4613cb	-0.19343488
22	0x3e6d2e9c	0.23162311
23	0x3ff2396c	1.8923774
24	0x3de68f9e	0.112578616
25	0x3eed3980	0.46332932
26	0xbd5c94f6	-0.053852998
27	0x3fa02017	1.2509793
28	0x3f0873b3	0.53301543
29	0xbe4f3278	-0.20234096
30	0x3e371977	0.17880808
31	0x3e1a28e0	0.15054655
32	0x3e4cd0fa	0.20001593
33	0x3db7f250	0.08981764
34	0xbd70f9b2	-0.058831878
35	0xbe184ba6	-0.14872608
36	0xbcd514a0	-0.026010811
37	0xbe03237b	-0.12806503
38	0x3f15f800	0.5858154
39	0x3ea2487e	0.31695932
40	0x3d6cef76	0.057845555
41	0x3e33f080	0.17572212
42	0x3f00c8b6	0.5030626
43	0x3dcce8e8	0.10005361
44	0x3cd27fc9	0.025695698
45	0x3e67d96e	0.22641537
46	0x3ebfe79c	0.3748139
47	0x3dce3cab	0.10070165
48	0x3e8b2c20	0.27182102
49	0xbe3296f4	-0.17440397
50	0x3d9ac2fd	0.07556722
51	0x3f252aa7	0.6451821
52	0x3f08c217	0.5342116
53	0x3e4e43e7	0.2014309
54	0x3da8169a	0.08207436
55	0x3eadb7e9	0.33929375
56	0x3de46290	0.11151612
57	0xbb198e45	-0.0023430747
58	0x3ee368d0	0.44415903
59	0x3db2970b	0.087202154
60	0x3c84c461	0.016206922
61	0x3dee7f71	0.11645401
62	0x3da327ca	0.079665735
63	0x3e8db189	0.2767451
64	0xbd46f8f5	-0.048577268
65	0xbdf247a3	-0.1183007
66	0x3d937a94	0.07201114
67	0xbe6a4175	-0.22876532
68	0xbe21c42e	-0.15797493
69	0x3e9b06c0	0.30278587
70	0x3edd3332	0.4320312
71	0xbc14c08d	-0.009079111
72	0x3ebf7cda	0.37399942
73	0x3ef3e3ce	0.4763474
74	0xbd963883	-0.073349975
75	0x3d85bbda	0.065299705
76	0xbd4898a6	-0.048973702
77	0x3de4c55d	0.111704566
78	0x3edffc31	0.43747094
79	0xbdc26929	-0.09492714
80	0x3c074b40	0.008257687
81	0xbcb79f66	-0.022414874
82	0x3e8923d9	0.26785162
83	0x3f0229a5	0.50844795
84	0x3efbdf8c	0.4919399
85	0xbd05493c	-0.032540545
86	0x3e7e5f89	0.24841131
87	0x3f0d39f0	0.5516653
88	0xbdb6f0f5	-0.08932678
89	0x3f14784e	0.5799607
90	0x3e84501f	0.25842378
91	0x3d553b83	0.052058708
92	0xbd67491f	-0.056466218
93	0xbed635b3	-0.41837844
94	0xbde01385	-0.10941223
95	0xbe81a351	-0.25319913
96	0x3ef5f583	0.48038873
97	0x3e5fb63e	0.21846864
98	0xbe20eadb	-0.1571459
99	0xbe7759b1	-0.24155308
100	0xbdf95fcb	-0.12176474
101	0xbe983048	-0.29724336
102	0x3ea42fe5	0.3206779
103	0x3c6fb4d0	0.014630511
104	0xbdac51a4	-0.08414009
105	0x3ea7fcf2	0.3281017
106	0xbda99138	-0.082796514
107	0x3e053be6	0.1301113
108	0xbcbc97a0	-0.02302152
109	0x3eeecc73	0.46640357
110	0x3ed35147	0.41272947
111	0x3e3c5424	0.18391472
112	0x3eb94783	0.36187372
113	0xbdafffe6	-0.08593731
114	0x3ed0a4d1	0.40750745
115	0x3e51772f	0.20455621
116	0x3f15ec5d	0.58563787
117	0x3dbf8728	0.09351951
118	0x3f648543	0.8926584
119	0x3e85bb29	0.26119354
120	0x3eedcbc6	0.4644453
121	0x3e157d4e	0.14598581
122	0x3eb7da9a	0.35908967
123	0x3e869172	0.2628284
124	0x3cebd655	0.028788725
125	0x3e7efa78	0.24900234
126	0xbd5d3a1d	-0.0540105
127	0x3e58683a	0.2113351
128	0x3e94372a	0.28948337
129	0xbe007ef8	-0.12548435
130	0x3e3a8a62	0.18216851
131	0xbd2abf8f	-0.04168659
132	0xbd85cf7d	-0.06533716
133	0x3e50310c	0.2033121
134	0x3e2d0372	0.16895846
135	0xbd3265e8	-0.043554217
136	0x3f1e5b0b	0.6185767
137	0x3e92b58b	0.2865413
138	0xbd2f4ca5	-0.042797703
139	0x3df5e406	0.12006383
140	0x3dedb33c	0.11606452
141	0x3e012e1b	0.12615244
142	0x3e3f17c7	0.18661414
143	0x3d095900	0.033532143
144	0x3d36463c	0.044500574
145	0x3d40b9ee	0.047052316
146	0xbd4a69ab	-0.04941718
147	0x3f608d3d	0.8771551
148	0x3f085d12	0.53267014
149	0x3cb34fc1	0.021888616
150	0x3e27ac7a	0.16374388
151	0x3efef8a2	0.49799067
152	0xbd07047f	-0.032963272
153	0x3eb0f49a	0.34561616
154	0x3edd1508	0.43180108
155	0x3eea9fd4	0.45825064
156	0x3df93ce6	0.121698186
157	0xbe54b13e	-0.20770738
158	0x3cb1f0d3	0.02172128
159	0xbdf58734	-0.119886786
160	0x3f0225c0	0.5083885
161	0x3e3dbe4c	0.18529624
162	0xbe3c2432	-0.18373182
163	0xbe690471	-0.227556
164	0x3e004da6	0.1252962
165	0xbe21775d	-0.1576819
166	0x3eb6abfe	0.35678095
167	0x3e8f74a7	0.28018686
168	0xbb035e19	-0.00200451
169	0x3e33c058	0.17553842
170	0xbd8f3bf5	-0.06993858
171	0x3e124310	0.14283395
172	0x3cf47e68	0.029845431
173	0x3e9a6314	0.30153716
174	0x3ea9dd02	0.33176428
175	0x3e81d63c	0.2535876
176	0x3f290a1e	0.6603106
177	0xbd6bb0c6	-0.05754163
178	0x3f0874b3	0.5330307
179	0x3e58c975	0.211706
180	0x3f0cb9c4	0.54970956
181	0x3e203077	0.15643488
182	0x3e73f446	0.23823652
183	0x3e104ebf	0.14092539
184	0x3ef71847	0.4826071
185	0x3e011690	0.12606263
186	0x3f42cd70	0.7609472
187	0x3e740e5a	0.238336
188	0xbdbd7290	-0.09250367
189	0x3dbc3c5c	0.091912
190	0x3db9765a	0.09055777
191	0x3f159b5c	0.58440185
192	0x3f18d83a	0.59704936
193	0x3ee71ecc	0.45140684
194	0x3f40c50d	0.75300676
195	0xbe0c29c3	-0.13687806
196	0x3ec4ea9f	0.38460252
197	0x3e067133	0.1312912
198	0x3e2de853	0.16983156
199	0x3ef457be	0.47723192
200	0x3d79f9ba	0.061029173
201	0x3e12fcf1	0.14354302
202	0x3d7525de	0.059850566
203	0x3e2db547	0.16963683
204	0x3f653285	0.8953021
205	0xbb8d1727	-0.0043057385
206	0x3f9c06ae	1.2189538
207	0x3f25d452	0.647771
208	0x3e615305	0.22004326
209	0x3e405672	0.18782976
210	0x3f296e9f	0.6618442
211	0x3f24893a	0.6427189
212	0x3f2aace4	0.6667006
213	0xbdaf22ae	-0.085515365
214	0x3fac9deb	1.3485693
215	0x3ebc7603	0.36808786
216	0x3b5c160c	0.0033582477
217	0x3f999d59	1.2001144
218	0x3f12ab3c	0.5729253
219	0x3f824612	1.0177634
220	0x3f2c0cf9	0.67207295
221	0xbe8f1b87	-0.2795069
222	0x3ddba661	0.10725094
223	0x3f325ec2	0.6967584
224	0x3f58e2af	0.8472089
225	0x3ff6bc35	1.9276186
226	0x3ec45383	0.38344964
227	0xbe44dc6a	-0.19224706
228	0x3e3777d4	0.17916805
229	0x3e98e05b	0.2985867
230	0x3e1f000f	0.15527366
231	0x3f262af0	0.6490927
232	0x3f3792a2	0.7170812
233	0x3f650255	0.89456683
234	0x3e057e36	0.13036427
235	0x3f279e61	0.6547604
236	0x3e050f53	0.12994127
237	0x3f039708	0.5140233
238	0x3fb5a204	1.4190068
239	0x3e6fd8be	0.23422524
240	0x3f371539	0.7151676
241	0xbe614190	-0.21997666
242	0x3f55cf76	0.83519685
243	0x3e97f203	0.29676828
244	0x3f5e6ece	0.86887825
245	0x3f158673	0.5840828
246	0x3e07ad9c	0.1324982
247	0x3f83c44c	1.029428
248	0x3eb5e14b	0.35523447
249	0x3e2897d4	0.16464168
250	0x3eb5ab7e	0.354824
251	0x3f310e06	0.69162023
252	0xbd7eba21	-0.062189225
253	0x3e6e7641	0.23287298
254	0x3c51029c	0.01275697
255	0x3f46c1bb	0.7763936

h1.bias f4 [32]
0	0xbe33bc6b	-0.17552345
1	0xbe8f7f9f	-0.28027055
2	0xbebd63e8	-0.36990285
3	0xbd41f091	-0.047348563
4	0x3ea3c3b1	0.31985238
5	0x3e181cec	0.14854783
6	0xbcf97acc	-0.030454062
7	0x3ea5e9b9	0.3240488
8	0xbe2e417e	-0.17017171
9	0xbe4f95a4	-0.20271927
10	0xbe8187ee	-0.2529902
11	0xbe83cdb9	-0.2574289
12	0xbe9a5de1	-0.3014975
13	0xbecefe46	-0.4042837
14	0xbee0ec87	-0.43930456
15	0xbbb82da8	-0.005620677
16	0xbe95ee00	-0.29283142
17	0x3d1921ea	0.03738586
18	0xbec0198e	-0.37519497
19	0xbea5e185	-0.3239862
20	0x3e8e1694	0.277516
21	0xbe21b7f4	-0.15792829
22	0x3e1e1b6f	0.15440153
23	0xbe6ae8ad	-0.22940321
24	0xbeb20f5c	-0.34777343
25	0x3e9dc4fa	0.30814344
26	0xbe613211	-0.21991755
27	0xbe85bdf5	-0.26121488
28	0xbe5b70c1	-0.21429731
29	0x3eb8a9f0	0.36067152
30	0xbee541d1	-0.44776776
31	0x3a4221bd	0.000740554

h2.weight f4 [16, 32]
0	0xbd450eab	-0.04810969
1	0x3e34b1e5	0.17645986
2	0xbcd1b9b9	-0.025601255
3	0x3b12d082	0.0022402112
4	0xbe860f17	-0.26183388
5	0xbe4c8e66	-0.19976196
6	0x3d827ec9	0.063718386
7	0xbe62270b	-0.22085206
8	0xbe54c65b	-0.20778792
9	0xbb2bebbb	-0.0026233036
10	0x3de3c94d	0.111223795
11	0xbcf69d79	-0.030104386
12	0x3d0b37d3	0.033988785
13	0xbd88cb1d	-0.06679366
14	0x3dc1c629	0.09461624
15	0xbdbe8001	-0.093017586
16	0x3dd56c58	0.104210556
17	0xbdf77610	-0.120830655
18	0x3defe32d	0.11713252
19	0xbe09fe8f	-0.13476013
20	0x3d361c95	0.04446085
21	0xbccb3a4e	-0.024808075
22	0xbe446c40	-0.19181919
23	0x3dc84e6d	0.097805835
24	0x3d0420fb	0.032258015
25	0xbdfab698	-0.12241858
26	0xbe0f250f	-0.1397898
27	0xbe389971	-0.18027283
28	0xbceb1d3f	-0.028700469
29	0xbdc976ff	-0.0983715
30	0xbd9e83a2	-0.07739951
31	0x3cf52617	0.02992539
32	0xbe3367cf	-0.17520069
33	0x3d882f2d	0.06649623
34	0xbcb946f0	-0.022616833
35	0xbd976999	-0.07393188
36	0x3d8d8353	0.06909814
37	0xbe02cd50	-0.12773633
38	0xbe205ad8	-0.15659654
39	0xbdbd1746	-0.09232955
40	0x3e65299a	0.22379151
41	0x3ea3621f	0.31910798
42	0xbd5f306d	-0.05448954
43	0x3e19f727	0.15035687
44	0xbb74c610	-0.00373495
45	0x3e6d9be5	0.23204
46	0xbdacdd27	-0.08440619
47	0x3d4709b6	0.048593245
48	0x3e8a122e	0.26966995
49	0xbe2f06a8	-0.17092383
50	0xbc70fba2	-0.014708431
51	0x3e199163	0.14996867
52	0xbdd4de9d	-0.103940226
53	0x3db13003	0.08651736
54	0x3db66e23	0.08907726
55	0x3dad7ee0	0.08471465
56	0xbe424b2d	-0.1897399
57	0x3d859776	0.065230295
58	0x3d473cb6	0.048641883
59	0x3e293c23	0.16526847
60	0xbe469b67	-0.19395219
61	0x3a8543d5	0.001016731
62	0xbd86519f	-0.06558537
63	0xbd806640	-0.06269503
64	0x3d0f7d67	0.035031702
65	0x3c024770	0.007951602
66	0x3e845c54	0.2585169
67	0xbe1eb0c7	-0.15497123
68	0xbdf36210	-0.11883938
69	0x3e6e99d4	0.23300868
70	0x3df0a210	0.11749661
71	0x3c42a6b9	0.01188057
72	0x3ef8dd94	0.4860655
73	0xbd1df1ca	-0.038560666
74	0x3dedeec8	0.116178095
75	0x3e89a326	0.26882285
76	0x3a241ff5	0.00062608655
77	0x3daa59b9	0.083178945
78	0x3e13dc97	0.14439617
79	0xbe131800	-0.14364624
80	0xbb3c827a	-0.0028764294
81	0xbd998085	-0.07495216
82	0x3e898765	0.2686111
83	0x3e5e7301	0.21723558
84	0x3e42afc4	0.19012362
85	0x3e896f10	0.26842546
86	0x3e385ce9	0.18004192
87	0xbb11967e	-0.0022214944
88	0xbc8316f8	-0.016002163
89	0x3d518997	0.051156607
90	0x3ef25fa7	0.47338602
91	0x3de6a5ba	0.112620786
92	0x3d060c92	0.03272683
93	0x3dbf2b86	0.09334473
94	0x3e703c01	0.2346039
95	0x3e6a1222	0.2285848
96	0x3e4e970c	0.20174807
97	0x3eeb7941	0.45990947
98	0x3ee2fee8	0.44335103
99	0x3eda24cd	0.42606202
100	0xbe5debd0	-0.21671987
101	0xbdf5196c	-0.119677395
102	0x3dd98ce5	0.106225766
103	0xbe8be35c	-0.273219
104	0x3eac01f9	0.33595255
105	0x3e56d8d0	0.20981145
106	0x3e9ea4ae	0.30985016
107	0x3edcd22d	0.431291
108	0x3e8f0e34	0.27940524
109	0x3eb9450a	0.36185485
110	0x3eb529ab	0.35383353
111	0x3cc2c396	0.023774903
112	0x3ef51299	0.4786575
113	0xbd865bd4	-0.065604836
114	0x3fa5d8fb	1.2956842
115	0x3eb197d6	0.34686154
116	0xbd81182a	-0.06303437
117	0x3e5c5c0e	0.21519491
118	0x3d1b8ae5	0.037974257
119	0x3e8e4603	0.2778779
120	0x3ed231c8	0.41053605
121	0xbd10e101	-0.03537083
122	0x3eb7a847	0.35870573
123	0x3e823b0d	0.25435677
124	0x3ea07c8e	0.31345028
125	0xbe2b3404	-0.16719061
126	0x3e540461	0.20704795
127	0x3d9e87fc	0.07740781
128	0x3dc7b758	0.09751767
129	0xbcc25cda	-0.023725916
130	0x3d33cb24	0.043894902
131	0xbc0238a1	-0.007948072
132	0xbd693a42	-0.056940325
133	0xbd37a1f1	-0.044832174
134	0xb99e5b42	-0.000302041
135	0xbd021180	-0.03175497
136	0xbdcf2d7c	-0.10116097
137	0x3dbd985e	0.09257577
138	0xbe7072d9	-0.23481311
139	0xbc1515dd	-0.009099451
140	0xbe32eb0c	-0.17472476
141	0x3e9dad10	0.307961
142	0xbe78752f	-0.24263452
143	0x3e17f645	0.14840038
144	0xbdb75cfe	-0.08953284
145	0xbe92a547	-0.28641722
146	0x3dbb13ba	0.09134622
147	0x3ea6ae63	0.32554922
148	0xbe450ec9	-0.19243921
149	0xbd170176	-0.036866628
150	0xbe577b29	-0.21043076
151	0xbdbbf223	-0.09177043
152	0x3d560b5e	0.052256934
153	0xbda4b895	-0.08043019
154	0xbd2307db	-0.039802413
155	0x3d13cccf	0.036083993
156	0xbd35c42e	-0.044376545
157	0x3d09cd01	0.033642773
158	0xbdf4a575	-0.11945621
159	0xbe28f418	-0.16499364
160	0x3e68394e	0.2267811
161	0x3e53f799	0.2069992
162	0x3da2782a	0.07933076
163	0x3ea96776	0.33086747
164	0xbe0bda0d	-0.13657399
165	0xbe6d56d5	-0.23177655
166	0x3d060f26	0.03272929
167	0xbdc81398	-0.09769362
168	0xbe0751a0	-0.13214731
169	0xbe20ca9e	-0.15702292
170	0x3e66d0cf	0.22540592
171	0x3ee1ed72	0.4412647
172	0x3ea4b05a	0.32165796
173	0x3f1ea308	0.61967516
174	0xbccf58f4	-0.02531097
175	0x3d878554	0.06617227
176	0x3e806e44	0.25084126
177	0xbd24ab6c	-0.040202543
178	0x3ea8b5a5	0.32951084
179	0x3dceb257	0.100926094
180	0xbd80da77	-0.06291669
181	0x3ecbe68c	0.3982433
182	0xbe8cfd2b	-0.27536902
183	0xbd4dca54	-0.050241783
184	0x3e0c98df	0.1373019
185	0xbe19611e	-0.14978454
186	0x3e6e58d5	0.23276074
187	0xbd9de7c7	-0.07710224
188	0x3e1629fe	0.14664456
189	0x3d8dcbb6	0.069236204
190	0x3e2b079a	0.16702119
191	0xbe628adf	-0.22123288
192	0xbe02741b	-0.12739603
193	0xbe190d92	-0.14946583
194	0xbe04f603	-0.12984471
195	0xbdeb7f8b	-0.11498936
196	0xbe8e08c3	-0.2774106
197	0xbbd04c07	-0.0063567194
198	0xbe21be6d	-0.15795298
199	0xbdee33c0	-0.11630964
200	0xbd97224a	-0.07379587
201	0xbbd74fa8	-0.006570775
202	0x3ecec40d	0.4038395
203	0xbd3dd688	-0.04634717
204	0xbc592fd7	-0.013256035
205	0x3e17b3b0	0.14814639
206	0x3e391996	0.18076167
207	0xbe36e1d3	-0.17859583
208	0xbd4f46a4	-0.050604478
209	0x3d1f65b5	0.038915355
210	0x3c9f28bf	0.019428609
211	0x3d94786f	0.072495334
212	0xbe238081	-0.15966989
213	0xbe897e1c	-0.26854026
214	0xbe1380af	-0.14404558
215	0x3e0525f9	0.13002767
216	0xbd55f34f	-0.05223399
217	0xbe4eadc3	-0.20183472
218	0xbdb64008	-0.08898932
219	0xbe01eff2	-0.12689188
220	0x3d506b16	0.050883375
221	0xbe785c2a	-0.24253908
222	0x3d19ee59	0.03758082
223	0x3ca8107f	0.020515678
224	0x3de9b0ff	0.114107125
225	0x3f2bb1de	0.6706828
226	0x3f11dc97	0.5697722
227	0x3e807ef3	0.25096855
228	0xbe9c22cf	-0.30495307
229	0x3b98b4d4	0.0046602283
230	0xbd094fcf	-0.033523377
231	0x3e61a12d	0.2203414
232	0x3ee03b8c	0.4379543
233	0x3ea37cb4	0.31931078
234	0x3f1de486	0.61676824
235	0x3f2f1e15	0.68405277
236	0x3ec0647b	0.3757666
237	0x3ee684d2	0.4502321
238	0x3f1031af	0.5632581
239	0xbcee2867	-0.029072
240	0x3f3aba56	0.72940576
241	0xbe008eb0	-0.12554431
242	0x3f096e84	0.5368426
243	0x3f16101f	0.5861835
244	0xbddc542d	-0.10758243
245	0x3f045d0e	0.5170449
246	0xbe830762	-0.2559157
247	0x3ee33ae2	0.44380862
248	0x3ea3b76e	0.31975883
249	0xbe55437f	-0.20826529
250	0x3f4e030a	0.8047339
251	0x3f2b2a80	0.66861725
252	0x3f276f75	0.65404445
253	0xbd8dcd77	-0.06923955
254	0x3f19f817	0.6014418
255	0x3de4759e	0.11155246

h2.bias f4 [16]
0	0xbd019ceb	-0.03164379
1	0xbe7fd037	-0.24981771
2	0x3d45f5b7	0.048330035
3	0x3d339e1c	0.043851957
4	0xbea6c492	-0.32571846
5	0xbeaf0dc9	-0.34190205
6	0xbdb75c61	-0.08953167
7	0xbe24e23b	-0.16101925
8	0x3f01f3f9	0.507629
9	0x3ec777bb	0.38958535
10	0x3e658f96	0.22418055
11	0x3e0d4d4f	0.13799022
12	0x3e3227f0	0.17398047
13	0xbe9adb27	-0.30245325
14	0xbeaa71ec	-0.3329004
15	0xbe430a2f	-0.19046853

h3.weight f4 [8, 16]
0	0x3e103ee4	0.14086491
1	0x3d9f3ed8	0.07775658
2	0x3e11e17c	0.14246172
3	0x3efbf804	0.49212658
4	0x3c3bbd63	0.0114587275
5	0x3d50ec7e	0.051006787
6	0x3e4e1258	0.20124185
7	0x3f38e090	0.72217655
8	0xbe674fbb	-0.22589009
9	0xbe07bc77	-0.13255487
10	0x3e2b31c6	0.16718206
11	0x3db58e9b	0.088650905
12	0xbdebf4f3	-0.1152133
13	0xbdeb2963	-0.11482503
14	0x3e8db193	0.2767454
15	0x3eb4d026	0.35315055
16	0xbf1d5bad	-0.6146801
17	0xbee8618d	-0.45386925
18	0xbeb48562	-0.35258013
19	0x3c98c280	0.018647432
20	0xbf0cf132	-0.55055535
21	0xbe247cc6	-0.16063222
22	0xbeaa9f02	-0.33324438
23	0xbe78ba5c	-0.2428984
24	0x3d01d49a	0.031696893
25	0x3e54880a	0.2075502
26	0x3e119daf	0.14220308
27	0xbeab4fe2	-0.33459383
28	0xbf1a5563	-0.6028654
29	0xbdc9a9f7	-0.09846871
30	0xbf4ba2ec	-0.79545474
31	0xbe0273b3	-0.12739448
32	0xbe17aefb	-0.14812844
33	0xbe59f6bf	-0.21285532
34	0xbe9cd86a	-0.3063386
35	0xbeaf4152	-0.34229523
36	0xbcac9198	-0.021065518
37	0xbeb13c8a	-0.346165
38	0xbe5f17ea	-0.21786466
39	0xbe850ef6	-0.25987977
40	0x3eba6a4b	0.3640922
41	0x3e7366e6	0.23769721
42	0x3ea85307	0.32875845
43	0xbef44795	-0.47710863
44	0xbf03ccdf	-0.51484483
45	0xbbf15018	-0.0073642842
46	0xbed6ffb2	-0.41991955
47	0xbec55b11	-0.3854604
48	0xbe99ff93	-0.300778
49	0xbd56b680	-0.05242014
50	0xbe2b7530	-0.16743922
51	0xbd882828	-0.06648284
52	0xbe2174ca	-0.15767208
53	0xbda3bb96	-0.079947636
54	0xbde86c77	-0.11348813
55	0x3bce1978	0.006289657
56	0xbeba519f	-0.36390397
57	0xbe968778	-0.2940023
58	0x3e1b6d09	0.15178312
59	0x3e089980	0.13339806
60	0xbd065201	-0.03279305
61	0xbe7a18e0	-0.24423552
62	0xbdce31d2	-0.10068096
63	0x3e30d906	0.17270288
64	0xbd88b99a	-0.06676026
65	0x3d245260	0.04011762
66	0x3db2d408	0.08731848
67	0x3f308979	0.68959767
68	0xbc13f427	-0.009030378
69	0x3ea90b36	0.33016366
70	0x3da3260e	0.07966243
71	0x3f3f5036	0.7473177
72	0xbe9a307b	-0.30115113
73	0xbe1396d9	-0.14413013
74	0x3d8765dd	0.06611226
75	0xbdeb8d85	-0.11501602
76	0x3ce88bf2	0.028387044
77	0x3d956992	0.072955266
78	0x3d1176dc	0.035513744
79	0x3ecba59b	0.39774784
80	0xbe75c041	-0.2399912
81	0xbe705972	-0.2347162
82	0xbe8d0ccf	-0.27548835
83	0xbd085863	-0.033287417
84	0xbeb6cbad	-0.35702267
85	0xbe8f3c50	-0.27975702
86	0xbeb5a289	-0.35475567
87	0xbdcb8220	-0.09936929
88	0x3ec3b965	0.38227382
89	0x3ef21162	0.47278887
90	0x3e95608c	0.29175222
91	0xbdf57b44	-0.11986402
92	0xbe76c54e	-0.24098703
93	0xbd2945a2	-0.041326173
94	0xbf5ae8fb	-0.8551175
95	0x3e56d143	0.20978265
96	0x3cf445eb	0.029818496
97	0xbedadba5	-0.427457
98	0x3d0b3f12	0.033995695
99	0xbde0afeb	-0.10971054
100	0xbd926ca8	-0.07149631
101	0xbd39b773	-0.045340966
102	0xbe578823	-0.21048026
103	0xbc9b8d6b	-0.018988332
104	0xbe6cf532	-0.2314041
105	0x3da50069	0.08056719
106	0x3dc66553	0.09687295
107	0x3e0de9e2	0.1385875
108	0x3dd0cfae	0.10195862
109	0xbea35b56	-0.3190562
110	0xbe779732	-0.2417877
111	0xbe6e3970	-0.23264098
112	0x3d9b6d36	0.0758919
113	0xbca94750	-0.020663887
114	0x3e83d68a	0.25749618
115	0x3eee4c20	0.46542454
116	0x3dee0f04	0.11623958
117	0x3e425f89	0.18981756
118	0xbdb6ec3b	-0.08931776
119	0x3ebdf81f	0.37103364
120	0xbeb337e8	-0.3500359
121	0xbe85decf	-0.26146552
122	0x3d264a9c	0.040598497
123	0xbe7b297c	-0.24527544
124	0xbdfc87aa	-0.12330563
125	0x3d77108a	0.060318507
126	0xbd25eab9	-0.040507052
127	0x3d69c9ac	0.057077095

h3.bias f4 [8]
0	0xbdb6920e	-0.089145765
1	0x3ee4fa32	0.44722134
2	0x3ee98106	0.4560625
3	0x3d2b95ef	0.041891035
4	0xbe11493f	-0.14188097
5	0x3eda10b5	0.4259087
6	0xbddb22d3	-0.107000016
7	0xbea45305	-0.3209459

h4.weight f4 [1, 8]
0	0xbd1d4ec5	-0.0384052
1	0x3e7b84b6	0.24562344
2	0x3e6eaad8	0.23307359
3	0x3e83b07d	0.25720587
4	0xbd1dd9f9	-0.038537953
5	0x3e900a0a	0.2813266
6	0x3e518899	0.20462264
7	0xbc9e8b4d	-0.019353533
