src/models/saved_models/best_model_lr0.0001_roc_auc0.9021435784779492.pt (torch, 23973 bytes, 9 tensors)

input.weight f4 [64, 30]
0	0x3cd602c2	0.026124362
1	0x3dee5767	0.116377644
2	0x3e1ef47c	0.15522951
3	0xbda8b3c3	-0.08237412
4	0x3e019c45	0.12657268
5	0x3db17c33	0.08666267
6	0xbdae5939	-0.085131116
7	0x3e3888a6	0.18020877
8	0xbe1f73a6	-0.1557146
9	0xbd1e7e27	-0.038694527
10	0x3e294593	0.16530447
11	0xbce2cc31	-0.027685257
12	0x3dad5418	0.08463305
13	0xbd4d0797	-0.050056066
14	0x3debf8b8	0.11522049
15	0x3d0aa2e6	0.03384676
16	0x3d087fc9	0.03332499
17	0x3c1f75fb	0.009732719
18	0x3e2e1cab	0.17003123
19	0xbd828781	-0.063735016
20	0x3ceb1e2a	0.028700907
21	0x3e43eb30	0.19132686
22	0x3df276ce	0.118390664
23	0xbe0b0a04	-0.1357804
24	0x3e54dffb	0.20788567
25	0xbd12165f	-0.035665866
26	0xbe0413c8	-0.12898171
27	0x3dbd15d9	0.09232683
28	0x3c805a37	0.015668018
29	0xbe39f2b5	-0.18158992
30	0xbde6b05b	-0.11264106
31	0xbdc3c25b	-0.09558555
32	0xbd170502	-0.03687001
33	0x3ccf497c	0.025303595
34	0x3e1303ac	0.1435687
35	0xbe0ab7b3	-0.13546638
36	0x3d8cb7eb	0.06871017
37	0x3dbbc073	0.09167566
38	0xbe2404dd	-0.1601748
39	0xbe38c84e	-0.1804516
40	0x3d1cae77	0.03825232
41	0x3d9bbf2a	0.07604821
42	0xbda25ec7	-0.079282336
43	0xbe0dabe7	-0.13835107
44	0xbe5c4db1	-0.21514012
45	0xbdb708b5	-0.089372076
46	0x3d94d890	0.072678685
47	0x3d8db404	0.06919101
48	0xbd8cf3f0	-0.06882465
49	0x3e078e03	0.13237767
50	0x3dd85918	0.10563868
51	0xbdd4096e	-0.10353361
52	0x3df7b398	0.12094802
53	0xbdbfc339	-0.09363408
54	0xbe040518	-0.12892568
55	0x3b8cae59	0.004293245
56	0xbdcf8a14	-0.10133758
57	0x3ccc151f	0.024912415
58	0x3ded851c	0.11597654
59	0xbdff8038	-0.12475628
60	0xbcc0422d	-0.023469055
61	0x3e169fec	0.14709443
62	0x3e0f306e	0.13983318
63	0x3e3c4430	0.18385386
64	0xbe1c616d	-0.1527154
65	0x3da51861	0.080612905
66	0xbddf97cf	-0.10917627
67	0xbdc2779a	-0.094954684
68	0xbd5454c2	-0.051838644
69	0x3cb8ddbf	0.022566674
70	0xbd879943	-0.06621029
71	0xbd5adefe	-0.05343532
72	0xbddda1f1	-0.108219035
73	0xbe2e57b1	-0.17025639
74	0xbd376960	-0.044778228
75	0x3e58f2d1	0.21186377
76	0x3e2bb253	0.16767244
77	0x3dc9237b	0.098212205
78	0x3e172020	0.14758348
79	0xbdce9d23	-0.10088565
80	0xbdd6dbbc	-0.1049113
81	0x3d9f921e	0.077915415
82	0x3dd4b646	0.103863284
83	0xbccdba12	-0.02511314
84	0xbddb0fd8	-0.10696381
85	0xbe150803	-0.14553837
86	0x3deadf49	0.114683695
87	0xbd352ac3	-0.044230234
88	0xbdd8bc41	-0.105827816
89	0x3d98018a	0.074221686
90	0x3d276789	0.040870223
91	0x3e248024	0.16064507
92	0xbcd367fe	-0.025806423
93	0xbe0927b9	-0.13394059
94	0xbe153d94	-0.14574271
95	0xbdb86ff0	-0.090057254
96	0x3d8afef9	0.067869134
97	0xbe241cbc	-0.16026586
98	0xbdbbf1cb	-0.09176978
99	0x3d1b44e1	0.037907485
100	0x3e67c19e	0.22632453
101	0xbdc118c5	-0.094285525
102	0xbdbbe517	-0.09174555
103	0xbd9019e6	-0.0703619
104	0x3d1705fe	0.03687095
105	0xbddf7791	-0.10911477
106	0x3e1f8128	0.15576613
107	0xbd8b8d6d	-0.06814084
108	0x3e1145e5	0.14186819
109	0xbdf5e936	-0.12007372
110	0xbc18f166	-0.009334898
111	0xbd28210d	-0.041047145
112	0xbe006949	-0.12540163
113	0x3cc045bc	0.023470752
114	0x3e2c2cdb	0.16813986
115	0x3da1de28	0.07903701
116	0xbe15e962	-0.1463981
117	0xbda37178	-0.07980627
118	0xbdc0dbc8	-0.0941692
119	0xbde4708a	-0.111542776
120	0x3da7ace4	0.08187273
121	0xbe1fba63	-0.15598445
122	0x3db54260	0.08850551
123	0x3d56e848	0.052467614
124	0x3c79b32f	0.015240475
125	0xbdba6b9d	-0.09102557
126	0xbd801048	-0.062531054
127	0x3dee0f13	0.11623969
128	0x3d4cc6a7	0.049994137
129	0x3e1a377b	0.15060227
130	0x3d261ead	0.0405566
131	0xbd205d16	-0.039151274
132	0x3d186fbf	0.037215944
133	0x3e032f7b	0.12811081
134	0x3cfb3c3f	0.030668376
135	0xbdcae013	-0.0990602
136	0x3e185342	0.1487551
137	0xbda53c0e	-0.08068095
138	0xbd3b695a	-0.045754768
139	0xbdf7d1bb	-0.1210055
140	0x3e10e4fb	0.14149849
141	0x3d74025b	0.05957256
142	0x3de2aca9	0.110680886
143	0x3d8ac13c	0.06775138
144	0x3e1c4a12	0.1526263
145	0x3d9d01e5	0.07666377
146	0xbe2ecfc8	-0.1707145
147	0x3e458f69	0.19292988
148	0xba9983de	-0.0011712273
149	0xbe1a3389	-0.15058722
150	0xbdc795ec	-0.09745392
151	0x3e168db1	0.14702488
152	0x3dbc8741	0.09205485
153	0x3c8a1d5b	0.0168597
154	0xbd72f60b	-0.059316676
155	0xbdd9c3de	-0.10633062
156	0x3d5c0703	0.053717624
157	0x3dd4e079	0.10394377
158	0x3d1f9004	0.038955703
159	0xbe24f484	-0.161089
160	0x3e3e3212	0.18573788
161	0xbdef7a62	-0.116932645
162	0x3d0a4f6f	0.03376716
163	0x3e1a2511	0.15053202
164	0xbd97739c	-0.073950976
165	0xbe02736c	-0.12739342
166	0xbe4e83c0	-0.20167446
167	0x3e01ab06	0.12662897
168	0x3d163e66	0.0366806
169	0x3de3db0e	0.11125766
170	0xbb0efff9	-0.0021820052
171	0xbe3081a9	-0.17236961
172	0xbe5d43e4	-0.2160793
173	0x3e14bceb	0.14525191
174	0xbe11e9cf	-0.14249347
175	0xbdf4f871	-0.11961449
176	0x3de784eb	0.11304649
177	0xbe17f503	-0.14839558
178	0xbda97bff	-0.082756035
179	0x3c10a3f9	0.008828157
180	0xbd0177a7	-0.03160825
181	0x3d727f33	0.059203338
182	0xbca7d106	-0.020485412
183	0xbdddfed7	-0.108396225
184	0x3e80594d	0.2506813
185	0xbd418018	-0.0472413
186	0xbcc305c8	-0.023806468
187	0xbe48ffcb	-0.19628827
188	0xbdf842d6	-0.12122123
189	0xbe08f441	-0.13374425
190	0x3aa2f5d9	0.0012432887
191	0xbd526473	-0.051365327
192	0x3c041093	0.008060592
193	0xbdab6f72	-0.08370866
194	0xbe4d185e	-0.20028827
195	0xbd868296	-0.06567876
196	0xbdacf88e	-0.084458455
197	0xbd89b7d4	-0.067245156
198	0x3cb0a5ab	0.021563372
199	0xbd3da377	-0.04629847
200	0xbe0447be	-0.12917992
201	0xbdd8c965	-0.10585288
202	0x3d8607e2	0.06544472
203	0xbe07fffa	-0.13281241
204	0xbe295816	-0.16537508
205	0x3df52c9f	0.119714014
206	0xbca6bb8c	-0.020353101
207	0x3be10b59	0.006867808
208	0x3d741775	0.059592683
209	0x3ce7fe0e	0.028319385
210	0xbda16276	-0.07880108
211	0xbde90dd9	-0.11379594
212	0x3e2b1ce6	0.16710243
213	0xbdc59295	-0.09647099
214	0xbe46f8c6	-0.19430837
215	0x3e19f05a	0.15033093
216	0x3e20e50b	0.15712373
217	0xbdfffeef	-0.124997966
218	0x3e4620f7	0.19348513
219	0x3cdf2b99	0.027242469
220	0x3cf23cf4	0.02957008
221	0x3df76544	0.12079862
222	0x3d7a8eb2	0.06117124
223	0xbde87917	-0.11351221
224	0x3e1d0f8e	0.15337965
225	0x3df58942	0.119890705
226	0xbd1dadc4	-0.038495794
227	0x3d6e994d	0.058251668
228	0x3db77cc4	0.08959344
229	0x3cb46249	0.022019522
230	0x3d885f8b	0.066588484
231	0xbd0bd657	-0.034139957
232	0xbe0c2454	-0.13685733
233	0xbc58faf9	-0.01324343
234	0xbe02d528	-0.12776625
235	0xbe52a7d4	-0.20571834
236	0xbd62d526	-0.055379055
237	0x3e02355d	0.12715669
238	0x3bded99f	0.006800845
239	0x3e1c108e	0.1524069
240	0xbd072a56	-0.03299936
241	0x3e13fb63	0.14451365
242	0xbdbd0d16	-0.092310116
243	0xbdd28304	-0.102788955
244	0x3ccc35c9	0.02492799
245	0xbe1474c2	-0.14497665
246	0x3d881478	0.06644529
247	0xbe216e99	-0.15764846
248	0x3c16b6b4	0.009198833
249	0x3d8468d3	0.06465306
250	0xbdf06235	-0.117374815
251	0x3dee9274	0.116490275
252	0x3d72513b	0.0591595
253	0xbe257cd8	-0.16160905
254	0xbe0c9eab	-0.13732402
255	0xbdc2b8ec	-0.09507927

input.bias f4 [64]
0	0x3b04820e	0.002021912
1	0x3e13d97e	0.14438435
2	0x3d18884f	0.03723937
3	0x3e1859c3	0.14877991
4	0x3e160bda	0.14652959
5	0x3e6e3176	0.23261055
6	0xbd7c6fa8	-0.06162992
7	0x3e8b4ab5	0.27205434
8	0x3df4a57b	0.119456254
9	0xbdffa659	-0.124829
10	0xbd21e581	-0.039525513
11	0x3da03a02	0.07823564
12	0x3ed141c3	0.40870485
13	0x3e6e7803	0.23287968
14	0xbcfc8b3e	-0.030828115
15	0x3e6d06ee	0.23147175
16	0x3e918026	0.28418082
17	0x39b2a0ff	0.00034070757
18	0x3cd83e32	0.026396845
19	0x3e099f96	0.13439783
20	0x3e72cf05	0.23711784
21	0x3d1fae1a	0.038984396
22	0x3dad38d9	0.084581085
23	0x3ea311b5	0.31849447
24	0x3e0e3007	0.13885508
25	0x3dd1e3d4	0.10248533
26	0x3e36aac4	0.1783858
27	0x3ee716b9	0.45134524
28	0x3ecf202d	0.40454236
29	0x3e401d38	0.18761146
30	0x3dd79ad8	0.10527581
31	0xba1c1620	-0.00059542246
32	0xbd976e5b	-0.073940955
33	0xbe27a42e	-0.16371223
34	0x3e80bf75	0.2514607
35	0x3c6f6076	0.0146104
36	0xbe13c3ca	-0.14430156
37	0x3cabeb0d	0.020986104
38	0x3e600485	0.21876724
39	0x3e15d45a	0.14631787
40	0x3dbda0cf	0.092591874
41	0x3e9b1726	0.30291098
42	0x3dedb6a6	0.11607103
43	0xbd048687	-0.032354858
44	0x3c1fe2cb	0.0097586615
45	0x3df5383e	0.11973618
46	0xbd31fe23	-0.043455254
47	0xbd1f0057	-0.038818683
48	0x3db5b9ca	0.08873327
49	0x3e713dc1	0.23558713
50	0x3caa8d53	0.020819342
51	0xbdf19f2d	-0.117979385
52	0x3e93ba84	0.28853238
53	0xbd70400d	-0.058654834
54	0xbe4d59a6	-0.2005373
55	0x3d94e7eb	0.07270797
56	0xbe18c7ab	-0.14919917
57	0x3dd3e478	0.10346311
58	0x3c6b5842	0.014364304
59	0xbabc785c	-0.0014379132
60	0x3d0f24f6	0.034947358
61	0xbbf2aa04	-0.0074055213
62	0x3d502ede	0.050825946
63	0x3db097fe	0.0862274

h1.weight f4 [32, 64]
0	0x3e4f3c79	0.20237912
1	0x3b47d746	0.0030493303
2	0x3c134b34	0.008990098
3	0x3e1bb845	0.15207012
4	0x3e40e463	0.18837123
5	0x3e0b6439	0.1361245
6	0xbdbc1c44	-0.09185079
7	0x3e898b8e	0.26864284
8	0xbdfdaee2	-0.12386872
9	0x3d68f2b8	0.0568721
10	0x3d910052	0.07080139
11	0x3d3ddc9a	0.04635296
12	0x3e9c8b2e	0.30574936
13	0x3e06c434	0.13160783
14	0x3de7570e	0.11295901
15	0xbc4ac3f4	-0.01237582
16	0x3e842e5a	0.25816613
17	0x3dfdcbf4	0.123924166
18	0x3deebfd6	0.116576836
19	0xbda24d8a	-0.07924946
20	0x3e52a79d	0.20571752
21	0x3ded20dd	0.11578534
22	0x3d61c2b9	0.055117343
23	0x3e2764fb	0.16347115
24	0x3e939e72	0.28831822
25	0xbd321d46	-0.04348495
26	0x3e4a3dc5	0.19750126
27	0x3e052bc3	0.13004975
28	0x3dfd9ea1	0.12383772
29	0xbd4cb3ee	-0.04997628
30	0xbd203fc3	-0.039123308
31	0x3d896783	0.067091964
32	0x3bb6e552	0.0055815363
33	0x3d68bcae	0.056820564
34	0xbd7f88ce	-0.062386326
35	0x3d35c890	0.044380724
36	0x3e046d0b	0.12932222
37	0x3dc1ba6e	0.09459387
38	0x3e256471	0.16151597
39	0x3a82ec25	0.000998859
40	0xbd8e4721	-0.069471605
41	0x3e16868b	0.14699762
42	0x3e1fd8d9	0.15610065
43	0xb92f03ee	-0.00016690764
44	0x3dc7fcb6	0.09764998
45	0x3e42bfaf	0.19018434
46	0xbcca3daa	-0.024687607
47	0x3e11afe1	0.14227249
48	0xbdb1a2a2	-0.08673598
49	0x3d34ef35	0.044173438
50	0x3dd5b541	0.10434962
51	0xbd44049d	-0.047855962
52	0xbccb2bc6	-0.024801146
53	0xbb8d0ce6	-0.004304516
54	0xbdd6b2dc	-0.104833335
55	0xbdac6582	-0.084177986
56	0x3db3d8d6	0.087815925
57	0x3d0cfde4	0.034421816
58	0x3db731a7	0.08945017
59	0x3dce79c5	0.100818194
60	0x3e332a1b	0.1749653
61	0x3ce9b3e1	0.028528156
62	0xbd8b0d92	-0.06789698
63	0xbda4ca04	-0.08046344
64	0xbd868b34	-0.0656952
65	0x3d85a3c0	0.065253735
66	0x3d7e3b8c	0.062068507
67	0x3c7d8122	0.015472682
68	0xbdfbad6d	-0.12288938
69	0xbd1abbbb	-0.03777669
70	0x3db8bae8	0.090200245
71	0x3c86da5d	0.016461546
72	0x3cddc730	0.027072519
73	0xbd1be878	-0.038063496
74	0x3da0b7a8	0.0784753
75	0x3db2b64e	0.08726178
76	0xbd389e9f	-0.045073148
77	0x3dea6603	0.114452384
78	0xbcf2e21d	-0.029648835
79	0xbda3d21c	-0.079990596
80	0xbc147413	-0.009060877
81	0x3db050a3	0.0860913
82	0x3e0da6ca	0.13833156
83	0x3e238c35	0.15971453
84	0xbd87283f	-0.06599473
85	0xbc596447	-0.013268537
86	0x3d87c59b	0.06629487
87	0x3dc8f220	0.09811807
88	0xbdef2187	-0.11676317
89	0x3de14120	0.1099875
90	0x3df5faee	0.12010752
91	0x3dcc71e7	0.09982663
92	0xbda7148d	-0.081582166
93	0x3d14b6f7	0.0363073
94	0x3dd6ba5c	0.10484764
95	0x3d528b4f	0.051402386
96	0x3da81f7f	0.082091324
97	0x3e08eada	0.13370839
98	0x3da9e5fb	0.082958184
99	0xbdf77f21	-0.12084795
100	0x3c050269	0.00811825
101	0x3d4ae010	0.04953009
102	0x3dde0d56	0.108423874
103	0x3c4eb614	0.012616653
104	0x3e209755	0.15682729
105	0x3d3ebdf3	0.04656787
106	0xbd0fbe15	-0.035093386
107	0x3e38be5b	0.18041365
108	0x3c900d09	0.01758434
109	0xbd5bd86b	-0.05367319
110	0x3d99bbdc	0.075065345
111	0x3e0fea07	0.14054118
112	0xbd8712f0	-0.06595409
113	0x3e1ec1d5	0.15503629
114	0x3d8a1b67	0.06743508
115	0x3de82aff	0.11336326
116	0x3de32a1f	0.11092018
117	0xbab14a03	-0.0013526086
118	0xbdc746c2	-0.09730293
119	0xbba82812	-0.00513173
120	0x3d841912	0.06450094
121	0xbd1c3cc9	-0.038143907
122	0xbc3a06f7	-0.0113542
123	0xbd68e7cd	-0.056861687
124	0x3d122f3d	0.03568958
125	0x3ceb301c	0.028709464
126	0xbd51d66d	-0.051229883
127	0x3dfe3ff8	0.12414545
128	0x3da20ff7	0.07913201
129	0x3dd2b27c	0.102879494
130	0x3e2d8c02	0.1694794
131	0x3d9d383d	0.07676742
132	0x3b9d8237	0.0048067826
133	0x3db964de	0.09052442
134	0x3c82c87b	0.015964737
135	0x3ddb2f75	0.10702411
136	0x3de73465	0.1128929
137	0xbda82596	-0.08210294
138	0x3d1b8d9c	0.037976846
139	0x3dbb8d18	0.09157771
140	0x3cca0719	0.024661588
141	0x3d8f5766	0.06999092
142	0xbde2efed	-0.110809185
143	0x3ded53d5	0.11588255
144	0xbcd51150	-0.026009232
145	0x3d0f17ca	0.034934796
146	0x3e234200	0.15943146
147	0xbd7b5134	-0.06135674
148	0x3ddfb02d	0.10922275
149	0xbd816c39	-0.0631947
150	0x3da1c577	0.078989916
151	0x3ddb6fa1	0.10714651
152	0xbe47dc00	-0.19517517
153	0x3d9dfab4	0.077138335
154	0xbd537fe6	-0.051635645
155	0x3d8706d6	0.06593101
156	0x3dc18696	0.09449498
157	0x3d6f5c27	0.058437493
158	0x3dcee50d	0.10102282
159	0x3c60c71f	0.013719349
160	0x3e335866	0.1751419
161	0x3c61eccd	0.013789368
162	0xbb1fccb6	-0.0024383492
163	0xbda3292b	-0.079668365
164	0x3c265a2b	0.010153334
165	0x3d994f46	0.07485823
166	0xbd59ec06	-0.053203605
167	0xbd400cf0	-0.04688734
168	0xbd56c700	-0.052435875
169	0xbdca8cfe	-0.098901734
170	0x3db4558c	0.08805379
171	0x3e371669	0.17879643
172	0x3e164d80	0.14678001
173	0x3da2422b	0.07922777
174	0x3d18f90c	0.037346885
175	0x3d82ad4e	0.063807115
176	0xbb1dfd58	-0.0024107303
177	0xbd8a3068	-0.06747514
178	0x3ccf7f47	0.025329245
179	0x3dfff28f	0.12497436
180	0x3e3f9f5c	0.18713135
181	0x3d7e1216	0.062028967
182	0x3d396ca0	0.04526961
183	0x3cfb93bf	0.0307101
184	0x3cd22586	0.025652658
185	0xbd0de3c7	-0.034641054
186	0xbd54a222	-0.051912434
187	0xbd86bdaf	-0.06579148
188	0xbcb155b7	-0.021647317
189	0x3cca66ef	0.024707286
190	0xbd657770	-0.056022108
191	0x3e3c2b1e	0.18375823
192	0x3d71ed36	0.059064113
193	0xbda55e03	-0.08074572
194	0xbda994ea	-0.08280356
195	0x3d326ff7	0.04356381
196	0x3c482417	0.012215636
197	0x3e1a2e5b	0.15056746
198	0x3dd3015a	0.10302992
199	0x3d43f4c1	0.047840837
200	0x3db7f89a	0.08982964
201	0xbda0195f	-0.07817339
202	0x3dc7ea26	0.09761457
203	0x3d172ca8	0.036907822
204	0x3e2e24cd	0.17006226
205	0x3e1f3cc9	0.15550531
206	0x3c0fa3f6	0.008767119
207	0x3e2127d4	0.1573785
208	0x3c9d4fdb	0.019203117
209	0x3e805ef8	0.25072455
210	0xbc62d11f	-0.013843804
211	0xbd18f4a3	-0.03734268
212	0xbd915f68	-0.070982754
213	0x3dd46daa	0.10372479
214	0xbd763d44	-0.06011702
215	0x3d9e0829	0.077164
216	0x3beb0a44	0.0071728546
217	0x3d46eb13	0.048564028
218	0x3de85216	0.11343782
219	0x3e17597e	0.14780232
220	0x3d8f650c	0.07001695
221	0x3d07fe9d	0.033201803
222	0xbd9761e4	-0.07391718
223	0x3de72d9e	0.11287998
224	0xbdd3f9e5	-0.10350398
225	0x3dcec3e5	0.10095958
226	0xbca9bc4b	-0.020719668
227	0x3e5e32cb	0.21699063
228	0x3d915efd	0.07098196
229	0x3e04c3e7	0.12965356
230	0x3e0e9ea0	0.13927698
231	0xbe06923a	-0.13141719
232	0xbd8da696	-0.06916539
233	0x3d10d682	0.03536082
234	0xbd427ab0	-0.047480285
235	0x3d442315	0.04788502
236	0x3dcad03d	0.099029996
237	0xbd4ffbfd	-0.050777424
238	0xbda06ade	-0.07832883
239	0xbda27772	-0.07932939
240	0x3cd6254f	0.026140837
241	0x3cadcba3	0.021215266
242	0xbd35d588	-0.044393092
243	0xbde93543	-0.11387112
244	0x3d46edc5	0.0485666
245	0xbddd6c39	-0.108116575
246	0xbd36db14	-0.044642523
247	0x3dd93614	0.10606018
248	0x3c3ac3e3	0.011399242
249	0xbdcaa15c	-0.09894058
250	0xbdc9c28b	-0.09851559
251	0x3e2f4b03	0.17118458
252	0xbd82357d	-0.06357858
253	0xbd6160db	-0.05502401
254	0x3da8f447	0.08249717
255	0x3db9a7b0	0.09065187

h1.bias f4 [32]
0	0x3ceccb87	0.028905643
1	0x3e31fb51	0.17381026
2	0xbc940e9f	-0.018073378
3	0xbb9e6cd6	-0.0048347516
4	0xbe33cb0e	-0.17557928
5	0x3e7eab7d	0.24870105
6	0x3e6a4370	0.22877288
7	0x3e60694d	0.21915169
8	0xbd371d45	-0.044705648
9	0x3e1982f5	0.14991362
10	0x3e38b4ab	0.1803767
11	0x3d91f652	0.0712706
12	0x3dc59acb	0.09648665
13	0xbd43852c	-0.047734424
14	0x3d2b52a0	0.041826844
15	0x3d90ca71	0.07069863
16	0x3db3473e	0.08753823
17	0x3e0f8a1f	0.14017533
18	0x3e338f4e	0.17535135
19	0xbd31fdd3	-0.043454956
20	0xbd605f59	-0.05477843
21	0xbdbcaae9	-0.09212286
22	0xbd8ef9e8	-0.069812596
23	0xbcedb028	-0.029014662
24	0x3d18d5fc	0.037313446
25	0x3e22b0ef	0.15887807
26	0x3c29de1a	0.010367895
27	0x3d4274e7	0.047474768
28	0xbd7fd5ca	-0.062459745
29	0x3d5ee3a1	0.054416303
30	0x3e0f782d	0.14010687
31	0x3e193e62	0.14965203

h2.weight f4 [16, 32]
0	0xbe5332e7	-0.20624886
1	0x3e316b19	0.17326011
2	0x3e36ac0d	0.1783907
3	0xbd9aed94	-0.07564846
4	0x3e0e04c6	0.13869008
5	0x3df985c1	0.12183715
6	0x3e58c900	0.21170425
7	0xbbb0f188	-0.0053998865
8	0x3d2ddedf	0.042448875
9	0xbd984209	-0.0743447
10	0x3d90ca65	0.07069854
11	0xbe0d1741	-0.13778402
12	0x3bca81fd	0.0061800466
13	0x3d1f502b	0.038894814
14	0x3e239beb	0.15977447
15	0xbd0832c2	-0.03325153
16	0x3e481a53	0.19541292
17	0xbe070435	-0.13185199
18	0x3e46bc1b	0.19407694
19	0x3e67141f	0.2256627
20	0xbe0ba82d	-0.13638373
21	0xbc106de9	-0.008815267
22	0x3ddcefae	0.10787903
23	0x3e595b2b	0.21226184
24	0xbd97ce63	-0.07412412
25	0xbda3a6ac	-0.079907745
26	0xbd3828b6	-0.0449607
27	0x3e6e441f	0.23268174
28	0x3e342f79	0.17596234
29	0xbc751c4e	-0.014960362
30	0xbe293d9e	-0.16527411
31	0xbe26a1ab	-0.16272609
32	0x3e003c2c	0.12522954
33	0x3de9de59	0.114193626
34	0x3d19f830	0.037590206
35	0x3db5ca5b	0.08876487
36	0xbe00f77b	-0.12594406
37	0x3e861cfa	0.26193982
38	0x3e4ca9fb	0.19986717
39	0x3d4983ea	0.04919807
40	0x3e16bdaf	0.14720796
41	0x3dc832be	0.09775303
42	0x3ddf36c5	0.10899118
43	0x3e522f55	0.20525868
44	0xbe25eaa1	-0.16202785
45	0xbe0baf58	-0.13641107
46	0x3d8b9f7b	0.06817528
47	0x3d4c2e97	0.04984912
48	0xbd85f7e5	-0.06541423
49	0x3e5cb9cf	0.21555255
50	0x3d501dee	0.050809793
51	0xbe328416	-0.174332
52	0x3e39daf4	0.1814993
53	0x3e35e1ed	0.17761965
54	0xbe42d059	-0.19024791
55	0xbe2bbecb	-0.16772
56	0xbe25a8be	-0.16177651
57	0xbd586cdd	-0.052838195
58	0x3e5a155b	0.21297209
59	0x3bbd33c0	0.0057739913
60	0x3d5049fa	0.0508518
61	0xbe09773b	-0.13424389
62	0x3e9847c0	0.2974224
63	0x3e617413	0.22016935
64	0xbb02bdfa	-0.001994966
65	0x3d6e9020	0.058242917
66	0xbe0c8967	-0.1372429
67	0x3dfb9fe5	0.12286357
68	0xbde0104b	-0.10940608
69	0x3cedb592	0.029017244
70	0x3e1cec3f	0.15324496
71	0x3ddfa81c	0.10920736
72	0xbcfce760	-0.030872047
73	0x3da8d10d	0.08242998
74	0x3d8491fe	0.06473158
75	0x3de3506e	0.11099325
76	0x3cc4947c	0.023996584
77	0xbd314762	-0.043280967
78	0xbd8a5758	-0.06754941
79	0x3e060d33	0.13090973
80	0x3ce9fea4	0.028563805
81	0x3e0c8d69	0.13725819
82	0x3d80a039	0.0628056
83	0x3d4525fe	0.048131935
84	0x3e5c5e32	0.21520308
85	0x3e171391	0.14753558
86	0xbd93a6a9	-0.07209522
87	0xbd807c73	-0.06273737
88	0xbe0aa62b	-0.1353995
89	0xbd586e0a	-0.052839316
90	0x3e203a63	0.15647273
91	0x3e29bd93	0.16576223
92	0xbddbd289	-0.10733516
93	0xbe2e3367	-0.17011796
94	0x3e59ca0a	0.21268478
95	0x3e30efda	0.17278996
96	0x3e53bac5	0.20676716
97	0xbc6c9cf0	-0.014441714
98	0xbe04384f	-0.12912105
99	0xbc9207f5	-0.01782606
100	0x3d118e4b	0.03553609
101	0x3c577e3e	0.013152657
102	0x3e38c7e9	0.1804501
103	0x3df8c700	0.12147331
104	0x3a2c7a98	0.0006579547
105	0x3cf2c451	0.029634627
106	0x3e0acb91	0.13554217
107	0x3e00d83b	0.12582485
108	0xbdb3dc68	-0.087822735
109	0xbc05a4e4	-0.008156989
110	0x3e0405ec	0.12892884
111	0x3da5d07d	0.080964066
112	0xbc9ef246	-0.019402634
113	0xbd7fe6f6	-0.06247612
114	0x3dd60bed	0.104514934
115	0xbc8a1b6c	-0.016858779
116	0x3db16bd6	0.08663146
117	0x3daa1b4e	0.08305989
118	0xbd685588	-0.056722194
119	0xbe5152d4	-0.20441753
120	0xbd16a21f	-0.036775704
121	0xbdef8bc9	-0.11696584
122	0x3dd71df9	0.10503764
123	0x3d485798	0.04891166
124	0x3d25b55b	0.040456157
125	0xbd9c3d88	-0.07628924
126	0x3e04b3f3	0.1295927
127	0xbce3f91c	-0.027828746
128	0x3e85ead0	0.2615571
129	0xbe00f5fc	-0.12593836
130	0x3d6a752a	0.057240643
131	0x3d2f005d	0.042724956
132	0xbdcb9896	-0.09941213
133	0x3e5dd41e	0.21662948
134	0x3c94801b	0.018127492
135	0x3e84e121	0.2595301
136	0xbde17e8a	-0.110104635
137	0x3e5dac4d	0.21647759
138	0x3e37cc19	0.17948951
139	0x3df8c4ca	0.121469095
140	0x3da72d45	0.08162931
141	0xbd2070f5	-0.039170224
142	0x3df90e21	0.12160898
143	0x3e0bfbae	0.13670227
144	0x3d3eba9e	0.04656469
145	0x3e26d643	0.16292672
146	0x3db3e333	0.08783569
147	0xbe329dd6	-0.17443022
148	0xbc9dcc61	-0.019262495
149	0xbde8fb53	-0.11376061
150	0xbdce488d	-0.10072432
151	0xbdb8dc13	-0.09026351
152	0x3e025690	0.12728333
153	0x3caaa587	0.020830883
154	0x3e06531d	0.13117643
155	0x3e0a05cf	0.13478778
156	0xbdd595ce	-0.104289636
157	0x3e32afe1	0.17449905
158	0x3d057ad4	0.03258784
159	0x3e23ded7	0.16002975
160	0x3d83a358	0.0642764
161	0x3e3046dd	0.17214532
162	0xbdb44766	-0.08802681
163	0x3dcbd888	0.099534094
164	0xbe1d8722	-0.1538358
165	0x3e6a0fef	0.2285764
166	0x3d45a997	0.048257437
167	0x3ded3fa8	0.11584407
168	0xbd326965	-0.043557543
169	0x3e19a938	0.15005958
170	0x3d6d3fce	0.057922177
171	0xbbaf836f	-0.0053562443
172	0xbe3a7ded	-0.182121
173	0xbdcc7062	-0.09982373
174	0xba67df9b	-0.00088452705
175	0xbc2e0170	-0.01062046
176	0x3e1179cb	0.14206617
177	0xbd4759ca	-0.048669614
178	0xbd789ac1	-0.06069446
179	0xbe0e99bd	-0.13925834
180	0x3c51746e	0.012784107
181	0xbd51e91b	-0.051247697
182	0x3e104be7	0.14091454
183	0x3ddc3aac	0.10753378
184	0xbc1e5d6a	-0.009665826
185	0x3df544ca	0.11976011
186	0xbce04313	-0.027375733
187	0xbade53df	-0.0016962251
188	0xbe063f0a	-0.13109985
189	0x3df6fbbc	0.12059733
190	0x3d9898df	0.07451033
191	0x3e173535	0.1476639
192	0xbbd4404e	-0.0064773923
193	0xbe23f568	-0.16011584
194	0xbe0cd65a	-0.13753644
195	0x3dc08fb0	0.09402406
196	0xbc18091f	-0.009279518
197	0x3dfc18e9	0.12309439
198	0x3e204ef9	0.15655126
199	0x3e0ed6a5	0.13949068
200	0xbd58b8ec	-0.05291073
201	0xbe06d4c0	-0.13167095
202	0x3e23d2cc	0.15998381
203	0x3cae9d33	0.021315193
204	0xbdcac025	-0.0989993
205	0x3dae5356	0.08511989
206	0x3e2a133e	0.16608903
207	0x3da8672e	0.08222805
208	0x3de62fa1	0.11239553
209	0xbe21368f	-0.15743469
210	0xbe04bf24	-0.1296354
211	0x3c16ad60	0.009196609
212	0x3de7e6cf	0.1132332
213	0xbe32f724	-0.17477089
214	0x3dea85a4	0.11451271
215	0xbdf34312	-0.11878027
216	0xbe3087bd	-0.1723928
217	0xbbd2a487	-0.0064283046
218	0xbe274b32	-0.16337278
219	0xbe313121	-0.17303897
220	0xbe064948	-0.13113892
221	0x3db3ff84	0.0878897
222	0xbc5c54d3	-0.013447958
223	0xbe0afffe	-0.13574216
224	0x3dd9d33e	0.106359944
225	0xbdfaf69a	-0.12254067
226	0xbc45e1f1	-0.012077794
227	0x3d504021	0.050842408
228	0xbd79b3f9	-0.06096265
229	0x3e16a500	0.1471138
230	0xbc403c2a	-0.011733094
231	0x3ca426b6	0.02003799
232	0x3bcea73c	0.006306557
233	0x3dadc1d0	0.084842324
234	0x3e2e6094	0.17029029
235	0x3cb80653	0.022463953
236	0xbd9fea3a	-0.07808347
237	0xbd8aaf1e	-0.06771682
238	0xbe1e3be3	-0.15452532
239	0x3d34b7ca	0.044120587
240	0x3d04ad69	0.03239194
241	0x3dbbdce0	0.09172988
242	0xbe143e5a	-0.1447691
243	0x3d44042c	0.04785554
244	0xbdea2b73	-0.114340685
245	0xbb22091c	-0.0024724668
246	0xbd7a67f0	-0.06113428
247	0x3d54507f	0.05183458
248	0xbc9bbf87	-0.019012226
249	0x3dde87e1	0.108657606
250	0x3cefd6bc	0.029277198
251	0x3d3a8413	0.045536112
252	0xbdd7e87a	-0.10542388
253	0x3d085db2	0.03329248
254	0xbcbdead8	-0.023183271
255	0xbe1cfef0	-0.15331626

h2.bias f4 [16]
0	0xbdae1fd2	-0.08502163
1	0x3e768b5e	0.24076602
2	0x3e4e4e45	0.20147045
3	0x3e4e4637	0.20143972
4	0xbc6de31d	-0.01451948
5	0x3dc2ecbe	0.09517811
6	0xbdaa3aca	-0.083119944
7	0xbd106e36	-0.035261355
8	0xbd0753dd	-0.033038963
9	0x3cc4e3be	0.024034377
10	0xbe384ef4	-0.17998868
11	0x3e354845	0.1770335
12	0x3df3c1b9	0.11902184
13	0x3d99c37d	0.075079896
14	0x3d27a7f5	0.04093166
15	0x3d1705a2	0.036870606

h3.weight f4 [8, 16]
0	0x3e667210	0.22504449
1	0x3d2f99ae	0.04287117
2	0x3d411639	0.047140334
3	0xbda436b9	-0.0801825
4	0xbd4924a6	-0.049107216
5	0xbdd162f0	-0.10223949
6	0xbe63f612	-0.22261837
7	0xbe20a695	-0.15688546
8	0xbd2e0327	-0.042483475
9	0x3e88f6e5	0.26750866
10	0x3e25a5b6	0.16176495
11	0x3dea3524	0.11435917
12	0x3e172549	0.14760317
13	0x3dd8e52a	0.105905846
14	0x3e4d2626	0.20034084
15	0xbd432d26	-0.04765048
16	0xbd82b5c4	-0.06382325
17	0xbdb01166	-0.085970685
18	0xbe031c80	-0.1280384
19	0x3d768f84	0.06019546
20	0xbd9521ad	-0.07281814
21	0x3dab0831	0.08351172
22	0x3e0a4f9d	0.13506933
23	0xbe116bd3	-0.14201288
24	0x3ca6d86f	0.020366875
25	0x3e836eee	0.2567057
26	0x3e10ce50	0.14141202
27	0xbddcbc03	-0.10778048
28	0xbe4f7d01	-0.20262529
29	0x3e61c8bd	0.22049232
30	0x3ea44bee	0.3208918
31	0xbe0931f8	-0.13397968
32	0xbe382bf6	-0.1798552
33	0x3e94d504	0.29068768
34	0x3e44810c	0.19189852
35	0x3e60c7d5	0.2195123
36	0x3e1c28f2	0.15249994
37	0x3cf615ce	0.030039694
38	0xbd8054f8	-0.062662065
39	0x3e66f2f8	0.22553623
40	0x3d17f33f	0.037097212
41	0xbe1e82da	-0.15479603
42	0x3e4fda72	0.20298174
43	0x3c20d439	0.009816223
44	0x3cbba2ca	0.022904772
45	0xbe521806	-0.20516977
46	0xbde2de3a	-0.110775426
47	0x3e43f2f5	0.1913565
48	0xbe29f3e8	-0.16596949
49	0x3dcf6199	0.10126037
50	0x3c867770	0.016414374
51	0xbdb7e5dc	-0.08979389
52	0xbdfdc293	-0.12390628
53	0xbe9fd2e9	-0.312156
54	0x3d8c85f5	0.06861488
55	0x3e6cd477	0.23127924
56	0x3e1859d3	0.14878015
57	0x3e226924	0.1586042
58	0xbe364ce7	-0.17802773
59	0xbe5fdd62	-0.21861795
60	0x3e0d5cd5	0.13804944
61	0xbddd7c62	-0.1081474
62	0xbe19863a	-0.1499261
63	0xbe24445b	-0.160417
64	0x3e973ae1	0.2953711
65	0xbe82542b	-0.2545484
66	0x3e3fbe24	0.18724877
67	0x3dc6ba01	0.09703446
68	0xbe07c746	-0.1325961
69	0x3e51f499	0.20503463
70	0xbe364c87	-0.1780263
71	0x3e62408e	0.22094938
72	0xbd8430ee	-0.06454645
73	0x3ea58322	0.3232661
74	0x3dcf444b	0.10120448
75	0x3e049706	0.12948236
76	0x3e83b7aa	0.25726062
77	0xbdb36c9f	-0.08760952
78	0x3e81c18a	0.2534297
79	0xbe2f3125	-0.17108591
80	0xbd0ce81c	-0.034401044
81	0xbe85e00a	-0.2614749
82	0x3baea8cf	0.005330182
83	0xbde4fa4f	-0.11180555
84	0x3e108423	0.14112906
85	0xbda6cfb8	-0.08145088
86	0xbe6ce0fb	-0.23132698
87	0x3e0550d8	0.1301912
88	0x3dcc24ff	0.09967994
89	0x3e62ed0e	0.22160742
90	0x3e4bb564	0.19893414
91	0x3d5f92ac	0.054583237
92	0xbe86a955	-0.26301065
93	0xbd97aa79	-0.07405562
94	0xbdc42144	-0.095766574
95	0xbda82132	-0.082094565
96	0xbde868aa	-0.11348088
97	0x3eb543d6	0.35403317
98	0x3e55ff21	0.20898105
99	0x3e4145f6	0.18874344
100	0x3e6ab192	0.229193
101	0x3e34dc99	0.17662276
102	0x3cf069b4	0.029347278
103	0xbaccc8cf	-0.001562381
104	0xbe569549	-0.20955385
105	0xbe2bc135	-0.16772921
106	0xbe55eb39	-0.20890512
107	0x3ed10597	0.40824577
108	0x3d590b63	0.052989375
109	0xbd456562	-0.04819239
110	0x3e26052c	0.1621291
111	0x3e5acdfc	0.2136764
112	0x3c459987	0.01206053
113	0x3e078902	0.13235858
114	0xbd8a405a	-0.06750555
115	0xbe83468e	-0.25639766
116	0xbe2db17a	-0.16962233
117	0xbdeee7a8	-0.11665279
118	0xbe9332e1	-0.28749755
119	0xbde8581e	-0.11344932
120	0x3cdaf88d	0.026729846
121	0x3dc1da32	0.094654456
122	0xbe5d96d8	-0.21639574
123	0xbe83b8e4	-0.25726998
124	0xbe79dc07	-0.2440034
125	0xbe12ea0a	-0.14347091
126	0xbe891e32	-0.2678085
127	0xbbe642b2	-0.0070269937

h3.bias f4 [8]
0	0xbd77f283	-0.06053401
1	0x3e857b6b	0.26070723
2	0x3e9d1bd7	0.30685303
3	0xbd973758	-0.07383603
4	0xbd930f20	-0.07180619
5	0x3e2d072e	0.1689727
6	0xbe2c6ef1	-0.16839196
7	0xbde1ea15	-0.11030976

h4.weight f4 [1, 8]
0	0x3ec8b7b0	0.39202642
1	0x3ea7ef71	0.32799867
2	0xbe8ab9fe	-0.27095026
3	0x3e69c520	0.22829103
4	0x3edb326a	0.428119
5	0x3e1a779e	0.15084693
6	0xbee33508	-0.44376397
7	0x3e91c34d	0.28469315
