src/models/saved_models/best_model_lr0.001_roc_auc0.9063282043785702.pt (torch, 23957 bytes, 9 tensors)

input.weight f4 [64, 30]
000000 df 19 70 bd 49 0e 53 3e df 9d 72 bb af 78 fa bc
       -0.058618423 0.20610918 -0.0037020368 -0.030575125
000010 ca 32 7e 3c b6 e3 8b 3c 11 ea 96 bd 2c 0d a3 bd
       0.015515039 0.017076354 -0.073688634 -0.07961497
000020 97 4a 12 3e 62 7b 79 bd bc 32 65 3e bc 4b 2b bc
       0.14286266 -0.060908683 0.22382635 -0.010455068
000030 1f 74 1c bd 20 c2 d6 3b 5a 40 53 3e 2d 07 e5 3d
       -0.03819668 0.006553903 0.20630017 0.11183009
000040 a3 26 32 bd da e1 e3 b8 ef c6 86 3d 32 b8 a4 3d
       -0.043493878 -0.000108662716 0.06580912 0.08042945
000050 ec 0d 54 3c 85 68 a4 bd 98 5f 66 be f1 75 52 bd
       0.012942772 -0.08027748 -0.22497404 -0.05138201
000060 bd 44 07 3e e3 26 12 be 7b de cd 3d 9c be 77 bd
       0.13209815 -0.14272647 0.100522004 -0.060484514
000070 0a a6 9b bd b3 51 88 3d 6b b8 1c 3e c1 d4 82 3e
       -0.07600029 0.06656208 0.15304725 0.25552943
000080 d7 54 3c be 36 90 cd 3d a3 7e 2b bd a5 a6 dc 3d
       -0.18391739 0.10037272 -0.041868817 0.107739724
000090 9c c1 14 3e 3d 8b fd 3b a2 e1 ac bd 30 57 c5 bd
       0.14526981 0.0077375458 -0.084414735 -0.0963577
0000a0 fc 0d a8 bc 2c 55 62 be 7f 09 1d 3e 4d f3 05 3e
       -0.02051448 -0.22102803 0.15335654 0.13081093
0000b0 79 db 80 bd fa d2 4d 3d 12 81 2b 3c c9 20 b8 bd
       -0.06291861 0.05025003 0.0104677845 -0.08990628
0000c0 17 e3 32 bd fd a1 bb bd 6b 03 8b 3d c0 3f b7 bc
       -0.0436736 -0.09161756 0.06787761 -0.022369266
0000d0 c3 b6 db 3d ab 71 c7 3d 49 0e f2 bc 0a a1 b4 3c
       0.107282184 0.09738477 -0.029547827 0.022049446
0000e0 c8 59 ac 3d 3e 3b f8 bd cb d5 90 bd 22 61 01 3e
       0.08415562 -0.121206746 -0.07072028 0.1263471
0000f0 66 6f aa 3d ab 32 a7 3e 61 be 14 bd b3 b4 ef bc
       0.08322029 0.32655844 -0.036314372 -0.029260969
000100 ba 9e 18 bb 8a 25 69 3d d1 00 d0 bd 76 00 b7 3d
       -0.0023287968 0.056920566 -0.10156406 0.08935635
000110 40 22 9b 3e 1e 8b e9 bb c5 fc c5 3d 90 92 e8 3d
       0.30299568 -0.0071271798 0.096673526 0.113560796
000120 73 33 2e 3e b9 31 ea bd 93 f2 d4 3d c4 c9 73 3e
       0.17011814 -0.11435265 0.1039783 0.23807436
000130 17 14 9c bd bc be c3 3d 79 81 be bb 29 09 18 be
       -0.07621019 0.09557864 -0.005813774 -0.14847244
000140 df 0e d5 3d 04 6b 57 3d 71 86 26 be f7 00 05 3e
       0.10403227 0.052592292 -0.16262223 0.1298865
000150 f3 9c cd 3d b4 47 95 be af 25 b2 3d 67 b9 b1 3c
       0.10039701 -0.29156268 0.08698594 0.021694852
000160 3d 1b 5b be 0b 66 f9 bc 66 3a 61 be 1a 04 f8 3d
       -0.2139711 -0.030444166 -0.21994933 0.12110157
000170 d9 ad ed 3d 12 98 f9 bd 76 f0 8f 3e 91 bc 0b bd
       0.116054244 -0.12187208 0.28113145 -0.034115378
000180 e0 7c a6 bd 7e fc b8 bd 2b d6 a1 bd 65 eb 5c 3d
       -0.08129287 -0.09032534 -0.079021774 0.053935427
000190 5b 10 90 be de e5 06 39 d8 a0 57 be 87 f7 8e bc
       -0.28137478 0.00012864868 -0.21057451 -0.017452015
0001a0 bf 63 7f be 38 20 f5 bd 7d 47 11 3c d2 0f 02 bd
       -0.24940394 -0.11969036 0.008867142 -0.03175337
0001b0 ed 88 30 be 3e 72 47 3e ec b0 30 be 77 32 2e bb
       -0.17239733 0.19477174 -0.1725499 -0.0026580372
0001c0 22 c3 85 3e 41 e8 11 be e4 6b 86 be ad 6c ba bd
       0.26125437 -0.14248754 -0.2625419 -0.091027595
0001d0 7a 9f 5a 3c 80 72 61 3d 76 a9 d7 3d c6 c7 ed 3d
       0.013343686 0.055040836 0.10530369 0.116103694
0001e0 9b 05 50 3d 0e 39 b2 bc 6c f9 e5 3d 3f b6 89 bd
       0.050786596 -0.021755721 0.11229214 -0.06724214
0001f0 42 b9 4f 3e a4 37 66 3d be f6 dd bd e1 55 73 3b
       0.20285514 0.056205407 -0.10838078 0.0037130045
000200 75 f6 d0 bd 88 0c 72 bd 21 db ce 3d 85 bf bd 3d
       -0.10203258 -0.059093982 0.10100389 0.09265045
000210 cb 3c 0f 3d 56 99 e0 bd 6a 65 12 be 4c e7 73 3e
       0.034970086 -0.109667465 -0.14296499 0.23818702
000220 be ba 77 3b 9e da b5 3d 70 ee 78 3e dc a4 f1 bc
       0.0037800516 0.088795885 0.24309707 -0.029497556
000230 9c 3e 3f 3c 06 fb cf 3d d8 a3 69 be 98 e7 66 3e
       0.011672642 0.10155301 -0.22816408 0.22549284
000240 fa 9e ae bd e2 aa d5 3d e2 15 57 bd 4a 7a 1c 3d
       -0.08526416 0.10432984 -0.052511103 0.03820256
000250 42 ae f5 3d 53 40 05 be be 50 2f 3e fa 62 63 bd
       0.11996128 -0.13012819 0.17120644 -0.055514313
000260 03 6f 9a 3e c0 f0 50 be 7d f3 d5 be c4 fc 46 3e
       0.3016282 -0.20404339 -0.4178733 0.1943236
000270 6f 32 1f 3d 88 d0 06 3e 51 6d 40 3e e8 b3 45 3e
       0.038866457 0.13165486 0.18791701 0.1930691
000280 11 51 0c 3d 40 fc 89 bd 3f 1b 1d be 0d 4c 9b 3c
       0.034257 -0.06737566 -0.15342425 0.018957162
000290 07 02 b9 3e d8 d4 89 be 6e ea 56 3d 11 6a a3 3c
       0.3613436 -0.269202 0.052469663 0.019948037
0002a0 59 83 47 bc c6 f4 95 3d 22 3e 07 be 79 64 83 3d
       -0.012177312 0.073220775 -0.13207296 0.06415648
0002b0 12 b8 b4 3c c8 e3 2a bd a1 6b 82 3e a6 0c c1 3d
       0.022060428 -0.041721135 0.2547274 0.094262406
0002c0 86 21 80 3e 15 38 d4 3d 9f 62 4f be 4c 22 2f be
       0.25025576 0.10362259 -0.20252465 -0.17102927
0002d0 ef 6b e4 bd 77 26 2a 3e e4 a8 ee 3c 0c 26 5a bd
       -0.11153399 0.16616236 0.029133268 -0.05325894
0002e0 1a 4f 14 be 95 06 e8 3c 00 e5 d5 bd 6e 5e db bc
       -0.144833 0.028323451 -0.10444069 -0.026778426
0002f0 3f f1 d4 3d 02 23 46 bd a6 64 32 3e b2 69 3d be
       0.103975765 -0.04837323 0.17421207 -0.18497351
000300 7e d1 e8 3d 9a ff 91 bd 60 b2 a0 3e 5c 38 a9 be
       0.113680825 -0.0712883 0.3138609 -0.3305081
000310 8e 1c a4 bd 7e ad 76 bd d8 ad 5f be fe bb 1f 3e
       -0.08013259 -0.06022405 -0.2184366 0.15599057
000320 5b a4 0a 3e 60 b6 b8 3d b2 3f 0b 3e f2 6d 32 bd
       0.13539259 0.0901916 0.13598517 -0.043561883
000330 9d 1a 70 be 2f 67 0b 3d 0f 19 85 be 2a 05 4c bd
       -0.23447652 0.03403395 -0.2599568 -0.049809612
000340 cf 2c ac bd 47 ae b5 be 53 17 1e 3d f0 9a 54 3d
       -0.08406984 -0.35484526 0.038596462 0.051905572
000350 2d 7b 2a 3d a6 79 23 be 1d df c3 3d ba e3 b7 bc
       0.041621376 -0.15964374 0.0956404 -0.022447456
000360 1c a8 62 3e 65 ec 57 3e c1 97 1a bd 4f 19 78 3e
       0.22134441 0.21086271 -0.03774238 0.24228404
000370 85 a9 df bd 51 71 18 3e b2 88 99 3e 95 cf 2e be
       -0.10921005 0.14886977 0.29987103 -0.17071374
000380 69 8c 37 3e 45 42 22 3e 2c e3 78 3d 10 7e 9d bd
       0.17924656 0.15845592 0.060763523 -0.0769006
000390 52 e1 24 3d c1 72 0d be da 76 37 be 4a 3a 13 bd
       0.040253945 -0.13813306 -0.17916432 -0.03594426
0003a0 bb ab 4a 3e 05 a1 e9 bd 82 ae cd 3d 59 06 4d be
       0.19792072 -0.11407665 0.1004305 -0.20021953
0003b0 88 7b b9 bd fa 14 3b be 85 53 f4 bd 64 e4 1c 3e
       -0.09056765 -0.1826972 -0.119299926 0.15321499
0003c0 ee bb 66 3e 30 bc 42 3e 64 6a 67 be 38 32 84 3d
       0.22532627 0.190171 -0.22599179 0.06454891
0003d0 93 37 45 be 59 51 84 bd da c3 01 3c f2 e2 2b be
       -0.19259481 -0.06460828 0.00792023 -0.16785792
0003e0 8b 05 8d bd 55 16 1d 3e 0a d2 38 3e 81 f0 27 be
       -0.06885823 0.1534055 0.18048874 -0.16400339
0003f0 73 42 eb bd 6e cb 79 3e d8 eb 2e 3e 58 15 28 be
       -0.114872836 0.24394009 0.17082155 -0.16414392

input.bias f4 [64]
000000 a8 f1 8f 3d 69 7f 04 3e 31 ca 67 3e cd 8c 6c 3d
       0.07028514 0.12939228 0.22635724 0.057751466
000010 9f ac 7a 3c 89 6e d5 3d 3c bc 63 3e 9f b6 c4 3d
       0.015299945 0.104214735 0.22239774 0.09605145
000020 7e 72 21 3e 10 c2 b6 3e cd a7 97 bd 57 e8 76 3e
       0.15766332 0.35694933 -0.07405052 0.24112068
000030 2f 23 34 bd a0 6f 6e 3e d9 bd 4a 3e 6f e4 0e bd
       -0.043978866 0.23284769 0.19798984 -0.03488582
000040 29 ca b3 bd 81 e5 8f bd 55 6d 80 3d 8f 22 f7 3e
       -0.08778793 -0.07026196 0.062708534 0.48268554
000050 46 4e 8d 3e e1 39 58 bd 4b 59 4e 3e 38 31 81 bd
       0.2759878 -0.052789573 0.2015125 -0.06308216
000060 77 08 54 3d 2a 2f aa bb 61 21 a9 3e 67 46 ce 3d
       0.051765885 -0.0051936107 0.3303328 0.10072022
000070 fc 2f 8b bd 29 e6 22 3e 9d 29 57 bd e9 55 f3 3d
       -0.06796262 0.15908112 -0.05252992 0.118816204
000080 e9 bd 81 3e c9 96 80 3e af 2f 8c bd 30 0c c0 3e
       0.25340202 0.2511504 -0.068450324 0.37509298
000090 51 b4 8d 3d 35 97 4d 3b ee 5c cc 3e b3 4b d0 3d
       0.06919158 0.0031370644 0.3991465 0.101706885
0000a0 80 69 0b be cf 8c 9c 3e 05 96 8a 3d d5 cd c1 3d
       -0.13614464 0.30576178 0.06766895 0.094630875
0000b0 72 12 35 be 14 bf 00 3f 71 db 2c 3e 8e 7a 1d bd
       -0.17682818 0.5029156 0.16880585 -0.038446955
0000c0 b1 c8 b3 3c 8d 17 31 3e 71 18 9e 3e 38 f0 9a 3e
       0.021946283 0.1729414 0.30878022 0.30261397
0000d0 a2 89 0c 3e af 47 52 bd dc b5 92 3e 1c 01 19 3d
       0.13724378 -0.051337894 0.28654373 0.037354574
0000e0 d8 d7 9c 3e 4d 5c a7 3e 73 9a 88 3e ce 99 aa 3e
       0.30633426 0.32687607 0.26680335 0.3332047
0000f0 9c 5a fc bb 27 98 f9 3d 33 ea 35 bc 1a 30 16 3e
       -0.007701231 0.12187224 -0.011103201 0.14666787

h1.weight f4 [32, 64]
000000 1f 39 bd bd 31 b6 9d 3c c0 f6 07 3d 33 59 34 be
       -0.092394106 0.019251915 0.033194304 -0.17612152
000010 01 bc 4d bb ec 85 74 3e f5 d3 04 3e 00 23 80 3c
       -0.0031392577 0.23879212 0.1297148 0.01564169
000020 b2 cb 9a bc 46 06 8b bc cf 95 0e 3d 25 05 ab bd
       -0.018895958 -0.016970765 0.034810837 -0.083505906
000030 ab 02 8b bd cc 1c 2b bc d7 83 82 3e bc 98 e1 bd
       -0.06787618 -0.010443877 0.2549121 -0.1101546
000040 c5 25 91 bd 6d 3d f9 bd 5d 5d 58 3e 45 bb 28 3d
       -0.07087282 -0.12169919 0.21129365 0.04119422
000050 8b 4f 77 3d a0 06 bf bd 1b 2a a4 bd c4 a9 cf 3d
       0.060378592 -0.093274355 -0.080158435 0.10139802
000060 96 dd 28 bd 65 27 51 bd 54 29 ee 3c ed 17 25 3e
       -0.041226946 -0.05106296 0.029072441 0.16122408
000070 88 b3 44 bd 2d d8 18 be ef b9 d1 3d 5b ee 07 bd
       -0.048022777 -0.14926215 0.10240542 -0.033186298
000080 40 e4 fa 3c 98 28 33 3d 33 2a f2 3c f9 ce 0e be
       0.030626416 0.043739885 0.029561138 -0.13946141
000090 12 8c d7 bd 56 e5 28 bd a3 6f 4f 3d 44 63 13 3c
       -0.10524763 -0.041234337 0.050643574 0.008995835
0000a0 d6 b5 a3 bc c0 40 8f 3d 94 7c 4c bd 5e 09 d3 3c
       -0.019984167 0.06994772 -0.049923494 0.025761303
0000b0 85 4b 88 3c 66 e1 39 3d 41 9b 9e bc b2 2a 28 3c
       0.016637573 0.045380972 -0.01936114 0.010264086
0000c0 16 1f 27 3d 3b 97 33 be dc c3 bb bd ff 7a 43 be
       0.04080113 -0.17538159 -0.091682166 -0.19089888
0000d0 ee 7f 49 3e 02 7f 10 3d 93 63 ca 3d a9 e4 d2 3d
       0.19677708 0.035277374 0.098822735 0.1029752
0000e0 78 90 0b 3d 17 3c 0b bb 17 7a 17 be 64 2e a0 3d
       0.034073323 -0.0021245533 -0.14792667 0.07821348
0000f0 ae da 8c 3d 59 73 4b bc ad e4 bd bc af e1 f4 bc
       0.06877647 -0.012417638 -0.02318033 -0.02989277
000100 87 a3 f9 bd dd ef 83 bd f5 d2 51 3d 1d ec 62 be
       -0.121893935 -0.06442235 0.051226575 -0.22160383
000110 e6 c6 81 bc 68 d0 93 3e 37 6c f1 3e 17 37 f3 3d
       -0.015841912 0.2886994 0.47152874 0.11875742
000120 ce 71 b8 3e d9 c2 fa 3e dd 56 95 3b c0 60 8e 3d
       0.36024326 0.48976782 0.004557474 0.06952047
000130 28 f9 3f be 82 4f 96 3d 6e e4 e4 3e 13 4e b4 bd
       -0.1874739 0.07339384 0.44705528 -0.08803954
000140 6d ac 50 3b d3 0e 2f bc c1 f6 b8 3e 2d c5 da 3e
       0.0031841055 -0.010684687 0.36125758 0.42728558
000150 a9 07 d0 3e eb c8 dc bc 96 72 7b 3e c4 72 84 3a
       0.40630844 -0.026951274 0.2455543 0.0010105004
000160 83 9b 83 bc e7 fc ed 3e 71 5f 83 3e c7 6a 79 bd
       -0.016065365 0.46482012 0.25658754 -0.060892846
000170 40 64 33 bd 3e 8c 84 be 55 fb b8 bc ff ff 11 be
       -0.043796778 -0.25888246 -0.022580782 -0.14257811
000180 b9 ec e3 3e 19 4b 6d 3e fd ac ce bd 8e 4e 22 be
       0.44516543 0.23173179 -0.10091589 -0.15850279
000190 89 69 25 be 36 b9 00 be eb c7 94 3e 74 0c 6a bc
       -0.1615354 -0.12570652 0.29058775 -0.014285196
0001a0 e7 e8 cf bd a5 ae 9e 3e c7 85 a5 bc bf 93 32 3d
       -0.101518445 0.30992618 -0.020205392 0.043597933
0001b0 c8 90 25 bb e7 38 e4 3e c9 69 74 3e fb 60 a5 bd
       -0.0025263298 0.44574663 0.23868479 -0.08075138
0001c0 a2 fc a5 3d fb 62 86 bd c9 ad 9d 3e 64 cb 40 3e
       0.081048265 -0.06561848 0.3079665 0.18827587
0001d0 0d c2 a9 3e 6d 0c 5e bd 60 14 84 3f 87 83 7b 3e
       0.33155861 -0.05421107 1.0318718 0.24561892
0001e0 a6 52 c8 3e bd 76 32 3e e0 9c d2 3e 75 85 96 3e
       0.39125556 0.17428108 0.4113531 0.29398695
0001f0 cf 9f 05 3e 27 8e 3d 3e f7 42 59 bd c2 99 3a 3e
       0.13049243 0.18511258 -0.05304238 0.18222716
000200 1f d0 59 3e 96 a1 8b bd 12 8a fd 3d d6 62 c2 bd
       0.21270798 -0.068179294 0.123798504 -0.09491508
000210 dd dd 04 3c 70 38 25 3e 10 52 50 3e 31 2c 90 3d
       0.008109537 0.1613481 0.20343804 0.07039679
000220 1f 5f 14 3f bb 67 93 3e 4b 08 00 3d 22 59 66 3d
       0.57957643 0.28790078 0.03125791 0.056237347
000230 be 53 8c bd 04 a8 c8 3d 41 70 3c 3e ec 57 b4 3c
       -0.0685191 0.097976714 0.18402196 0.02201458
000240 40 c9 e9 3c 9b ea b8 bb a2 03 08 3d a1 0f 46 3f
       0.028538346 -0.0056432015 0.03320659 0.773676
000250 25 39 b2 3e a2 de 1a 3d 83 41 2d 3e 96 ee 46 3e
       0.34809223 0.037809975 0.16919522 0.19426951
000260 41 b9 27 3b db 21 66 3e 34 09 dd 3e cd 54 b0 3e
       0.0025592598 0.22473852 0.43171084 0.34439698
000270 10 2d 09 3e aa e9 8c bd 54 51 64 3d f2 b2 5c bd
       0.13396096 -0.068805054 0.055741623 -0.053881593
000280 df 33 de 3e b3 bf 3f 3e 32 aa 27 be e9 58 3f be
       0.4339895 0.18725471 -0.16373518 -0.1868626
000290 d3 27 33 3c c8 e6 f1 3c 0d 5b 9f 3e c6 48 71 3e
       0.010934788 0.02952899 0.31124154 0.23562917
0002a0 ef 9e c8 bb be 53 dd 3d 11 90 4c bd ed 10 d0 bb
       -0.006122462 0.10806988 -0.04994208 -0.006349674
0002b0 91 32 7d 3d 5b 54 8e 3e 38 d0 13 3e 19 66 40 3d
       0.061815802 0.27798733 0.14434898 0.046972368
0002c0 50 9e 0b 3f b0 df 08 be 73 27 b7 3e 65 a5 39 3e
       0.5453844 -0.1336658 0.35772285 0.181295
0002d0 52 72 4c 3e d6 8f c9 3a de 30 b3 3e d6 ee 0a 3e
       0.19965485 0.001537795 0.3499822 0.13567671
0002e0 e6 6d d4 3e 6b ee 27 3e 52 43 45 3f 9e 69 29 3e
       0.41490096 0.16399543 0.7705585 0.16544196
0002f0 6d 57 e7 bb 1d f6 8e bd cd c7 be 3d b9 3e 04 3f
       -0.0070599825 -0.06980536 0.09315453 0.5165821
000300 14 b1 91 3c 46 f3 3e bd f7 dd 27 be 87 6e 44 bd
       0.017784633 -0.046618722 -0.16393267 -0.04795697
000310 5d f7 29 3d a7 75 88 bd a3 68 68 bd 9f a2 5d 3c
       0.04149567 -0.066630654 -0.056740414 0.013527541
000320 84 1f 0f be 49 d3 f1 bd b6 d0 e5 bd 0e 36 7a 3c
       -0.13976866 -0.118078776 -0.11221449 0.015271677
000330 3b 3c 16 bd 8a 95 97 bd 9a 09 2a be 55 e2 2a 3d
       -0.036678534 -0.07401569 -0.16605225 0.041719753
000340 e0 70 c1 bc b9 12 b6 3d e7 9b da bd de 8a d0 bd
       -0.023613393 0.0889029 -0.10674267 -0.10182737
000350 c6 ab 80 be 48 66 71 bd fe 15 d9 bc 40 36 aa bd
       -0.25131053 -0.058935434 -0.026499745 -0.083111286
000360 76 e7 ad bd c1 a0 56 be ab e6 69 be c6 04 ef 3d
       -0.08491413 -0.2095976 -0.22841899 0.11670832
000370 c5 94 d9 bd a5 fd bd bd 3a 9a d9 3d fb cd 05 be
       -0.10624079 -0.092768945 0.106251195 -0.13066857
000380 96 6d 05 be 33 31 d6 3d b7 94 e9 3d 75 c7 26 bd
       -0.13030085 0.10458603 0.11405318 -0.04071756
000390 a1 96 76 3c 4d a2 bc 3d 63 80 0e be 0f 20 38 bd
       0.015050561 0.09210644 -0.13916163 -0.04495245
0003a0 88 41 7f 3d b9 9c b4 bd 5e 36 1b 3d 1e cf 59 bd
       0.062318355 -0.08818955 0.037893645 -0.053176038
0003b0 f0 89 08 3d f5 63 8e bd 33 b8 6a bd 21 85 17 3e
       0.033334672 -0.06952659 -0.057304572 0.14796878
0003c0 3c f8 b3 3d 21 84 15 be 93 3e ee bb 16 24 0e 3c
       0.08787581 -0.14601184 -0.007270643 0.008675596
0003d0 1d 6b 41 bd f2 d0 2e 3d ca 23 62 bd bb 87 76 bd
       -0.04722129 0.042679735 -0.055209912 -0.060188036
0003e0 49 0d 4d be f3 38 26 3d 67 a3 29 bb ad f2 ed bd
       -0.20024599 0.040581655 -0.002588475 -0.11618552
0003f0 17 38 85 bc fc 40 a3 bd 7e d1 88 3d 11 5b cc bc
       -0.016262097 -0.07971379 0.066805825 -0.024945768

h1.bias f4 [32]
000000 7e a9 20 bd 1f dd de bd 3a e7 48 be e2 e1 d3 bc
       -0.03922414 -0.10882019 -0.19619456 -0.025864545
000010 ad fd 1d 3e 48 60 d1 3d e6 c3 2c bb 05 e9 68 3e
       0.15428801 0.10223442 -0.0026361882 0.2274514
000020 d2 fe cb 3c 9a c1 12 3d 97 be 1a be 59 5d e0 bd
       0.024901781 0.035829164 -0.15111767 -0.10955305
000030 84 4c 3a be 3a 98 46 be 78 9d 85 be 60 ee 43 3d
       -0.18193251 -0.19394007 -0.26096702 0.047834754
000040 51 5d 90 bd 76 7a 45 3d 11 02 46 be 12 b7 10 be
       -0.07049049 0.04821249 -0.19336726 -0.14132336
000050 4a 86 5d 3e 43 61 63 3d 59 3b 2a 3e 7c 02 75 bd
       0.21633258 0.055512678 0.16624202 -0.059816822
000060 76 3a 60 be b5 0b 5f 3e e8 c5 90 bd 9a 0d b3 bd
       -0.21897301 0.2178181 -0.070689976 -0.08742829
000070 d3 83 5f bd 72 dd 62 3e 6b 55 a7 be 21 1e 6f bc
       -0.054569077 0.22154787 -0.32682356 -0.014594586

h2.weight f4 [16, 32]
000000 f5 9a 33 3c d6 ce 9a 3e c9 60 c7 3d a2 c1 44 3d
       0.010962238 0.30235928 0.09735257 0.048036225
000010 a7 5c 65 be d7 38 40 be f0 f0 8f 3d 96 e1 54 be
       -0.22398625 -0.18771683 0.07028377 -0.20789179
000020 9c a1 b2 bd 65 7c 1a 3e 70 d7 59 3e 32 8e c3 3d
       -0.08722231 0.15086515 0.21273589 0.09548606
000030 80 b2 ea 3d 53 08 84 3d c1 ba 5a 3e d3 c2 be bd
       0.114598274 0.064469 0.21360303 -0.093145035
000040 c6 9b 61 3e 9e e9 f9 bd c2 39 48 3e 75 01 af bc
       0.22032079 -0.12202762 0.19553283 -0.021363
000050 a0 36 9f 3d b7 e5 e2 3d a1 b6 2b be 1d f7 54 3e
       0.07774091 0.11078971 -0.16768886 0.20797391
000060 26 63 05 3e b8 bc f6 bd 06 a9 32 bd f4 64 84 bd
       0.13026103 -0.12047714 -0.043618225 -0.06464568
000070 91 d1 9f 3d b9 75 a3 bd 9a 0a b5 bb 17 26 f5 3c
       0.078036435 -0.07981438 -0.0055249454 0.02992539
000080 1d 74 2d be 32 04 00 3e 2b 96 8f 3c cd e9 dd bd
       -0.16938825 0.125016 0.01752766 -0.108356096
000090 3e f6 54 bd 13 e9 10 be 34 ef 17 be 44 25 f2 bd
       -0.051992647 -0.14151411 -0.14837343 -0.11823514
0000a0 a9 8b 7c 3e bb 78 b5 3e d8 33 59 bd a8 58 4f 3e
       0.24662651 0.35443673 -0.053027958 0.20248663
0000b0 dc 20 82 bc cc 5b 9e 3e ae 84 c7 bc 73 e8 5e 3d
       -0.01588481 0.3092941 -0.024355259 0.0544209
0000c0 5e e0 a7 3e 1a 5d 2d be 48 dd 21 bc 91 2c 38 3e
       0.32788366 -0.16930047 -0.009879418 0.1798575
0000d0 67 8b 03 be f4 3c 1b 3e 4e 18 b7 3d 94 55 d8 3d
       -0.12846147 0.1515997 0.089401826 0.10563198
0000e0 3c bb 28 be 52 c7 c2 bb d7 25 3b 3d 4f 4f 50 3e
       -0.16477674 -0.005944171 0.045690384 0.20342754
0000f0 16 08 2f be fd 1e ba bc d3 4b b2 bd 76 b3 80 bd
       -0.17092928 -0.022719854 -0.087058686 -0.062842295
000100 12 5a 10 3e df 24 23 3d 2f 7d ce 3d 60 a5 01 be
       0.14096859 0.039830085 0.100824706 -0.12660742
000110 ff f0 35 be 1b 91 c7 3d 93 fd f5 3d 49 81 2a bd
       -0.17767714 0.097444735 0.12011256 -0.041627202
000120 ae 9a 66 3e ba b1 af 3d ae 36 0c 3e 0a 6a 90 3e
       0.22519943 0.085788205 0.13692734 0.282059
000130 fd 89 76 bd 49 cf 63 3e 37 32 59 3e 30 32 13 be
       -0.06019019 0.22247042 0.21210562 -0.14374614
000140 be 3a ac 3c ac ae 09 be 86 1d 9c 3c 88 8e c6 3d
       0.021024104 -0.13445538 0.019057047 0.096951544
000150 7b e8 ec 3d 4a 69 8b 3e bb 53 e3 3d af 22 1a bd
       0.1156778 0.27228767 0.11099955 -0.037630733
000160 44 76 7e 3b e1 61 10 bd 35 33 59 3e fe 2b 74 bc
       0.0038827816 -0.035249595 0.2121094 -0.014903067
000170 a2 d9 1e 3d eb 09 7b 3c be c9 0d 3e c5 d9 6b 3e
       0.03878177 0.015322189 0.1384649 0.23032291
000180 a2 ef 5d 3e 52 7b 12 3f ce be 0d 3f 8c a7 25 3e
       0.21673444 0.5721942 0.5536927 0.16177195
000190 08 8f 0b bb d2 8f 49 bd 9a 19 dd 3d ff 44 43 be
       -0.002129497 -0.049209423 0.10795899 -0.19069289
0001a0 be e9 f9 3e 9c 2c b2 3e 77 2c c5 3e bc eb 0a 3f
       0.48811144 0.3479966 0.38510486 0.5426595
0001b0 43 a1 a8 3e 18 61 fd 3e 61 36 e9 3e 08 d4 43 bd
       0.32935533 0.4948814 0.455493 -0.04780963
0001c0 3a 2a 18 3f d8 87 d9 3b fd 43 ae 3f 64 71 f5 3e
       0.5943943 0.0066385083 1.3614498 0.47938073
0001d0 43 f6 c6 3d 35 27 bf 3e 85 20 e3 3d 03 03 c1 3e
       0.097149394 0.373346 0.11090187 0.3769761
0001e0 d6 56 01 3f c0 c5 01 3e f7 4f d3 3e 97 73 bf 3e
       0.50523126 0.12673092 0.41271946 0.37392876
0001f0 f5 1e cd 3e 8f 1b e1 bc 34 07 8d 3e 69 94 9c 3d
       0.4006268 -0.027478961 0.27544558 0.076454945
000200 6f 26 ac 3d 4c 32 ee 3d 2e bb 32 3e 41 aa c5 bd
       0.08405768 0.11630687 0.17454216 -0.09651614
000210 22 ab 6d bd 05 cf 81 bd c9 95 a3 3b c1 22 97 bd
       -0.058024533 -0.06338314 0.004992221 -0.07379676
000220 4a ee 28 3d 3f 8b 84 3e 4f 25 05 be 54 39 09 3e
       0.041242875 0.25887486 -0.13002513 0.13400775
000230 b6 72 9c bd 3f 3b ed 3e 9a 3b f3 bd 9f fd 10 3e
       -0.07639067 0.46334264 -0.118766025 0.14159249
000240 3b ca 4c 3d 59 0e 96 be d6 90 38 3e e6 91 ea 3e
       0.04999755 -0.2930782 0.18024 0.45814437
000250 78 d2 1d be 1f 03 07 3e bf a5 5b be 77 22 18 3d
       -0.15412319 0.13184784 -0.21449946 0.037142243
000260 33 36 38 3e 30 d5 c2 bd 7e f1 61 3d c2 4b 2a 3e
       0.17989425 -0.095133185 0.055161946 0.16630462
000270 bf bb a1 3d 0b f7 f0 bc d4 34 cc bc 18 f4 28 be
       0.07897138 -0.029414674 -0.024927534 -0.16499364
000280 ba 94 7d 3e ea d6 9f 3e 8a 14 4a 3e 53 79 1c 3e
       0.24763766 0.31218654 0.19734398 0.15280657
000290 55 23 9a 3c f7 fa 40 be bc 5c fe 3c 26 65 b8 bd
       0.018815676 -0.18845735 0.031050079 -0.090036675
0002a0 ce 99 89 3c 11 8c b9 bc bb 6d a0 3e 53 1f 0d 3f
       0.016796973 -0.022649797 0.31333718 0.5512592
0002b0 21 a6 bf 3e 9f eb 40 3f 4f 9b 9c 3d 13 78 03 3d
       0.37431434 0.7535953 0.0764681 0.032096934
0002c0 5f a4 b8 3e a1 20 e3 bb f6 ac d2 3e e3 91 80 3e
       0.36062905 -0.00693138 0.41147584 0.25111303
0002d0 6b 3d 7a 3d 5c 98 0a 3f ea 32 83 be 89 9c 3a 3d
       0.06109373 0.5413873 -0.25624782 0.04555944
0002e0 d6 a7 6a 3e 10 3b 05 bd 46 44 a0 3e f7 61 62 3d
       0.22915587 -0.03252703 0.31302088 0.055269208
0002f0 d3 8a 6a 3e 59 58 41 3e 41 23 6d 3e 17 46 64 be
       0.2290452 0.18881358 0.2315798 -0.22292362
000300 05 34 a6 bd 19 68 4d bd 25 6b 0f bd 32 a6 a2 bd
       -0.08115391 -0.050148103 -0.03501429 -0.079418555
000310 2a ff 90 be cd d7 f6 bc 0b fe 1c be c4 10 fd bd
       -0.28319675 -0.030132199 -0.15331285 -0.123567134
000320 c9 0f 6e 3c 5c 76 b6 3d 7f 95 f8 3e 94 d2 80 3d
       0.014530131 0.08909294 0.48551556 0.062901646
000330 16 90 3d 3d 8d 9a 79 3e c1 ec 8e 3e f3 f8 36 be
       0.04627999 0.24375363 0.27915004 -0.17868404
000340 e5 47 25 3d f0 d3 1c 3d a3 8c a8 3d 6f e3 23 3e
       0.040351767 0.038288057 0.08229949 0.16004728
000350 34 10 2d be a4 95 26 be 78 eb 1c be 91 64 5e 3e
       -0.16900712 -0.16268021 -0.15324199 0.2171805
000360 c5 87 f8 3c ae e4 52 be f2 96 e1 bc e1 71 e8 bc
       0.030338177 -0.20595047 -0.027537797 -0.028374614
000370 ad 5b 08 3e 61 35 7c be 7a 35 b1 3d 7f 10 a8 3c
       0.13316222 -0.24629737 0.08652778 0.020515678
000380 3a 59 10 3e 51 01 49 3f d7 80 2d 3f ef 28 43 bc
       0.14096537 0.78517634 0.6777472 -0.011911615
000390 ed 67 44 be 82 34 a1 38 43 e1 e9 bc 6c 9c f9 bb
       -0.1918027 7.6868586e-05 -0.028549796 -0.007617524
0003a0 2c e0 19 3f ca 1b f0 3e 82 6e 31 3f c7 ad 4b 3f
       0.60107684 0.468962 0.69309247 0.7956204
0003b0 4c f5 d7 3e 93 55 15 3f 46 eb 29 3f 3a 4a fd bd
       0.42179334 0.583337 0.66374624 -0.12367673
0003c0 bf c2 59 3f 9e 8d d0 bd fc 7b 18 3f 43 61 39 3f
       0.85062784 -0.10183261 0.59564185 0.72414035
0003d0 b7 18 55 bb 09 62 2d 3f d4 f2 72 be 05 d4 0b 3f
       -0.0032515952 0.67727715 -0.23725444 0.5462039
0003e0 3e e4 d3 3e cd b0 e9 bd c8 f8 5a 3f 66 05 4b 3f
       0.41385072 -0.11410675 0.8553586 0.7930511
0003f0 fb 6e 3d 3f 51 7d ce ba d5 f8 2b 3f e1 14 e2 3d
       0.7399747 -0.00157539 0.6717656 0.110391386

h2.bias f4 [16]
000000 d2 44 8b 3d a1 d7 96 be 20 a0 ab 3c 48 55 9a 3e
       0.06800236 -0.29461387 0.020950377 0.3014319
000010 41 ea 24 be 9d 12 b6 bd bf fd a4 bc d2 a8 ae 3d
       -0.16104986 -0.08890269 -0.020140527 0.08528294
000020 f5 dd 86 3e 4b b4 97 3e ca 04 ff 3d 0f 9f ec 3d
       0.26341215 0.2962974 0.12452085 0.115537755
000030 5d 3a aa 3c 72 84 00 be 27 4c 70 be bd d8 88 3c
       0.020779783 -0.12550524 -0.2346655 0.016704911

h3.weight f4 [8, 16]
000000 b9 40 85 3e 2d ae fc 3d 70 7b 8f 3d b3 01 1f 3f
       0.26025942 0.12337909 0.07005966 0.6211197
000010 b4 89 20 3e 69 59 37 3e 2f c5 91 3e 06 7b 57 3f
       0.1567753 0.17905201 0.28470752 0.84172094
000020 1e 32 08 be c2 38 24 be cc 5e da bd ab a1 1a 3e
       -0.13300368 -0.16037276 -0.10662612 0.15100734
000030 7f 67 90 3a 46 0a 14 bc 1b 67 c8 3e a4 50 d2 3e
       0.0011017172 -0.0090356525 0.39141163 0.4107715
000040 60 57 1c bf 53 4f e6 be ca 4b 8c be a1 b8 6d 3d
       -0.61070824 -0.44982395 -0.27401572 0.058037404
000050 24 db 11 bf eb 1f ae bd 66 2f 56 be 89 ab 04 be
       -0.5697501 -0.085021816 -0.20916519 -0.1295606
000060 0c c2 bb 3d 31 81 90 3e d5 7c 49 3e ee f4 74 be
       0.09167871 0.28223565 0.19676526 -0.23921558
000070 f6 c1 a0 be 30 44 81 bd d5 08 4a bf db a8 b3 bd
       -0.3139798 -0.06311834 -0.78919727 -0.08772441
000080 89 a6 26 be 69 cc 47 be 06 f3 68 be e3 76 86 be
       -0.16274466 -0.1951157 -0.22748956 -0.26262578
000090 2e 49 06 bd 20 3f 81 be 32 72 5e be 22 bb b2 bd
       -0.032784633 -0.25243473 -0.2172325 -0.08727099
0000a0 54 79 dd 3e 24 85 a4 3e c1 1b c9 3e a7 f1 bf be
       0.4325663 0.32132828 0.39278987 -0.37489054
0000b0 e2 a3 b6 be 97 12 de 3a e2 4f da be 09 8e ad be
       -0.35671908 0.0016942796 -0.4263907 -0.33897427
0000c0 93 ff 99 be 2e 8f 56 bd a4 62 2b be 05 28 88 bd
       -0.300778 -0.05238264 -0.16736847 -0.06648258
0000d0 0f d0 1b be ff 7b 9b bd c1 12 df bd 5e b6 0d 3c
       -0.15216087 -0.0759201 -0.10892249 0.008649437
0000e0 fd 40 ba be 3f 87 96 be 09 6d 1b 3e 80 99 08 3e
       -0.36377707 -0.2940006 0.15178312 0.13339806
0000f0 9b 36 04 bd 46 ad 75 be 84 f0 c8 bd 96 fc 30 3e
       -0.03227864 -0.2399188 -0.098115 0.17283854
000100 bd c6 5e 3d 40 1f a2 3d ad c4 3c 3c bb a3 50 3f
       0.05438875 0.07916117 0.011521501 0.8149983
000110 44 fb 08 3e e1 b1 ea 3e ee 4e 26 3e 6e 67 5f 3f
       0.133771 0.45838836 0.16241047 0.87267196
000120 20 bf 53 be 3c da 24 be 0f 28 03 be bc 07 63 bd
       -0.20678377 -0.16098875 -0.1280825 -0.055427298
000130 73 84 08 3e 05 fe 33 3e fc c4 0e 3e b5 fc e3 3e
       0.13331775 0.1757737 0.13942331 0.44528738
000140 72 62 8b be 98 be c2 3c 77 5b 85 be db ad ed bd
       -0.27223545 0.023772523 -0.26046345 -0.11605426
000150 5a 40 1f be c6 30 b7 be 71 de af be 89 1c 14 be
       -0.15551892 -0.357794 -0.34349397 -0.1446401
000160 f6 45 9c 3e 10 b6 e7 3e fd 25 b5 3e 10 0f 14 be
       0.30522126 0.4525609 0.35380545 -0.14458871
000170 ba f9 82 be a3 ce cf 3c ee 5a 59 bf 7f 46 22 3e
       -0.2558115 0.025367087 -0.8490437 0.15847205
000180 eb 45 f4 3c a5 db da be 12 3f 0b 3d eb af e0 bd
       0.029818496 -0.427457 0.033995695 -0.10971054
000190 a8 6c 92 bd 73 b7 39 bd 23 88 57 be 6b 8d 9b bc
       -0.07149631 -0.045340966 -0.21048026 -0.018988332
0001a0 32 f5 6c be 69 00 a5 3d 53 65 c6 3d e2 e9 0d 3e
       -0.2314041 0.08056719 0.09687295 0.1385875
0001b0 ae cf d0 3d 56 5b a3 be 32 97 77 be 70 39 6e be
       0.10195862 -0.3190562 -0.2417877 -0.23264098
0001c0 a8 a6 65 3e 5e 1f b1 3d 5d fd 75 3e 28 37 29 3f
       0.22426856 0.08648561 0.24022432 0.66099787
0001d0 82 d1 99 3e f7 53 c5 3e a1 80 7e 3c c1 9f 11 3f
       0.30042654 0.38540623 0.015533597 0.5688439
0001e0 3d b0 1b be 46 29 73 be aa 38 08 be a9 b8 bd bd
       -0.15203948 -0.23746213 -0.13302866 -0.09263737
0001f0 57 88 86 3d 04 f9 45 3e 42 80 bd 3d e8 19 74 3e
       0.065689735 0.19333273 0.09252979 0.23838007

h3.bias f4 [8]
000000 63 81 e2 3d a5 a2 c2 3e de eb c9 3e 54 a1 2b 3d
       0.11059835 0.38014713 0.39437765 0.0419019
000010 a8 1b 78 3d f0 09 91 3e d3 22 db bd b7 1b 5d bd
       0.06057325 0.28327894 -0.107000016 -0.05398151

h4.weight f4 [1, 8]
000000 29 6c 0f bd cb 24 bb 3e 70 5f a4 3e e6 b0 83 3e
       -0.03501526 0.36551508 0.32104063 0.257209
000010 85 29 09 bd 2a cd 9a 3e 99 88 51 3e c6 36 e1 bc
       -0.03348686 0.30234653 0.20462264 -0.027491938
