src/models/saved_models/best_model_lr0.0001_roc_auc0.9419217160980964.pt (torch, 23973 bytes, 9 tensors)

input.weight f4 [64, 30]
0	0xbc0b5a7b	-0.008505459
1	0x3e0bf180	0.13666344
2	0x3e3c9f33	0.18420105
3	0xbde8d2ac	-0.113683075
4	0x3de84fd1	0.11343349
5	0x3da096b5	0.07841245
6	0xbe07d0fe	-0.13263318
7	0x3e31a547	0.17348205
8	0xbe0580f2	-0.1303747
9	0xbd3dfa22	-0.046381123
10	0x3e23b91b	0.15988581
11	0xbc36bdaf	-0.0111536225
12	0x3d155d96	0.036466204
13	0xbd59f215	-0.053209383
14	0x3db34903	0.0875416
15	0x3de2eabd	0.11079929
16	0x3d30c364	0.04315509
17	0x3d543267	0.05180588
18	0x3e81f2a1	0.25380424
19	0xbd983420	-0.07431817
20	0x3d5c6f81	0.053817276
21	0x3e430bcd	0.1904747
22	0x3df34778	0.11878866
23	0xbe12c7dc	-0.14334053
24	0x3e4a7cd5	0.19774182
25	0xbaf094db	-0.0018354909
26	0xbe1b2518	-0.15150869
27	0x3dc287c2	0.0949855
28	0x3ca36f49	0.019950526
29	0xbe325053	-0.17413454
30	0xbe0b01b9	-0.13574876
31	0xbdbfaf60	-0.09359622
32	0xbd9315b8	-0.07181877
33	0x3d6d1bf9	0.057888005
34	0x3e1a8b91	0.15092303
35	0xbdd9482c	-0.10609469
36	0x3d9a307c	0.07528779
37	0x3e07b0e5	0.13251074
38	0xbe39abb8	-0.18131912
39	0xbe22e71a	-0.15908471
40	0x3cac380c	0.021022819
41	0x3d90b275	0.07065288
42	0xbdc30cdf	-0.09523939
43	0xbe2a7ab9	-0.16648377
44	0xbe560e29	-0.20903839
45	0xbdb5def5	-0.08880416
46	0x3d859284	0.06522086
47	0x3d27e051	0.04098541
48	0xbdba7568	-0.09104425
49	0x3e0cdf0c	0.1375696
50	0x3dc5d58e	0.09659873
51	0xbdc86314	-0.09784523
52	0x3dfb5138	0.122713506
53	0xbda00da3	-0.07815101
54	0xbdecb909	-0.1155873
55	0x3c999ca8	0.018751457
56	0xbdd24501	-0.10267068
57	0x3aa35853	0.0012462236
58	0x3dfc5589	0.12321002
59	0xbdd73668	-0.10508424
60	0xbd497a0c	-0.04918866
61	0x3e018b52	0.12650803
62	0x3e3276ce	0.17428133
63	0x3e5d201c	0.2159428
64	0xbe1cc29a	-0.1530861
65	0x3dbb6e56	0.09151904
66	0xbe0b48a8	-0.13601935
67	0xbdd2a8b5	-0.102860846
68	0xbd55e01d	-0.052215684
69	0x3d88a4be	0.06672047
70	0xbe02c6b5	-0.12771113
71	0xbdaef3f4	-0.08542624
72	0xbe184a76	-0.14872155
73	0xbe0f90cc	-0.1402008
74	0xbd8989e7	-0.06715756
75	0x3e4ee84b	0.202058
76	0x3e2b56dc	0.16732353
77	0x3e0674a2	0.1313043
78	0x3e1a7235	0.15082629
79	0xbe14c30d	-0.14527531
80	0xbe005e3c	-0.12535948
81	0x3cf9c435	0.030489067
82	0x3d44bbfd	0.048030842
83	0xbd7ee867	-0.062233355
84	0xbd6634a4	-0.056202546
85	0xbdfff830	-0.1249851
86	0x3db10390	0.086432576
87	0xbca759c6	-0.02042855
88	0xbd971bbd	-0.073783375
89	0x3daca740	0.08430338
90	0x3d127471	0.03575558
91	0x3e264ed8	0.16241014
92	0xbd7bc337	-0.06146547
93	0xbe0898eb	-0.13339584
94	0xbe3c1105	-0.18365867
95	0xbe25c4aa	-0.16188303
96	0x3dae322b	0.085056625
97	0xbe80d5e3	-0.25163183
98	0xbe2c7906	-0.16843042
99	0x3d8b987d	0.06816194
100	0x3e7c2152	0.24622086
101	0xbdc685f2	-0.09693517
102	0xbd9222df	-0.071355574
103	0xbde0e076	-0.109803125
104	0x3d83243d	0.06403396
105	0xbd3a4f1c	-0.0454856
106	0x3e1343b1	0.14381291
107	0xbda38472	-0.07984246
108	0x3e2bec44	0.16789347
109	0xbdb11f5e	-0.08648561
110	0x3ccc2473	0.024919724
111	0xbd3db6c2	-0.04631687
112	0xbde47afc	-0.1115627
113	0x3d33a931	0.043862525
114	0x3e3147c2	0.1731253
115	0x3d8b5685	0.06803612
116	0xbe0b1827	-0.13583432
117	0xbd858f54	-0.06521478
118	0xbdf89675	-0.121380724
119	0xbd94442f	-0.072395675
120	0x3d8caca7	0.06868868
121	0xbe439fa0	-0.19103861
122	0x3d84126c	0.06448826
123	0x3d996ab2	0.07491054
124	0xb6a3d687	-4.882753e-06
125	0xbe1941de	-0.14966533
126	0xbd721d83	-0.059110176
127	0x3d96ee65	0.07369689
128	0x3d976e59	0.07394094
129	0x3e2692cf	0.1626694
130	0x3cda9956	0.026684444
131	0xbda559db	-0.08073779
132	0x3d485952	0.048913307
133	0x3dff25b1	0.12458361
134	0x3c89f640	0.016841054
135	0xbd9cf4a3	-0.07663848
136	0x3e10c41d	0.14137311
137	0xbd8dabe5	-0.06917552
138	0xbc94a420	-0.018144667
139	0xbd987ccf	-0.0744568
140	0x3e3c5858	0.18393075
141	0x3db9f0e2	0.09079148
142	0x3e06223d	0.13098998
143	0x3d3c1eb4	0.04592772
144	0x3dcce1f9	0.10004038
145	0x3dac971e	0.08427261
146	0xbe4e7421	-0.20161487
147	0x3e75f91e	0.24020812
148	0xbb194629	-0.0023387766
149	0xbdfe998c	-0.124316305
150	0xbd9420fd	-0.072328545
151	0x3dc432a6	0.09579973
152	0x3e2b46c5	0.16726215
153	0xba6d06d1	-0.0009041848
154	0xbd5ac94d	-0.05341463
155	0xbe010b64	-0.12602001
156	0x3bd6b851	0.006552734
157	0x3de9964f	0.11405622
158	0x3d19d235	0.037553985
159	0xbe646d8e	-0.22307417
160	0x3e5de017	0.21667515
161	0xbdcea32c	-0.10089716
162	0x3c6b84d9	0.014374935
163	0x3ddd1fd1	0.10797084
164	0xbdafe2e8	-0.08588201
165	0xbdb42bbd	-0.08797405
166	0xbe7d5d14	-0.24742538
167	0x3e35f409	0.17768873
168	0x3daede94	0.08538547
169	0x3de2034c	0.11035785
170	0x3cc24afb	0.023717394
171	0xbe069033	-0.13140945
172	0xbe621bf7	-0.2208098
173	0x3e18c4c2	0.14918807
174	0xbde3beae	-0.11120354
175	0xbe448ff5	-0.1919554
176	0x3e0857f2	0.13314798
177	0xbe0c0672	-0.13674334
178	0xbdd73cd2	-0.105096474
179	0x3c935972	0.017986987
180	0xbdae2211	-0.085025914
181	0x3db1ce92	0.08681978
182	0x3bce781e	0.00630094
183	0xbd205eab	-0.039152782
184	0x3e89620a	0.2683261
185	0x3bb7b212	0.0056059444
186	0x3c218621	0.009858639
187	0xbe4594c8	-0.19295037
188	0xbe02ade6	-0.1276165
189	0xbe0b1630	-0.13582683
190	0x3ca1b77b	0.01974081
191	0xbd83c912	-0.064348355
192	0xbd1fd078	-0.03901717
193	0xbd33fd09	-0.043942485
194	0xbe34b9d0	-0.17649007
195	0xbdfd69ef	-0.12373721
196	0xbd935c3a	-0.07195325
197	0xbdab940a	-0.083778456
198	0xbd8e1985	-0.06938461
199	0xbd862c4c	-0.06551418
200	0xbe310180	-0.17285728
201	0xbdffcfbb	-0.12490793
202	0x3d7bad0e	0.061444335
203	0xbe16c58b	-0.14723794
204	0xbe3acdf8	-0.18242633
205	0x3df90e6e	0.12160955
206	0xbbe6e3d7	-0.0070462036
207	0xbc9bbfef	-0.01901242
208	0x3d82f5e5	0.06394557
209	0xbd21c8dd	-0.0394982
210	0xbd513a5c	-0.051081046
211	0xbd9c281c	-0.07624838
212	0x3e75434a	0.2395145
213	0xbdffbfbd	-0.12487743
214	0xbe38bba4	-0.18040329
215	0x3e28525d	0.16437669
216	0x3e3843a4	0.17994553
217	0xbe112da3	-0.14177565
218	0x3e857008	0.26062036
219	0xbcf48d8f	-0.029852657
220	0x3d021f92	0.03176839
221	0x3e356234	0.17713243
222	0x3dbcef5b	0.09225341
223	0xbd1a51de	-0.03767573
224	0x3dfb9075	0.12283412
225	0x3dce5269	0.10074312
226	0xb94efbe3	-0.00019739526
227	0x3de82781	0.1133566
228	0x3e2950ad	0.16534682
229	0xbc6877be	-0.014188705
230	0x3d93c860	0.07215953
231	0xbd8cc043	-0.068726085
232	0xbe19a375	-0.1500376
233	0xbd0ab154	-0.03386052
234	0xbe2ffb10	-0.17185616
235	0xbe527ea0	-0.20556116
236	0xbd53c350	-0.051699936
237	0x3e0d00a6	0.13769779
238	0xbcf22748	-0.029559746
239	0x3e008355	0.12550099
240	0xbd608826	-0.05481734
241	0x3e307000	0.17230225
242	0xbdb4d628	-0.088299096
243	0xbd284bd9	-0.04108796
244	0x3c1390c6	0.009006685
245	0xbdf57da1	-0.119868524
246	0x3dc17fbd	0.09448192
247	0xbe183941	-0.1486559
248	0x3c2f23de	0.010689704
249	0x3db034c2	0.08603813
250	0xbe0be26d	-0.13660593
251	0x3df62477	0.12018674
252	0x3d6cb86e	0.057793073
253	0xbe2d2139	-0.16907205
254	0xbdf97afa	-0.12181659
255	0xbe069c72	-0.13145617

input.bias f4 [64]
0	0x3bf5c453	0.0075002103
1	0x3e4cb96c	0.19992608
2	0x3bebca1f	0.0071957256
3	0x3e037e8e	0.12841246
4	0x3e0bccd5	0.13652356
5	0x3e57b3c5	0.2106467
6	0xbd503aea	-0.050837435
7	0x3e7e625b	0.24842207
8	0x3e2488fc	0.1606788
9	0xbdd4e0d7	-0.10394447
10	0xbcecd856	-0.02891175
11	0x3d5c99aa	0.053857483
12	0x3ecaeffd	0.39636222
13	0x3e6be14a	0.2303516
14	0x3ccc12f7	0.024911387
15	0x3e7b91c2	0.24567321
16	0x3e8b7905	0.27240768
17	0xbc133671	-0.008985148
18	0x3e0051d2	0.12531212
19	0x3e14a406	0.14515695
20	0x3e538292	0.20655277
21	0x3d86e79e	0.06587146
22	0x3d1eecdf	0.038800117
23	0x3ea2aa00	0.31770325
24	0x3e090c5e	0.13383624
25	0x3e116f6f	0.14202665
26	0x3e1e4df8	0.1545943
27	0x3ee521f2	0.4475246
28	0x3ec8a764	0.3919021
29	0x3e547f3f	0.20751666
30	0x3daa2872	0.083084956
31	0xbca3435d	-0.019929582
32	0xbd6dd8a8	-0.058067948
33	0xbe3a5b88	-0.18198979
34	0x3e946db3	0.28989944
35	0xbb20f77a	-0.002456157
36	0xbe0bbb52	-0.13645676
37	0x3ca881e7	0.020569755
38	0x3e5f6cdd	0.21818872
39	0x3e42686e	0.1898515
40	0x3ded29e0	0.11580253
41	0x3e8dddf2	0.27708393
42	0x3dba3564	0.09092215
43	0x3ca71498	0.020395562
44	0x3d84eec7	0.06490856
45	0x3dd19cd0	0.10234988
46	0xba96e38c	-0.0011511906
47	0xbd9b2a44	-0.07576421
48	0x3e00088f	0.12503265
49	0x3e816bda	0.25277597
50	0x3ca3014a	0.019898076
51	0xbd84a373	-0.06476488
52	0x3eb0f5ac	0.34562433
53	0xb909056c	-0.00013067358
54	0xbe04c3d9	-0.12965335
55	0x3e08fbbd	0.1337728
56	0xbe28eb71	-0.16496064
57	0x3de97ffd	0.11401365
58	0x3cd2d7ce	0.02573767
59	0xbcff4e62	-0.031165306
60	0xbc687e1f	-0.014190226
61	0x3d508032	0.050903507
62	0x3df06032	0.11737098
63	0x3dd3a405	0.103340186

h1.weight f4 [32, 64]
0	0x3e648f5d	0.22320314
1	0xbc7263ae	-0.014794273
2	0x3ca75b77	0.020429356
3	0x3e777eab	0.24169414
4	0x3e45bf31	0.19311215
5	0x3e21e29e	0.15809104
6	0xbe006de2	-0.12541917
7	0x3ea964ce	0.3308472
8	0xbe089478	-0.13337886
9	0x3d6c4a1e	0.05768787
10	0x3d145d37	0.03622171
11	0x3da0ee55	0.07857958
12	0x3ea9fdd6	0.33201474
13	0x3e592fd9	0.21209659
14	0x3e6bafc6	0.23016271
15	0x3c3f32dd	0.011669842
16	0x3e913389	0.2835963
17	0x3e20201d	0.1563725
18	0x3e262ec9	0.16228785
19	0xbdf3748a	-0.118874624
20	0x3e43062d	0.19045325
21	0x3e3b1bba	0.18272296
22	0x3da26356	0.07929103
23	0x3e3d245a	0.18470898
24	0x3ea9fb5d	0.33199587
25	0xbbe92f84	-0.00711626
26	0x3e62f7dc	0.22164863
27	0x3df28797	0.11842268
28	0x3e04cf40	0.12969685
29	0xbd2a964e	-0.041647248
30	0xbc61ceb2	-0.01378219
31	0x3dd2414e	0.10266362
32	0x3b30e991	0.0026994685
33	0x3d0a4505	0.03375723
34	0xbd94f4eb	-0.07273277
35	0x3d98b461	0.074562795
36	0x3e3ac41e	0.18238875
37	0x3df31bbb	0.118705235
38	0x3e658630	0.2241447
39	0xbac73aa1	-0.0015199968
40	0xbdcf8c2a	-0.10134156
41	0x3e30c77e	0.172636
42	0x3e1d3050	0.15350461
43	0x3bee50d2	0.007272818
44	0x3d7d3ba6	0.061824463
45	0x3e35587b	0.17709534
46	0xbda4c60f	-0.08045589
47	0x3e42e326	0.19031963
48	0xbdff36cf	-0.12461626
49	0x3d8dcb20	0.06923509
50	0x3e159604	0.14608008
51	0xbd520ac2	-0.05127979
52	0xbcc6d367	-0.024270726
53	0xbd1294e9	-0.035786543
54	0x3d5f66db	0.05454145
55	0xbe0b3cce	-0.13597414
56	0x3dee3cc2	0.116326824
57	0x3d8a597c	0.06755349
58	0x3d84d9cc	0.06486854
59	0x3e0c5828	0.13705504
60	0x3e68929f	0.22712182
61	0x3d061a0d	0.032739688
62	0xbddcd584	-0.107829124
63	0xbdcf26ca	-0.1011482
64	0xbdc02e8b	-0.09383877
65	0x3dab45cd	0.08362923
66	0x3d624b8c	0.05524783
67	0xbd91f1b0	-0.07126176
68	0xbe00e0f6	-0.12585816
69	0xbd63c42b	-0.055607002
70	0x3deeee92	0.116665974
71	0xbd228501	-0.039677624
72	0x3d266a54	0.040628746
73	0xbd3193ce	-0.04335385
74	0x3dcb3409	0.09922034
75	0x3d5a4a0a	0.053293265
76	0xbd917300	-0.07102013
77	0x3d0dbf79	0.03460643
78	0xbe0b9516	-0.1363109
79	0xbdd7a1f7	-0.10528939
80	0xbd027d0e	-0.031857543
81	0x3d588399	0.052859876
82	0x3dbfb212	0.09360136
83	0x3e425515	0.18977769
84	0xbd58da18	-0.052942365
85	0xbdb53437	-0.0884785
86	0x3d3768df	0.044777747
87	0x3d9b1469	0.07572252
88	0xbe226431	-0.15858532
89	0x3d8e2c25	0.06942014
90	0x3dcf44f5	0.101205744
91	0x3de85f62	0.11346318
92	0xbda7e663	-0.0819824
93	0x3cdcc9a6	0.026951622
94	0x3d902ca1	0.07039762
95	0x3bea5d6b	0.0071522496
96	0x3d8b9281	0.06815053
97	0x3e0c6852	0.1371167
98	0x3dca96c3	0.09892037
99	0xbe207300	-0.15668869
100	0xbd29790f	-0.041375216
101	0x3ceea80c	0.029132865
102	0x3d428d27	0.047497895
103	0x3c4a0cef	0.012332185
104	0x3e372606	0.17885599
105	0x3cc71673	0.024302697
106	0xbd078666	-0.033087157
107	0x3e339011	0.17535426
108	0x3d28a80e	0.041175894
109	0xbd289936	-0.04116174
110	0x3df62f27	0.12020712
111	0x3dbeda31	0.093189605
112	0xbd04ead5	-0.032450516
113	0x3e004b47	0.12528716
114	0x3ca955ac	0.020670734
115	0x3ddac0b9	0.1068129
116	0x3ddef566	0.1088665
117	0x3cef6baa	0.029226143
118	0xbe9766d7	-0.29570648
119	0x3d341342	0.04396368
120	0x3c7a9ece	0.015296651
121	0xbd97e37e	-0.074164376
122	0x3c2b2ddc	0.010447945
123	0xbdc41020	-0.09573388
124	0xbc4e819c	-0.0126041435
125	0x3cd6af2f	0.02620658
126	0xbc2bd613	-0.010488051
127	0x3e0c2601	0.13686372
128	0x3d5bd026	0.053665303
129	0x3df88194	0.1213409
130	0x3e27759b	0.16353457
131	0xbc405df7	-0.011741153
132	0xbbd6f0ab	-0.0065594516
133	0x3d9b56ee	0.0758494
134	0x3d2e7498	0.04259166
135	0x3cdf2f4b	0.02724423
136	0x3dd4ea25	0.10396222
137	0xbde259e1	-0.11052299
138	0x3d617352	0.05504162
139	0x3d5a0341	0.05322576
140	0xb996040e	-0.0002861325
141	0xbb886754	-0.0041627083
142	0xbe89f49b	-0.26944432
143	0x3db2dd24	0.087335855
144	0xbd49fac3	-0.04931141
145	0xba8d10e9	-0.0010762486
146	0x3de7f928	0.1132682
147	0xbd722f49	-0.059127126
148	0x3dfcf126	0.12350683
149	0xbe1c69b1	-0.15274693
150	0x3d16ec6f	0.036846574
151	0x3d9f5647	0.07780128
152	0xbe9e00f1	-0.30860093
153	0x3c293fc2	0.010330142
154	0xbddc337d	-0.10752008
155	0x3d90995f	0.07060503
156	0x3db111e1	0.08645988
157	0x3d558df0	0.052137315
158	0x3d921574	0.07132998
159	0xbd3c8279	-0.046022866
160	0x3e26ac7c	0.16276735
161	0x3c8e51bc	0.017372958
162	0x3c56cccf	0.013110354
163	0xbdefc334	-0.11707154
164	0xbd708b61	-0.058726672
165	0x3d552e92	0.052046366
166	0xbdf249d3	-0.11830487
167	0xbd8d6525	-0.069040574
168	0xbd3879c8	-0.045038015
169	0xbdf08dba	-0.11745782
170	0x3d6b3f60	0.057433486
171	0x3e283465	0.16426237
172	0x3e2e5420	0.17024279
173	0x3d97f840	0.07420397
174	0x3d86bb57	0.06578701
175	0x3cbdf7e1	0.023189487
176	0x3cd4a0d1	0.02595559
177	0xbe13fb63	-0.14451365
178	0xbcfd0c61	-0.030889692
179	0x3ded74f2	0.11594571
180	0x3e318bf5	0.17338546
181	0x3d964779	0.07337851
182	0xbe20ed55	-0.15715535
183	0x3d854fcb	0.0650936
184	0xbd2bc734	-0.04193802
185	0xbe1226b0	-0.1427257
186	0xbd4ed500	-0.0504961
187	0xbdca6cd8	-0.098840415
188	0xbdcb6152	-0.09930672
189	0x3ca88b6a	0.02057429
190	0xbd23cd34	-0.03999062
191	0x3e447c12	0.19187954
192	0x3db4a235	0.08820001
193	0xbdcc6e22	-0.09981944
194	0xbd461278	-0.048357457
195	0x3e2eadd7	0.17058502
196	0x3cbcb3ec	0.023035012
197	0x3e391965	0.18076093
198	0x3d8b9ed0	0.068174005
199	0x3e0a88ae	0.13528702
200	0x3dd77b20	0.10521531
201	0xbd71a45c	-0.058994636
202	0x3d9459a4	0.0724366
203	0x3d934626	0.07191114
204	0x3e59d217	0.21271549
205	0x3e704ccf	0.234668
206	0x3e7d167a	0.24715605
207	0x3e501047	0.2031871
208	0x3d1dfed1	0.03857309
209	0x3ea2490b	0.31696352
210	0x3d4a5838	0.04940054
211	0xbd82680a	-0.063675
212	0xbdb1c45f	-0.08680033
213	0x3e4a03f7	0.19728075
214	0xbcbb7321	-0.022882046
215	0x3de71b9a	0.112845615
216	0x3dbecb56	0.09316127
217	0x3de83363	0.11337926
218	0x3e2a9330	0.1665771
219	0x3e2f10dd	0.17096277
220	0x3db11f63	0.08648565
221	0x3d347db2	0.044065185
222	0xbd5ac036	-0.053405963
223	0x3e1bf15f	0.15228795
224	0xbe005d42	-0.12535575
225	0x3daaaa58	0.08333272
226	0xbc89f2a6	-0.016839337
227	0x3e859ec3	0.26097688
228	0x3e07bad2	0.1325486
229	0x3e251baf	0.16123842
230	0x3e6c9942	0.23105338
231	0xbdf6772d	-0.1203445
232	0xbdd233c7	-0.10263782
233	0x3d993c90	0.074822545
234	0xbcb47bda	-0.022031713
235	0x3d7267c7	0.059181
236	0x3d96cc6e	0.073632106
237	0xbd29293f	-0.0412991
238	0xbdf9cd8d	-0.12197409
239	0xbcfdb03b	-0.030967822
240	0xbb74a0b5	-0.0037327234
241	0x3dd1701d	0.10226462
242	0xbbe80117	-0.007080208
243	0xbdf11ce0	-0.117730856
244	0x3d7f38fa	0.062310196
245	0xbe0d948d	-0.13826199
246	0x3dcb5740	0.09928751
247	0x3d7e1cf4	0.06203933
248	0x3cc77b28	0.024350718
249	0xbc2a4bce	-0.01039405
250	0xbddfe9a0	-0.10933232
251	0x3e6fff7f	0.23437308
252	0xbba30c53	-0.0049758344
253	0xbccf7464	-0.025324054
254	0x3d9b8732	0.07594146
255	0x3d97e8b9	0.07417435

h1.bias f4 [32]
0	0xbc59d1c7	-0.013294644
1	0x3e61391b	0.2199444
2	0x3ca73061	0.020408811
3	0xbccb8048	-0.024841443
4	0xbe33cb0e	-0.17557928
5	0x3e65383b	0.22384731
6	0x3e84e12f	0.2595305
7	0x3e3d0e81	0.18462564
8	0xbda337e3	-0.07969644
9	0x3dece3e9	0.11566908
10	0x3e12eab9	0.14347352
11	0x3d0efccb	0.03490905
12	0x3e224ede	0.15850398
13	0xbdbd65d0	-0.09247935
14	0x3df12c8c	0.11776075
15	0x3d31cd12	0.04340846
16	0x3e106708	0.14101803
17	0x3dbf06ef	0.09327494
18	0x3e657e1d	0.2241139
19	0x3c9c54a2	0.019083325
20	0xbdc3e76f	-0.09565627
21	0xbe0d1b59	-0.13779964
22	0xbc9ea88f	-0.019367484
23	0x3d077aaa	0.033075966
24	0x3d4c58b3	0.049889278
25	0x3e59b101	0.21258928
26	0xbce4036c	-0.027833663
27	0x3dcd7dca	0.10033758
28	0x3b510cb6	0.0031898445
29	0x3d9c8dca	0.076442316
30	0x3dd2b03b	0.102875195
31	0x3dd9a20e	0.106266126

h2.weight f4 [16, 32]
0	0xbe51e0be	-0.20495889
1	0x3e5a494e	0.21317026
2	0x3e55ef37	0.20892034
3	0xbda6e9e0	-0.08150077
4	0x3e0e04c6	0.13869008
5	0x3e0910d6	0.13385329
6	0x3e6d5b95	0.23179467
7	0x3c3d4af6	0.011553517
8	0x3d2acf62	0.041701682
9	0xbd779247	-0.060442235
10	0x3dadd449	0.08487756
11	0xbe135eae	-0.14391586
12	0x3db2557a	0.087077096
13	0xbd2b0a3f	-0.04175782
14	0x3e419b58	0.18906915
15	0xbd0848ac	-0.03327243
16	0x3e6716a1	0.22567226
17	0xbe0eb195	-0.1393493
18	0x3e660f5d	0.22466798
19	0x3e8c0d79	0.2735403
20	0xbe0e6f6c	-0.13909692
21	0xbcc3e8d5	-0.023914734
22	0x3e30300f	0.17205833
23	0x3e8b9a13	0.27265987
24	0xbd1002f1	-0.035159055
25	0xbcf8af9f	-0.03035718
26	0xbd089e0c	-0.03335385
27	0x3e870f3b	0.26378807
28	0x3e6e3e08	0.2326585
29	0x3d8eb097	0.069672756
30	0xbe1c686c	-0.15274209
31	0xbe238d9a	-0.15971985
32	0x3e0f7adb	0.1401171
33	0x3d9d072c	0.076673836
34	0x3c0e244f	0.008675649
35	0x3deb3e9b	0.114865504
36	0xbe00f77b	-0.12594406
37	0x3e88bf2a	0.26708347
38	0x3e47c8c4	0.1951018
39	0x3d4ef405	0.050525684
40	0x3e2438fd	0.16037364
41	0x3dd01cf2	0.10161771
42	0x3dea8b7a	0.11452384
43	0x3e6f3c88	0.23362935
44	0xbe825dd7	-0.2546222
45	0xbe02c5f8	-0.12770832
46	0x3d538d09	0.051648173
47	0x3d904a08	0.0704537
48	0xbdb3a53a	-0.08771749
49	0x3e7bd26e	0.24591991
50	0x3d0dd2f7	0.03462502
51	0xbe6befd0	-0.230407
52	0x3e50a2f6	0.20374665
53	0x3e4ddadc	0.2010302
54	0xbe84e9a3	-0.259595
55	0xbe72a700	-0.23696518
56	0xbe46a2b9	-0.19398011
57	0xbdd7c341	-0.105352886
58	0x3e61cfb3	0.22051887
59	0xbca36138	-0.019943818
60	0xbc69e43f	-0.0142756095
61	0xbe536e97	-0.20647655
62	0x3e9c4f96	0.3052947
63	0x3e73abb2	0.23795965
64	0x3d20d262	0.039263137
65	0x3d23b885	0.039970893
66	0xbe1b1936	-0.15146336
67	0x3e37b877	0.17941462
68	0xbde0104b	-0.10940608
69	0x3d82d33c	0.06387946
70	0x3e35f2f8	0.17768466
71	0x3e129548	0.14314759
72	0x3b88c013	0.0041732877
73	0x3dec9247	0.11551338
74	0x3dd4fc5a	0.10399695
75	0x3e306bd3	0.17228632
76	0xbd8636d3	-0.06553426
77	0xbde9b752	-0.11411919
78	0xbd66d390	-0.056354105
79	0x3e3cb858	0.18429697
80	0x3cc88b62	0.024480525
81	0x3e50e672	0.20400408
82	0x3d94ba92	0.07262148
83	0xbbaa0a5d	-0.0051892237
84	0x3e888cbd	0.26669875
85	0x3e42319c	0.18964237
86	0xbe0c9196	-0.13727412
87	0xbe03d827	-0.12875424
88	0xbe2ca2a8	-0.16858923
89	0xbdc891d1	-0.09793437
90	0x3e495a82	0.19663432
91	0x3e204d65	0.15654524
92	0xbe31e3ff	-0.1737213
93	0xbe5bdcd5	-0.2147096
94	0x3e8254f8	0.2545545
95	0x3e67b6cc	0.22628325
96	0x3e66cb14	0.22538406
97	0xbd4159a1	-0.047204617
98	0xbe1dd0ef	-0.15411733
99	0x3c4c8e4e	0.0124851
100	0x3d118e4b	0.03553609
101	0x3cafb2c2	0.021447543
102	0x3e3790d1	0.17926337
103	0x3e021731	0.1270416
104	0x3c890d75	0.01673005
105	0x3d13f59d	0.036122907
106	0x3e152f82	0.14568904
107	0x3e2110e3	0.15729098
108	0xbe361785	-0.1778241
109	0x3b9cd36c	0.0047859456
110	0x3defe458	0.11713475
111	0x3dd6a525	0.104807176
112	0xbd206472	-0.039158292
113	0xbce21c75	-0.02760146
114	0x3dbb29bc	0.091388196
115	0xbd911945	-0.07084898
116	0x3de6216a	0.11236842
117	0x3de13e6b	0.109982334
118	0xbe00d985	-0.12582977
119	0xbe8afb92	-0.27145058
120	0xbd9527a8	-0.072829545
121	0xbe2aebbd	-0.1669149
122	0x3deed94d	0.116625406
123	0x3cd50879	0.026005017
124	0xbcb99220	-0.022652686
125	0xbe1412ca	-0.14460292
126	0x3e117768	0.14205706
127	0xbb924450	-0.00446371
128	0x3e8c9189	0.27454785
129	0xbe29e426	-0.16590938
130	0x3cd62393	0.02614001
131	0x3d876036	0.06610148
132	0xbdcb9896	-0.09941213
133	0x3e60fe25	0.21971948
134	0x3c36b9e5	0.011152719
135	0x3e847996	0.25874013
136	0xbdc92b23	-0.09822681
137	0x3e5fb8db	0.2184786
138	0x3e3afed7	0.18261276
139	0x3e16e91b	0.1473736
140	0xbc615d2f	-0.013755127
141	0xbd12027a	-0.035646893
142	0x3dd29bcb	0.102836214
143	0x3e1e35bf	0.1545019
144	0x3cbaf91c	0.022823863
145	0x3e43358d	0.19063397
146	0x3d8f5ed4	0.07000509
147	0xbe6eaf0c	-0.23308963
148	0x3a37ca62	0.00070110534
149	0xbdbd9084	-0.0925608
150	0xbe301182	-0.17194179
151	0xbe255d66	-0.1614891
152	0x3dbd8a16	0.092548534
153	0xbd0a286d	-0.03372996
154	0x3e0bb92d	0.13644858
155	0x3ddb531b	0.107092105
156	0xbe2e560a	-0.17025009
157	0x3dc66287	0.09686761
158	0x3d1aea4e	0.037821107
159	0x3e33565b	0.17513411
160	0x3dbe68bb	0.092973195
161	0x3e1d6f37	0.15374456
162	0xbdcb7c0b	-0.09935769
163	0x3e1106cc	0.14162749
164	0xbe1d8722	-0.1538358
165	0x3e7bca06	0.24588785
166	0x3d6de12b	0.058076065
167	0x3e074226	0.13208827
168	0xbcb423cd	-0.021989727
169	0x3e2a0e8f	0.16607116
170	0x3da47e70	0.080319285
171	0x3d11959e	0.035543077
172	0xbe846376	-0.25857133
173	0xbe10b9bf	-0.14133357
174	0x3a9ad28a	0.0011812013
175	0x3cca5182	0.02469707
176	0x3e03ce19	0.12871589
177	0xba809e97	-0.0009812888
178	0xbd8126c9	-0.06306226
179	0xbe3c9606	-0.18416604
180	0x3d4b26d1	0.049597565
181	0xbca0c561	-0.019625368
182	0x3da0b880	0.078476906
183	0x3d4c4b09	0.049876247
184	0xbd3f0a66	-0.046640776
185	0x3da433ff	0.0801773
186	0xbb8757ef	-0.0041303555
187	0xbc77cb82	-0.015124204
188	0xbe44ab9a	-0.19206086
189	0x3db744f3	0.08948698
190	0x3dcd6600	0.100292206
191	0x3e3de65e	0.1854491
192	0x3c8eb8cd	0.017422104
193	0xbe30b3e0	-0.17256117
194	0xbe17733e	-0.14790055
195	0x3e15be53	0.14623384
196	0xbc18091f	-0.009279518
197	0x3e0dc42b	0.13844363
198	0x3e273f13	0.16332655
199	0x3e1c93e7	0.15290795
200	0xbd0862ca	-0.033297338
201	0xbdfdffef	-0.12402331
202	0x3e364ba6	0.17802295
203	0x3d4d93a4	0.05018963
204	0xbe0bcc73	-0.1365221
205	0x3e61dfd0	0.22058034
206	0x3e2bd937	0.1678208
207	0x3ddc441f	0.107551806
208	0x3de05f02	0.10955621
209	0xbdf1be47	-0.11803871
210	0xbe07c177	-0.13257395
211	0xbc7e40cd	-0.015518379
212	0x3e0d874c	0.13821143
213	0xbe1434c8	-0.1447326
214	0x3d91af08	0.07113463
215	0xbe1d0d29	-0.15337051
216	0xbdd51241	-0.10403872
217	0xbcaea0dc	-0.021316938
218	0xbe18199e	-0.14853522
219	0xbe3a0538	-0.18166053
220	0xbe2f3d81	-0.17113306
221	0x3e3544a4	0.17701966
222	0xbae312f5	-0.0017324375
223	0xbde0c301	-0.10974694
224	0x3e05554e	0.13020822
225	0xbe0fd299	-0.1404518
226	0xbca840a8	-0.020538643
227	0x3da9c81f	0.08290123
228	0xbd79b3f9	-0.06096265
229	0x3e266c2a	0.16252199
230	0xbbd0d597	-0.006373118
231	0x3d0c5020	0.0342561
232	0x3ce902c5	0.028443703
233	0x3dc2155f	0.094767325
234	0x3e3b8361	0.18311836
235	0x3d579662	0.05263365
236	0xbe17d958	-0.14829004
237	0x3c805588	0.015665784
238	0xbe217ee0	-0.15771055
239	0x3d9369c7	0.0719791
240	0x3ccf6940	0.025318742
241	0x3e053d24	0.13011605
242	0xbe18a946	-0.14908323
243	0x3c7c87c7	0.015413231
244	0xbdb80b6a	-0.08986552
245	0x3cbfeae1	0.023427429
246	0xbde7a3ac	-0.11310515
247	0x3be1adc1	0.006887168
248	0x3bb2a174	0.0054513756
249	0x3da80fe6	0.082061574
250	0x3d3b45d9	0.04572091
251	0x3d11f68c	0.035635516
252	0xbe15239b	-0.14564364
253	0xbc217f41	-0.009857
254	0xbbff0095	-0.007782052
255	0xbe028cda	-0.12749043

h2.bias f4 [16]
0	0xbd123c13	-0.035701822
1	0x3e5195ea	0.20467344
2	0x3e46203c	0.19348234
3	0x3e2d8523	0.16945319
4	0xbd56d9f5	-0.052453954
5	0x3da07a17	0.07835787
6	0xbdc5f22f	-0.096653335
7	0xbd500f3d	-0.050795782
8	0xbd205ce6	-0.039151095
9	0x3d9b893e	0.07594536
10	0xbe384ef4	-0.17998868
11	0x3e236804	0.15957648
12	0x3e2b5d9e	0.16734931
13	0x3e061c74	0.13096792
14	0x3dc0c4ad	0.09412513
15	0x3994e0b1	0.00028396168

h3.weight f4 [8, 16]
0	0x3e8e3835	0.27777258
1	0x3d267ca0	0.040646195
2	0x3d55e939	0.05222437
3	0xbda500f0	-0.080568194
4	0xbd442fd8	-0.04789719
5	0xbdb790da	-0.08963175
6	0xbe95c458	-0.2925136
7	0xbe42f16f	-0.19037412
8	0xbd1163dc	-0.035495624
9	0x3ea7420a	0.3266757
10	0x3e25a5b6	0.16176495
11	0x3df4b6d8	0.11948937
12	0x3e3476fd	0.17623515
13	0x3e14718d	0.14496441
14	0x3e8688e6	0.2627632
15	0xbd40e145	-0.047089834
16	0xbde6990d	-0.11259661
17	0xbde69e33	-0.11260643
18	0xbe13fc1c	-0.14451641
19	0x3cf370ed	0.029716933
20	0xbdd7819c	-0.10522768
21	0x3d8ab687	0.067730956
22	0x3dc83acf	0.09776842
23	0xbe923710	-0.28557634
24	0x3ce2980c	0.027660392
25	0x3e618e0f	0.22026847
26	0x3e10ce50	0.14141202
27	0xbe0ccf69	-0.13750996
28	0xbe78073a	-0.24221507
29	0x3e492134	0.19641572
30	0x3e8b702c	0.27234018
31	0xbe2aff14	-0.16698867
32	0xbe719baa	-0.23594537
33	0x3ea0f710	0.31438494
34	0x3e558c1e	0.20854232
35	0x3e768248	0.24073136
36	0x3e306af7	0.17228304
37	0x3d1ea1c7	0.0387285
38	0x3d221898	0.039574236
39	0x3e91ed8f	0.28501555
40	0x3d17f33f	0.037097212
41	0xbe5c5095	-0.21515115
42	0x3e4fda72	0.20298174
43	0x3ce26761	0.027637186
44	0x3be2b568	0.006918598
45	0xbe75c02c	-0.23999089
46	0xbe35a9ee	-0.17740604
47	0x3e591f3e	0.21203324
48	0xbe29f3e8	-0.16596949
49	0x3dcf6199	0.10126037
50	0x3c867770	0.016414374
51	0xbdb7e5dc	-0.08979389
52	0xbdfdc293	-0.12390628
53	0xbe9fd2e9	-0.312156
54	0x3d8c85f5	0.06861488
55	0x3e6cd477	0.23127924
56	0x3e1859d3	0.14878015
57	0x3e226924	0.1586042
58	0xbe364ce7	-0.17802773
59	0xbe5fdd62	-0.21861795
60	0x3e0d5cd5	0.13804944
61	0xbddd7c62	-0.1081474
62	0xbe19863a	-0.1499261
63	0xbe24445b	-0.160417
64	0x3eb24974	0.34821665
65	0xbe854bd4	-0.26034415
66	0x3e4178d2	0.18893746
67	0x3dbe5b47	0.092947535
68	0xbe0a284a	-0.13491932
69	0x3e5bea9f	0.2147622
70	0xbe86b1ed	-0.26307622
71	0x3e36241a	0.17787209
72	0xbd695848	-0.056968957
73	0x3ec3f3c7	0.38271925
74	0x3dcf444b	0.10120448
75	0x3e05dddb	0.13072912
76	0x3e91fd22	0.28513438
77	0xbd478597	-0.048711386
78	0x3ea1adc9	0.315779
79	0xbe325423	-0.17414908
80	0xbd11bb78	-0.035579175
81	0xbe85e32f	-0.2614989
82	0x3b94552d	0.0045267553
83	0xbde4fa4f	-0.11180555
84	0x3e0fbf4e	0.1403782
85	0xbda82f00	-0.082120895
86	0xbe6ce0fb	-0.23132698
87	0x3e03bdfc	0.12865442
88	0x3dcc24ff	0.09967994
89	0x3e6200e6	0.22070655
90	0x3e4bb564	0.19893414
91	0x3d5f3f8c	0.054503962
92	0xbe878b9a	-0.26473695
93	0xbd99d5e7	-0.07511502
94	0xbdc6dfe9	-0.09710676
95	0xbda82132	-0.082094565
96	0xbe323758	-0.17403924
97	0x3ec131a8	0.37733197
98	0x3e662e8d	0.22478695
99	0x3e56b865	0.20968778
100	0x3e7e85d6	0.24855742
101	0x3e3ca09d	0.18420644
102	0x3e06a563	0.13149028
103	0x3d6d7c5e	0.057979934
104	0xbe569549	-0.20955385
105	0xbe6eac7c	-0.23307985
106	0xbe55eb39	-0.20890512
107	0x3ed9f97b	0.4257315
108	0x3d0b727f	0.03404474
109	0xbdb5ed98	-0.08883208
110	0x3db997c6	0.090621516
111	0x3e6fa36a	0.23402181
112	0x3c459987	0.01206053
113	0x3e078902	0.13235858
114	0xbd8a405a	-0.06750555
115	0xbe83468e	-0.25639766
116	0xbe2db17a	-0.16962233
117	0xbdeee7a8	-0.11665279
118	0xbe9332e1	-0.28749755
119	0xbde8581e	-0.11344932
120	0x3cdaf88d	0.026729846
121	0x3dc1da32	0.094654456
122	0xbe5d96d8	-0.21639574
123	0xbe83b8e4	-0.25726998
124	0xbe79dc07	-0.2440034
125	0xbe12ea0a	-0.14347091
126	0xbe891e32	-0.2678085
127	0xbbe642b2	-0.0070269937

h3.bias f4 [8]
0	0xbc517031	-0.012783096
1	0x3e83cac0	0.25740623
2	0x3e8d920c	0.27650487
3	0xbd973758	-0.07383603
4	0xbcc9e192	-0.024643693
5	0x3e2baf5b	0.16766112
6	0xbe4d73e5	-0.20063742
7	0xbde1ea15	-0.11030976

h4.weight f4 [1, 8]
0	0x3ee561a4	0.44801056
1	0x3e952cf6	0.29135865
2	0xbe9afe29	-0.30272034
3	0x3e69c520	0.22829103
4	0x3ef86e80	0.48521805
5	0x3e1a68bf	0.1507902
6	0xbef0ba14	-0.47016966
7	0x3e91c34d	0.28469315
