src/models/saved_models/best_model_lr0.0001_roc_auc0.953990218372618.pt (torch, 23957 bytes, 9 tensors)

input.weight f4 [64, 30]
0.14321624 -0.020028012 -0.106162176 -0.098536946 -0.0922616 0.060308818 -0.044738553 0.018886516
-0.13831966 -0.017535757 -0.09033257 0.18810076 0.010756677 0.05555817 -0.005200541 0.13179593
-0.199942 -0.15126714 -0.18054295 0.26124927 0.1634046 -0.09003192 -0.019843537 0.1171273
-0.105191186 -0.09952658 -0.09599732 -0.012990067 0.05326836 -0.061075814 -0.0711641 0.25326243
-0.144806 0.05542038 0.13833581 0.052060355 0.13045369 0.026214339 0.29140747 0.1612693
-0.14441743 -0.03678286 0.13569222 -0.14871745 0.24673551 0.0019559641 0.16783933 -0.14910476
0.013005397 0.15486489 0.10026635 0.13065188 -0.05358224 0.015574592 0.24883829 0.26750347
0.22496971 -0.16682526 -0.13209905 0.010863996 0.052536618 -0.113848574 -0.002728095 0.11649174
-0.19739652 0.05733658 -0.059993234 -0.0138333235 0.109434664 -0.05160854 0.084562704 0.08082789
0.015744595 -0.14745288 0.021257339 -0.17611 0.16646321 -0.010035257 0.23076268 0.17903848
0.050843168 -0.10801519 -0.05316891 -0.17286025 -0.01423867 0.14372432 0.17192128 0.094073854
0.1357684 0.14741683 -0.12699667 0.03291264 -0.02884492 0.02698872 0.22073938 0.009600054
-0.13917892 0.022383075 -0.19590908 0.10207722 -0.106926344 0.20373741 -0.17899755 -0.117344365
-0.11896239 -0.13569862 0.053054333 -0.058933124 0.06792999 0.023990583 0.10415569 0.014499272
0.12746428 0.05984096 0.07184995 0.08711586 -0.15722588 -0.03005173 0.09144624 0.20958799
-0.10282961 0.24131647 -0.11996099 -0.1146969 -0.21329007 -0.17664613 0.042884924 -0.16384187
0.058589898 0.120366886 -0.0746945 -0.042256963 -0.1145022 0.10616378 0.14453565 -0.01438074
-0.009802231 -0.1707108 0.06653011 0.088887565 -0.10994577 0.1076682 -0.017685294 0.039330177
-0.12123472 0.21018672 0.20327038 0.12960188 -0.13503963 0.1311889 -0.12699696 0.0046896897
0.0323011 -0.2571984 -0.08420468 0.07111796 0.04510437 -0.10911652 -0.018185688 0.09436995
0.07927359 -0.14015675 -0.061844885 -0.16039509 -0.10573171 0.07996221 -0.25105837 -0.09022174
-0.13610257 0.19030537 0.12053952 0.14866318 0.04431683 -0.03796798 -0.065716766 0.10575105
0.09306854 -0.04175673 -0.032202903 0.12912682 -0.1479665 0.105270885 -0.09793042 0.22088854
-0.16898929 -0.17147517 0.1406255 0.049591906 0.103145555 0.17005691 0.20997843 0.022358308
-0.049311608 0.09136112 -0.057146743 0.048145138 -0.03041871 0.116368964 -0.25751925 -0.18806551
-0.10121198 0.22279331 0.16539921 -0.10637164 -0.030929228 0.21770416 0.10894699 -0.08870255
0.15059122 0.15724649 -0.24715173 -0.18138862 -0.01317235 0.1347547 0.20403083 0.021771388
-0.1807553 -0.13588674 0.098820284 -0.11885497 -0.20538686 -0.024477959 0.060496572 -0.1500698
-0.0129822185 0.169964 0.041505508 -0.040746033 -0.097399935 -0.025925467 -0.06605682 0.05664474
-0.04035744 0.01026571 -0.17330287 0.023298273 0.037200015 -0.0237914 0.019850537 -0.19132404
0.005776284 0.05912785 0.091519706 -0.08607761 -0.2517946 0.0043482287 0.17140353 0.06778267
0.07549777 -0.13907881 -0.12983441 -0.095438845 0.2599783 0.016016446 0.024253365 0.122444384
00000000: 47a7 123e c911 a4bc 8e6b d9bd bdcd c9bd
00000010: a6f3 bcbd 6106 773d c63f 37bd e5b7 9a3c
00000020: aba3 0dbe 26a7 8fbc 4800 b9bd 7c9d 403e
00000030: c63c 303c f790 633d 4d69 aabb 83f5 063e
00000040: 98bd 4cbe c6e5 1abe 40e0 38be 77c2 853e
00000050: 8953 273e a862 b8bd ea8e a2bc 70e0 ef3d
00000060: 7a6e d7bd 97d4 cbbd 3e9a c4bd 4ad4 54bc
00000070: ed2f 5a3d a22a 7abd 7cbe 91bd 9dab 813e
00000080: 0648 14be 7b00 633d e7a7 0d3e 3d3d 553d
00000090: a795 053e 74bf d63c 5c33 953e c823 253e
000000a0: 2ae2 13be a0a9 16bd e7f2 0a3e 6349 18be
000000b0: 3ca8 7c3e a22f 003b 13de 2b3e ebae 18be
000000c0: 9714 553c e794 1e3e 7258 cd3d 9bc9 053e
000000d0: 0d79 5bbd 932c 7f3c 77cf 7e3e 37f6 883e
000000e0: 765e 663e 3ed4 2abe f944 07be e7fe 313c
000000f0: a330 573d 7129 e9bd d7c9 32bb 3993 ee3d
00000100: 5022 4abe c3d9 6a3d 77bb 75bd 2aa5 62bc
00000110: 481f e03d 7a63 53bd 362f ad3d 1889 a53d
00000120: cffa 803c e3fd 16be df23 ae3c 2e56 34be
00000130: 5575 2a3e eb6a 24bc 0d4d 6c3e dd55 373e
00000140: ed40 503d 1137 ddbd a5c7 59bd 4702 31be
00000150: 4f49 69bc 782c 133e 220c 303e cba9 c03d
00000160: df06 0b3e 70f4 163e 6a0b 02be 68cf 063d
00000170: 2f4c ecbc 7317 dd3c 8109 623e 8b49 1d3c
00000180: eb84 0ebe b65c b73c 649c 48be dd0d d13d
00000190: 33fc dabd 8aa0 503e 224b 37be 3e52 f0bd
000001a0: 8ea2 f3bd 94f4 0abe 804f 593d dc63 71bd
000001b0: e11e 8b3d e687 c43c 944f d53d 5b8e 6d3c
000001c0: ff85 023e cb1b 753d 1126 933d cd69 b23d
000001d0: d2ff 20be 0c2f f6bc 2b48 bb3d 3c9e 563e
000001e0: 5598 d2bd aa1b 773e 1cae f5bd 35e6 eabd
000001f0: b668 5abe b9e2 34be 1aa8 2f3d 2ac6 27be
00000200: f6fb 6f3d ea82 f63d 6ef9 98bd a315 2dbd
00000210: 2180 eabd 656c d93d 2701 143e 329d 6bbc
00000220: 8999 20bc d0ce 2ebe f040 883d af0a b63d
00000230: 3f2b e1bd 2581 dc3d c0e0 90bc ae18 213d
00000240: e949 f8bd 303b 573e 1c26 503e 5bb6 043e
00000250: d447 0abe 6256 063e 7e0b 02be f8ab 993b
00000260: 294e 043d 82af 83be 8173 acbd 4ba6 913d
00000270: 5cbf 383d 7b78 dfbd 27fa 94bc 0845 c13d
00000280: 315a a23d 4085 0fbe 1051 7dbd 9c3e 24be
00000290: de89 d8bd 3ac3 a33d b98a 80be 2dc6 b8bd
000002a0: 795e 0bbe 69df 423e 6ddd f63d 293b 183e
000002b0: 9085 353d 5084 1bbd 8396 86bd 0294 d83d
000002c0: b89a be3d 1b09 2bbd 31e7 03bd d239 043e
000002d0: 8884 17be 4398 d73d be8f c8bd 9b30 623e
000002e0: 870b 2dbe 3097 2fbe 2200 103e e220 4b3d
000002f0: fa3d d33d 6623 2e3e 9604 573e c528 b73c
00000300: f8fa 49bd 8a1b bb3d b412 6abd d633 453d
00000310: a930 f9bc da52 ee3d 90d9 83be 3f94 40be
00000320: 3a48 cfbd ee23 643e 695e 293e 60d9 d9bd
00000330: 4b5f fdbc d7ed 5e3e 991f df3d afa9 b5bd
00000340: 9634 1a3e 3905 213e 5815 7dbe f0bd 39be
00000350: d7d0 57bc 23fd 093e 75ed 503e e959 b23c
00000360: eb17 39be e525 0bbe 4a62 ca3d 3c6a f3bd
00000370: ef50 52be 0086 c8bc 41cb 773d e6ab 19be
00000380: 5fb3 54bc 0b0b 2e3e ae01 2a3d 50e5 26bd
00000390: 9e79 c7bd a561 d4bc cc48 87bd 5104 683d
000003a0: d84d 25bd 8231 283c 4f76 31be 05dc be3c
000003b0: 0b5f 183d 2fe6 c2bc 989d a23c 73ea 43be
000003c0: fb46 bd3b 0b30 723d af6e bb3d 7549 b0bd
000003d0: 39eb 80be 967b 8e3b 6884 2f3e a4d1 8a3d
000003e0: 939e 9a3d ad6a 0ebe 50f3 04be 7175 c3bd
000003f0: e01b 853e ec34 833c feae c63c 1fc4 fa3d

input.bias f4 [64]
0.2939568 0.2383148 0.19508573 0.23494798 0.2442617 0.13597932 0.068822026 -0.032687526
0.03302181 -0.09012652 0.1741867 0.016515054 0.0063673565 0.20586045 0.15480867 -0.013998903
-0.24933556 0.11870276 0.1400907 0.21563658 -0.14419067 0.22345142 -0.14580306 0.116432786
0.3628126 0.25933242 0.025529379 0.08508892 0.018042868 -0.07961044 0.07424334 0.04767391
0.0093881665 0.3094223 -0.042334985 0.028052755 0.36526462 0.23926438 0.06871736 -0.07057437
-0.07012256 -0.111933716 0.1492046 -0.16533151 0.032284662 -0.10256589 0.03660175 -0.12093794
-0.036783535 0.11983478 0.18223512 0.18304735 0.18894412 -0.08714284 0.21617922 0.06945504
-0.11180835 0.29229462 -0.019565322 0.16945729 -0.024068031 0.2556313 0.27225432 0.15704733
00000000: 8181 963e cc08 743e 8ec4 473e 3496 703e
00000010: bd1f 7a3e 2a3e 0b3e 90f2 8c3d 5be3 05bd
00000020: e141 073d 4194 b8bd 005e 323e 944a 873c
00000030: 42a5 d03b 15cd 523e 2a86 1e3e a85b 65bc
00000040: d251 7fbe 6f1a f33d f073 0f3e d6cf 5c3e
00000050: b8a6 13be 73d0 643e 664d 15be 5074 ee3d
00000060: 93c2 b93e 38c7 843e fd22 d13c 1a43 ae3d
00000070: a3ce 933c cc0a a3bd e40c 983d b845 433d
00000080: d3d0 193c 9a6c 9e3e 7367 2dbd e4ce e53c
00000090: f703 bb3e b901 753e b0bb 8c3d 4c89 90bd
000000a0: 6b9c 8fbd 813d e5bd 17c9 183e aa4c 29be
000000b0: ec3c 043d 110e d2bd b7eb 153d 50ae f7bd
000000c0: 55aa 16bd f06b f53d d89b 3a3e c470 3b3e
000000d0: 917a 413e f277 b2bd 165e 5d3e 723e 8e3d
000000e0: c7fb e4bd a4a7 953e 7447 a0bc 3686 2d3e
000000f0: 522a c5bc 1be2 823e eb64 8b3e 04d1 203e

h1.weight f4 [32, 64]
-0.032535 0.22742364 0.023042878 0.04226312 0.089690864 0.08032491 0.16493566 0.11084753
-0.018567326 0.2686466 0.1650618 -0.05683725 0.20457573 0.04895866 0.20320404 0.081782624
0.25742248 0.02830967 0.1792713 0.07565323 0.10379064 0.19335407 0.014678592 0.13567232
0.15504742 0.17948715 0.06022075 -0.048852216 0.042550314 0.25086874 0.044433497 0.09505753
0.05863464 0.1355832 -0.09767826 0.23605283 0.16868478 0.20331945 0.15189411 0.023625584
0.14412256 0.1254174 0.058117095 0.16662258 -0.062286373 0.30553207 0.14209554 0.010891844
0.13226624 0.08338691 0.15469143 0.07129002 0.1996226 0.112932466 0.2118729 0.03296765
0.12667648 0.089554 0.089526854 0.12359396 -0.04100554 -0.05222493 0.06520943 0.15615098
0.05161036 0.0015275244 -0.07110014 0.25356007 -0.033244543 0.10857382 -0.13911043 -0.036844604
0.11832627 -0.00037079124 0.08531474 0.17100121 0.086908095 0.036266387 0.073629335 0.13846023
0.03211584 0.20563467 0.027903412 -0.11891744 -0.056791626 0.07555611 -0.084882535 0.13839847
0.13737127 0.02672313 -0.13665988 0.0015600045 0.06364747 -0.018876735 0.0824974 -0.08499192
-0.014632908 -0.058802836 0.08350025 0.08482124 0.13401338 -0.032946523 0.02977638 0.15922368
0.079832084 0.048618477 0.15969433 0.03465439 0.10686486 -0.103625886 0.1594918 0.030629639
-0.13053286 -0.092910275 0.03195125 0.14454868 0.12534255 0.055907 0.1254301 0.000242564
0.00032510032 0.09250305 0.115437105 0.08223896 0.0053537707 0.2356592 0.030583262 0.13130829
0.054211196 0.13688786 0.18451041 -0.044018637 0.061097685 0.014239992 0.2722828 0.064430036
0.0901044 0.37926966 0.2026598 0.09441483 0.37636334 0.114852436 -0.020927357 -0.020886833
0.19430345 -0.07161967 0.15872328 0.35503033 0.21048631 0.08639937 -0.0522239 0.1916585
0.23734343 0.21269824 -0.0024305542 -0.009145522 0.0141373 0.20859565 0.17518927 0.321298
0.12426822 0.094375305 -0.00078647997 0.026852775 0.052911043 0.2606277 0.09099159 -0.066983044
-0.030703973 0.19431953 -0.044739682 0.17660345 0.074349016 -0.048750162 -0.06385199 -0.0861148
0.18957569 0.12300499 0.05640976 -0.0702434 0.2101405 0.13393521 -0.0073368736 -0.0008671685
0.08203064 -0.04091432 -0.0756183 0.025869885 -0.08612116 -0.06853469 0.26242244 -0.031764183
0.17486647 0.08189757 0.03077099 0.17224146 0.26377743 -0.0457608 0.18182074 0.1007081
0.09175549 0.08067741 0.19985433 0.09294198 0.19949368 -0.008076776 0.15316129 0.045859993
0.17033283 0.13731651 0.21684268 0.30813617 0.11063966 0.24012884 0.13470364 0.1015972
0.17282389 0.20960364 0.124563046 0.24623065 0.11614551 0.12645344 0.17518418 0.18357517
0.12899311 0.0061601214 0.1500263 0.15509765 0.11881389 0.28565267 0.08054037 0.16829886
0.028780684 0.13418785 0.07543943 0.12758248 -0.030905742 0.034043714 0.09122326 0.03964406
0.04722653 0.18620215 0.16343816 -0.0030813501 0.06990508 0.2151124 0.042930502 0.13072579
0.056106962 0.02731043 0.16755389 0.26409924 0.022665951 0.18313344 0.10493682 0.027340999
00000000: 6c43 05bd bee1 683e 6bc4 bc3c 181c 2d3d
00000010: d8af b73d 6381 a43d e5e4 283e 0804 e33d
00000020: 811a 98bc 0c8c 893e f605 293e 2dce 68bd
00000030: 4d7c 513e e088 483d b814 503e a67d a73d
00000040: e1cc 833e aee9 e73c e592 373e 15f0 9a3d
00000050: 3090 d43d 9cfe 453e 7a7e 703c afed 0a3e
00000060: c0c4 1e3e 7bcb 373e 08aa 763d 4319 48bd
00000070: 3d49 2e3d de71 803e e6ff 353d 86ad c23d
00000080: e02a 703d 53d6 0a3e 8a0b c8bd d5b7 713e
00000090: b4bb 2c3e f932 503e 218a 1b3e 718a c13c
000000a0: dd94 133e 6b6d 003e 310c 6e3d 1c9f 2a3e
000000b0: ff1f 7fbd b36e 9c3e 7e81 113e b473 323c
000000c0: cd70 073e c2c6 aa3d 6e67 1e3e 8100 923d
000000d0: de69 4c3e 2349 e73d 36f5 583e 1609 073d
000000e0: 7bb7 013e 1668 b73d db59 b73d d51e fd3d
000000f0: 6df5 27bd cfe9 55bd 868c 853d 0be6 1f3e
00000100: 6365 533d 3737 c83a f39c 91bd a0d2 813e
00000110: 6e2b 08bd f35b de3d f772 0ebe 5eea 16bd
00000120: 0b55 f23d c266 c2b9 7fb9 ae3d f11a 2f3e
00000130: dffc b13d 108c 143d faca 963d 85c8 0d3e
00000140: e68b 033d e591 523e b295 e43c fd8a f3bd
00000150: 569e 68bd 29bd 9a3d e5d6 adbd 54b8 0d3e
00000160: 0eab 0c3e 77ea da3c 91f0 0bbe 1179 cc3a
00000170: 9b59 823d 62a3 9abc 66f4 a83d 3e10 aebd
00000180: ddbe 6fbc 3edb 70bd 2e02 ab3d c2b6 ad3d
00000190: ce3a 093e eff2 06bd 98ed f33c 880b 233e
000001a0: 017f a33d 2b24 473d e986 233e c3f1 0d3d
000001b0: f7db da3d cf39 d4bd d251 233e 02eb fa3c
000001c0: 68aa 05be be47 bebd 50df 023d 9204 143e
000001d0: cc59 003e bdfe 643d c070 003e c758 7e39
000001e0: 3a72 aa39 3d72 bd3d 4a6a ec3d e66c a83d
000001f0: af6e af3b a550 713e c089 fa3c ae75 063e
00000200: 8f0c 5e3d 552c 0c3e 4cf0 3c3e e34c 34bd
00000210: 9141 7a3d db4e 693c a768 8b3e e5f3 833d
00000220: a888 b83d a22f c23e 0d86 4f3e 905c c13d
00000230: b2b2 c03e c137 eb3d d96f abbc dd1a abbc
00000240: 7cf7 463e 55ad 92bd 5b88 223e 89c6 b53e
00000250: b989 573e 27f2 b03d bae8 55bd 2042 443e
00000260: 280a 733e 91cd 593e ef49 1fbb 19d7 15bc
00000270: 22a0 673c 199a 553e d164 333e 2c81 a43e
00000280: 5680 fe3d d747 c13d c72b 4eba 5afa db3c
00000290: 40b9 583d fe70 853e cc59 ba3d 682e 89bd
000002a0: e686 fbbc b3fb 463e f540 37bd 89d7 343e
000002b0: 4c44 983d 40ae 47bd d5c4 82bd f55c b0bd
000002c0: 2120 423e 0aea fb3d ec0d 673d c6db 8fbd
000002d0: 122f 573e 5026 093e 286a f0bb b152 63ba
000002e0: aeff a73d c695 27bd c4dd 9abd 15ed d33c
000002f0: 4a60 b0bd ea5b 8cbd 3c5c 863e 291b 02bd
00000300: 3210 333e eab9 a73d 7113 fc3c 1160 303e
00000310: d60d 873e ad6f 3bbd 372f 3a3e 0c40 ce3d
00000320: 4dea bb3d 333a a53d 9da6 4c3e 5d58 be3d
00000330: 1248 4c3e 7454 04bc 50d6 1c3e b0d7 3b3d
00000340: bb6b 2e3e b39c 0c3e 020c 5e3e 06c4 9d3e
00000350: 0c97 e23d 56e4 753e c0ef 093e 3112 d03d
00000360: bff8 303e 56a2 563e e91a ff3d e323 7c3e
00000370: b2dd ed3d 037d 013e 7b63 333e 21fb 3b3e
00000380: c516 043e d8da c93b 7fa0 193e ebd1 1e3e
00000390: b254 f33d 1141 923e 59f2 a43d 8956 2c3e
000003a0: 78c5 eb3c 8a68 093e fd7f 9a3d fba4 023e
000003b0: 0a2e fdbc 6c71 0b3d 43d3 ba3d cf61 223d
000003c0: 9b70 413d c7ab 3e3e 555c 273e 7af0 49bb
000003d0: 652a 8f3d 6d46 5c3e e5d7 2f3d fbdc 053e
000003e0: 6ad0 653d 1fba df3c 3f93 2b3e 0438 873e
000003f0: f2ad b93c 5587 3b3e 1ee9 d63d 3bfa df3c

h1.bias f4 [32]
0.1582126 0.042050034 0.05668198 0.091383755 -0.13137835 -0.06715378 0.029797068 0.013723425
0.12963447 0.037827455 -0.07420591 0.024732796 0.08229447 0.10387962 0.23918922 0.06510379
-0.049482107 0.0712288 0.14092727 0.079858646 0.042149544 0.15255891 0.10798934 0.03537517
0.0572677 0.04041821 0.025578462 0.03744265 0.0023323856 0.086436845 0.053577047 0.0173791
00000000: 7c02 223e a83c 2c3d 5d2b 683d 6827 bb3d
00000010: 0c88 06be ec87 89bd fb18 f43c 37d8 603c
00000020: e6be 043e f6f0 1a3d 45f9 97bd 6f9c ca3c
00000030: 018a a83d d7be d43d 05ee 743e 2355 853d
00000040: c0ad 4abd 68e0 913d 3d4f 103e ee8c a33d
00000050: 00a5 2c3d 6738 1c3e 8429 dd3d 8ee5 103d
00000060: 8991 6a3d 918d 253d ec89 d13c 775d 193d
00000070: f0da 183b cd05 b13d 9b73 5b3d 9d5e 8e3c

h2.weight f4 [16, 32]
0.03272096 0.06253299 -0.06546326 0.05535595 -0.057990313 -0.060963277 -0.026596505 -0.08339032
-0.139149 0.059051037 -0.11525006 -0.046738047 0.056345403 0.10700687 0.13977905 -0.19583283
-0.19080262 -0.104127094 -0.10220247 -0.1474909 -0.04246689 0.04248245 -0.16345318 0.06795029
-0.11901314 -0.118742414 -0.070752025 -0.14693752 0.106963396 -0.19163425 0.019804565 -0.072141804
-0.075184755 -0.031033214 0.073528 0.0099518895 -0.07052576 0.061707307 -0.06434753 0.013103362
-0.076977186 -0.057399932 -0.14213897 -0.03675264 -0.19846347 -0.07620662 -0.071314655 -0.09579877
0.15306206 0.007190344 -0.12908788 -0.017602066 -0.059469495 0.06100719 0.0807174 -0.14188842
-0.043330394 0.0035138084 0.05224146 0.015536789 0.055465493 -0.09711568 -0.059513234 -0.039666686
0.16052963 -0.06398112 0.043880064 0.10471398 0.083210684 0.052489948 0.042383544 -0.21551406
-0.26447296 0.1993521 -0.03711026 0.028047219 -0.02805621 -0.21526289 0.07519277 0.13132557
-0.059227746 -0.09799036 0.13268793 0.018675363 -0.16237935 0.08873609 0.21130645 0.029248716
-0.25987515 -0.23063071 0.013514036 0.0019539632 -0.09161905 0.12732203 0.19350134 0.09987804
-0.113502406 0.22577181 -0.11103219 -0.15766807 -0.17026524 0.062673435 0.021644693 0.09112375
0.22892433 -0.018022334 0.07446131 -0.11691295 0.28936338 0.20643896 0.25771868 -0.11181145
0.107151695 0.31846112 0.19054554 0.23976718 0.23672977 -0.14181131 0.17073706 0.059472665
0.25296557 0.048917245 -0.15651609 0.2767621 -0.059890322 0.07895411 -0.11402888 0.052002594
0.06344265 -0.08304278 0.27766207 0.1628323 0.22548695 0.10988048 0.25411364 -0.14978848
-0.08443077 0.24102314 0.05579866 0.06843702 -0.18109298 -0.20736927 -0.15758517 0.108289294
-0.0201292 -0.12034933 0.14420414 0.005622088 -0.24799405 0.28902212 0.31675667 0.2560669
-0.029674733 -0.22538371 -0.0356028 -0.10278906 0.0114925625 0.18523322 0.33840814 0.28442743
0.3023445 0.00076833676 0.22199884 0.25557613 0.23050062 -0.061118804 0.11424575 -0.008660515
-0.1337319 0.27253202 -0.04414281 0.16281578 -0.156194 -0.14032176 0.13945764 0.20904219
0.031693958 -0.19338016 0.06515054 -0.023299504 -0.21931581 0.27068514 0.064450555 -0.00036828133
-0.08468211 -0.013162349 0.08904766 -0.13096254 -0.11574751 0.15246293 0.25045303 0.14900526
0.012080048 -0.00086728204 0.10263967 0.054886315 -0.0700475 -0.024199877 -0.12192844 -0.011542818
-0.13512982 0.17769547 -0.05434663 0.1738314 -0.20581456 -0.11976685 0.13880098 0.010386588
0.020475868 0.06710966 -0.06564374 -0.12330908 -0.03099875 0.10142767 0.08153089 0.14617737
-0.11178099 -0.009340768 0.06358908 0.055637766 0.10758492 0.17026952 0.067838006 -0.114847794
-0.052781127 0.14399461 0.13199578 0.11420284 -0.10819987 0.17053595 0.08683963 0.2606845
0.25750408 0.07782113 0.086264394 -0.10574639 0.19835107 0.21143845 -0.013339887 0.27236643
0.12868741 0.031593353 0.21382928 -0.04634135 0.21330908 0.045520615 -0.06761834 0.258361
0.1815887 0.19686723 0.09259142 0.177284 -0.06595302 0.25845462 0.24756637 0.039899692
00000000: 6a06 063d 4c11 803d 9a11 86bd ecbc 623d
00000010: 4087 6dbd a1b4 79bd eae0 d9bc 8bc8 aabd
00000020: 137d 0ebe 80df 713d 3908 ecbd 6570 3fbd
00000030: 70ca 663d 6b26 db3d 3d22 0f3e 6788 48be
00000040: c361 43be 9640 d5bd 874f d1bd db07 17be
00000050: c3f1 2dbd 1402 2e3d 4560 27be 8629 8b3d
00000060: 29bd f3bd 392f f3bd 70e6 90bd ca76 16be
00000070: a00f db3d c53b 44be 2f3d a23c 15bf 93bd
00000080: 77fa 99bd 5e39 febc d995 963d 400d 233c
00000090: cf6f 90bd cdc0 7c3d a3c8 83bd 7caf 563c
000000a0: 37a6 9dbd 311c 6bbd e18c 11be f089 16bd
000000b0: 023a 4bbe 3712 9cbd 6b0d 92bd 2532 c4bd
000000c0: 4dbc 1c3e fa9c eb3b 9d2f 04be 3532 90bc
000000d0: 4996 73bd ade2 793d 2a4f a53d 334b 11be
000000e0: 367b 31bd ec47 663b 24fb 553d 048e 7e3c
000000f0: c92f 633d 96e4 c6bd 26c4 73bd 8979 22bd
00000100: e161 243e 8908 83bd 95bb 333d 4874 d63d
00000110: 5d6a aa3d b3ff 563d 5e9a 2d3d b8af 5cbe
00000120: 0069 87be f522 4c3e ee00 18bd 48c3 e53c
00000130: 23d6 e5bc e06d 5cbe abfe 993d 367a 063e
00000140: cb98 72bd 2baf c8bd 58df 073e 13fd 983c
00000150: c646 26be 44bb b53d b860 583e 019b ef3c
00000160: 5b0e 85be 752a 6cbe fa69 5d3c 100e 003b
00000170: c5a2 bbbd b560 023e 3725 463e dc8c cc3d
00000180: f373 e8bd ba30 673e d864 e3bd bd73 21be
00000190: 035a 2ebe ee5a 803d 3650 b13c 179f ba3d
000001a0: 246b 6a3e 93a3 93bc 2c7f 983d 0f70 efbd
000001b0: 7027 943e bc64 533e b4f3 833e 67fd e4bd
000001c0: 5972 db3d 560d a33e 5f1e 433e 8785 753e
000001d0: 4a69 723e fc36 11be b2d5 2e3e 9c99 733d
000001e0: b484 813e 735d 483d c145 20be c3b3 8d3e
000001f0: 8e4f 75bd b1b2 a13d f987 e9bd ac00 553d
00000200: 38ee 813d 5512 aabd b929 8e3e 83bd 263e
00000210: 0de6 663e 0409 e13d 2f1b 823e 2762 19be
00000220: 0aea acbd c5ce 763e 238d 643d b528 8c3d
00000230: 7070 39be 9c58 54be 025e 21be c7c6 dd3d
00000240: fee5 a4bc b679 f6bd 40aa 133e 7e39 b83b
00000250: 27f2 7dbe b5fa 933e ee2d a23e 331b 833e
00000260: 6d18 f3bc fdca 66be 3ed4 11bd 1283 d2bd
00000270: 4d4b 3c3c c7ad 3d3e d543 ad3e 79a0 913e
00000280: e6cc 9a3e 356a 493a aa53 633e e0da 823e
00000290: 5b08 6c3e b657 7abd adf9 e93d d5e4 0dbc
000002a0: 04f1 08be 5189 8b3e 17cf 34bd 2eb9 263e
000002b0: 52f1 1fbe 82b0 0fbe fccd 0e3e 280f 563e
000002c0: 86d1 013d 7305 46be a56d 853d 9ade bebc
000002d0: 5394 60be 3e97 8a3e a7fe 833d e215 c1b9
000002e0: d06d adbd e5a6 57bc 9f5e b63d 0b1b 06be
000002f0: 080d edbd 3e1f 1c3e 613b 803e d694 183e
00000300: 65eb 453c 505a 63ba bf34 d23d 79d0 603d
00000310: 1075 8fbd d23e c6bc 9eb5 f9bd 161e 3dbc
00000320: 795f 0abe cdf5 353e 929a 5ebd dc00 323e
00000330: 0dc1 52be 5248 f5bd d821 0e3e 822c 2a3c
00000340: 02bd a73c ca70 893d 3a70 86bd 7989 fcbd
00000350: 17f1 fdbc 4fb9 cf3d abf9 a63d 85af 153e
00000360: 6fed e4bd 050a 19bc fe3a 823d 6de4 633d
00000370: 7c55 dc3d 225b 2e3e a7ee 8a3d 5235 ebbd
00000380: 0631 58bd 5373 133e e729 073e 2ee3 e93d
00000390: e597 ddbd faa0 2e3e fad8 b13d 7078 853e
000003a0: 93d7 833e af60 9f3d 63ab b03d 9091 d8bd
000003b0: 8b1c 4b3e 5283 583e 8b8f 5abc 9d73 8b3e
000003c0: a2c6 033e 0868 013d 10f6 5a3e 6dd0 3dbd
000003d0: b26d 5a3e d373 3a3d 7c7b 8abd e547 843e
000003e0: 63f2 393e 9097 493e 92a0 bd3d f089 353e
000003f0: 6012 87bd 2a54 843e 0a82 7d3e dc6d 233d

h2.bias f4 [16]
-0.052053902 -0.14567617 0.18699853 -0.0038239856 0.19457309 0.24509424 0.09083041 0.27562147
-0.0132270865 0.094006754 0.057552714 -0.058461078 -0.0074609113 0.029414177 0.17875636 -0.1437591
00000000: 7936 55bd 222c 15be 8b7c 3f3e d59b 7abb
00000010: 2b3e 473e fcf9 7a3e 4b05 ba3d 421e 8d3e
00000020: 6cb6 58bc 9d86 c03d 65bc 6b3d e274 6fbd
00000030: a97a f4bb 00f6 f03c e80b 373e 9635 13be

h3.weight f4 [8, 16]
0.02050642 -0.028088868 0.057177864 0.22748876 -0.3301425 -0.2709255 0.13046062 -0.25253814
-0.039082885 0.018380689 -0.0114453025 0.21787377 0.15004735 -0.061862953 -0.15574259 -0.16139
-0.047562692 -0.15992655 0.14747755 0.10005854 -0.087846085 0.310446 0.21145535 -0.1442252
-0.11792959 -0.1758071 0.014676613 0.05053843 0.039462388 -0.17249535 0.06719971 0.036019247
-0.03795324 0.0158953 0.09252323 0.27216843 -0.09612405 0.066308714 -0.06897589 0.19919197
-0.12890771 0.264168 -0.05720308 0.20016421 -0.1555765 0.16670203 0.083588175 0.09349767
-0.016843066 -0.0012630243 -0.26223257 0.3055241 -0.12793058 0.16835114 0.28288186 0.21521236
0.24042751 0.30897233 0.06317016 0.20709051 -0.002656161 0.38311446 -0.24218932 -0.08610498
-0.14825585 0.06308304 0.2886128 -0.21511 0.29625785 0.16417705 -0.08922534 -0.07780075
0.21974017 -0.1768672 0.13302243 -0.02944181 0.18469024 -0.013324203 0.38925967 0.123358905
0.06440231 -0.15880199 0.0495513 0.13865067 0.29810953 -0.03569942 0.21966955 -0.013008234
-0.036173243 -0.27319723 0.084327444 0.19368766 0.223943 -0.31603876 0.3309966 0.07758796
-0.12766008 -0.17198429 0.18993825 -0.23694521 0.24244475 0.26044378 0.1917802 0.18770495
0.119979315 -0.17595987 -0.1527568 -0.05416164 -0.040035367 -0.08682384 0.07811331 -0.2676489
0.22703803 0.112179026 -0.20666617 -0.0748456 -0.024588643 -0.007225688 -0.09590072 0.21692017
-0.007084927 0.11476928 -0.15913329 0.18687242 -0.024903702 0.1453099 0.04028762 -0.20627369
00000000: 14fd a73c a01a e6bc 5633 6a3d d0f2 683e
00000010: 7008 a9be bfb6 8abe 7897 053e ae4c 81be
00000020: 6015 20bd 1993 963c 1485 3bbc 4d1a 5f3e
00000030: 03a6 193e 0264 7dbd fc7a 1fbe 6c43 25be
00000040: 19d1 42bd c9c3 23be 5b04 173e 7eeb cc3d
00000050: a6e8 b3bd c7f2 9e3e c087 583e c5af 13be
00000060: 1285 f1bd c706 34be 2d76 703c 6301 4f3d
00000070: 50a3 213d 9fa2 30be 00a0 893d eb88 133d
00000080: db74 1bbd dc36 823c d27c bd3d a959 8b3e
00000090: b0dc c4bd ddcc 873d 3b43 8dbd fbf8 4b3e
000000a0: 6200 04be 0741 873e c74d 6abd d9f7 4c3e
000000b0: 724f 1fbe f0b3 2a3e 4730 ab3d b57b bf3d
000000c0: 78fa 89bc 108c a5ba 5943 86be a86d 9c3e
000000d0: 3c00 03be 3e64 2c3e e4d5 903e a160 5c3e
000000e0: a132 763e 9f31 9e3e 5b5f 813d 890f 543e
000000f0: fd12 2ebb 9427 c43e 7a00 78be cf57 b0bd
00000100: 62d0 17be ae31 813d 0fc5 933e cc45 5cbe
00000110: 1caf 973e 071e 283e c6bb b6bd 0056 9fbd
00000120: 9103 613e ad1c 35be 0837 083e f32f f1bc
00000130: 701f 3d3e c24d 5abc 0b4d c73e 98a3 fc3d
00000140: 5ce5 833d fd9c 22be 4ef6 4a3d 71fa 0d3e
00000150: d0a1 983e 8e39 12bd 0ef1 603e 7d20 55bc
00000160: 652a 14bd 82e0 8bbe deb3 ac3d 0f56 463e
00000170: 5051 653e d5cf a1be 6378 a93e 70e6 9e3d
00000180: 53b9 02be a61c 30be 2c7f 423e c4a1 72be
00000190: 7043 783e e358 853e 0762 443e ba35 403e
000001a0: b7b7 f53d d32e 34be 476c 1cbe 99d8 5dbd
000001b0: 20fc 23bd b3d0 b1bd dff9 9f3d 4709 89be
000001c0: a87c 683e 1ebe e53d 4ca0 53be a648 99bd
000001d0: 1f6e c9bc 77c5 ecbb 9967 c4bd 5220 5e3e
000001e0: ad28 e8bb 280c eb3d d6f3 22be 7c5b 3f3e
000001f0: d902 ccbc 1ecc 143e a204 253d 6939 53be

h3.bias f4 [8]
0.20312233 -0.13051233 -0.067742005 0.049395997 0.2524551 -0.11848654 0.3021918 -0.012260266
00000000: 4dff 4f3e 06a5 05be 52bc 8abd 7553 4a3d
00000010: cb41 813e 12a9 f2bd e2b8 9a3e 48df 48bc

h4.weight f4 [1, 8]
0.11746561 -0.15561461 0.28010452 0.37899005 -0.22612123 -0.25502172 -0.40917638 0.3935612
00000000: cf91 f03d 7059 1fbe dc69 8f3e fc0a c23e
00000010: 538c 67be 3592 82be 917f d1be db80 c93e
