src/models/saved_models/best_model_lr0.0001_roc_auc0.9181856738585956.pt (torch, 23973 bytes, 9 tensors)

input.weight f4 [64, 30]
00000000: b544 163e a230 68bd 889c ccbd 04b3 d7bd
00000010: 9111 bcbd 609c 6e3d 9120 25bd 88c6 253b
00000020: b94f 28be 4940 dbbc abd8 a5bd b770 4c3e
00000030: 9e3c aebc 598c a03d 9adc 81bb c310 ae3d
00000040: dec1 56be 37c8 2fbe cd39 55be 3816 643e
00000050: ad0e 143e 9d8b afbd 3178 0fbd 9dbf f83d
00000060: 95d6 f5bd 3d86 e7bd 5918 b8bd fff5 c0bb
00000070: 9757 553d 0c39 5bbd de2b 80bd cc8f 793e
00000080: 6c4a 04be b2a7 723d cd60 0a3e 9b08 283d
00000090: 4345 213e 562c 553d c3cf 853e f196 0c3e
000000a0: 5b61 10be 3611 2bbc 6766 0b3e 633c 02be
000000b0: a1bf 6a3e f370 12bc 3dcc 3b3e dce2 20be
000000c0: 2d9f 893c 6d9e 2a3e b7ae db3d 5f2c e63d
000000d0: 0033 29bd 9388 893c 0539 673e dbb5 7d3e
000000e0: e89f 673e 7ee2 4abe e10b 1ebe eb22 ad3c
000000f0: 70df 593d 7469 d6bd dc52 72bc c55c e93d
00000100: a299 71be 3b09 173d 4536 81bd 4819 1ebd
00000110: 7bbf cd3d 06b9 18bd 7d26 b43d 89c6 be3d
00000120: 870f 293d eaee 19be 60eb 213d a0ca 0dbe
00000130: b620 213e c9dc aabc b667 563e 51bd 593e
00000140: 4778 873d 8f90 dcbd fa16 3cbd 7114 1bbe
00000150: 9d9c 6e3c 1062 e13d 0891 3f3e bfbc bd3d
00000160: f4e1 f13d eafc 043e 3ab0 0cbe 39b8 103d
00000170: f76a fbbc 7f2e b03c 723a 5d3e 2b30 68bc
00000180: a800 24be ff73 bcba dcd3 38be b093 de3d
00000190: d045 dabd e5d6 563e 2975 33be f4a9 e5bd
000001a0: cddd e6bd 9f86 0ebe 0c41 5b3d a5f3 71bd
000001b0: 1bad 9f3d f77d 573c f03c e93d 5055 bc3c
000001c0: 1061 fc3d ef38 813d b1d6 863d 919a d03d
000001d0: 8c7c 17be 5554 70bc 0f39 ee3d addd 503e
000001e0: a237 01be 039e 503e 075b e8bd cb08 fbbd
000001f0: aca2 43be b8b1 21be 9e4c 803d 4370 0fbe
00000200: 9e71 493d 8336 083e b71b 9bbd b717 76bd
00000210: 70cb 03be 2709 033e 33e3 e13d 3a99 1dbd
00000220: b0d3 f5bc 9172 2abe 33a1 953d 3571 cb3d
00000230: d1a5 00be 48d6 a83d b186 40bd 7826 0e3d
00000240: 0a56 14be 7cf9 433e 1a45 343e 8769 ef3d
00000250: 3b0c 10be 4370 143e 0a60 09be 274d fbbb
00000260: c6ae 193d bbc8 7abe cc1e 2ebd e510 763d
00000270: 18ff 013d 4924 edbd dd85 5cbc 50d6 9c3d
00000280: 36ad c23d 3e40 f7bd 01a0 8cbd 19c6 2fbe
00000290: 92f8 f9bd d80d 443d ef01 80be 7f3e cabd
000002a0: e2c9 2cbe ed25 1d3e 1e98 f53d c7ca 213e
000002b0: 7a4f 123d 6f10 11bd 5d3d 1dbd a646 033e
000002c0: a9f4 ee3d 9008 04bd 6419 05bd 2a50 0c3e
000002d0: 4581 19be 5269 f73d ec33 78bd 5d1c 593e
000002e0: 89f7 1ebe a61c 13be 343a 1c3e dbfe 133d
000002f0: 61d3 cc3d 8d2e 213e 369c 583e 2066 7c3c
00000300: 5501 8dbd 8d3e d03d 318f 74bd f174 2b3d
00000310: 10b8 3bbd cc48 0b3e d287 53be 9dc3 23be
00000320: ae58 d5bd 5119 473e 0ed6 143e e183 e4bd
00000330: 2464 a1bd 5e18 4b3e 09dc e23d ce46 babd
00000340: c8e1 e43d 188b ff3d 6046 71be 9240 31be
00000350: 666d 66bc 5e46 7e3d 9af9 663e 569b c63c
00000360: 74bc 53be 0236 0fbe 42b0 dd3d 0b85 e7bd
00000370: 59dc 61be 5b2b 0ebd 4d36 a43d 5693 07be
00000380: dd5c 00bd 981a 013e 9f94 103c b559 5ebd
00000390: f98b b0bd 18ce 33bd 8eef bcbd a380 953d
000003a0: 993a 7fbd f6eb 44bc f62f 2ebe 84f1 3a3d
000003b0: 8962 333c fd4b c0bb 8a14 ee3c 15af 3abe
000003c0: 4e1e 94bb a1f2 983d 38b8 953d 4c34 bbbd
000003d0: 4857 70be 6d6d bdbc d2bf 3a3e c62e a93d
000003e0: f719 903d 623d 0cbe d1ba 08be e982 d9bd
000003f0: ddee 803e ec4a c83c 9bf9 d53b ed5c d33d
0.14674647 -0.056687005 -0.099907935 -0.105321914 -0.09183038 0.0582546 -0.04031426 0.0025295336
-0.16436662 -0.026764052 -0.08097967 0.19964872 -0.021269139 0.07839269 -0.0039630653 0.08499291
-0.20972392 -0.1716622 -0.2082283 0.22274101 0.14458723 -0.08571551 -0.035026733 0.12145922
-0.12003819 -0.11304901 -0.08989019 -0.0058887 0.052085485 -0.0535212 -0.06258367 0.2437126
-0.12919015 0.059241958 0.13513489 0.04102383 0.15749077 0.052044235 0.26135072 0.13729455
-0.14099638 -0.010441115 0.13613282 -0.12718348 0.22924663 -0.008938062 0.1833963 -0.1571154
0.016799534 0.16661997 0.107266836 0.11238932 -0.041308403 0.016788756 0.22580345 0.24776404
0.22619593 -0.19812962 -0.15434219 0.021134814 0.053191602 -0.10469332 -0.014790263 0.113946475
-0.23593763 0.036874037 -0.06309179 -0.03859833 0.100462876 -0.037285827 0.087964036 0.09315211
0.041274574 -0.15032545 0.03953111 -0.13846827 0.15735134 -0.020857232 0.20938 0.21263625
0.06614738 -0.1076976 -0.04592035 -0.15144517 0.014563707 0.11005032 0.18707669 0.09264516
0.11810675 0.12987104 -0.137391 0.03533194 -0.030690653 0.021506546 0.21604326 -0.01417164
-0.16015875 -0.0014377831 -0.18049568 0.10868013 -0.10657847 0.20980413 -0.17525162 -0.112140566
-0.11272774 -0.13918541 0.05352883 -0.05907025 0.07796689 0.013152591 0.11388576 0.022989899
0.12323201 0.06309687 0.06583918 0.10185731 -0.14793605 -0.014668544 0.11631977 0.20397063
-0.12618878 0.20372777 -0.11345487 -0.122575365 -0.19105023 -0.1579045 0.062646136 -0.14007668
0.04918062 0.13302045 -0.075736456 -0.06008121 -0.12870574 0.1279646 0.11029663 -0.038476206
-0.030008167 -0.16645266 0.07306137 0.09933702 -0.12563254 0.08243996 -0.04700345 0.034704655
-0.14485946 0.1913814 0.17604485 0.116900496 -0.14067166 0.1449595 -0.13415542 -0.0076691094
0.037520193 -0.24490635 -0.04250984 0.060074706 0.031737417 -0.115791865 -0.01345965 0.07658064
0.095056936 -0.120728 -0.06866456 -0.17165412 -0.12205614 0.047864765 -0.25001475 -0.098752014
-0.16873887 0.15346499 0.11991905 0.1580001 0.035720326 -0.035416063 -0.0383886 0.12819919
0.11667759 -0.03223473 -0.032494918 0.13702455 -0.14990719 0.12080635 -0.06059639 0.21202226
-0.15524115 -0.14366397 0.15256578 0.03613172 0.10001255 0.15740414 0.2115334 0.015405208
-0.0688502 0.101681806 -0.05970687 0.04185957 -0.045829833 0.13601989 -0.2065728 -0.1599259
-0.10417305 0.19443251 0.1453478 -0.111579664 -0.078804284 0.19833514 0.110771246 -0.09095536
0.11175877 0.12477702 -0.23562002 -0.17309788 -0.014064169 0.062078826 0.22556153 0.024243992
-0.20677358 -0.13985446 0.10824634 -0.11304673 -0.22056712 -0.034709316 0.080181696 -0.13239798
-0.03133856 0.12607801 0.0088244965 -0.05428477 -0.08620448 -0.04389772 -0.09225379 0.07299926
-0.062311742 -0.012019148 -0.17010483 0.045640483 0.010948786 -0.0058684335 0.029062528 -0.18230851
-0.004520214 0.07468153 0.073105276 -0.09140834 -0.23470795 -0.023123467 0.18237236 0.082608745
0.070362024 -0.1369529 -0.13352515 -0.10620672 0.25182238 0.024449788 0.0065299994 0.103204586

input.bias f4 [64]
00000000: 21dd 7c3e 6008 823e f292 313e 6ec6 4d3e
00000010: 1985 743e f36a 133e 29e1 953d 8acb 39bd
00000020: 08e2 583d 66a1 afbd f30f 403e a01d cebb
00000030: 88f4 783c aa40 233e c816 153e 917a 28bd
00000040: 1f99 63be 0a80 d53d b2ee 013e c232 6f3e
00000050: 4ed0 04be 41fa 563e 1967 18be f6b7 dc3d
00000060: 29b0 bb3e 4a87 8a3e ecb4 0a3d ffe3 da3c
00000070: 7f38 4a3b 2545 b9bd 6044 6d3d c6bf 6d3d
00000080: 6959 8e3c 14fc 9b3e ea41 92bd 5d38 633d
00000090: 7a3e c33e 10e0 7b3e dc3b 813d e464 aebd
000000a0: dc4d 9fbd 9635 e7bd 705e 013e 4c18 11be
000000b0: 39a0 3e3c 0ebb cabd 59f6 453c fceb 03be
000000c0: 4470 19bd ef5b f03d 6b17 523e d408 203e
000000d0: 4734 483e d878 a0bd 5c2f 5e3e 9608 663d
000000e0: 72e6 fabd 61ba 833e 57a1 17bd e51d 2a3e
000000f0: 13ce 09bd a9ac 6c3e b790 903e ff48 013e
0.24693729 0.25397015 0.17341211 0.20095226 0.23878898 0.14396267 0.073183365 -0.045360126
0.052949935 -0.08575706 0.18756084 -0.0062901527 0.01519502 0.15942636 0.14559472 -0.041132513
-0.2222638 0.10424812 0.12688711 0.23359206 -0.12970087 0.20993902 -0.14883079 0.10777275
0.36657837 0.27056342 0.033863947 0.026720045 0.0030856428 -0.090463914 0.057926536 0.058044218
0.017376618 0.30465758 -0.07141478 0.055473674 0.38133603 0.24597192 0.063102454 -0.08515337
-0.07778522 -0.112895176 0.12633681 -0.14169425 0.01163488 -0.09898959 0.01208266 -0.1288299
-0.03746058 0.11736285 0.20516746 0.15628368 0.19551192 -0.07835549 0.21697754 0.056160532
-0.12250985 0.25728133 -0.0370191 0.16612966 -0.033643793 0.2311274 0.2823541 0.12625502

h1.weight f4 [32, 64]
00000000: 34f6 58bc aaa5 603e 13a8 db3c c73c 823d
00000010: 8390 943d 46c5 cb3d d252 103e 420f bf3d
00000020: b840 8cbc bcd8 663e b894 1f3e 3e06 59bd
00000030: abbd 493e 14f7 693d 76e8 273e f784 b13d
00000040: a27f 3d3e b425 343d 3f13 393e f983 853d
00000050: 30dd b23d 4a3b 293e 03cf 103c d412 dd3d
00000060: 92e1 143e 1336 393e 838f 403d eba7 7ebd
00000070: fd4b 773d a08d 503e e674 de3c 800d bf3d
00000080: f079 433d 1f51 0e3e e10f 91bd 21fd 623e
00000090: 625a 2b3e ecda 373e d37d 213e 39ad 0d3d
000000a0: 8f17 2b3e eb69 c53d 04a4 5a3d d62a 183e
000000b0: 6dde 26bd 325c 913e da0e 113e 24c4 953c
000000c0: d764 d23d 6f05 b13c 50d5 ce3d b642 c13d
000000d0: 472d 363e a808 983d 17a2 463e 993d 3c3d
000000e0: ed64 e83d ab12 df3d 0c79 ad3d 4722 d93d
000000f0: 25b5 d8bc 0151 1dbd 9807 553d ec4a 133e
00000100: f1d7 ea3c 3a31 7a3c f949 91bd 9be8 6c3e
00000110: c5e7 5cbb be88 c63d 8587 d5bd 41f7 8ebc
00000120: 6b72 e13d 20fa 3e3d dd26 b93d 1c5e 313e
00000130: 911d b43d c0be a73c b855 fe3d 2838 0c3e
00000140: 0866 d13d 9b7d 413e 7517 a73c 89c9 cbbd
00000150: 45a5 27bd 5005 023e 7a94 75bd 2c90 203e
00000160: ec2c 133e 1586 cc3c f848 f5bd d6e9 5b3c
00000170: 0470 743d e4a4 103d 6ade da3d 3780 8cbd
00000180: 57f0 0ebc 2f6d 84bd 66fa 7c3d 3c9e d23d
00000190: 04bc 043e 9ba0 61bc a3e8 b63c d34b 1b3e
000001a0: 0b4f 6f3d 794d 913d f15f 303e 8370 493d
000001b0: 3548 b63d 258c acbd f7ef 213e eeb0 c83c
000001c0: a37e c2bd ff7c 20bd 5900 a53d 5d09 083e
000001d0: f268 0d3e 9b48 d23d e8ad 0b3e dd1d 7ebc
000001e0: faf1 133c f581 903d e428 fb3d 2a70 d23d
000001f0: 9908 36bb daa9 673e ff41 223d 7997 0f3e
00000200: 6b11 7a3d 3443 ef3d 22f9 363e 67e6 efbc
00000210: 2955 103d 7cab 013d b3b7 773e e87d 1f3d
00000220: 7182 a23d b0a7 aa3e 1b60 3b3e c043 d43d
00000230: 4c9c b73e d20f e43d b4db 85bd be2a 91bc
00000240: a9ab eb3d 887b 80bd 67a0 1b3e f5de a73e
00000250: 790a 423e 8fda 4f3d 2d80 77bd 6763 163e
00000260: a75f 5f3e 426e 563e 4422 99bc 8dfc 00bd
00000270: 4ff2 1a3d c496 243e 8c66 1d3e a889 a43e
00000280: 81fb cc3d b8a4 b23d fe2c d93c ab35 c73b
00000290: 7c63 063d 4f7b 5f3e ae2c bf3d fde1 6ebd
000002a0: abd4 23bc b5ac 1f3e 1ebd 51bd bbae 1b3e
000002b0: 2c3b c53d 50c3 95bd c503 95bd 6b74 acbd
000002c0: b296 223e 1cbb 453d 9957 8dbc 41b1 36bd
000002d0: 64b0 2e3e b696 ca3d 7f6d 28bd 06e1 7c3b
000002e0: 6a35 7b3d 74f8 d9bc 2eb1 adbd d1b9 743b
000002f0: 4e2c 93bd 1281 60bd c399 773e f693 69bd
00000300: a324 493e b0f1 963d 20e2 0d3d 5115 463e
00000310: ef58 7e3e 8a95 d2bc 517c 203e e9bc aa3d
00000320: 4e84 c03d fee6 1a3d dd27 433e b3ab ca3d
00000330: 6882 463e 68cd cb37 f9b1 f43d 318d 563d
00000340: 6a44 c53d 907c 1d3e 5e64 603e cbe3 983e
00000350: f756 c03d fb98 5c3e 2071 043e 45fb 983d
00000360: f0c0 263e 7470 583e bc17 e53d d141 6f3e
00000370: 21c2 0c3e 41df a23d 4e4f 223e a017 3a3e
00000380: 410c f33d 45b3 153c a17d 363e 8b61 103e
00000390: a3ff ee3d 18c2 853e 3385 b13d 60c5 383e
000003a0: 05f4 553d 3bc4 d73d f2fd 953d 2089 e23d
000003b0: 2420 17bc 8931 573c 0b62 bc3d 548c 453d
000003c0: 9581 8a3c 86ef fe3d 36ec e03d 4777 b23c
000003d0: d6fd 443d fee7 343e c90d cc3c a3cc 143e
000003e0: f702 303d 0a3d 3f3d b016 273e 446e 7d3e
000003f0: 0f7e 1c3d 3a63 4a3e 1eb2 be3d 0915 733c
-0.013242293 0.21938196 0.026813542 0.063592486 0.07254126 0.09949736 0.14094093 0.09329082
-0.017120704 0.22543615 0.15584075 -0.05298447 0.19701259 0.057120398 0.1639727 0.08667939
0.1850572 0.04398127 0.18073748 0.065193124 0.087335944 0.16526523 0.008838418 0.10794607
0.14539173 0.18087034 0.047011863 -0.062171858 0.060375202 0.20366526 0.02715535 0.09328747
0.04772371 0.13898133 -0.07083107 0.22166874 0.16733697 0.17954606 0.15770654 0.034589026
0.16708206 0.09639343 0.053379074 0.1486009 -0.040739466 0.28390652 0.14165822 0.018282004
0.1027314 0.021609036 0.1009928 0.09436552 0.1779071 0.07423526 0.1939777 0.04595718
0.11347375 0.108922325 0.084703535 0.10602241 -0.026453564 -0.03840733 0.052009195 0.14384049
0.028667422 0.015270526 -0.07094187 0.23135607 -0.0033707481 0.0969405 -0.10426239 -0.017451884
0.110081516 0.046625257 0.09040616 0.17321056 0.08794702 0.020476699 0.12418693 0.13693297
0.10224539 0.18895571 0.020396927 -0.09950549 -0.040929098 0.12697339 -0.05995605 0.15679997
0.14372605 0.024966279 -0.11976808 0.01342245 0.05967714 0.035313502 0.10686953 -0.068603925
-0.008724294 -0.064661376 0.061762236 0.10284087 0.12962347 -0.0137712015 0.022327727 0.15165643
0.05842499 0.07094855 0.17224099 0.049179565 0.08900491 -0.08425168 0.15814196 0.02449843
-0.0949681 -0.039181706 0.08056707 0.13284822 0.13809565 0.10267755 0.13640559 -0.01551005
0.00902986 0.07056037 0.12263659 0.102753 -0.002777612 0.22623387 0.03961372 0.14022626
0.061051767 0.1168274 0.17868474 -0.02928467 0.035237465 0.03165768 0.2419117 0.038938433
0.07935036 0.3333106 0.1829838 0.10364485 0.35861433 0.1113583 -0.06536046 -0.017720576
0.11507351 -0.06273562 0.15197907 0.3278729 0.18949308 0.050745543 -0.060424972 0.14686356
0.21813832 0.20940498 -0.018693097 -0.03149085 0.03782874 0.16073138 0.1537115 0.32136273
0.10008908 0.08722824 0.026510712 0.006079396 0.03280972 0.21824382 0.09334694 -0.058320988
-0.009999434 0.15593226 -0.051205747 0.15203373 0.09630427 -0.073126435 -0.072761096 -0.084206425
0.15877798 0.048274145 -0.017253684 -0.044602636 0.17059475 0.09892027 -0.04112005 0.0038586273
0.061330236 -0.02660773 -0.0848106 0.00373422 -0.07186185 -0.05481059 0.24179749 -0.057025872
0.19642882 0.07370317 0.034639478 0.19344069 0.24838613 -0.025706071 0.15672423 0.08336813
0.09400235 0.037817948 0.19058175 0.0989603 0.19385684 2.4295136e-05 0.11948008 0.052380744
0.096321896 0.15379548 0.21913287 0.29861292 0.09391587 0.21542732 0.12933779 0.07469801
0.16284537 0.21136647 0.111861676 0.2336495 0.1374593 0.079527386 0.15850565 0.18173075
0.118675716 0.0091369795 0.17821361 0.1409971 0.116698526 0.26124644 0.08667984 0.18044043
0.05223467 0.10535475 0.07323827 0.11061311 -0.0092239715 0.013134369 0.09198388 0.04822953
0.016907493 0.12448029 0.10982554 0.021785391 0.04809364 0.17666623 0.024908917 0.14531188
0.042971577 0.04668907 0.16317248 0.24749094 0.038206156 0.19764414 0.09311317 0.014836558

h1.bias f4 [32]
00000000: 3479 3b3e 4190 4d3c 9c6b 8b3d 3d93 ed3d
00000010: 1427 d8bd 8b6b 55bd 9445 553d bef9 a33b
00000020: 440f da3d ae41 673d a88e 76bd 63a8 493d
00000030: 9980 5f3d 814d a53d 99a8 573e ad87 af3d
00000040: adc3 45bd 97cd 403d c475 d43d 94c5 603d
00000050: 457f 563c 5069 343e dee6 073e 1d8b 5b3d
00000060: 1236 dc3c 99c8 073c 7981 363d 51e1 ea3b
00000070: f0da 183b 8e35 c73d a133 993d 3d54 213d
0.18307954 0.0125466 0.06807634 0.11600349 -0.105543286 -0.052104514 0.052068308 0.005004137
0.10647443 0.05645912 -0.06019464 0.04923285 0.054566 0.08071423 0.21060409 0.085708
-0.048282314 0.047071066 0.103740245 0.054875925 0.013091867 0.17618299 0.13271663 0.053599466
0.026881251 0.008287572 0.04455707 0.007167973 0.0023323856 0.097270116 0.074805506 0.039386977

h2.weight f4 [16, 32]
00000000: 6a06 063d 4c11 803d 9a11 86bd ecbc 623d
00000010: 4087 6dbd a1b4 79bd eae0 d9bc 8bc8 aabd
00000020: 137d 0ebe 80df 713d 3908 ecbd 6570 3fbd
00000030: 70ca 663d 6b26 db3d 3d22 0f3e 6788 48be
00000040: c361 43be 9640 d5bd 874f d1bd db07 17be
00000050: c3f1 2dbd 1402 2e3d 4560 27be 8629 8b3d
00000060: 29bd f3bd 392f f3bd 70e6 90bd ca76 16be
00000070: a00f db3d c53b 44be 2f3d a23c 15bf 93bd
00000080: 77fa 99bd 5e39 febc d995 963d 400d 233c
00000090: cf6f 90bd cdc0 7c3d a3c8 83bd 7caf 563c
000000a0: 37a6 9dbd 311c 6bbd e18c 11be f089 16bd
000000b0: 023a 4bbe 3712 9cbd 6b0d 92bd 2532 c4bd
000000c0: 4dbc 1c3e fa9c eb3b 9d2f 04be 3532 90bc
000000d0: 4996 73bd ade2 793d 2a4f a53d 334b 11be
000000e0: 367b 31bd ec47 663b 24fb 553d 048e 7e3c
000000f0: c92f 633d 96e4 c6bd 26c4 73bd 8979 22bd
00000100: 14d7 363e 8f8f 20bd 2a17 5c3d bd98 013e
00000110: 9035 793d 2aff 5a3d e0ef 4c3d bec5 35be
00000120: ff07 66be 7b9d 4a3e 4c28 5dbd 540e f03c
00000130: d1b3 0d3c dc40 3dbe de7c d33d 5461 0c3e
00000140: d61c 46bd 3d1a 41bd 6f6f 143e 8339 783d
00000150: f350 04be d8bf a93d b33e 513e 38a7 2c3d
00000160: a44b 63be 2fd6 30be d913 35bc 7e98 d43c
00000170: c5a2 bbbd 4e86 0a3e 8cf7 433e 0d07 d63d
00000180: c502 04be 09cc 4f3e 51cb f7bd 3a75 34be
00000190: cdef 12be f8c0 793d f213 6b3c dede 363d
000001a0: b0f5 473e 83b5 89bc 0e30 b93d 0a17 ebbd
000001b0: 2826 843e 0106 3a3e 56ba 6f3e 8636 eebd
000001c0: 46ad c53d 9a31 903e 9b97 363e bab4 513e
000001d0: 6990 583e f558 0dbe cf9a 333e a80b 443d
000001e0: e12d 653e c563 673c 4d8d f6bd 7305 833e
000001f0: 8e4f 75bd a6bb 913d ee26 e4bd c538 463d
00000200: 55c0 9e3d a3c6 79bd 5faf 913e 7141 3a3e
00000210: 7f56 4c3e ed0e de3d fe71 843e dbf8 e7bd
00000220: cffc 35bd 91f3 713e d77b 0d3d be3e 8b3d
00000230: 7465 15be 6406 36be f038 07be a5d7 e13d
00000240: bb39 1bbc 6306 92bd 9b70 1c3e f7bb 383d
00000250: ce0a 5dbe f359 8f3e 7da0 9d3e 6601 883e
00000260: 05a4 d83b 9c59 2dbe d64f 83bd e160 9ebd
00000270: 4d4b 3c3c faf2 413e 54ad aa3e 572d 923e
00000280: 2f2c 9f3e 21b6 943c 4ce7 633e fa40 8a3e
00000290: 2753 4b3e 1697 8ebd 53ea e43d 319e c33c
000002a0: b745 c0bd 1069 853e 7f67 96bd 35bb 1f3e
000002b0: a3f0 fabd f7a8 e4bd 1a15 263e cfef 503e
000002c0: 0e30 2f3d 6eb8 14be 5d82 893d 2082 593c
000002d0: 5a72 40be 9b2d 823e 17d4 4a3d ef07 6f3b
000002e0: 5db5 49bd 1700 273d 3edd 733d 1d1c d9bd
000002f0: 080d edbd 649c 183e 7af9 733e 65ae 123e
00000300: 9b87 bf3c 386d 783c 10f7 da3d 53b1 8e3d
00000310: 719b c3bd 6ac3 dfbc 4a94 f5bd 3f03 b73b
00000320: ed41 d3bd f261 303e 7e8e a0bd 2ab6 2a3e
00000330: f296 37be a19b cabd 74d4 243e 83b5 2f3c
00000340: 0506 f63c 4b8d dc3d b6bb 77bd 5d8c bcbd
00000350: edd5 02bc 89a2 b93d 2c3d 933d 0794 1c3e
00000360: 2481 a5bd ae4b b93c 5b77 113d ef7e 933d
00000370: 7c55 dc3d c0bc 2f3e e3a5 783d 5695 edbd
00000380: 36ba 94bd a35d 033e 958a e73d 0cc4 c83d
00000390: af15 ccbd d702 243e 9a33 8c3d a709 5b3e
000003a0: bdd2 783e 49e8 893d 521d d23d 9b4c cfbd
000003b0: 08ff 393e d9f9 4e3e 4ae7 00bd ea19 833e
000003c0: f6e5 f23d 884b 873c 790a 453e 899b 8abd
000003d0: 05f3 523e 4f2c 153d b8cf 94bd 0fcb 7a3e
000003e0: 886a 283e fdbb 493e 77d2 f03d fb42 343e
000003f0: 6012 87bd a362 743e 44ab 743e df9b c83c
0.03272096 0.06253299 -0.06546326 0.05535595 -0.057990313 -0.060963277 -0.026596505 -0.08339032
-0.139149 0.059051037 -0.11525006 -0.046738047 0.056345403 0.10700687 0.13977905 -0.19583283
-0.19080262 -0.104127094 -0.10220247 -0.1474909 -0.04246689 0.04248245 -0.16345318 0.06795029
-0.11901314 -0.118742414 -0.070752025 -0.14693752 0.106963396 -0.19163425 0.019804565 -0.072141804
-0.075184755 -0.031033214 0.073528 0.0099518895 -0.07052576 0.061707307 -0.06434753 0.013103362
-0.076977186 -0.057399932 -0.14213897 -0.03675264 -0.19846347 -0.07620662 -0.071314655 -0.09579877
0.15306206 0.007190344 -0.12908788 -0.017602066 -0.059469495 0.06100719 0.0807174 -0.14188842
-0.043330394 0.0035138084 0.05224146 0.015536789 0.055465493 -0.09711568 -0.059513234 -0.039666686
0.17855483 -0.03919941 0.05373303 0.12655921 0.060842097 0.053466 0.05003345 -0.17751214
-0.22463988 0.19786637 -0.05399351 0.029303707 0.008648829 -0.18481773 0.10326551 0.13709003
-0.048367344 -0.047144163 0.14495634 0.060601722 -0.12921505 0.082885444 0.20434074 0.04215166
-0.22196823 -0.17269205 -0.011052095 0.02595162 -0.09161905 0.13527796 0.191374 0.104505636
-0.12891681 0.20292677 -0.120993264 -0.17622843 -0.14349289 0.060975045 0.014348017 0.044646136
0.19527316 -0.016810184 0.09042369 -0.11479004 0.2581036 0.18166353 0.23410925 -0.11631493
0.0965219 0.28162843 0.1783127 0.20479098 0.21148838 -0.13803466 0.17539524 0.04786268
0.22380783 0.014122908 -0.1203867 0.25590095 -0.059890322 0.07115869 -0.11140238 0.048393983
0.07751528 -0.06098045 0.2845411 0.18189026 0.1995487 0.108426906 0.2586822 -0.11326762
-0.04443055 0.2362807 0.03454193 0.067990765 -0.14589483 -0.17775875 -0.13205314 0.11027459
-0.009474213 -0.071301244 0.1527733 0.045101132 -0.21586153 0.27998313 0.30786505 0.26563567
0.0066113495 -0.16928715 -0.06411712 -0.07733322 0.0114925625 0.18940344 0.33335364 0.28550217
0.31088397 0.018153252 0.22256202 0.27002698 0.19855939 -0.06962411 0.11177506 0.023879142
-0.09388297 0.2605672 -0.07343959 0.15598758 -0.12252929 -0.1116504 0.16218987 0.2040398
0.042770438 -0.1452348 0.06714318 0.013275653 -0.18793622 0.2542542 0.04951867 0.0036473235
-0.049245227 0.04077157 0.059537165 -0.10601065 -0.11574751 0.14903408 0.23825637 0.14324339
0.023380091 0.0151627585 0.10691655 0.06967416 -0.095511325 -0.02731486 -0.119911745 0.0055851038
-0.10315309 0.17224863 -0.07839678 0.16671053 -0.17928675 -0.09892965 0.1609667 0.010724428
0.030032167 0.10769137 -0.06048175 -0.0920646 -0.007985574 0.09064204 0.07189402 0.15290843
-0.08081272 0.022619095 0.035514217 0.07201945 0.10758492 0.17161846 0.060705077 -0.11600749
-0.072620794 0.12828688 0.11305729 0.09803018 -0.09965073 0.16016708 0.0684578 0.21390401
0.2429914 0.06733758 0.10259499 -0.10122033 0.18163693 0.20212497 -0.031470574 0.25605708
0.11860268 0.016515508 0.19242276 -0.06767947 0.20600517 0.03641921 -0.07266182 0.24491523
0.16446888 0.19700618 0.11758893 0.17603676 -0.06595302 0.23865752 0.23893458 0.024488388

h2.bias f4 [16]
00000000: 7936 55bd 222c 15be ef84 593e f81f f1bc
00000010: 0664 5d3e a1a3 853e acd8 e03d 2675 753e
00000020: 6de7 813c ade1 813d 65bc 6b3d e274 6fbd
00000030: 566e 7e3c b7e4 a73a f26b 483e 0b67 08be
-0.052053902 -0.14567617 0.21242116 -0.02943419 0.21620187 0.261014 0.10978827 0.2397047
0.015857423 0.06341872 0.057552714 -0.058461078 0.015529236 0.0012809251 0.19572428 -0.13320558

h3.weight f4 [8, 16]
00000000: 14fd a73c a01a e6bc a298 9d3d f9b9 833e
00000010: a934 a8be cb81 8dbe 3870 033e 8e99 68be
00000020: 5bf7 4abd f2bd 453d 1485 3bbc 4d1a 5f3e
00000030: ebc5 103e f84c 06bd 89a8 0ebe dd53 d0bd
00000040: 19d1 42bd c9c3 23be 1c56 0e3e dc88 063e
00000050: 848f c3bd 05ce 9c3e fc87 503e 38b7 0cbe
00000060: 5443 febd fd50 13be 2d76 703c 6301 4f3d
00000070: 9911 083d ea06 11be 8055 6b3d bca0 83bc
00000080: db74 1bbd dc36 823c 681c b73d 39ea 783e
00000090: b3ee cdbd 747c 673d 11f5 98bd 0242 383e
000000a0: 85db 0abe aa57 6e3e c74d 6abd d9f7 4c3e
000000b0: 017b 27be e170 0b3e 90d2 a73d 0fd0 3a3e
000000c0: 78fa 89bc 108c a5ba 8a35 83be b99c 8d3e
000000d0: 6276 fcbd 78c4 2a3e 67b7 923e 85e9 4e3e
000000e0: 253d 783e ff1a 8e3e 5b5f 813d 890f 543e
000000f0: 47da 03bb 2f90 b43e d3aa 70be 0ff4 303b
00000100: 62d0 17be ae31 813d a07d 903e 9cc7 30be
00000110: f0df 943e 330a 283e 8844 bfbd 8b1b 80bd
00000120: 257d 5d3e d50e 08be 0837 083e f32f f1bc
00000130: 672a 3b3e b52e f53c 9137 c33e 1016 f53d
00000140: 5ce5 833d fd9c 22be 7bbc 273d 452b 2d3e
00000150: 83a2 943e 31bc 22bd 3dbe 593e 8349 acbb
00000160: 5a30 2dbd 76ad 77be deb3 ac3d 0f56 463e
00000170: 5f4c 5f3e a870 92be 2d72 a43e 89aa 4f3d
00000180: 53b9 02be a61c 30be 5af0 3b3e f6a0 43be
00000190: 39b2 723e 9a7a 853e 5444 403e bf2f 513e
000001a0: 5c00 ef3d 34c0 03be 476c 1cbe 99d8 5dbd
000001b0: 713f 2bbd 39a7 24bd cfa0 8f3d 46c1 86be
000001c0: a87c 683e 1ebe e53d a111 68be 1cc0 b4bd
000001d0: bb0e 3bbd 6a15 0ebd 8b28 ecbd 6e55 463e
000001e0: 1f9f 03bd 5f09 ca3d d6f3 22be 7c5b 3f3e
000001f0: e777 51bd fd78 033e c1c1 a63c 4d0a ecbd
0.02050642 -0.028088868 0.07695128 0.25727823 -0.32852677 -0.27638087 0.12835777 -0.22714826
-0.049552303 0.04827685 -0.0114453025 0.21787377 0.14138 -0.032788247 -0.13931479 -0.10172246
-0.047562692 -0.15992655 0.13900036 0.13138145 -0.09548858 0.3062593 0.20364374 -0.13741767
-0.124151856 -0.14386363 0.014676613 0.05053843 0.033219907 -0.14162794 0.057454586 -0.016067855
-0.03795324 0.0158953 0.08940965 0.24308099 -0.10055294 0.056515172 -0.07468618 0.1799393
-0.13560303 0.23275629 -0.05720308 0.20016421 -0.16355516 0.13617279 0.081944585 0.1824343
-0.016843066 -0.0012630243 -0.25626785 0.27658632 -0.12327267 0.1667651 0.2865555 0.20206268
0.24242075 0.2775497 0.06317016 0.20709051 -0.0020119117 0.35266253 -0.23502664 0.002700094
-0.14825585 0.06308304 0.28220844 -0.17263645 0.290771 0.1641014 -0.09339243 -0.062552534
0.2162977 -0.13286908 0.13302243 -0.02944181 0.18277894 0.029929498 0.3812833 0.11967099
0.06440231 -0.15880199 0.040951233 0.16911037 0.29030237 -0.039730255 0.21263976 -0.0052577867
-0.04228244 -0.24187264 0.084327444 0.19368766 0.21806477 -0.28601575 0.3211836 0.050699744
-0.12766008 -0.17198429 0.18353406 -0.1910437 0.23700799 0.260701 0.18776065 0.2042837
0.116699904 -0.12866288 -0.1527568 -0.05416164 -0.04180855 -0.04019854 0.07013094 -0.2631933
0.22703803 0.112179026 -0.22662975 -0.088257045 -0.045668345 -0.03468839 -0.115311705 0.19368526
-0.03213417 0.09865069 -0.15913329 0.18687242 -0.05113974 0.12839122 0.020356061 -0.11525402

h3.bias f4 [8]
00000000: 377e 523e cd1d f5bd 5692 c6bd 9509 d13c
00000010: c83b 8b3e a67c d9bd 7d68 a53e 6902 4ebd
0.2055596 -0.11968575 -0.0969588 0.025517264 0.27194047 -0.10619478 0.3230628 -0.050295267

h4.weight f4 [1, 8]
00000000: 2b62 0e3e b692 00be 22ae 813e e1c3 b13e
00000010: 1873 5dbe 5fc0 71be 8c69 cebe b8aa c33e
0.13904636 -0.12555966 0.25328165 0.34719756 -0.21625936 -0.2360854 -0.403149 0.38216186
