src/models/saved_models/best_model_lr0.0001_roc_auc0.9181786394321124.pt (torch, 23973 bytes, 9 tensors)

input.weight f4 [64, 30]
0.14661771 -0.060127266 -0.09015316 -0.11158336 -0.09356062 0.06812418 -0.043956485 -0.004417003
-0.16630824 -0.032757036 -0.08720088 0.20486552 -0.033447843 0.08748713 -0.0070425943 0.07163076
-0.2108504 -0.16402206 -0.20921639 0.21056789 0.1423032 -0.07571712 -0.045488454 0.12215307
-0.123370565 -0.11523359 -0.08488895 -0.0072115874 0.055942696 -0.055027045 -0.058037266 0.23632984
-0.12591186 0.058416974 0.1396855 0.037756186 0.16778666 0.061644327 0.24890676 0.13429303
-0.14058702 0.00034359918 0.13707402 -0.12787354 0.22356695 -0.011598411 0.18447974 -0.15634252
0.020999277 0.1728174 0.10806986 0.10680498 -0.033219513 0.016250689 0.22199523 0.24143265
0.22137193 -0.20395936 -0.16200973 0.026971979 0.055242527 -0.108493455 -0.023783037 0.11472285
-0.23438889 0.030785736 -0.059248064 -0.039424255 0.092232384 -0.03175351 0.0928437 0.09840021
0.045687124 -0.15459123 0.046101287 -0.13078992 0.14779815 -0.028384222 0.1992889 0.22033878
0.065746896 -0.11191503 -0.03962733 -0.14384839 0.025402045 0.10200352 0.1850625 0.09902906
0.11778389 0.13097194 -0.13917018 0.039567746 -0.027830476 0.018408036 0.2104031 -0.017606748
-0.16830932 -0.011428455 -0.17438118 0.10621932 -0.11024079 0.21106634 -0.1735253 -0.11026768
-0.112672545 -0.13937879 0.053213384 -0.05530153 0.08353449 0.011178668 0.11932435 0.025957981
0.11868334 0.06320912 0.060888577 0.10587993 -0.14345169 -0.015571353 0.12599558 0.2011365
-0.13217662 0.18977757 -0.111170314 -0.124273546 -0.18030061 -0.15271656 0.06291606 -0.1264423
0.04674333 0.13730222 -0.07880175 -0.06278872 -0.13148102 0.13441876 0.10155947 -0.040967565
-0.037457988 -0.16255306 0.070565544 0.10354663 -0.12759365 0.07549611 -0.05796237 0.030099621
-0.14539056 0.185963 0.16692246 0.116980225 -0.14099735 0.15078226 -0.13932599 -0.0048986254
0.044714157 -0.24192083 -0.036000628 0.05978038 0.028233664 -0.122936755 -0.009763074 0.069807984
0.09423589 -0.11920037 -0.06509298 -0.16977137 -0.132562 0.039396472 -0.2423327 -0.094848916
-0.17386393 0.13775398 0.12296309 0.16067246 0.027834784 -0.033408787 -0.037267912 0.14146139
0.12919816 -0.02575788 -0.029717652 0.13561518 -0.15090606 0.120964065 -0.059269574 0.20703584
-0.15015608 -0.1413521 0.1575622 0.036992393 0.09818797 0.16056898 0.21041346 0.014638794
-0.07198728 0.102398515 -0.059965707 0.03981523 -0.0526013 0.14213392 -0.19202678 -0.14793468
-0.103510246 0.18860087 0.14492953 -0.11116041 -0.08345723 0.18870236 0.10734974 -0.096833795
0.103478305 0.120340765 -0.22456844 -0.17061599 -0.010403278 0.04007675 0.22817813 0.024671145
-0.21256582 -0.14250073 0.111240305 -0.111922234 -0.22572666 -0.037353203 0.08402307 -0.13315669
-0.036742494 0.117291935 0.001553421 -0.04944001 -0.071530275 -0.046823025 -0.093712226 0.091076225
-0.0680681 -0.012371426 -0.17665972 0.046715856 0.007853743 -0.0043525337 0.030899463 -0.1800237
-0.0056577004 0.07475387 0.06371035 -0.09601219 -0.23129855 -0.032952417 0.18300037 0.08909179
0.06416832 -0.13029851 -0.13744912 -0.1076779 0.24710943 0.021474825 0.0036080752 0.09790797
00000000: f422 163e 0248 76bd 38a2 b8bd d185 e4bd
00000010: b69c bfbd b184 8b3d b70b 34bd 82bc 90bb
00000020: b54c 2abe 3e2c 06bd 6096 b2bd 44c8 513e
00000030: 9b00 09bd 742c b33d 90c5 e6bb 26b3 923d
00000040: 2be9 57be 66f5 27be d23c 56be 1c9f 573e
00000050: eeb7 113e 9411 9bbd 1a52 3abd 642b fa3d
00000060: b5a9 fcbd 97ff ebbd 42da adbd 2e4f ecbb
00000070: 2b24 653d 0a64 61bd 7cb8 6dbd 7300 723e
00000080: 0aef 00be a346 6f3d b709 0f3e 3ba6 1a3d
00000090: 44d0 2b3e c37e 7c3d 6ae1 7e3e 1d84 093e
000000a0: 0bf6 0fbe 1a25 b439 225d 0c3e 48f1 02be
000000b0: bcee 643e 4307 3ebc 42e8 3c3e 4118 20be
000000c0: ad06 ac3c 0bf7 303e bb53 dd3d 92bc da3d
000000d0: 2f11 08bd 2a20 853c b852 633e 1f3a 773e
000000e0: 53af 623e b9da 50be e1e5 25be 57f4 dc3c
000000f0: fd45 623d d131 debd a5d4 c2bc d0f3 ea3d
00000100: a403 70be 5e32 fc3c 19ae 72bd 547b 21bd
00000110: 55e4 bc3d f80f 02bd d624 be3d 0d86 c93d
00000120: 6c22 3b3d 2a4d 1ebe b4d4 3c3d cbed 05be
00000130: 6658 173e 0786 e8bc 6412 4c3e 7da0 613e
00000140: 4fa6 863d b533 e5bd 4450 22bd fe4c 13be
00000150: f317 d03c 39e7 d03d 0681 3d3e bfcf ca3d
00000160: ae38 f13d 821d 063e a182 0ebe ca11 223d
00000170: bdfc e3bc 73cc 963c e973 573e 073c 90bc
00000180: 4759 2cbe 6a3e 3bbc fb90 32be 8489 d93d
00000190: ecc5 e1bd c621 583e 9eb0 31be 05d4 e1bd
000001a0: ddc0 e6bd 50b9 0ebe 47f6 593d db83 62bd
000001b0: 2114 ab3d bb26 373c 5360 f43d d5a5 d43c
000001c0: 4010 f33d c873 813d 4d66 793d 94d7 d83d
000001d0: 00e5 12be fd1e 7fbc fc04 013e baf6 4d3e
000001e0: 4f59 07be 0d55 423e 43ad e3bd 2183 febd
000001f0: b9a0 38be bb61 1cbe 23da 803d 177a 01be
00000200: ef75 3f3d f498 0c3e d062 a1bd 5f97 80bd
00000210: f6a2 06be 12a5 093e 69fe cf3d 9bcd 27bd
00000220: 8c6d 19bd 4f74 26be ab84 903d 4110 d43d
00000230: e9a7 02be b49d 9a3d f369 6dbd 7b93 f63c
00000240: 43e1 14be 166d 3e3e b9ed 2a3e 5493 ef3d
00000250: 9c61 10be aa66 1a3e 79ab 0ebe a684 a0bb
00000260: 3126 373d 18ba 77be 6575 13bd 46dc 743d
00000270: 494a e73c 44c6 fbbd 4df5 1fbc 7df7 8e3d
00000280: bffe c03d 531f f4bd 784f 85bd 8cd8 2dbe
00000290: 55be 07be 325e 213d 1026 78be 2640 c2bd
000002a0: 6309 32be 610f 0d3e 13d4 fb3d 5287 243e
000002b0: c605 e43c a7d7 08bd 3da6 18bd 41db 103e
000002c0: 864c 043e 3102 d3bc 6f72 f3bc b5de 0a3e
000002d0: 1e87 1abe 02bc f73d a7c4 72bd 3401 543e
000002e0: 84c2 19be 9bbe 10be fc57 213e 5685 173d
000002f0: c616 c93d 326c 243e a076 573e 8dd7 6f3c
00000300: 116e 93bd 50b6 d13d 9a9e 75bd 4b15 233d
00000310: 7674 57bd 8e8b 113e aba2 44be 307c 17be
00000320: 2efd d3bd 9620 413e 6868 143e 12a8 e3bd
00000330: a0eb aabd 313b 413e 2eda db3d cc50 c6bd
00000340: 6fec d33d 3875 f63d 45f5 65be f5b5 2ebe
00000350: 8372 2abc 8527 243d 87a7 693e 241b ca3c
00000360: dbaa 59be b6eb 11be f5d1 e33d 7c37 e5bd
00000370: e424 67be acff 18bd 4a14 ac3d 3a5a 08be
00000380: 4c7f 16bd c136 f03d 299c cb3a 9c81 4abd
00000390: 777e 92bd 80c9 3fbd 32ec bfbd 2c86 ba3d
000003a0: 4a67 8bbd 86b1 4abc 49e6 34be 2059 3f3d
000003b0: fcac 003c b39f 8ebb df20 fd3c 2258 38be
000003c0: 3b64 b9bb 8f18 993d 927a 823d 0aa2 c4bd
000003d0: 87d9 6cbe 1df9 06bd 7364 3b3e c275 b63d
000003e0: ae6a 833d f96c 05be 76bf 0cbe 3b86 dcbd
000003f0: 410a 7d3e f9eb af3c 7575 6c3b f983 c83d

input.bias f4 [64]
0.2288299 0.25940117 0.16997351 0.192454 0.23076883 0.1461318 0.07006454 -0.04453148
0.05398548 -0.087098934 0.18760343 -0.010504722 0.016857555 0.15202476 0.1367588 -0.04603099
-0.21649653 0.101016484 0.119347386 0.23596497 -0.12651488 0.20819065 -0.14671074 0.10519879
0.36042145 0.2694121 0.03254363 0.019327892 -0.00062250264 -0.10883663 0.050300665 0.0602163
0.016850777 0.30077592 -0.08190082 0.05377294 0.3797506 0.24504143 0.061411448 -0.08820729
-0.08023084 -0.11189878 0.121896826 -0.13884997 0.009810824 -0.102097504 0.011119723 -0.12751843
-0.041889984 0.11722797 0.2091246 0.1497436 0.18822637 -0.08377208 0.20839123 0.051026806
-0.12177093 0.2478274 -0.03871987 0.16289018 -0.034358468 0.22563204 0.27858216 0.12520711
00000000: 6352 6a3e 3bd0 843e 890d 2e3e a912 453e
00000010: aa4e 6c3e 93a3 153e ff7d 8f3d a466 36bd
00000020: e11f 5d3d ed60 b2bd 1d1b 403e ff1b 2cbc
00000030: db18 8a3c 61ac 1b3e 800a 0c3e fe8a 3cbd
00000040: 44b1 5dbe bbe1 ce3d 676c f43d cda0 713e
00000050: 1e8d 01be ee2f 553e 573b 16be 7772 d73d
00000060: 2989 b83e 62f0 893e 784c 053d 8755 9e3c
00000070: 722f 23ba bde5 debd 1208 4e3d 5ea5 763d
00000080: a40a 8a3c 4dff 993e 9ebb a7bd 0441 5c3d
00000090: ac6e c23e 24ec 7a3e 928a 7b3d 06a6 b4bd
000000a0: 1150 a4bd 302b e5bd 0ba5 f93d b02e 0ebe
000000b0: 94bd 203c 7f18 d1bd 802f 363c 3194 02be
000000c0: d594 2bbd 3815 f03d c224 563e 6356 193e
000000d0: 6abe 403e b290 abbd 8364 553e 7c01 513d
000000e0: 0a63 f9bd 77c6 7d3e ba98 1ebd afcc 263e
000000f0: 77bb 0cbd 160c 673e 52a2 8e3e 4b36 003e

h1.weight f4 [32, 64]
-0.009950833 0.21716203 0.028117279 0.072349526 0.06874913 0.0976334 0.13175103 0.08417715
-0.013926526 0.21103428 0.14779863 -0.05508077 0.19121228 0.05807757 0.15548974 0.08670685
0.17788903 0.04925706 0.1805956 0.05832889 0.086596675 0.1556995 0.009645973 0.1020995
0.13868222 0.18347143 0.043542642 -0.06771223 0.061311007 0.18494667 0.022532802 0.09212583
0.049773283 0.13767256 -0.063329846 0.2184084 0.16435376 0.1744969 0.15868048 0.038758792
0.17207529 0.0919306 0.048588958 0.14569204 -0.034818284 0.27640954 0.14115013 0.018397529
0.100756824 0.0056695025 0.09021282 0.10137444 0.16644597 0.06378476 0.18921426 0.050755654
0.11412355 0.11348429 0.08180413 0.09950722 -0.02377896 -0.034221105 0.049085557 0.14418454
0.023206903 0.01790355 -0.06790601 0.22143723 0.0015800156 0.09811637 -0.095566474 -0.009475755
0.10337252 0.06268922 0.093451835 0.17502621 0.093050055 0.01816741 0.13194762 0.1374777
0.10961701 0.18269597 0.018121384 -0.095326886 -0.04083885 0.139337 -0.059532832 0.15554373
0.14663349 0.021336576 -0.11349451 0.017048972 0.06264541 0.0538383 0.11231401 -0.065012194
-0.011562696 -0.06455609 0.056744695 0.10634545 0.1285345 -0.010130784 0.019138439 0.14856587
0.051619597 0.07377585 0.17824246 0.04871445 0.08412612 -0.07928325 0.15830079 0.022952331
-0.08858831 -0.024322674 0.089183725 0.12803462 0.14566956 0.115485094 0.13806264 -0.019642944
0.0075537716 0.0641635 0.124797106 0.11022277 -0.004164948 0.22151329 0.041595813 0.13741139
0.0618401 0.11393954 0.17974061 -0.02195869 0.03133553 0.029077474 0.23376767 0.028791407
0.08001618 0.32030174 0.17139988 0.10087988 0.35288852 0.11071099 -0.07469458 -0.017772576
0.10796286 -0.058864314 0.15006028 0.319116 0.1880821 0.040695213 -0.060902573 0.13585657
0.20893782 0.2100711 -0.021497203 -0.037788697 0.041088402 0.14571449 0.14783213 0.31939054
0.100259855 0.08532523 0.03473718 0.0028261014 0.027656324 0.21180218 0.09213785 -0.054542124
-0.0060249544 0.14978895 -0.055391427 0.14714421 0.10227796 -0.08186615 -0.07416237 -0.0859556
0.15977442 0.031603668 -0.03129315 -0.036578346 0.15572347 0.09044023 -0.048231654 0.008061186
0.060517494 -0.023597553 -0.08923307 -0.002469811 -0.069084376 -0.05107493 0.23803549 -0.058944326
0.20097576 0.06843597 0.036480088 0.20217621 0.24511424 -0.026720345 0.14747502 0.07388375
0.09765288 0.023320187 0.18312994 0.09785266 0.18824184 0.0013107413 0.11251128 0.052724134
0.08866598 0.15956779 0.21951285 0.27097857 0.09310753 0.20475432 0.13043137 0.07006455
0.15486357 0.2140416 0.1061974 0.22934537 0.1380092 0.059883878 0.15444404 0.18116903
0.12092118 0.007948342 0.18566072 0.13781592 0.11459747 0.2563369 0.08803047 0.1837565
0.057828348 0.10077141 0.068123706 0.10752632 -0.003442254 0.0063203457 0.09164536 0.04908631
0.014188934 0.1086503 0.09907749 0.029136656 0.036840383 0.16597962 0.021002308 0.15066196
0.0438676 0.05156117 0.15975538 0.240623 0.041420385 0.2023047 0.09047879 0.0147415195
00000000: d208 23bc b95f 5e3e 3556 e63c fd2b 943d
00000010: 58cc 8c3d 05f4 c73d bee9 063e 1265 ac3d
00000020: 152c 64bc 5f19 583e 8658 173e 609c 61bd
00000030: 27cd 433e bfe2 6d3d b438 1f3e 5c93 b13d
00000040: 8b28 363e c5c1 493d 0eee 383e 46ea 6e3d
00000050: 9959 b13d b16f 1f3e 250a 1e3c 8b19 d13d
00000060: b602 0e3e efdf 3b3e c559 323d b6ac 8abd
00000070: 4021 7b3d a962 3d3e b696 b83c 78ac bc3d
00000080: 12df 4b3d 09fa 0c3e 14b3 81bd 74a6 5f3e
00000090: 5a4c 283e 51af 323e 237d 223e 8ac1 1e3d
000000a0: 8134 303e 1c46 bc3d 3705 473d 4b30 153e
000000b0: 9e9d 0ebd 8d85 8d3e a989 103e 6ab6 963c
000000c0: 9859 ce3d 3cc7 b93b 80c1 b83d 679d cf3d
000000d0: d070 2a3e 96a1 823d 62c1 413e 29e5 4f3d
000000e0: 9cb9 e93d 746a e83d ec88 a73d 71ca cb3d
000000f0: 18cc c2bc 6e2b 0cbd f00d 493d 1da5 133e
00000100: 671c be3c 77aa 923c 4e12 8bbd 71c0 623e
00000110: 8718 cf3a 3cf1 c83d 5bb8 c3bd 3240 1bbc
00000120: f9b4 d33d 3563 803d ad63 bf3d 123a 333e
00000130: 0791 be3d d2d3 943c 471d 073e f4c6 0c3e
00000140: e27e e03d a714 3b3e 4c73 943c be3a c3bd
00000150: a346 27bd 5cae 0e3e b3d8 73bd db46 1f3e
00000160: 1727 163e 0bca ae3c cf6f e8bd 49aa 8b3c
00000170: 3d4c 803d 8d85 5c3d e304 e63d 1d25 85bd
00000180: 7671 3dbc fc35 84bd 206d 683d a5cb d93d
00000190: 8c9e 033e 96fb 25bc 37c8 9c3c a721 183e
000001a0: 126f 533d cb17 973d 3185 363e ce88 473d
000001b0: 514a ac3d 425f a2bd 9a19 223e 8706 bc3c
000001c0: ca6d b5bd 5840 c7bc f5a5 b63d 821b 033e
000001d0: 672a 153e 7383 ec3d 4b60 0d3e 3dea a0bc
000001e0: a185 f73b 2768 833d a095 ff3d 7abc e13d
000001f0: 1e7a 88bb 61d4 623e 5f60 2a3d 92b5 0c3e
00000200: 0b4c 7d3d 2259 e93d ec0d 383e b6e2 b3bc
00000210: af59 003d e233 ee3c cb60 6f3e f5db eb3c
00000220: 86df a33d 97fe a33e 7383 2f3e 1c9a ce3d
00000230: cead b43e 72bc e23d 79f9 98bd cb97 91bc
00000240: a21b dd3d b51b 71bd 67a9 193e 2c63 a33e
00000250: 9898 403e 06b0 263d fa74 79bd fc1d 0b3e
00000260: ccf3 553e e11c 573e e71a b0bc 52c8 1abd
00000270: 504c 283d 2e36 153e 4e61 173e 2887 a33e
00000280: 0a55 cd3d ffbe ae3d 9348 0e3d 1d36 393b
00000290: 848f e23c ace2 583e c5b2 bc3d 9067 5fbd
000002a0: fb6c c5bb 4662 193e 1fe2 62bd f9ac 163e
000002b0: 1b77 d13d 71a9 a7bd 71e2 97bd 7d09 b0bd
000002c0: e89b 233e d972 013d 3f2d 00bd 2dd3 15bd
000002d0: f975 1f3e ba38 b93d 8e8e 45bd 1113 043c
000002e0: 31e1 773d a84f c1bc d4bf b6bd 8ddc 21bb
000002f0: 1c7c 8dbd f233 51bd 93bf 733e 9b6f 71bd
00000300: 97cc 4d3e 2828 8c3d 256c 153d 4807 4f3e
00000310: 3aff 7a3e a0e4 dabc b103 173e 5d50 973d
00000320: 3cfe c73d fa09 bf3c 6a86 3b3e fa66 c83d
00000330: 78c2 403e 2ecd ab3a 506c e63d 43f5 573d
00000340: 8296 b53d bd65 233e fac7 603e b4bd 8a3e
00000350: 29af be3d 1eab 513e cd8f 053e 017e 8f3d
00000360: 8e94 1e3e b92d 5b3e 067e d93d 83d9 6a3e
00000370: 4952 0d3e cc48 753d 9426 1e3e 6084 393e
00000380: 86a5 f73d c339 023c d81d 3e3e 9e1f 0d3e
00000390: 14b2 ea3d 973e 833e 5249 b43d aa2a 3c3e
000003a0: 6bdd 6c3d 3e61 ce3d 7184 8b3d c236 dc3d
000003b0: 7097 61bb e71a cf3b 90b0 bb3d ba0e 493d
000003c0: b478 683c 0c84 de3d 24e9 ca3d ffaf ee3c
000003d0: f1e5 163d 90f6 293e 080d ac3c 2147 1a3e
000003e0: 83ae 333d ce31 533d ea96 233e e065 763e
000003f0: 6ca8 293d f728 4f3e f24c b93d 6a86 713c

h1.bias f4 [32]
0.18707775 0.0052603995 0.06954639 0.12065193 -0.10379171 -0.050225787 0.055081986 0.0027056222
0.10192424 0.05749274 -0.060556404 0.054907583 0.04842667 0.07612145 0.20076592 0.088644065
-0.049632974 0.043941632 0.09660164 0.049459945 0.0075250627 0.18077199 0.13450691 0.055563305
0.020190386 0.0027591519 0.048398674 0.002812046 0.0053407857 0.097120695 0.0772617 0.041766208
00000000: 4f91 3f3e 6e5f ac3b 566e 8e3d 5c18 f73d
00000010: c090 d4bd 8eb9 4dbd a69d 613d cf50 313b
00000020: a8bd d03d 827d 6b3d fe09 78bd c6e6 603d
00000030: 0b5b 463d 90e5 9b3d 9595 4d3e 058b b53d
00000040: f24b 4bbd 24fc 333d 15d7 c53d 8396 4a3d
00000050: cd94 f63b 4b1c 393e 2ebc 093e 5996 633d
00000060: 4f66 a53c e3d2 343b b03d 463d 4e4a 383b
00000070: c201 af3b 37e7 c63d 623b 9e3d 0b13 2b3d

h2.weight f4 [16, 32]
0.03272096 0.06253299 -0.06546326 0.05535595 -0.057990313 -0.060963277 -0.026596505 -0.08339032
-0.139149 0.059051037 -0.11525006 -0.046738047 0.056345403 0.10700687 0.13977905 -0.19583283
-0.19080262 -0.104127094 -0.10220247 -0.1474909 -0.04246689 0.04248245 -0.16345318 0.06795029
-0.11901314 -0.118742414 -0.070752025 -0.14693752 0.106963396 -0.19163425 0.019804565 -0.072141804
-0.075184755 -0.031033214 0.073528 0.0099518895 -0.07052576 0.061707307 -0.06434753 0.013103362
-0.076977186 -0.057399932 -0.14213897 -0.03675264 -0.19846347 -0.07620662 -0.071314655 -0.09579877
0.15306206 0.007190344 -0.12908788 -0.017602066 -0.059469495 0.06100719 0.0807174 -0.14188842
-0.043330394 0.0035138084 0.05224146 0.015536789 0.055465493 -0.09711568 -0.059513234 -0.039666686
0.17883691 -0.03797461 0.052169643 0.12762828 0.049437113 0.048918825 0.046844583 -0.17824014
-0.22109182 0.19137384 -0.06691025 0.0278737 0.013349317 -0.18407814 0.10549605 0.13367033
-0.04609857 -0.039413802 0.14383192 0.06566363 -0.12614727 0.07703365 0.19895709 0.04138695
-0.21651885 -0.16375509 -0.022044184 0.0258129 -0.092968985 0.13174185 0.18620509 0.10105458
-0.1370001 0.19462624 -0.12773968 -0.18459253 -0.1441741 0.056163948 0.00785743 0.03905835
0.18735445 -0.019627701 0.093216844 -0.119539924 0.24969925 0.17631091 0.22582178 -0.12238838
0.093428925 0.27115223 0.17046835 0.19534098 0.20509388 -0.1420694 0.17144822 0.04129951
0.21484175 0.012011483 -0.11509272 0.25079912 -0.059242155 0.06536948 -0.11528872 0.04284376
0.07872198 -0.058551732 0.28400582 0.18413694 0.1898985 0.105392665 0.2568662 -0.11360202
-0.039369956 0.23133484 0.023338145 0.06783435 -0.14022657 -0.17564496 -0.12886007 0.10821497
-0.0074023185 -0.06277588 0.15280879 0.05090939 -0.2121473 0.2752113 0.3037355 0.26590344
0.012939385 -0.16049252 -0.07421794 -0.07584679 0.009014325 0.18699573 0.32925585 0.2833132
0.31125653 0.021292055 0.22097905 0.2723117 0.18791193 -0.07380779 0.10868133 0.029051252
-0.08569526 0.25434256 -0.0861003 0.1554804 -0.11466711 -0.10641676 0.16562533 0.20040849
0.046252806 -0.13355325 0.066074856 0.020537848 -0.18126525 0.24843056 0.04431153 0.0028444016
-0.040845912 0.058850214 0.048259147 -0.10032297 -0.11615764 0.14532939 0.23328872 0.13960019
0.026414078 0.020343233 0.107823685 0.074105136 -0.1009627 -0.028189054 -0.11954143 0.006970364
-0.09526369 0.17004861 -0.08496561 0.16858758 -0.17170349 -0.09337706 0.16613443 0.01110125
0.033389248 0.11923127 -0.058737054 -0.08377525 -0.0017622109 0.08769663 0.06962833 0.15470062
-0.072241776 0.043655034 0.028428191 0.076224424 0.107304364 0.17112514 0.05873482 -0.115920104
-0.07530963 0.1281732 0.11113696 0.096908875 -0.09349279 0.16183503 0.06746475 0.21181104
0.2435406 0.06895226 0.109095216 -0.09934326 0.18131605 0.20388916 -0.032140728 0.25366417
0.11605303 0.0150889335 0.1889603 -0.068844944 0.20694979 0.0375308 -0.07003885 0.24512996
0.16428845 0.20705001 0.12349912 0.17949799 -0.0652863 0.23684798 0.24136011 0.022717992
00000000: 6a06 063d 4c11 803d 9a11 86bd ecbc 623d
00000010: 4087 6dbd a1b4 79bd eae0 d9bc 8bc8 aabd
00000020: 137d 0ebe 80df 713d 3908 ecbd 6570 3fbd
00000030: 70ca 663d 6b26 db3d 3d22 0f3e 6788 48be
00000040: c361 43be 9640 d5bd 874f d1bd db07 17be
00000050: c3f1 2dbd 1402 2e3d 4560 27be 8629 8b3d
00000060: 29bd f3bd 392f f3bd 70e6 90bd ca76 16be
00000070: a00f db3d c53b 44be 2f3d a23c 15bf 93bd
00000080: 77fa 99bd 5e39 febc d995 963d 400d 233c
00000090: cf6f 90bd cdc0 7c3d a3c8 83bd 7caf 563c
000000a0: 37a6 9dbd 311c 6bbd e18c 11be f089 16bd
000000b0: 023a 4bbe 3712 9cbd 6b0d 92bd 2532 c4bd
000000c0: 4dbc 1c3e fa9c eb3b 9d2f 04be 3532 90bc
000000d0: 4996 73bd ade2 793d 2a4f a53d 334b 11be
000000e0: 367b 31bd ec47 663b 24fb 553d 048e 7e3c
000000f0: c92f 633d 96e4 c6bd 26c4 73bd 8979 22bd
00000100: 0621 373e 448b 1bbd d6af 553d fdb0 023e
00000110: 927e 4a3d 1b5f 483d 1be0 3f3d 9584 36be
00000120: e565 62be 81f7 433e 3e08 89bd 6357 e43c
00000130: 18b7 5a3c fb7e 3cbe 500e d83d e0e0 083e
00000140: dbd1 3cbd 5e70 21bd ad48 133e a77a 863d
00000150: c02c 01be d1c3 9d3d 68bb 4b3e 5d85 293d
00000160: 1eb7 5dbe 6aaf 27be 0196 b4bc 9375 d33c
00000170: 8666 bebd 56e7 063e 8cac 3e3e b4f5 ce3d
00000180: c149 0cbe 1a4c 473e 31ce 02be d305 3dbe
00000190: 60a2 13be 2b0c 663d 73bc 003c a6fb 1f3d
000001a0: d8d9 3f3e 46ca a0bc 79e8 be3d 59d1 f4bd
000001b0: 29b1 7f3e d98a 343e d33d 673e c2a6 fabd
000001c0: aa57 bf3d 77d4 8a3e 418f 2e3e 7707 483e
000001d0: 2104 523e a47a 11be 1f90 2f3e ad29 293d
000001e0: 7aff 5b3e d0cb 443c bbb5 ebbd be68 803e
000001f0: e7a7 72bd 6fe0 853d 7e1c ecbd f07c 2f3d
00000200: fd38 a13d f1d3 6fbd 3669 913e 658e 3c3e
00000210: c174 423e 1cd8 d73d f783 833e 2da8 e8bd
00000220: 6442 21bd 0ae3 6c3e a32f bf3c bcec 8a3d
00000230: 8e97 0fbe 46dc 33be e5f3 03be cf9f dd3d
00000240: 268f f2bb a490 80bd e879 1c3e 5d86 503d
00000250: 243d 59be 7fe8 8c3e 3883 9b3e 7f24 883e
00000260: b7ff 533c 2758 24be 93ff 97bd 9055 9bbd
00000270: d2b0 133c cf7b 3f3e 3994 a83e 6e0e 913e
00000280: 045d 9f3e ad6c ae3c 5548 623e 706c 8b3e
00000290: fc6b 403e 8a28 97bd 5194 de3d e4fc ed3c
000002a0: ff80 afbd 3039 823e 5b55 b0bd 4136 1f3e
000002b0: 97d6 eabd 08f1 d9bd b099 293e e237 4d3e
000002c0: 9573 3d3d 2fc2 08be 4152 873d fd3e a83c
000002d0: 999d 39be 9564 7e3e 0280 353d 2469 3a3b
000002e0: 0b4e 27bd ec0c 713d 62ab 453d 2176 cdbd
000002f0: 0fe4 edbd 3ad1 143e 3de3 6e3e 5af3 0e3e
00000300: 5662 d83c daa6 a63c aad2 dc3d 6fc4 973d
00000310: 88c5 cebd bbec e6bc 23d2 f4bd a767 e43b
00000320: 9c19 c3bd 3921 2e3e 7302 aebd 39a2 2c3e
00000330: 0ad3 2fbe 793c bfbd 251f 2a3e 04e2 353c
00000340: 2ac3 083d 862f f43d 4496 70bd 5c92 abbd
00000350: fcf9 e6ba 4a9a b33d 4c99 8e3d d769 1e3e
00000360: 7ff3 93bd 9fcf 323d 3de2 e83c 8d1b 9c3d
00000370: 64c2 db3d 6e3b 2f3e ec93 703d 8567 edbd
00000380: ef3b 9abd d63f 033e c69b e33d 2978 c63d
00000390: 2679 bfbd 15b8 253e f52a 8a3d fee4 583e
000003a0: b562 793e d836 8d3d 506d df3d 7b74 cbbd
000003b0: eaaa 393e 52c8 503e ffa5 03bd 45e0 813e
000003c0: 36ad ed3d 9337 773c cf7e 413e 94fe 8cbd
000003d0: a5ea 533e e5b9 193d 8770 8fbd 5903 7b3e
000003e0: 3b3b 283e eb04 543e 1bed fc3d 52ce 373e
000003f0: d3b4 85bd 4788 723e 1b27 773e 151b ba3c

h2.bias f4 [16]
-0.052053902 -0.14567617 0.21388352 -0.039076637 0.21852562 0.26233888 0.113333695 0.2334735
0.02896927 0.056020923 0.057552714 -0.058461078 0.019555958 -0.003765685 0.19684632 -0.13167316
00000000: 7936 55bd 222c 15be 4804 5b3e d30e 20bd
00000010: 2ec5 5f3e 4851 863e 7f1b e83d ad13 6f3e
00000020: f650 ed3c 3276 653d 65bc 6b3d e274 6fbd
00000030: d133 a03c b6c9 76bb 1592 493e 54d5 06be

h3.weight f4 [8, 16]
0.02050642 -0.028088868 0.120498985 0.2657265 -0.29676703 -0.2743712 0.13168843 -0.22046047
-0.044066697 0.056385286 -0.0114453025 0.21787377 0.1415562 -0.024909524 -0.13578236 -0.07447209
-0.047562692 -0.15992655 0.13482417 0.1316596 -0.0996535 0.30258715 0.2007584 -0.14005685
-0.12776403 -0.14359987 0.014676613 0.05053843 0.030009247 -0.14047675 0.05279851 -0.01673747
-0.03795324 0.0158953 0.08491964 0.2368885 -0.104730405 0.05121799 -0.07956457 0.17371906
-0.14080723 0.2262651 -0.05720308 0.20016421 -0.16917747 0.12945388 0.07839071 0.20424514
-0.016843066 -0.0012630243 -0.25314704 0.27004945 -0.119978175 0.16877314 0.2880398 0.20163444
0.24467634 0.27086195 0.06317016 0.20709051 -0.00036576393 0.34595224 -0.23109154 0.024491781
-0.14825585 0.06308304 0.27930126 -0.16612801 0.2876668 0.16207632 -0.09476072 -0.06227723
0.21409142 -0.12613685 0.13302243 -0.02944181 0.18109804 0.036683373 0.37757558 0.114825785
0.06440231 -0.15880199 0.03742039 0.17444572 0.28670174 -0.04247688 0.21054594 -0.0059771165
-0.045077056 -0.23635425 0.084327444 0.19368766 0.21562618 -0.2806722 0.31710985 0.0483699
-0.12766008 -0.17198429 0.1805817 -0.17986426 0.23387806 0.25895637 0.18654384 0.20604801
0.114734225 -0.11748839 -0.1527568 -0.05416164 -0.043177158 -0.02919802 0.066379294 -0.26708758
0.22703803 0.112179026 -0.22489652 -0.08674638 -0.042643856 -0.034027014 -0.11372841 0.1948511
-0.030837199 0.09943385 -0.15913329 0.18687242 -0.049873907 0.12932812 0.024005393 -0.091350324
00000000: 14fd a73c a01a e6bc 2cc8 f63d 4e0d 883e
00000010: d9f1 97be 627a 8cbe 55d9 063e 64c0 61be
00000020: 487f 34bd 42f4 663d 1485 3bbc 4d1a 5f3e
00000030: 1cf4 103e 0f0f ccbc 880a 0bbe d384 98bd
00000040: 19d1 42bd c9c3 23be 590f 0a3e c6d1 063e
00000050: 2217 ccbd b4ec 9a3e 9c93 4d3e 106b 0fbe
00000060: 93d4 02be d80b 13be 2d76 703c 6301 4f3d
00000070: f4d5 f53c 23d9 0fbe 4043 583d 051d 89bc
00000080: db74 1bbd dc36 823c 59ea ad3d e692 723e
00000090: e57c d6bd f5c9 513d c0f2 a2bd 69e3 313e
000000a0: c52f 10be 0ab2 673e c74d 6abd d9f7 4c3e
000000b0: dc3c 2dbe 8f8f 043e 4f8b a03d a325 513e
000000c0: 78fa 89bc 108c a5ba 7d9c 81be ec43 8a3e
000000d0: 1eb7 f5bd ded2 2c3e f479 933e 4279 4e3e
000000e0: 6f8c 7a3e 6bae 8a3e 5b5f 813d 890f 543e
000000f0: 01c4 bfb9 a720 b13e 43a3 6cbe fda2 c83c
00000100: 62d0 17be ae31 813d 9300 8f3e 761d 2abe
00000110: 1049 933e 56f7 253e e911 c2bd 6916 7fbd
00000120: c83a 5b3e 052a 01be 0837 083e f32f f1bc
00000130: c471 393e 4e41 163d 9651 c13e c829 eb3d
00000140: 5ce5 833d fd9c 22be 1f46 193d e6a1 323e
00000150: 92ca 923e 3dfc 2dbd 5b99 573e b0db c3bb
00000160: b8a2 38bd d906 72be deb3 ac3d 0f56 463e
00000170: 1ccd 5c3e 44b4 8fbe 395c a23e 841f 463d
00000180: 53b9 02be a61c 30be 69ea 383e 562e 38be
00000190: bb7d 6f3e ee95 843e 5905 3f3e 40fe 523e
000001a0: c7f9 ea3d c19d f0bd 476c 1cbe 99d8 5dbd
000001b0: 88da 30bd b030 efbc def1 873d b4bf 88be
000001c0: a87c 683e 1ebe e53d 464b 66be 16a8 b1bd
000001d0: 53ab 2ebd e95f 0bbd 71ea e8bd 0c87 473e
000001e0: 4b9e fcbc f9a3 cb3d d6f3 22be 7c5b 3f3e
000001f0: 9548 4cbd 976e 043e f5a6 c43c e115 bbbd

h3.bias f4 [8]
0.20068263 -0.12173493 -0.1056636 0.02269002 0.27381855 -0.10570182 0.32603225 -0.054133084
00000000: bf7f 4d3e 2a50 f9bd 2866 d8bd 6ce0 b93c
00000010: f231 8c3e 327a d8bd b3ed a63e a7ba 5dbd

h4.weight f4 [1, 8]
0.1453158 -0.12056654 0.2491587 0.34115425 -0.21310371 -0.23133653 -0.400762 0.38392663
00000000: aacd 143e 97eb f6bd 7523 7f3e c5ab ae3e
00000010: dc37 5abe 7ce3 6cbe ad30 cdbe 0892 c43e
