src/models/saved_models/best_model_lr0.0001_roc_auc0.918333396814743.pt (torch, 23957 bytes, 9 tensors)

input.weight f4 [64, 30]
0	0x3c4f7903	0.012663129
1	0x3e022d1b	0.12712519
2	0x3e264694	0.16237861
3	0xbdbbd9c2	-0.091723934
4	0x3df5a355	0.11994044
5	0x3db141c4	0.08655122
6	0xbdcfc91c	-0.101457804
7	0x3e343cbe	0.17601296
8	0xbe15ed11	-0.14641215
9	0xbd22fe4e	-0.039793305
10	0x3e1a7bc7	0.1508628
11	0xbc9eca37	-0.019383533
12	0x3d85e56f	0.065379016
13	0xbd5d8ed0	-0.054091275
14	0x3dc22059	0.09478826
15	0x3d97fabe	0.07420872
16	0x3d31e3eb	0.04343025
17	0x3cf387cb	0.029727837
18	0x3e568a78	0.20951259
19	0xbd866a48	-0.0656324
20	0x3d19775c	0.037467346
21	0x3e3d29f7	0.1847304
22	0x3dffc442	0.12488605
23	0xbe0b6d57	-0.13615929
24	0x3e48cc95	0.19609292
25	0xbcbb6afd	-0.022878164
26	0xbe1cc40d	-0.15309162
27	0x3dd2e062	0.10296704
28	0x3c71b147	0.014751739
29	0xbe3aeabf	-0.18253611
30	0xbdf69b38	-0.120413244
31	0xbdd97061	-0.10617138
32	0xbd71e2eb	-0.059054296
33	0x3d0001b5	0.031251628
34	0x3e24a11e	0.16077086
35	0xbdfaa662	-0.12238766
36	0x3d8a1fb2	0.06744327
37	0x3dec7ccc	0.115472406
38	0xbe35cd33	-0.17754059
39	0xbe285924	-0.16440254
40	0x3d0263d9	0.031833503
41	0x3d8dd4c9	0.06925351
42	0xbdc49802	-0.09599306
43	0xbe213566	-0.15743026
44	0xbe5b910b	-0.21442048
45	0xbdba2ed7	-0.09090965
46	0x3d8cfa4e	0.06883679
47	0x3d732ab9	0.059366915
48	0xbda50c01	-0.0805893
49	0x3e071490	0.13191438
50	0x3dc4499b	0.09584352
51	0xbdcbfcc4	-0.099603206
52	0x3df7d644	0.12101415
53	0xbd9fd32d	-0.078039505
54	0xbdf1b934	-0.11802903
55	0x3c000463	0.007813546
56	0xbdd94918	-0.10609645
57	0x3c8364e2	0.016039316
58	0x3e031b31	0.12803341
59	0xbdd83200	-0.10556412
60	0xbd365705	-0.044516582
61	0x3e097d97	0.13426815
62	0x3e09af43	0.13445763
63	0x3e556ebf	0.20843028
64	0xbe195df3	-0.14977245
65	0x3d9f2b2b	0.077719055
66	0xbdda5bc1	-0.10662032
67	0xbdbba0ea	-0.09161551
68	0xbd22a888	-0.039711505
69	0x3c9dab68	0.019246772
70	0xbd9fe53d	-0.078073956
71	0xbd80ee7a	-0.06295486
72	0xbe0260f1	-0.12732293
73	0xbe26b20f	-0.16278861
74	0xbd2a6dbf	-0.04160857
75	0x3e5bba47	0.21457778
76	0x3e22a7fd	0.15884395
77	0x3dcdcd48	0.1004892
78	0x3e111865	0.14169462
79	0xbdc7737e	-0.09738825
80	0xbdd133e5	-0.10214976
81	0x3d7b24fd	0.06131457
82	0x3dca2893	0.0987102
83	0xbcdedc5f	-0.02720469
84	0xbdbde65b	-0.092724524
85	0xbe0d7039	-0.13812341
86	0x3de6cd1a	0.11269589
87	0xbd359d0a	-0.044339217
88	0xbdbf57c1	-0.093429096
89	0x3db7902e	0.08963047
90	0x3d288149	0.04113892
91	0x3e1f60be	0.15564248
92	0xbd32faec	-0.04369633
93	0xbe0baad5	-0.13639386
94	0xbe304e86	-0.17217454
95	0xbdec39ce	-0.11534463
96	0x3d8c8327	0.06860953
97	0xbe406b0d	-0.18790837
98	0xbde87479	-0.113503404
99	0x3d27af3b	0.040938597
100	0x3e7241a0	0.23657846
101	0xbdc70875	-0.0971841
102	0xbdaa07fe	-0.08302306
103	0xbda4d4c8	-0.08048397
104	0x3d3efc32	0.04662723
105	0xbd9f2514	-0.07770744
106	0x3e1767bf	0.1478567
107	0xbd9aa984	-0.07551864
108	0x3e22f6d0	0.15914464
109	0xbdd8a6e1	-0.105787046
110	0x3b9cbfb9	0.0047835973
111	0xbd0e2345	-0.034701604
112	0xbdf48c8e	-0.11940871
113	0x3c923abb	0.01785027
114	0x3e2ba535	0.1676224
115	0x3d967bec	0.07347855
116	0xbe178ee6	-0.14800605
117	0xbd9c12db	-0.07620784
118	0xbdd7db98	-0.10539931
119	0xbdcaff71	-0.09912003
120	0x3da392aa	0.07986958
121	0xbe2c3705	-0.16817863
122	0x3dad3b62	0.08458592
123	0x3d822f7a	0.06356712
124	0xb81261bc	-3.4900135e-05
125	0xbde1dfd1	-0.11029018
126	0xbd810998	-0.06300658
127	0x3dc29287	0.09500604
128	0x3d7412fc	0.059588417
129	0x3e20c505	0.15700157
130	0x3d151247	0.036394384
131	0xbd5e6433	-0.054294776
132	0x3d3b5bdf	0.045741912
133	0x3e0a6f32	0.1351898
134	0x3d1355ff	0.035970684
135	0xbda3efc7	-0.08004718
136	0x3e123675	0.14278586
137	0xbda3ec01	-0.080039985
138	0xbd226473	-0.039646577
139	0xbdcf6d02	-0.101282135
140	0x3e20ae7c	0.1569156
141	0x3d9e9008	0.077423155
142	0x3dfd7957	0.12376659
143	0x3d51e548	0.05124405
144	0x3e068b69	0.13139118
145	0x3d952bc7	0.072837405
146	0xbe38583b	-0.18002407
147	0x3e573707	0.21017085
148	0xbb56a8d8	-0.0032754447
149	0xbe1aa712	-0.15102795
150	0xbdbe6d5f	-0.09298205
151	0x3e004a98	0.12528455
152	0x3de8725f	0.113499396
153	0x3c846c32	0.016164873
154	0xbd85a401	-0.06525422
155	0xbdeaabbd	-0.11458538
156	0x3d185805	0.037193317
157	0x3dc8ddce	0.09807931
158	0x3d312b01	0.043253902
159	0xbe3df4ce	-0.18550417
160	0x3e49c37f	0.19703482
161	0xbdd7464c	-0.10511455
162	0x3d067fa7	0.032836583
163	0x3e0c4ed6	0.13701949
164	0xbda9058c	-0.08253011
165	0xbde636f8	-0.11240953
166	0xbe649409	-0.22322096
167	0x3e151da2	0.14562085
168	0x3d83b09e	0.064301714
169	0x3deec3c4	0.11658433
170	0x3b7fb392	0.0039016944
171	0xbe21843d	-0.15773101
172	0xbe61f426	-0.22065791
173	0x3e0f8389	0.1401502
174	0xbe0fa528	-0.14027846
175	0xbe1953a7	-0.14973317
176	0x3df1f6da	0.11814661
177	0xbe0d8c52	-0.13823059
178	0xbdb9a193	-0.09064021
179	0x3bf0d2f8	0.007349368
180	0xbd5bd85a	-0.053673126
181	0x3d7cf36a	0.061755575
182	0xbc8622e9	-0.016374068
183	0xbdabcb6a	-0.083884075
184	0x3e888586	0.2666437
185	0xbcbab911	-0.022793325
186	0xbc5d595f	-0.013510077
187	0xbe429059	-0.19000377
188	0xbe04bb88	-0.12962162
189	0xbdfd3d55	-0.12365214
190	0x3bee49ef	0.007271997
191	0xbd796cfb	-0.060894947
192	0xbc833f77	-0.016021473
193	0xbd98e628	-0.07465774
194	0xbe46da09	-0.19419111
195	0xbdb25f9a	-0.08709641
196	0xbda52fee	-0.080657825
197	0xbd935486	-0.07193856
198	0xbcd4f194	-0.0259941
199	0xbd58a9ab	-0.052896183
200	0xbe1d3b3b	-0.15354626
201	0xbdece4a3	-0.115670465
202	0x3d7ad3b0	0.061237037
203	0xbe0144c8	-0.12623894
204	0xbe28421e	-0.16431472
205	0x3df5349c	0.11972925
206	0xbc8a6212	-0.016892467
207	0xbb0827e2	-0.0020775725
208	0x3d929932	0.07158126
209	0x3c2c69f2	0.010523306
210	0xbd966e92	-0.07345308
211	0xbdbbab15	-0.09163491
212	0x3e45451e	0.19264647
213	0xbdcef445	-0.101051845
214	0xbe405ce6	-0.18785438
215	0x3e20dccc	0.15709227
216	0x3e2dc1ac	0.16968411
217	0xbe14b028	-0.14520323
218	0x3e623f8a	0.2209455
219	0x3b881e4d	0.0041540028
220	0x3d1998ba	0.037499167
221	0x3e1ac731	0.15115048
222	0x3d9392f6	0.07205765
223	0xbda80d96	-0.08205716
224	0x3e02c780	0.12771416
225	0x3dda21a9	0.106509514
226	0xbc96c057	-0.018402262
227	0x3dbffac8	0.093740046
228	0x3e04e791	0.1297896
229	0x3b1ba365	0.0023748514
230	0x3d8e6e6b	0.06954654
231	0xbd48af36	-0.04899522
232	0xbe14e994	-0.14542228
233	0xbcbaa0aa	-0.022781689
234	0xbe18c2a3	-0.14917998
235	0xbe554013	-0.20825224
236	0xbd5ea958	-0.054360718
237	0x3dfeed65	0.12447623
238	0xbc26ba48	-0.010176249
239	0x3e08d6db	0.13363211
240	0xbd392ed0	-0.04521066
241	0x3e1dccd4	0.15410167
242	0xbdc17e48	-0.09447914
243	0xbd9b2e84	-0.075772315
244	0x3cfe3c41	0.03103459
245	0xbe0d35cc	-0.13790053
246	0x3d9dcc14	0.077049404
247	0xbe1bc861	-0.15213157
248	0x3c4fd8b6	0.012685945
249	0x3da54f40	0.08071756
250	0xbe0018dd	-0.12509485
251	0x3de25174	0.11050692
252	0x3d3c2674	0.04593511
253	0xbe300521	-0.17189457
254	0xbe054ec8	-0.13018334
255	0xbdeb1333	-0.11478271

input.bias f4 [64]
0	0x3c97bdf5	0.018523196
1	0x3e269372	0.16267183
2	0x3c690994	0.014223475
3	0x3e182e28	0.14861357
4	0x3e168447	0.14698897
5	0x3e7229ce	0.2364876
6	0xbd6bbc23	-0.057552468
7	0x3e8f7ba7	0.28024027
8	0x3e00e14a	0.12585941
9	0xbddf9280	-0.109166145
10	0xbd429902	-0.0475092
11	0x3d9d55d1	0.07682384
12	0x3ed49d13	0.41526088
13	0x3e7aa949	0.2447864
14	0xbcac217c	-0.02101206
15	0x3e7bab90	0.24577165
16	0x3e910509	0.28324154
17	0x3b3d77da	0.0028910548
18	0x3d913958	0.070910156
19	0x3e102bdb	0.1407923
20	0x3e729f13	0.23693494
21	0x3d509a25	0.050928254
22	0x3d9dec14	0.07711044
23	0x3ea8adc6	0.3294508
24	0x3e1563d9	0.1458887
25	0x3e052311	0.13001658
26	0x3e31b343	0.17353539
27	0x3ee954cf	0.45572516
28	0x3ed17ac1	0.40913966
29	0x3e552dd8	0.20818269
30	0x3dc85519	0.09781856
31	0x3b52e1f7	0.0032178143
32	0xbd8fb18b	-0.070162855
33	0xbe275e98	-0.16344678
34	0x3e8d4c63	0.2759734
35	0x3c77576d	0.0150965275
36	0xbe026eff	-0.12737654
37	0x3ce7e6fa	0.02830838
38	0x3e6af322	0.2294431
39	0x3e205cdb	0.15660422
40	0x3dc7e7d3	0.09761014
41	0x3e9a05b5	0.3008248
42	0x3de42a22	0.11140849
43	0xbc8a9d52	-0.01692072
44	0x3cf8a0c3	0.030350095
45	0x3dea4781	0.114394195
46	0xbcd78bd4	-0.026311792
47	0xbd3669f5	-0.044534642
48	0x3dd597ef	0.1042937
49	0x3e7b3e3a	0.24535456
50	0x3d0bb7be	0.034110777
51	0xbdd0ae44	-0.101894885
52	0x3e9fce7d	0.31212226
53	0xbd0e7acb	-0.034785073
54	0xbe41d436	-0.18928608
55	0x3dc03271	0.09384621
56	0xbe1d8b75	-0.1538523
57	0x3dedd24d	0.11612377
58	0x3c376076	0.011192432
59	0xbc6b5ac5	-0.014364903
60	0x3cc19e0d	0.023634935
61	0x3c18d428	0.009327926
62	0x3dc0b95f	0.09410357
63	0x3dc01c79	0.09380431

h1.weight f4 [32, 64]
0	0x3e57b479	0.21064939
1	0xbb9cf86d	-0.004790357
2	0x3c85f2ff	0.016351221
3	0x3e3b2401	0.18275453
4	0x3e44fb99	0.19236602
5	0x3e154509	0.14577116
6	0xbdd26e0e	-0.102748975
7	0x3e95c6d5	0.2925326
8	0xbdfb7a71	-0.12279213
9	0x3d51bb06	0.05120375
10	0x3d96f6a9	0.073712654
11	0x3d56a404	0.05240251
12	0x3ea324e9	0.31864098
13	0x3e3357bf	0.17513941
14	0x3e1febf1	0.15617348
15	0xbbde02a2	-0.006775216
16	0x3e892ab9	0.26790407
17	0x3e05d3e7	0.13069116
18	0x3e0b0681	0.135767
19	0xbdbe562e	-0.09293781
20	0x3e506c39	0.20353784
21	0x3e0e6552	0.13905838
22	0x3d72a921	0.059243325
23	0x3e2de58c	0.16982096
24	0x3e9bb9e4	0.3041526
25	0xbcdc6757	-0.026904745
26	0x3e53cf0f	0.20684455
27	0x3dfa9fc9	0.12237508
28	0x3e06d8a4	0.1316858
29	0xbd25c9ca	-0.040475644
30	0xbcc7b228	-0.024376944
31	0x3d9a7d5c	0.07543442
32	0x3a9d5fc3	0.0012006689
33	0x3d5d77d1	0.054069344
34	0xbd6b9a0b	-0.057519954
35	0x3d57935e	0.052630775
36	0x3e19c02d	0.15014715
37	0x3de1af0f	0.11019718
38	0x3e35c06e	0.17749187
39	0x3aa159a7	0.0012310044
40	0xbdaa67d0	-0.08320582
41	0x3e27b509	0.16377653
42	0x3e1cadaf	0.1530063
43	0x3a4e1ba3	0.00078623946
44	0x3db481e3	0.088138364
45	0x3e3f0578	0.1865443
46	0xbd20eccb	-0.039288323
47	0x3e1b3548	0.15157044
48	0xbdbba6ea	-0.09162696
49	0x3d4e9e1d	0.050443757
50	0x3decad09	0.11556441
51	0xbd3f9312	-0.046771117
52	0xbca75178	-0.02042459
53	0xbcaa21bf	-0.020768045
54	0xbd90df3a	-0.07073827
55	0xbdd32cce	-0.1031128
56	0x3ddbcfeb	0.107330166
57	0x3d2c1104	0.042008415
58	0x3d9ffa56	0.0781142
59	0x3dd01e33	0.1016201
60	0x3e382cfc	0.1798591
61	0x3cd1fb23	0.025632447
62	0xbd9b6a71	-0.075886615
63	0xbda0f794	-0.07859722
64	0xbd9f9bb0	-0.07793367
65	0x3d9a5129	0.07535011
66	0x3d71190a	0.05886177
67	0xbc49330b	-0.012280236
68	0xbdff24c5	-0.12458185
69	0xbd2f7d9b	-0.042844396
70	0x3dcf01cb	0.10107764
71	0xbb3e405b	-0.0029030058
72	0x3cfd05d7	0.030886574
73	0xbd01ba47	-0.03167179
74	0x3d97da0d	0.07414637
75	0x3da9532a	0.082678154
76	0xbd641b13	-0.055689882
77	0x3d9c252f	0.0762428
78	0xbd811c69	-0.06304247
79	0xbdacc0b7	-0.08435195
80	0xbc85ef57	-0.016349478
81	0x3dab6eb6	0.08370726
82	0x3dfd7829	0.12376434
83	0x3e32918e	0.17438337
84	0xbd817b06	-0.06322293
85	0xbd0bde4c	-0.034147546
86	0x3d85ba7f	0.06529712
87	0x3dc1faf0	0.09471691
88	0xbe041074	-0.12896901
89	0x3dc378a6	0.09544496
90	0x3debaf4e	0.11508046
91	0x3de2c437	0.11072581
92	0xbdaa6133	-0.083193205
93	0x3cf4898f	0.02985075
94	0x3dbbf0ca	0.09176786
95	0x3d26bc8e	0.040707164
96	0x3dabdb19	0.08391399
97	0x3e03bef0	0.12865806
98	0x3dab3390	0.08359444
99	0xbe056ec7	-0.1303054
100	0xbbf6b71d	-0.007529153
101	0x3d1f2dfc	0.038862213
102	0x3dc80a4c	0.09767589
103	0x3c670794	0.014100928
104	0x3e2e8188	0.170416
105	0x3d11c564	0.035588637
106	0xbceeedc1	-0.029166104
107	0x3e3ad720	0.18246126
108	0x3cd1d105	0.025612364
109	0xbd481e89	-0.048857246
110	0x3db64ef3	0.08901777
111	0x3e09580c	0.13412493
112	0xbd729092	-0.059219904
113	0x3e1a2944	0.15054804
114	0x3d640c35	0.055675704
115	0x3de689f2	0.1125678
116	0x3de0d920	0.10978913
117	0x3c8dc964	0.017307945
118	0xbe0a2a73	-0.13492756
119	0x3c834bd5	0.01602737
120	0x3d367950	0.044549286
121	0xbd322545	-0.043492574
122	0x3ac964c6	0.0015365116
123	0xbd6a37b9	-0.057182048
124	0x3d17c400	0.037052155
125	0x3d0f9b85	0.035060424
126	0xbd1e9fda	-0.038726665
127	0x3df87c37	0.12133067
128	0x3d89733f	0.067114346
129	0x3de5885c	0.11207649
130	0x3e29af40	0.16570759
131	0x3d344d7b	0.044019204
132	0xb867578a	-5.515622e-05
133	0x3dadc56e	0.08484922
134	0x3cd882d6	0.026429575
135	0x3d997062	0.074921384
136	0x3ddc3917	0.107530765
137	0xbdab2b53	-0.08357873
138	0x3d017c8b	0.031612914
139	0x3db5414f	0.08850347
140	0x3c574acf	0.013140394
141	0x3d004df7	0.031324353
142	0xbe37f53e	-0.17964646
143	0x3de01430	0.109413505
144	0xbd0ccfb2	-0.03437776
145	0x3cf222a3	0.029557532
146	0x3e106191	0.14099719
147	0xbd637e99	-0.055540655
148	0x3de44380	0.11145687
149	0xbdabba2d	-0.083851196
150	0x3d8b2a41	0.06795169
151	0x3dca5756	0.09879939
152	0xbe6d1ef9	-0.23156346
153	0x3d4d25bd	0.05008482
154	0xbd933c96	-0.0718929
155	0x3d8e41bd	0.06946132
156	0x3db7d662	0.08976437
157	0x3d4e97f0	0.050437868
158	0x3db237b9	0.087020345
159	0xbbac785d	-0.005263372
160	0x3e35b8e4	0.17746311
161	0x3c0a041c	0.008423831
162	0xbba9522e	-0.0051672673
163	0xbdbdcac8	-0.09267193
164	0xbbb364fd	-0.005474685
165	0x3d825636	0.063641
166	0xbd892087	-0.06695657
167	0xbd61e0d2	-0.055146046
168	0xbd30e7b6	-0.043189727
169	0xbde04913	-0.10951438
170	0x3dac7d4c	0.08422336
171	0x3e36685f	0.17813252
172	0x3e1f4724	0.15554482
173	0x3d989d6f	0.07451903
174	0x3d35617a	0.044282414
175	0x3d6eda2c	0.058313534
176	0x3b3ac0a9	0.0028496182
177	0xbdaf241b	-0.085518084
178	0x3bdfb07e	0.0068264594
179	0x3dff80cc	0.12475738
180	0x3e3b8f6f	0.18316434
181	0x3d9a0b4f	0.07521688
182	0x3b8d4d84	0.004312219
183	0x3d3e544c	0.04646711
184	0x3b94f82b	0.0045461855
185	0xbd87b64d	-0.06626568
186	0xbd4a26bb	-0.049353343
187	0xbd931daa	-0.07183392
188	0xbce4650c	-0.027880214
189	0x3ce503f3	0.027955985
190	0xbd5ec7e2	-0.05438984
191	0x3e3b2d1d	0.18278928
192	0x3d8aa8c1	0.067704685
193	0xbdb569d6	-0.08858077
194	0xbd74d2fd	-0.059771527
195	0x3daf09cf	0.08546793
196	0x3ca0a0e5	0.01960797
197	0x3e2834fa	0.16426459
198	0x3dba32a8	0.09091693
199	0x3dae09c3	0.08497956
200	0x3dc59540	0.09647608
201	0xbda69a80	-0.08134937
202	0x3dd44381	0.10364438
203	0x3d37338e	0.0447269
204	0x3e425c0d	0.18980427
205	0x3e4d274d	0.20034523
206	0x3e0224a8	0.12709296
207	0x3e2efc20	0.17088366
208	0x3cdc86c0	0.026919723
209	0x3e8ce24d	0.27516404
210	0x3c26714e	0.01015885
211	0xbd401915	-0.04689892
212	0xbd99aff3	-0.07504263
213	0x3e14e10e	0.14538977
214	0xbd48d805	-0.049034137
215	0x3dbb19ef	0.09135806
216	0x3d20a668	0.039221197
217	0x3da160d2	0.07879795
218	0x3e08c1ce	0.1335518
219	0x3e1db707	0.1540185
220	0x3dafbdc9	0.085811205
221	0x3d40b64a	0.047048844
222	0xbd6aa2b8	-0.057284087
223	0x3dfdd881	0.123948105
224	0xbde7c7b3	-0.113173865
225	0x3dc1e5d4	0.09467664
226	0xbc0c9f92	-0.008582966
227	0x3e6d1e83	0.2315617
228	0x3dc48f5a	0.09597655
229	0x3e1c46f8	0.15261447
230	0x3e36a126	0.17834911
231	0xbe0408ab	-0.12893932
232	0xbda849a1	-0.082171686
233	0x3d816b22	0.06319262
234	0xbd41d9cb	-0.047326844
235	0x3d4cc126	0.04998889
236	0x3dbecb64	0.093161374
237	0xbd43dfb0	-0.047820747
238	0xbdb28893	-0.08717456
239	0xbd947fc3	-0.07250931
240	0x3cc8bd4d	0.024504328
241	0x3d2488cc	0.040169522
242	0xbd1a4b0b	-0.037669223
243	0xbde923f4	-0.11383811
244	0x3d6d0f26	0.057875775
245	0xbe059b2c	-0.13047475
246	0xbca0ee4f	-0.019644884
247	0x3db6d3a3	0.08927085
248	0x3cb4b538	0.022059068
249	0xbd93df36	-0.072203085
250	0xbdd09f0c	-0.10186586
251	0x3e3c8e4e	0.1841366
252	0xbd65b6bb	-0.05608247
253	0xbd45a930	-0.048257053
254	0x3db63fbe	0.088988766
255	0x3dc4ead1	0.096151

h1.bias f4 [32]
0	0x3ca93e90	0.020659715
1	0x3e3f7f90	0.18701005
2	0xbc1d6172	-0.009605752
3	0xbb1f1537	-0.002427412
4	0xbe33cb0e	-0.17557928
5	0x3e7e8899	0.24856795
6	0x3e7bdfae	0.24597046
7	0x3e5c4ed0	0.2151444
8	0xbd30be39	-0.04315016
9	0x3e1780fa	0.14795294
10	0x3e31b9cc	0.17356032
11	0x3d80ecdc	0.06295177
12	0x3de5e079	0.112244554
13	0xbd546e3c	-0.05186294
14	0x3d9105b6	0.070811674
15	0x3d8a3aa7	0.06749468
16	0x3ddae6c1	0.10688544
17	0x3e0599d0	0.13046956
18	0x3e463069	0.19354405
19	0xbcc19791	-0.023631843
20	0xbd813859	-0.063095756
21	0xbdcefc8c	-0.10106763
22	0xbd684e4b	-0.05671529
23	0xbc27680a	-0.010217676
24	0x3ce17885	0.027523289
25	0x3e328069	0.17431797
26	0x3bad9c55	0.0052981772
27	0x3d87116d	0.065951206
28	0xbd4c5257	-0.049883213
29	0x3d6abd73	0.05730958
30	0x3e0a5bfa	0.13511649
31	0x3e1014c2	0.14070418

h2.weight f4 [16, 32]
0	0xbe51c0b8	-0.20483673
1	0x3e3ad1a6	0.18244037
2	0x3e3d0035	0.1845711
3	0xbda3f4a3	-0.08005645
4	0x3e0e04c6	0.13869008
5	0x3dfe8968	0.12428552
6	0x3e5f415e	0.2180228
7	0x3aaa4514	0.0012990558
8	0x3d40dbb8	0.04708454
9	0xbd91430f	-0.070928685
10	0x3d9adcb6	0.075616285
11	0xbe0f3501	-0.13985063
12	0x3ccf381a	0.025295306
13	0x3c81162e	0.015757646
14	0x3e2bfb8b	0.16795175
15	0xbd0804c1	-0.03320766
16	0x3e4ee001	0.20202638
17	0xbe078ae5	-0.13236578
18	0x3e4f5b8e	0.20249769
19	0x3e75277e	0.23940846
20	0xbe0c47f0	-0.13699317
21	0xbc586756	-0.013208231
22	0x3dfe71ee	0.12424074
23	0x3e669bf4	0.22520429
24	0xbd8c8c88	-0.06862742
25	0xbd88512c	-0.06656107
26	0xbd25a4cc	-0.040440366
27	0x3e75e6f5	0.24013884
28	0x3e408659	0.1880125
29	0x3bbff486	0.005858007
30	0xbe266593	-0.16249685
31	0xbe23d79a	-0.16000214
32	0x3e061491	0.13093783
33	0x3de1bf89	0.110228606
34	0x3d0fa10b	0.035065692
35	0x3dd14e6a	0.102200344
36	0xbe00f77b	-0.12594406
37	0x3e8930d8	0.26795077
38	0x3e4df41d	0.20112653
39	0x3d517724	0.051139012
40	0x3e17559c	0.14778751
41	0x3dd22bf4	0.1026229
42	0x3de71d4b	0.11284884
43	0x3e5f16ba	0.21786013
44	0xbe38ac58	-0.18034494
45	0xbe05e5ed	-0.13075991
46	0x3d88ea97	0.066853695
47	0x3d75fd0f	0.06005579
48	0xbd885ea0	-0.06658673
49	0x3e678a24	0.2261129
50	0x3d4f9ae2	0.050684817
51	0xbe3ee188	-0.18640721
52	0x3e42eff1	0.19036843
53	0x3e3efd3f	0.18651293
54	0xbe5149c4	-0.20438296
55	0xbe38886a	-0.18020788
56	0xbe2612a4	-0.16218048
57	0xbd81fba0	-0.06346822
58	0x3e5e8b93	0.21732931
59	0x3b7a0d39	0.0038154854
60	0x3d219df1	0.039457265
61	0xbe18b037	-0.1491097
62	0x3e9bbc3b	0.30417046
63	0x3e685cea	0.22691694
64	0x3c915b2e	0.017743673
65	0x3d8d21f2	0.0689124
66	0xbe02c5d9	-0.12770785
67	0x3e1ab8ef	0.15109609
68	0xbde0104b	-0.10940608
69	0x3d540fc9	0.051772866
70	0x3e2e7fb3	0.17040901
71	0x3e041b95	0.12901147
72	0xbc914391	-0.017732413
73	0x3dd29a2f	0.102833144
74	0x3daf5869	0.08561785
75	0x3e102716	0.1407741
76	0x3c168dc7	0.009189076
77	0xbd97a1e1	-0.07403923
78	0xbd5a41b2	-0.05328531
79	0x3e22357d	0.15840717
80	0x3d26eaff	0.040751453
81	0x3e2a24fa	0.16615668
82	0x3da3d7f7	0.080001764
83	0x3d2d8379	0.04236171
84	0x3e74339c	0.23847812
85	0x3e2a1a35	0.1661156
86	0xbda1b204	-0.07895282
87	0xbd9193be	-0.07108258
88	0xbe05a7c1	-0.13052274
89	0xbd61e6c3	-0.055151712
90	0x3e36890c	0.17825717
91	0x3e349cde	0.17637965
92	0xbdec3a31	-0.11534537
93	0xbe2f2935	-0.17105563
94	0x3e724cdc	0.23662132
95	0x3e4a4f16	0.19756731
96	0x3e5cd170	0.21564269
97	0xbc805b2f	-0.01566848
98	0xbe051cd4	-0.12999278
99	0xba89361f	-0.00104684
100	0x3d118e4b	0.03553609
101	0x3cb507d5	0.022098461
102	0x3e3d0545	0.18459041
103	0x3e01fbb2	0.1269367
104	0x3b834eea	0.00400721
105	0x3d18a75a	0.037268974
106	0x3e129ebd	0.14318366
107	0x3e11047f	0.14161871
108	0xbdd8841c	-0.10572073
109	0xbb0a4f34	-0.0021104338
110	0x3e05e7f3	0.13076763
111	0x3dbf7c97	0.093499355
112	0xbc976dcc	-0.018484972
113	0xbd441150	-0.047868073
114	0x3ddb855b	0.10718795
115	0xbce8ddfb	-0.028426161
116	0x3dca99af	0.09892594
117	0x3dc1d109	0.094636984
118	0xbd91f951	-0.071276315
119	0xbe5da26f	-0.21643995
120	0xbd204424	-0.039127484
121	0xbe01ed2c	-0.1268813
122	0x3de724c8	0.11286312
123	0x3d484dc0	0.048902273
124	0x3cf2f763	0.029658979
125	0xbdbb39ab	-0.09141859
126	0x3e0f2f89	0.13982977
127	0xbc8b0788	-0.016971365
128	0x3e888b91	0.2666898
129	0xbe058b6e	-0.1304147
130	0x3d5eeb34	0.054423526
131	0x3d624b01	0.05524731
132	0xbdcb9896	-0.09941213
133	0x3e633fe2	0.22192338
134	0x3c993337	0.018701179
135	0x3e857c4c	0.26071393
136	0xbde13808	-0.10997015
137	0x3e61f69e	0.22066733
138	0x3e3ae8ae	0.18252823
139	0x3e0839ad	0.13303252
140	0x3d80b055	0.06283633
141	0xbd13030b	-0.035891574
142	0x3df5123e	0.1196637
143	0x3e154ea7	0.14580785
144	0x3d386296	0.045015894
145	0x3e309f90	0.17248368
146	0x3db25e80	0.08709431
147	0xbe3f609e	-0.186892
148	0xbc35be84	-0.011092786
149	0xbdd8451d	-0.10560057
150	0xbdebeb9a	-0.11519547
151	0xbdd2ccfa	-0.102930024
152	0x3e0170e7	0.12640725
153	0x3c240546	0.010011023
154	0x3e09f804	0.13473517
155	0x3e0789a9	0.13236107
156	0xbdecf261	-0.115696676
157	0x3e22abf0	0.15885901
158	0x3d1d5a89	0.03841642
159	0x3e29d8a4	0.16586548
160	0x3da16ba9	0.07881863
161	0x3e3556ab	0.17708842
162	0xbda9693c	-0.08272025
163	0x3df86a32	0.1212963
164	0xbe1d8722	-0.1538358
165	0x3e783458	0.24238718
166	0x3d6b9bba	0.05752156
167	0x3e026324	0.12733132
168	0xbd13aecb	-0.036055367
169	0x3e2691fb	0.16266625
170	0x3d92d1ca	0.0716892
171	0x3c76b8f0	0.015058741
172	0xbe4cb60a	-0.19991317
173	0xbe07c38d	-0.1325819
174	0x3bf0ad56	0.007344882
175	0x3bcd2733	0.0062607764
176	0x3e16be88	0.1472112
177	0xbce2a721	-0.027667584
178	0xbd51de1b	-0.051237207
179	0xbe17d1bb	-0.148261
180	0x3cfd4039	0.030914413
181	0xbd1fe505	-0.03903677
182	0x3e042b31	0.12907101
183	0x3dc640ad	0.09680305
184	0xbc3654bc	-0.011128601
185	0x3de92e16	0.11385743
186	0xbc5cd7e2	-0.013479205
187	0x3b30b383	0.0026962466
188	0xbe1210c2	-0.14264205
189	0x3df3b2e2	0.118993536
190	0x3db8f912	0.090318814
191	0x3e293446	0.16523847
192	0xbba664c9	-0.0050779325
193	0xbe264d5e	-0.1624045
194	0xbe0ad305	-0.1355706
195	0x3de3f5f3	0.111308955
196	0xbc18091f	-0.009279518
197	0x3e007789	0.12545599
198	0x3e1e79c6	0.1547614
199	0x3e0ef1b6	0.13959393
200	0xbd5ccfe8	-0.053909212
201	0xbe090e46	-0.13384351
202	0x3e243c53	0.16038637
203	0x3cd5e55e	0.026110347
204	0xbdde4645	-0.108532466
205	0x3de55d32	0.11199416
206	0x3e2852b8	0.16437805
207	0x3db31418	0.08744067
208	0x3de66725	0.11250142
209	0xbe186d0c	-0.14885348
210	0xbe0787c6	-0.13235387
211	0x3b96232f	0.004581831
212	0x3deadf5d	0.114683844
213	0xbe30c66f	-0.17263196
214	0x3dd5c517	0.104379825
215	0xbdfbac5d	-0.12288735
216	0xbe0a8e9e	-0.13530967
217	0xbbc53a44	-0.0060189087
218	0xbe2660a8	-0.16247809
219	0xbe34b379	-0.17646588
220	0xbe11fe6c	-0.1425721
221	0x3e2e5673	0.17025165
222	0xbc5100b4	-0.012756515
223	0xbe076ef4	-0.13225919
224	0x3df35aa0	0.1188252
225	0xbdf009d2	-0.11720623
226	0xbb806d15	-0.0039192536
227	0x3d8d2749	0.06892259
228	0xbd79b3f9	-0.06096265
229	0x3e234ebf	0.15948008
230	0xbb835a9f	-0.0040086056
231	0x3cf1428d	0.02945068
232	0x3c827eb9	0.015929567
233	0x3dc2066e	0.094738826
234	0x3e3875db	0.18013708
235	0x3d1f9a68	0.038965613
236	0xbdbe46b2	-0.09290828
237	0xbd75380e	-0.05986791
238	0xbe17aada	-0.14811268
239	0x3d6c66cd	0.057715226
240	0x3d1e6492	0.03867013
241	0x3ddf2e12	0.10897459
242	0xbe0d060f	-0.13771842
243	0x3d3d236b	0.046176355
244	0xbdcd0f81	-0.10012723
245	0x3c13c244	0.0090184845
246	0xbd8fdf4d	-0.07025013
247	0x3d496e33	0.04917736
248	0x3cb81668	0.022471622
249	0x3ddc04dd	0.10743115
250	0x3d242c60	0.04008138
251	0x3d4cdc1e	0.050014608
252	0xbde36e08	-0.11104971
253	0x3cd9d591	0.026591094
254	0xbc38934c	-0.011265587
255	0xbe0f1947	-0.13974486

h2.bias f4 [16]
0	0xbd93a472	-0.072091
1	0x3e7079cc	0.23483962
2	0x3e5a1be6	0.21299705
3	0x3e4b4020	0.1984868
4	0xbcaa7fa6	-0.02081282
5	0x3dcd7cda	0.10033579
6	0xbdb1ad0e	-0.08675586
7	0xbcfe0cb3	-0.031011915
8	0xbd205ce6	-0.039151095
9	0x3d1d81d2	0.038453884
10	0xbe384ef4	-0.17998868
11	0x3e3c8fb4	0.18414193
12	0x3e0b4feb	0.13604705
13	0x3dbb6d46	0.09151702
14	0x3d6769ac	0.05649726
15	0x3cfef2bc	0.031121604

h3.weight f4 [8, 16]
0	0x3e742283	0.2384129
1	0x3d37ed4f	0.04490405
2	0x3d5004d7	0.050785866
3	0xbd9d73ae	-0.0768808
4	0xbd3c46c6	-0.045965932
5	0xbdc57ce8	-0.096429646
6	0xbe6d237a	-0.23158064
7	0xbe2538cd	-0.16134949
8	0xbd1163dc	-0.035495624
9	0x3e8fe07b	0.28100953
10	0x3e25a5b6	0.16176495
11	0x3df30a9a	0.118672565
12	0x3e1f23a3	0.15540938
13	0x3de061f3	0.10956182
14	0x3e5dd160	0.21661901
15	0xbd377163	-0.04478587
16	0xbdad2548	-0.084543765
17	0xbdd90c34	-0.10598031
18	0xbe16a55e	-0.1471152
19	0x3d156589	0.036473785
20	0xbdc0bc7f	-0.09410953
21	0x3d8890b0	0.06668222
22	0x3e0a4f9d	0.13506933
23	0xbe5c57ea	-0.21517912
24	0x3ce2980c	0.027660392
25	0x3e75a8d5	0.23990186
26	0x3e10ce50	0.14141202
27	0xbe08a6d7	-0.13344894
28	0xbe642396	-0.222792
29	0x3e5446ac	0.20730084
30	0x3e9a7c50	0.30172968
31	0xbe21e12c	-0.15808553
32	0xbe43ef6c	-0.19134301
33	0x3e9a05c2	0.30082518
34	0x3e4d39eb	0.20041625
35	0x3e698a1a	0.22806588
36	0x3e24ef32	0.16106871
37	0x3d1328b9	0.035927508
38	0xbd163678	-0.03667304
39	0x3e7af5a0	0.24507761
40	0x3d17f33f	0.037097212
41	0xbe2a3fd3	-0.1662591
42	0x3e4fda72	0.20298174
43	0x3c94f6a0	0.018184006
44	0x3cc1e3d0	0.0236682
45	0xbe53c56a	-0.20680776
46	0xbe00365f	-0.12520741
47	0x3e4d4dc3	0.20049195
48	0xbe29f3e8	-0.16596949
49	0x3dcf6199	0.10126037
50	0x3c867770	0.016414374
51	0xbdb7e5dc	-0.08979389
52	0xbdfdc293	-0.12390628
53	0xbe9fd2e9	-0.312156
54	0x3d8c85f5	0.06861488
55	0x3e6cd477	0.23127924
56	0x3e1859d3	0.14878015
57	0x3e226924	0.1586042
58	0xbe364ce7	-0.17802773
59	0xbe5fdd62	-0.21861795
60	0x3e0d5cd5	0.13804944
61	0xbddd7c62	-0.1081474
62	0xbe19863a	-0.1499261
63	0xbe24445b	-0.160417
64	0x3e9e35e7	0.309005
65	0xbe809286	-0.2511179
66	0x3e44c880	0.1921711
67	0x3dd00cfc	0.101587266
68	0xbe032ff8	-0.12811267
69	0x3e5945a5	0.21217974
70	0xbe459857	-0.19296394
71	0x3e5b353e	0.21407029
72	0xbd695848	-0.056968957
73	0x3eac85c2	0.336958
74	0x3dcf444b	0.10120448
75	0x3e0a67e0	0.13516188
76	0x3e8891ff	0.26673886
77	0xbdabed75	-0.08394901
78	0x3e8a034e	0.26955646
79	0xbe2ae72a	-0.16689745
80	0xbd11bb78	-0.035579175
81	0xbe85e32f	-0.2614989
82	0x3b94552d	0.0045267553
83	0xbde4fa4f	-0.11180555
84	0x3e0fbf4e	0.1403782
85	0xbda82f00	-0.082120895
86	0xbe6ce0fb	-0.23132698
87	0x3e03bdfc	0.12865442
88	0x3dcc24ff	0.09967994
89	0x3e6200e6	0.22070655
90	0x3e4bb564	0.19893414
91	0x3d5f3f8c	0.054503962
92	0xbe878b9a	-0.26473695
93	0xbd99d5e7	-0.07511502
94	0xbdc6dfe9	-0.09710676
95	0xbda82132	-0.082094565
96	0xbdfeff30	-0.12451017
97	0x3eba7f30	0.3642516
98	0x3e5ee85f	0.2176833
99	0x3e4a1298	0.19733655
100	0x3e73a579	0.23793592
101	0x3e3b29ec	0.1827771
102	0x3d628ba4	0.055308953
103	0x3c93bc03	0.018033987
104	0xbe569549	-0.20955385
105	0xbe368696	-0.17824778
106	0xbe55eb39	-0.20890512
107	0x3ed55f9c	0.41674507
108	0x3d5d79cc	0.054071233
109	0xbd3c0eba	-0.04591248
110	0x3e17c453	0.14820985
111	0x3e643762	0.22286752
112	0x3c459987	0.01206053
113	0x3e078902	0.13235858
114	0xbd8a405a	-0.06750555
115	0xbe83468e	-0.25639766
116	0xbe2db17a	-0.16962233
117	0xbdeee7a8	-0.11665279
118	0xbe9332e1	-0.28749755
119	0xbde8581e	-0.11344932
120	0x3cdaf88d	0.026729846
121	0x3dc1da32	0.094654456
122	0xbe5d96d8	-0.21639574
123	0xbe83b8e4	-0.25726998
124	0xbe79dc07	-0.2440034
125	0xbe12ea0a	-0.14347091
126	0xbe891e32	-0.2678085
127	0xbbe642b2	-0.0070269937

h3.bias f4 [8]
0	0xbd43e64f	-0.04782706
1	0x3e7c2450	0.24623227
2	0x3e9b496c	0.30329454
3	0xbd973758	-0.07383603
4	0xbd6aa91a	-0.057290174
5	0x3e2baf5b	0.16766112
6	0xbe2f5db2	-0.17125586
7	0xbde1ea15	-0.11030976

h4.weight f4 [1, 8]
0	0x3ecf06d7	0.40434906
1	0x3ea1954f	0.31559226
2	0xbe90280c	-0.28155553
3	0x3e69c520	0.22829103
4	0x3ee236c8	0.4418242
5	0x3e1a68bf	0.1507902
6	0xbee850b5	-0.45374075
7	0x3e91c34d	0.28469315
