lightning_logs/deep_e5_lr0.001_b512/version_0/checkpoints/epoch=4-step=2090.ckpt (torch, 311378 bytes, 63 tensors)

input.weight f4 [64, 30]
0.020540943 0.24453373 -0.13224053 -0.077749275 0.047898546 -0.015557746 -0.11720912 0.06110067
0.18817037 -0.028966706 0.21859372 0.022083675 -0.029175412 -0.090576656 0.022223204 -0.05767634
0.03136502 0.13161132 0.114341296 0.15261395 0.10288672 -0.20545503 0.017273277 -0.05845986
0.18595229 0.13247466 -0.033244632 0.16126506 -0.24341616 0.011634985 0.066728815 0.081256434
0.2432405 -0.19438498 -0.118889906 -0.01759365 -0.27299505 0.09065083 -0.03317317 0.016527925
0.24640757 0.030351313 0.14566885 0.28028333 0.22434942 0.2220761 -0.08770364 0.18015002
0.007529122 0.1208293 -0.16476524 0.074188404 -0.09254588 -0.23988521 0.12191004 0.13500275
-0.016069481 -0.12674044 -0.19455226 -0.08001284 -0.018291524 0.09862392 -0.13934031 -0.16794257
-0.013417376 -0.21161756 0.08413587 0.014469968 0.10155573 -0.077209696 -0.05907554 -0.028919287
-0.09555996 0.16288243 -0.15489322 -0.178311 -0.06533854 0.019397888 -0.017525556 0.06662904
-0.11732167 -0.12550692 0.058754615 -0.1227694 -0.11787154 0.025543323 -0.06433725 -0.090415046
-0.055155564 0.10570768 0.14510109 -0.15309419 0.1840607 0.17584883 0.12052436 0.011850479
0.017152177 0.17034984 0.056081537 -0.02525673 0.14044298 -0.18259175 -0.010201734 0.02956442
-0.0031423059 -0.08824973 0.09978948 -0.039145313 0.009116608 -0.09894413 0.13830306 -0.05245948
-0.14395347 -0.11283455 -0.015352055 -0.101813264 0.042152647 0.12882183 -0.038919523 0.16916011
0.21316709 0.16352281 -0.12293222 0.29334816 -0.10695796 0.0023737885 -0.2748174 -0.21923734
0.2945352 -0.1643989 -0.023077343 -0.18949911 0.25059277 0.16919477 0.05304416 0.19051898
0.15736587 -0.055183753 0.0745286 -0.051002614 0.026671177 -0.04106849 0.24432887 0.0034673268
-0.17407395 -0.17857793 -0.15610075 -0.07877195 0.09678848 -0.018757893 -0.012196099 0.28736705
0.1590718 -0.070434265 -0.10410833 -0.1004495 -0.2478811 0.0120339235 -0.054439045 0.14499395
0.16626495 0.008241301 0.15150765 0.030974569 -0.03552823 0.1675708 -0.17036468 0.037511747
0.22519541 -0.14116116 0.001176933 -0.06169504 0.1729801 0.084658206 0.011153966 0.01473469
-0.11142113 0.09720664 -0.20674142 -0.21263142 0.016500052 0.00813407 -0.15083249 0.123039745
-0.23221408 -0.14044319 0.18812026 0.039923117 0.25824767 -0.13663003 0.00493552 0.15573908
0.10207544 0.08460553 0.06592136 0.03877631 0.18427816 -0.06176755 0.08866627 -0.08735064
-0.023130778 -0.13060877 -0.11270078 -0.087785326 0.17843151 0.034607537 0.016417427 0.11142953
0.0966459 0.039689407 0.09605385 0.14990631 0.17882143 -0.116369754 -0.082775 -0.011925491
-0.21817477 0.042240165 -0.15876858 -0.0217869 0.08568973 0.096189305 -0.016209655 -0.058157872
0.19804811 0.103807196 -0.04455983 -0.08937221 -0.13165419 -0.013639133 0.054256096 -0.1025413
-0.014460477 -0.020870147 -0.023936953 -0.23934647 -0.09159602 -0.06707115 0.12543602 0.0634867
-0.15056886 0.0747391 -0.11596485 -0.010882026 -0.3012668 -0.069835015 0.2691922 -0.17077321
-0.079043016 0.18647577 -0.07910076 0.035231497 0.20572412 0.23388413 0.11914069 0.09604959
00000000: 7b45 a83c 0d67 7a3e 106a 07be 033b 9fbd
00000010: 4431 443d ebe5 7ebc 560b f0bd b244 7a3d
00000020: bcaf 403e 964b edbc 08d7 5f3e d3e8 b43c
00000030: 4601 efbc 4180 b9bd 700d b63c 073e 6cbd
00000040: 9b78 003d 1ec5 063e c52b ea3d d546 1c3e
00000050: 46b6 d23d ce62 52be b080 8d3c 9b73 6fbd
00000060: 476a 3e3e 70a7 073e 862b 08bd ab22 253e
00000070: 1642 79be aaa0 3e3c 1ea9 883d c669 a63d
00000080: 0a14 793e db0c 47be 8d7c f3bd 8f20 90bc
00000090: 02c6 8bbe 24a7 b93d 97e0 07bd 9265 873c
000000a0: 4452 7c3e 51a3 f83c 372a 153e 4c81 8f3e
000000b0: dbbb 653e eb67 633e f79d b3bd 3f79 383e
000000c0: dab6 f63b 5a75 f73d 38b8 28be 17f0 973d
000000d0: b288 bdbd 78a4 75be f9ab f93d 293e 0a3e
000000e0: 25a4 83bc 3fc8 01be b538 47be c6dd a3bd
000000f0: 1bd8 95bc 56fb c93d 3aaf 0ebe 23f9 2bbe
00000100: 8ed4 5bbc 46b2 58be 6d4f ac3d 7213 6d3c
00000110: 73fc cf3d 1e20 9ebd 32f9 71bd 24e8 ecbc
00000120: f1b4 c3bd a7ca 263e 549c 1ebe 2997 36be
00000130: 36d0 85bd 52e8 9e3c c191 8fbc ce74 883d
00000140: 5846 f0bd e384 00be aea8 703d 866e fbbd
00000150: a266 f1bd 3b40 d13c 40c3 83bd 862b b9bd
00000160: cdea 61bd 457d d83d 6195 143e b9c4 1cbe
00000170: 687a 3c3e b711 343e 7ad5 f63d 8328 423c
00000180: b982 8c3c 3070 2e3e c1b5 653d 34e7 cebc
00000190: 49d0 0f3e 55f9 3abe 2c25 27bc 1531 f23c
000001a0: 25ef 4dbb 46bc b4bd 6d5e cc3d d656 20bd
000001b0: d35d 153c 38a3 cabd 519f 0d3e c0df 56bd
000001c0: 8a68 13be cd15 e7bd 3087 7bbc 7983 d0bd
000001d0: 41a8 2c3d dfe9 033e 146a 1fbd 4f38 2d3e
000001e0: 7948 5a3e 8672 273e e3c3 fbbd bb31 963e
000001f0: c60c dbbd 9091 1b3b deb4 8cbe c17f 60be
00000200: 51cd 963e 2f58 28be b20c bdbc 0e0c 42be
00000210: b24d 803e 6541 2d3e d544 593d 6817 433e
00000220: 8524 213e 5c08 62bd 73a2 983d 1ee8 50bd
00000230: 837d da3c 6f37 28bd 5931 7a3e 173c 633b
00000240: 7140 32be 22dd 36be e0d8 1fbe 3053 a1bd
00000250: 0a39 c63d 27aa 99bc 26d2 47bc c621 933e
00000260: b8e3 223e d73f 90bd c036 d5bd 78b8 cdbd
00000270: 8bd4 7dbe ef29 453c 7afb 5ebd 4b79 143e
00000280: 5c41 2a3e 8606 073c d224 1b3e 61be fd3c
00000290: 0d86 11bd ae97 2b3e 1474 2ebe eba5 193d
000002a0: a099 663e 8d8c 10be 5143 9a3a f0b3 7cbd
000002b0: b221 313e 4861 ad3d 20bf 363c c569 713c
000002c0: c330 e4bd 4614 c73d 06b4 53be 0dbc 59be
000002d0: 1e2b 873c c344 053c d573 1abe 43fc fb3d
000002e0: 87c9 6dbe 57d0 0fbe 99a2 403e 6c86 233d
000002f0: 0a39 843e bee8 0bbe 24ba a13b 117a 1f3e
00000300: ee0c d13d aa45 ad3d c701 873d e8d3 1e3d
00000310: 6ab3 3c3e f8ff 7cbd a996 b53d e4e4 b2bd
00000320: c27c bdbc 4ebe 05be abcf e6bd cbc8 b3bd
00000330: c0b6 363e a2c0 0d3d d77d 863c 2a35 e43d
00000340: 49ee c53d 5c91 223d e2b7 c43d 0a81 193e
00000350: f71c 373e 4453 eebd f085 a9bd 2263 43bc
00000360: 3569 5fbe 0604 2d3d 3b94 22be 717a b2bc
00000370: 197e af3d e6fe c43d 1cca 84bc f336 6ebd
00000380: 20cd 4a3e de98 d43d 5e84 36bd c708 b7bd
00000390: 5bd0 06be ac76 5fbc a43b 5e3d 2c01 d2bd
000003a0: a3eb 6cbc dff7 aabc 6e17 c4bc 3e17 75be
000003b0: b296 bbbd 995c 89bd 4d72 003e 5105 823d
000003c0: b92e 1abe d010 993d fb7e edbd 864a 32bc
000003d0: a43f 9abe a905 8fbd 8fd3 893e 2cdf 2ebe
000003e0: 4ee1 a1bd 81f3 3e3e 94ff a1bd e74e 103d
000003f0: 58a9 523e 527f 6f3e 0900 f43d a6b5 c43d

input.bias f4 [64]
-0.07425049 0.15998009 -0.18968704 -0.21772015 0.0666947 0.0045284606 0.07062543 0.07537789
0.08294873 0.14321662 0.21026418 -0.06227574 0.08110915 0.09731414 0.074175805 -0.15167901
-0.08007983 0.11348959 0.059415936 0.027781213 0.04982105 -0.16431119 0.096850395 0.0865826
0.1280959 -0.1304876 0.18014441 0.12966448 -0.12260331 0.13047786 0.1483756 -0.0745879
-0.10496677 0.11665601 0.10539744 -0.16509928 -0.063537136 0.15838647 -0.10854594 0.057492565
-0.04095718 -0.07707606 -0.19881506 0.023477126 -0.06592911 0.15818541 -0.006431349 -0.115473755
0.034675185 0.04962779 -0.008778678 -0.12907216 0.11046053 -0.038515516 0.14399107 -0.14469714
-0.0859148 -0.05136729 0.119772464 0.025543146 0.04081006 0.00987074 -0.10096059 -0.08097785
00000000: a410 98bd d2d1 233e 523d 42be 08f2 5ebe
00000010: 3b97 883d 7b63 943b 11a4 903d b95f 9a3d
00000020: 06e1 a93d 61a7 123e 7e4f 573e d914 7fbd
00000030: 8e1c a63d a34c c73d 7ce9 973d be51 1bbe
00000040: e500 a4bd 3b6d e83d 205e 733d 6d95 e33c
00000050: 2811 4c3d 3141 28be 8059 c63d 3852 b13d
00000060: 922b 033e 8b9e 05be c777 383e c4c6 043e
00000070: 7217 fbbd fd9b 053e c6ef 173e 8ac1 98bd
00000080: d1f8 d6bd 59e9 ee3d 9dda d73d c90f 29be
00000090: c21f 82bd 1030 223e 554d debd 537d 6b3d
000000a0: b7c2 27bd 0eda 9dbd 2d96 4bbe 1a53 c03c
000000b0: d705 87bd 5bfb 213e 11be d2bb 817d ecbd
000000c0: 9107 0e3d 8246 4b3d 72d4 0fbc 7e2b 04be
000000d0: 2139 e23d 72c2 1dbd 6572 133e 7d2b 14be
000000e0: 19f4 afbd 8266 52bd 444b f53d dc3f d13c
000000f0: 7328 273d e2b8 213c 6dc4 cebd b7d7 a5bd

h1.weight f4 [64, 64]
-0.12537757 0.11488958 -0.009328578 -0.0043251864 0.22930321 -0.032566734 -0.031171491 -0.028336555
-0.01823071 0.05641109 0.034687616 0.086092725 -0.11033179 -0.08295908 0.046097703 0.08038891
-0.07861902 0.12105356 0.09648937 0.15779455 0.084977746 0.023803022 -0.03314477 0.0063468013
0.094150394 -0.064909115 0.13014929 0.0038487578 0.13772942 -0.010051072 0.25748992 -0.17370935
-0.14287668 0.11892386 -0.14729583 0.032307852 -0.011589488 -0.07113557 0.08727545 0.10851362
-0.018273998 0.0015568694 0.08062676 -0.022120241 0.04834233 0.11028356 0.0012689945 0.080201514
-0.03782178 -0.02366433 -0.024559552 0.059259053 0.11581221 0.08312206 -0.0019189784 0.094465844
-0.07285121 0.0072869016 -0.03558412 0.04838363 0.012214504 -0.14559534 0.019918373 0.15056628
-0.0014843397 -0.23600675 -0.046475876 0.031133473 -0.18800794 0.041230522 -0.19607674 0.016471025
-0.016745709 -0.06774429 -0.6046532 -0.052226976 -0.07840852 -0.09344939 0.06725788 0.06819508
0.18472438 -0.37523258 -0.04518586 -0.22106734 -0.0060183546 -0.13574436 0.042144883 -0.051155694
-0.018089103 -0.07498007 -0.053493973 0.09602223 0.060318388 0.21140528 -0.08174029 -0.0104324715
0.07863602 -0.3730265 0.18216403 0.14762542 0.13990238 0.09879867 -0.09802424 0.09163589
-0.070782594 0.038273063 0.112121105 0.09987354 -0.36671197 -0.053029675 -0.063469626 0.019666854
-0.17581975 -0.097311445 0.09380098 -0.12167932 -0.23788905 -0.17640974 0.05825242 0.14151713
-0.14031635 -0.11164185 0.0009967615 0.03945727 -0.08379152 0.20251799 0.008859016 -0.12515566
-0.13430952 0.00017616843 -0.05667532 0.06260752 0.095647566 0.028603686 -0.026311615 0.0075298343
0.045829177 -0.034371935 0.09307708 0.10634646 -0.11546703 0.090298906 0.05681822 -0.119831145
0.045839276 0.04351737 0.1414842 0.115468346 0.08408266 -0.021033937 0.06492324 -0.018668696
0.08270386 0.021256275 -0.046688706 -0.12318845 0.0068591717 0.011734292 0.015113339 -0.017129242
-0.018879889 -0.038111504 -0.047270652 -0.13413826 -0.12795244 -0.17405804 -0.05843075 0.20048994
0.068298124 -0.041189656 -0.0077122822 -0.0634603 0.116352506 -0.00958437 0.17144461 -0.010202162
0.13003157 0.15134716 -0.10951503 0.0018851811 0.39530832 0.112432346 -0.006464934 -0.112929255
-0.036107358 -0.02723019 0.11319544 -0.0046025147 0.048210658 -0.18196554 -0.042844072 0.23165658
0.11513039 0.14092946 -0.11599269 0.07423035 0.116071254 0.13939728 -0.07277113 0.02334819
-0.06639172 -0.074047886 0.30202895 0.09204702 -0.12572539 -0.078251064 0.072801754 -0.15418507
-0.0495521 0.014634015 0.19431315 0.18074879 -0.017964479 0.17050731 0.03211596 0.0891927
-0.049962077 -0.060006574 0.087178305 0.014181422 -0.014469718 -0.030680053 0.20096135 0.11644968
-0.025974441 0.21387897 -0.13395785 -0.025701648 0.021347199 0.108710766 -0.08624814 0.009674029
0.16352405 -0.00091216224 -0.072948836 -0.09555749 -0.0051862327 0.26303044 0.001560463 0.07771331
0.08914803 0.21449246 -0.020150974 -0.13437967 0.31302205 0.20217675 -0.022053663 0.03514201
0.12972297 0.09229355 -0.04978206 0.047717776 -0.043535873 -0.14435115 0.05652167 0.14086069
00000000: fa62 00be 3a4b eb3d e4d6 18bc 4bba 8dbb
00000010: 76ce 6a3e b264 05bd 5b5b ffbc 1022 e8bc
00000020: 9258 95bc 510f 673d 9a14 0e3d 6251 b03d
00000030: a2f5 e1bd 73e6 a9bd f2d0 3c3d f1a2 a43d
00000040: 0203 a1bd eeea f73d 389c c53d e594 213e
00000050: d008 ae3d 8efe c23c cfc2 07bd d4f8 cf3b
00000060: ecd1 c03d 12ef 84bd db45 053e 713b 7c3b
00000070: f108 0d3e 40ad 24bc b8d5 833e dde0 31be
00000080: 444e 12be 5a8e f33d b8d4 16be 3d55 043d
00000090: d6e1 3dbc 87af 91bd 79bd b23d 643c de3d
000000a0: 5ab3 95bc de0f cc3a a51f a53d 8235 b5bc
000000b0: 9b02 463d 59dc e13d 6454 a63a b140 a43d
000000c0: 03eb 1abd b2db c1bc 1d31 c9bc 9fb9 723d
000000d0: f42e ed3d e63b aa3d 3b86 fbba 4f77 c13d
000000e0: 0433 95bd f6c6 ee3b a7c0 11bd ea2d 463d
000000f0: 581f 483c f216 15be db2b a33c 0c2e 1a3e
00000100: 2d8e c2ba c1ab 71be 7d5d 3ebd a00b ff3c
00000110: 2785 40be 56e1 283d 57c8 48be 3eee 863c
00000120: 4c2e 89bc 85bd 8abd 8dca 1abf f4eb 55bd
00000130: a594 a0bd 6562 bfbd 80be 893d dda9 8b3d
00000140: 6328 3d3e 7c1e c0be cf14 39bd 7a5f 62be
00000150: 9e35 c5bb 9200 0bbe 1da0 2c3d a288 51bd
00000160: 992f 94bc 278f 99bd 7f1c 5bbd 4ea7 c43d
00000170: 6a10 773d a07a 583e 7467 a7bd f5ec 2abc
00000180: ec0b a13d 54fd bebe 3589 3a3e 1e2b 173e
00000190: 9242 0f3e f556 ca3d efc0 c8bd 99ab bb3d
000001a0: 77f6 90bd 37c4 1c3d c09f e53d 808a cc3d
000001b0: acc1 bbbe a535 59bd 5dfc 81bd 621c a13c
000001c0: 180a 34be 394b c7bd ba1a c03d 0233 f9bd
000001d0: 3099 73be c1a4 34be 179a 6e3d dee9 103e
000001e0: 17af 0fbe 7ba4 e4bd c4a5 823a f29d 213d
000001f0: e39a abbd e060 4f3e 6825 113c ce28 00be
00000200: 6f88 09be dab9 3839 6124 68bd 5f38 803d
00000210: dfe2 c33d 4752 ea3c 758b d7bc d4bc f63b
00000220: 60b7 3b3d 96c9 0cbd 329f be3d 2ccc d93d
00000230: fa79 ecbd a2ee b83d 39ba 683d 086a f5bd
00000240: f7c1 3b3d 453f 323d 3ce1 103e ab7a ec3d
00000250: 8833 ac3d 5d4f acbc 7af6 843d 18ef 98bc
00000260: a460 a93d a421 ae3c a83c 3fbd 3a4a fcbd
00000270: e7c2 e03b 3041 403c f09d 773c a052 8cbc
00000280: ffa9 9abc cf1a 1cbd df9e 41bd 8a5b 09be
00000290: f705 03be 453c 32be 1555 6fbd 3c4d 4d3e
000002a0: e3df 8b3d 7cb6 28bd 50b7 fcbb 79f7 81bd
000002b0: 394a ee3d c307 1dbc 2d8f 2f3e f826 27bc
000002c0: ff26 053e c0fa 1a3e 6b49 e0bd 2e18 f73a
000002d0: da65 ca3e ee42 e63d ccd7 d3bb 7447 e7bd
000002e0: 4fe5 13bd d911 dfbc 03d3 e73d b1d0 96bb
000002f0: 8a78 453d 2d55 3abe 447d 2fbd 6237 6d3e
00000300: 7bc9 eb3d d04f 103e 938d edbd 1506 983d
00000310: c4b6 ed3d 29be 0e3e 0809 95bd b444 bf3c
00000320: 62f8 87bd 6ba6 97bd 8aa3 9a3e 2683 bc3d
00000330: 28be 00be 1842 a0bd 1619 953d b1e2 1dbe
00000340: 25f7 4abd 82c3 6f3c 07fa 463e 3616 393e
00000350: 3e2a 93bc 7899 2e3e 068c 033d aaaa b63d
00000360: 09a5 4cbd 74c9 75bd 8a8a b23d 3259 683c
00000370: 6512 6dbc bc54 fbbc d0c8 4d3e 2b7d ee3d
00000380: 5ac8 d4bc 1703 5b3e 3f2c 09be 438c d2bc
00000390: 52e0 ae3c c0a3 de3d dda2 b0bd d27f 1e3c
000003a0: d972 273e 2c1e 6fba 3366 95bd a5b3 c3bd
000003b0: 46f1 a9bb edab 863e 7388 cc3a 2828 9f3d
000003c0: 3e93 b63d e9a3 5b3e a813 a5bc d39a 09be
000003d0: 6d44 a03e 6c07 4f3e e2a9 b4bc 11f1 0f3d
000003e0: 19d6 043e 6704 bd3d 46e8 4bbd b773 433d
000003f0: ac52 32bd cad0 13be 4483 673d c93d 103e

h1.bias f4 [64]
-0.067194685 0.066938944 0.03445315 -0.12453555 0.04444437 -0.06358501 -0.13796416 0.012684519
0.022263397 -0.10257507 -0.05001677 0.06525453 0.04851088 0.035507888 -0.045142245 0.007377923
-0.14413755 0.13188088 -0.10735209 -0.10741022 0.0529309 -0.08325819 0.15109 0.053584326
0.013820363 -0.058646176 0.07013585 -0.15186583 -0.062078018 -0.046364617 0.080820985 0.082981504
-0.0054673413 -0.03325272 -0.039728086 0.0650476 0.0047738114 0.012385588 -0.13646501 0.024718676
0.022816716 0.06552718 0.13620031 0.0993266 0.007605004 0.09541841 -0.047462348 0.0776528
0.10916558 0.10330995 -0.0168361 0.045884732 0.008403513 -0.052882124 -0.0026115435 -0.049622085
0.0436648 0.09914112 0.0023801026 0.12509169 -0.09443935 -0.1219579 0.004861747 -0.0634346
00000000: 5e9d 89bd 4917 893d bf1e 0d3d 7f0c ffbd
00000010: 4d0b 363d dc38 82bd 7a46 0dbe bbd2 4f3c
00000020: ba61 b63c e112 d2bd 62de 4cbd 2ba4 853d
00000030: 58b3 463d b870 113d 13e7 38bd 81c2 f13b
00000040: cb98 13be c80b 073e 6adb dbbd e4f9 dbbd
00000050: 12ce 583d 4583 aabd 56b7 1a3e 3d7b 5b3d
00000060: ce6e 623c f936 70bd 62a3 8f3d b782 1bbe
00000070: 8545 7ebd d3e8 3dbd 7985 a53d 35f2 a93d
00000080: 6227 b3bb 0134 08bd ebb9 22bd ad37 853d
00000090: a26d 9c3b ecec 4a3c 7cbd 0bbe d27e ca3c
000000a0: 1fea ba3c 1d33 863d 1878 0b3e bf6b cb3d
000000b0: 6633 f93b ba6a c33d e167 42bd 6e08 9f3d
000000c0: 3492 df3d 2b94 d33d dceb 89bc a1f1 3b3d
000000d0: e3ae 093c ed9a 58bd 6e26 2bbb 8740 4bbd
000000e0: dcd9 323d 800a cb3d 7ffb 1b3b 0918 003e
000000f0: 6b69 c1bd 10c5 f9bd 4a4f 9f3b 00ea 81bd

h2.weight f4 [64, 64]
-0.0790156 -0.15149976 0.033817586 -0.03329978 0.15148018 0.070567384 -0.10435668 0.07098923
0.11597371 -0.06968988 -0.07599149 0.12070076 -0.058952507 -0.13559662 -0.068494685 -0.05977651
-0.042598784 0.003398811 -0.06761899 -0.05328146 -0.008519398 0.07958228 0.00021465184 -0.16714358
-0.010035147 -0.003787892 0.08355278 0.03976961 -0.012263496 -0.08831495 0.13465446 -0.16580506
0.058031917 -0.12867673 0.03040596 0.06231512 -0.07113349 0.026358927 0.05835569 0.13954641
0.12203595 0.011226961 -0.08221766 0.0144785475 0.057279166 0.11243784 0.01995222 -0.10065682
-0.046201676 -0.16642806 -0.1520774 0.08336428 0.035537638 0.052659534 0.18856291 0.051696654
-0.20389563 0.07849592 -0.01577727 -0.11731446 -0.026808446 -0.10362883 0.028586239 -0.105967745
-0.049918484 -0.015072891 -0.052432846 -0.058328766 0.032115348 -0.037821177 0.0547823 -0.048596006
-0.03702918 0.11064114 0.020762345 0.13118972 0.063533425 -0.10678847 -0.076541334 0.08461815
0.070048764 0.0807506 -0.05972719 0.03210874 -0.1163552 0.0905617 0.092082724 -0.03175631
-0.07839614 -0.017971443 -0.022978185 0.10731741 -0.026542783 -0.0480946 0.14221461 -0.037416797
-0.08015841 -0.04439716 0.038209356 -0.01714243 0.077597834 -0.040539306 0.110678166 0.04729345
0.014088639 0.026652781 -0.025605181 -0.05198972 -0.17425312 0.09007958 -0.07493369 -0.0063843015
0.08430309 -0.059753075 -0.017480662 0.17397626 0.04068596 0.038395833 0.021974469 0.16425243
-0.034952965 0.0053740903 0.09234334 -0.025848329 -0.005847428 0.024951853 -0.010944236 -0.12308955
0.097485825 0.18047757 0.14345509 -0.079812236 0.06473765 0.025502587 -0.062889785 -0.087210625
0.033178803 -0.13526073 0.03445791 -0.032637786 0.05710876 0.03311591 -0.15357888 -0.0072485
-0.117016785 0.14080514 0.052714784 0.13159128 0.08687806 -0.028367523 -0.032205738 0.253416
-0.1398081 0.037710473 0.027155623 -0.11670421 -0.05791697 0.10501173 0.054659955 -0.041358374
0.17939797 0.10664532 0.18844874 0.17482804 0.025455184 0.13312946 0.013825612 0.08464193
0.15645584 0.0058611827 -0.034884237 -0.06721174 0.061399445 -0.035254467 0.11800922 -0.12265862
0.1332495 -0.05023718 -0.045985013 0.07101303 -0.035481684 -0.12979205 -0.03991676 -0.0047811046
0.05271811 0.026739024 0.025595238 0.121918075 -0.10016953 -0.05712295 0.1277826 0.17882055
-0.03892493 -0.07431356 -0.04421703 -0.06442008 0.021730168 -0.0027988118 0.050229628 -0.117090225
0.04200129 -0.04724715 0.14177641 -0.08808085 0.16983779 -0.020386038 -0.050101157 -0.050088905
0.034588113 -0.09818515 -0.011503851 0.14761855 0.024163201 0.15441062 0.18472996 -0.058679648
0.08910039 -0.09710887 -0.054600988 0.09843947 0.12448955 -0.17171936 0.13580467 -0.08607122
-0.060793158 0.014535196 -0.10305572 -0.080457516 0.103277035 0.070917465 -0.039023686 0.12853412
-0.049165346 -0.020139664 -0.014288348 0.057242077 0.058745306 -0.010756704 0.081126004 -0.037181295
0.0052706283 0.06327979 -0.04751646 0.007913547 0.08786332 0.070216455 0.10815806 0.09158025
-0.1597542 0.091732524 -0.13468952 -0.07238415 0.099260174 0.07083199 0.028453 -0.056426074
00000000: eed2 a1bd c122 1bbe 4f84 0a3d 5a65 08bd
00000010: 9f1d 1b3e a285 903d f4b8 d5bd cd62 913d
00000020: a083 ed3d 91b9 8ebd 6da1 9bbd f631 f73d
00000030: 2f78 71bd d7d9 0abe f146 8cbd 37d8 74bd
00000040: 107c 2ebd 96be 5e3b d37b 8abd a93d 5abd
00000050: f294 0bbc 09fc a23d 2a14 6139 b027 2bbe
00000060: 756a 24bc 483e 78bb b81d ab3d 75e5 223d
00000070: d5ec 48bc 78de b4bd dce2 093e cdc8 29be
00000080: e0b2 6d3d d5c3 03be eb15 f93c 243e 7f3d
00000090: 6fae 91bd adee d73c 6006 6f3d 41e5 0e3e
000000a0: fced f93d 4af1 373c bc61 a8bd 6e37 6d3c
000000b0: 8f9d 6a3d cf45 e63d d772 a33c 2a25 cebd
000000c0: f83d 3dbd 1e6c 2abe 2eba 1bbe e4ba aa3d
000000d0: ea8f 113d 86b1 573d a316 413e dfbf 533d
000000e0: 04ca 50be 78c2 a03d 553f 81bc 9042 f0bd
000000f0: 639d dbbc 5a3b d4bd b02d ea3c 9e05 d9bd
00000100: 5377 4cbd 49f4 76bc d3c3 56bd 25ea 6ebd
00000110: 628b 033d 61ea 1abd 6863 603d 9b0c 47bd
00000120: e9ab 17bd d297 e23d cb15 aa3c 9956 063e
00000130: d01d 823d eab3 dabd b4c1 9cbd 484c ad3d
00000140: ba75 8f3d 9260 a53d 7fa4 74bd 7484 033d
00000150: a34b eebd 6a78 b93d de95 bc3d e812 02bd
00000160: 288e a0bd d938 93bc bf3c bcbc 3bc9 db3d
00000170: 4070 d9bc d8fe 44bd b5a0 113e 5b42 19bd
00000180: 182a a4bd ccd9 35bd 6a81 1c3d 486e 8cbc
00000190: 9deb 9e3d 8b0c 26bd 3cab e23d c7b6 413d
000001a0: 09d4 663c ef56 da3c f5c1 d1bc 2cf3 54bd
000001b0: 696f 32be a57b b83d d676 99bd 6733 d1bb
000001c0: 19a7 ac3d a4bf 74bd 9b33 8fbc d526 323e
000001d0: 52a6 263d f344 1d3d cd03 b43c ca31 283e
000001e0: d72a 0fbd 2319 b03b 811e bd3d e0bf d3bc
000001f0: c89b bfbb d467 cc3c 744f 33bc 6016 fcbd
00000200: a6a6 c73d 1dcf 383e e4e5 123e 9974 a3bd
00000210: 2c95 843d cdea d03c 5ccc 80bd 7c9b b2bd
00000220: 7fe6 073d ca81 0abe bd23 0d3d 33af 05bd
00000230: e0ea 693d 8ca4 073d c843 1dbe d384 edbb
00000240: 7fa6 efbd 392f 103e 75eb 573d ddbf 063e
00000250: 20ed b13d 0263 e8bc 2aea 03bd bebf 813e
00000260: db29 0fbe 4c76 1a3d 7875 de3c 9e02 efbd
00000270: 583a 6dbd 6410 d73d 1ee3 5f3d 6667 29bd
00000280: 1ab4 373e dd68 da3d b5f8 403e 1f06 333e
00000290: 6487 d03c 1753 083e d284 623c c058 ad3d
000002a0: f635 203e 2a0f c03b c6e2 0ebd 4fa6 89bd
000002b0: fc7d 7b3d fd66 10bd d1ae f13d 7134 fbbd
000002c0: 8f72 083e 80c5 4dbd c85a 3cbd 486f 913d
000002d0: 3e55 11bd 35e8 04be c27f 23bd d0aa 9cbb
000002e0: f2ee 573d cc0b db3c 1bad d13c 2fb0 f93d
000002f0: af25 cdbd c1f9 69bd 71d9 023e bc1c 373e
00000300: bf6f 1fbd b531 98bd eb1c 35bd adee 83bd
00000310: 7703 b23c 456c 37bb 95bd 4d3d 00cd efbd
00000320: 8b09 2c3d 3a86 41bd d62d 113e bc63 b4bd
00000330: f5e9 2d3e 9f00 a7bc df36 4dbd 062a 4dbd
00000340: 44ac 0d3d 4c15 c9bd a67a 3cbc 5129 173e
00000350: e8f1 c53c d11d 1e3e da29 3d3e 125a 70bd
00000360: 447a b63d 04e1 c6bd 49a5 5fbd a29a c93d
00000370: 61f4 fe3d 33d7 2fbe 6110 0b3e 1c46 b0bd
00000380: 3f02 79bd 0825 6e3c e10e d3bd e9c6 a4bd
00000390: e982 d33d 2d3d 913d 4dd7 1fbd 739e 033e
000003a0: 9a61 49bd f0fb a4bc ad19 6abc ab76 6a3d
000003b0: eb9e 703d e33c 30bc 6425 a63d 6a4b 18bd
000003c0: 3cb5 ac3b d698 813d 9fa0 42bd d2a7 013c
000003d0: aff1 b33d a5cd 8f3d f981 dd3d 6d8e bb3d
000003e0: 9b96 23be 43de bb3d 0dec 09be 243e 94bd
000003f0: eb48 cb3d 5d10 913d 4416 e93c 071f 67bd

h2.bias f4 [64]
0.041960165 -0.04256634 0.041729223 0.039283365 0.02886651 0.07594274 -0.014411024 0.03892704
-0.0022926538 0.006804831 -0.088549264 -0.110510856 0.05928084 -0.1564616 0.09974173 0.04362836
-0.04820054 0.057293616 0.06534879 -0.05193925 0.013412467 0.10507907 -0.01838866 0.026487168
0.085671775 0.06338851 -0.023301914 -0.012195603 0.0076776245 -0.007658598 -0.036388867 0.08586433
-0.0321427 -0.063362904 0.021462187 -0.14539208 0.09331458 0.077643365 -0.03213335 -0.10109157
0.099034086 -0.017042788 -0.10467901 -0.04087803 -0.056687042 0.04772397 -0.044849057 0.014636971
0.11754922 0.01385481 -0.07881125 -0.10223456 -0.06147224 0.00066376437 -0.092615 -0.11065215
-0.055458385 -0.011873138 -0.03437971 -0.05717516 -0.020281678 -0.07936734 -0.051483173 -0.026983287
00000000: 6cde 2b3d 0b5a 2ebd 43ec 2a3d 98e7 203d
00000010: 7679 ec3c de87 9b3d 371c 6cbc f671 1f3d
00000020: 5940 16bb 0ffb de3b 5159 b5bd 8453 e2bd
00000030: 77d0 723d 7837 20be 6445 cc3d a7b3 323d
00000040: ee6d 45bd b6ac 6a3d 96d5 853d 40be 54bd
00000050: f7bf 5b3c b233 d73d d1a3 96bc 9efb d83c
00000060: af74 af3d d6d1 813d a8e3 bebc 11d0 47bc
00000070: 9594 fb3b faf4 fabb 7e0c 15bd a3d9 af3d
00000080: 10a8 03bd 69c4 81bd 78d1 af3c a9e1 14be
00000090: b71b bf3d 7c03 9f3d 429e 03bd 1909 cfbd
000000a0: 62d2 ca3d 519d 8bbc f361 d6bd b96f 27bd
000000b0: ac30 68bd 367a 433d a5b3 37bd e8cf 6f3c
000000c0: a5bd f03d 49ff 623c cb67 a1bd 5a60 d1bd
000000d0: 51ca 7bbd 7900 2e3a efac bdbd 989d e2bd
000000e0: 5528 63bd 8d87 42bc bdd1 0cbd 8030 6abd
000000f0: c325 a6bc 588b a2bd 05e0 52bd 0e0c ddbc

h3.weight f4 [64, 64]
-0.043993447 0.04069801 -0.0067080962 -0.077027485 0.11231858 0.054004174 0.066732265 0.020719685
0.052524317 0.044693466 0.0071794232 -0.12952568 0.06677329 -0.017084466 -0.04669729 -0.020553593
-0.03393401 -0.0047237626 0.0042603244 0.07526683 -0.10522454 0.08810587 0.020248547 0.021887401
0.21791148 0.0816953 -0.10333239 -0.037684433 0.10745842 -0.0073672608 0.11587368 0.18725243
0.11666639 0.08413974 -0.10460884 0.039260633 0.027973147 0.01535524 -0.14445724 0.0047115665
-0.09020005 0.14590958 0.0678401 0.016423004 -0.039537583 0.12581654 -0.05457799 0.05327217
-0.029134367 -0.09602824 -0.097016044 -0.107709095 0.002277923 0.0624804 -0.08775565 0.038971502
-0.03851089 -0.10439083 0.3021902 -0.04388878 -0.07367221 -0.12582542 0.03611326 0.1463375
-0.055508565 -0.046691637 0.12430086 0.14042965 -0.08983013 -0.06821163 0.15362154 0.02056771
-0.06816193 0.046302885 -0.044693697 0.0042996663 -0.06261142 -0.23263209 0.07658182 -0.11009461
-0.077840194 0.1896455 0.16300458 -0.03275692 0.09399878 -0.06898257 0.21832612 0.050845604
0.074997626 -0.17064139 0.088505454 0.22109848 -0.14453517 0.18261899 -0.12610237 -0.032037776
-0.029555045 -0.026888875 0.0040869364 -0.122436024 0.013930101 0.1884207 0.06812258 -0.21195304
-0.058346573 0.17454521 -0.24275114 -0.08782539 -0.024876906 -0.008879207 0.027023166 0.08752077
-0.07378989 -0.23782484 0.07098068 -0.023757925 0.02916022 0.025475282 0.09719179 0.109365955
-0.1318088 0.19187835 0.00028381133 0.021068234 0.03005017 0.19327387 0.12836367 0.08330264
0.04441934 0.09872632 -0.031589556 -0.1131395 0.039586797 0.06181792 -0.04185805 -0.09004119
-0.07097665 -0.13860653 0.084449954 0.057710472 0.030585706 0.035488423 0.14441656 -0.05934537
-0.020658106 -0.14621878 0.03794448 -0.010939563 -0.10885659 -0.016297782 0.020392748 -0.006393766
0.15827319 0.067737825 0.038922325 -0.065555766 -0.081059195 0.118169785 -0.1024891 0.16031477
-0.0023359123 0.039388873 -0.21498163 0.02451502 -0.016574522 -0.16538328 0.00033722215 0.011084944
0.10864818 0.017703574 0.059512492 0.11504301 0.008195998 -0.09461507 0.03878159 0.094244994
0.14460225 0.12177146 0.007760211 0.010567 0.09589291 0.083564386 -0.051205806 0.08750714
0.020661755 -0.09518006 0.12446198 0.0780248 0.035049144 -0.14887732 0.030082608 0.018628957
-0.012590685 0.038204085 -0.04298996 -0.058044787 0.072781704 0.00038916038 -0.06617613 0.04445635
-0.0072347852 -0.11752039 0.070118755 0.062845066 -0.101011164 0.044614926 0.04784682 0.011972923
0.08835404 -0.0942092 0.06902519 0.13867094 -0.014534503 0.06373196 -0.08615208 0.012985221
-0.056502867 0.005629834 -0.12951478 -0.008547155 -0.11329116 0.071078904 -0.11853648 0.08010214
0.06745455 -0.036189202 -0.05705275 0.10063608 0.089576855 -0.05791824 -0.09164974 -0.09773094
-0.0037299518 0.031626515 -0.07801729 0.048962906 -0.07416004 -0.10386359 0.11764915 -0.023676388
0.029308518 0.05846655 0.049891204 0.021096736 0.15472789 0.086361565 0.047113873 -0.030731758
-0.01511901 -0.08273875 0.023842819 -0.065418616 -0.016406713 -0.13014631 -0.023391528 0.20286041
00000000: 7932 34bd f5b2 263d 97cf dbbb 96c0 9dbd
00000010: 4907 e63d 7b33 5d3d edaa 883d 54bc a93c
00000020: bd23 573d 7f10 373d 5e41 eb3b 61a2 04be
00000030: 6fc0 883d b9f4 8bbc a845 3fbd 0260 a8bc
00000040: 63fe 0abd cbc9 9abb 319a 8b3b 7f25 9a3d
00000050: f77f d7bd da70 b43d 48e0 a53c 354d b33c
00000060: 3024 5f3e de4f a73d ef9f d3bd fe5a 1abd
00000070: 2913 dc3d 1069 f1bb 2e4f ed3d 1abf 3f3e
00000080: caee ee3d 7551 ac3d 293d d6bd c2cf 203d
00000090: f127 e53c 8b94 7b3c 99ec 13be 7c63 9a3b
000000a0: ceba b8bd 5269 153e c0ef 8a3d 8989 863c
000000b0: 29f2 21bd 0dd6 003e 2c8d 5fbd eb33 5a3d
000000c0: 32ab eebc 74aa c4bd 59b0 c6bd 9696 dcbd
000000d0: 3549 153b 73eb 7f3d 3cb9 b3bd 95a0 1f3d
000000e0: 98bd 1dbd dcca d5bd adb8 9a3e b9c4 33bd
000000f0: 75e1 96bd 61d8 00be 7feb 133d 7fd9 153e
00000100: f35c 63bd bb3f 3fbd 7391 fe3d cacc 0f3e
00000110: dcf8 b7bd 8ab2 8bbd f74e 1d3e 9d7d a83c
00000120: 7b98 8bbd 18a8 3d3d bd10 37bd 37e4 8c3b
00000130: 6b3a 80bd 1b37 6ebe eed6 9c3d 4879 e1bd
00000140: ae6a 9fbd 6e32 423e acea 263e 1f2c 06bd
00000150: 6f82 c03d bc46 8dbd e290 5f3e 7b43 503d
00000160: 5b98 993d 9ebc 2ebe 5942 b53d a467 623e
00000170: 0701 14be 7900 3b3e fb20 01be 0b3a 03bd
00000180: 6c1d f2bc 0f46 dcbc b5eb 853b bdbf fabd
00000190: 143b 643c 5bf1 403e da83 8b3d 380a 59be
000001a0: d1fc 6ebd fbbb 323e c193 78be ccdd b3bd
000001b0: a7ca cbbc 187a 11bc b05f dd3c 173e b33d
000001c0: 271f 97bd 5b88 73be 525e 913d fb9f c2bc
000001d0: 6ae1 ee3c 8ab1 d03c 7d0c c73d 42fb df3d
000001e0: e3f8 06be c27b 443e 83cc 9439 4a97 ac3c
000001f0: c62b f63c 96e9 453e c471 033e 939a aa3d
00000200: 0ef1 353d 0631 ca3d 0d64 01bd afb5 e7bd
00000210: c425 223d ca34 7d3d 5973 2bbd 8467 b8bd
00000220: 355c 91bd dfee 0dbe 19f4 ac3d d161 6c3d
00000230: e08e fa3c 4f5c 113d efe1 133e 2114 73bd
00000240: 303b a9bc 60ba 15be ac6b 1b3d da3b 33bc
00000250: 34f0 debd ed82 85bc b10e a73c cc82 d1bb
00000260: 5e12 223e 21ba 8a3d 046d 1f3d 1a42 86bd
00000270: 5d02 a6bd 0003 f23d cee5 d1bd 8e29 243e
00000280: 1b16 19bb 3a56 213d 2524 5cbe b9d3 c83c
00000290: 4bc7 87bc 3c5a 29be 31cd b039 a09d 353c
000002a0: f082 de3d 1607 913c 5fc3 733d ab9b eb3d
000002b0: 8248 063c 8cc5 c1bd 72d9 1e3d 8503 c13d
000002c0: 9d12 143e 5163 f93d 5e49 fe3b 3621 2d3c
000002d0: 8163 c43d ce23 ab3d 2ebd 51bd f236 b33d
000002e0: d742 a93c c3ed c2bd ece5 fe3d 77cb 9f3d
000002f0: b18f 0f3d 4c73 18be cd6f f63c c19b 983c
00000300: 2949 4ebc e37b 1c3d 3e16 30bd 5fc0 6dbd
00000310: 930e 953d 3908 cc39 5a87 87bd dd17 363d
00000320: c711 edbb 88ae f0bd 6c9a 8f3d eab4 803d
00000330: f1de cebd 24be 363d 07fb 433d 142a 443c
00000340: f7f2 b43d c1f0 c0bd 145d 8d3d c1ff 0d3e
00000350: 2022 6ebc e785 823d 8070 b0bd f7bf 543c
00000360: 8d6f 67bd 787a b83b 869f 04be 5e09 0cbc
00000370: 3205 e8bd d191 913d 41c3 f2bd 970c a43d
00000380: 9c25 8a3d 213b 14bd 25b0 69bd 4a1a ce3d
00000390: 1274 b73d ad3b 6dbd dcb2 bbbd 2927 c8bd
000003a0: 3572 74bb ce8a 013d 87c7 9fbd 548d 483d
000003b0: 38e1 97bd 6fb6 d4bd 0af2 f03d fcf4 c1bc
000003c0: 6b18 f03c 9f7a 6f3d b85a 4c3d 10d3 ac3c
000003d0: fd70 1e3e 55de b03d 7afa 403d 2bc1 fbbc
000003e0: b9b5 77bc ef72 a9bd 0452 c33c 32fa 85bd
000003f0: 5f67 86bc 1345 05be 979f bfbc a4ba 4f3e

h3.bias f4 [64]
-0.13421433 -0.10664818 0.00079341145 -0.005550743 -0.0014672899 -0.022959167 -0.13047802 0.1003195
-0.031017274 -0.03756579 0.027289128 -0.061853483 -0.19948116 0.09940235 0.044755228 -0.009525174
-0.068900935 -0.040847406 -0.037618764 -0.016049834 -0.1150266 0.049034 -0.17987742 -0.045221277
-0.11020363 -0.011274129 0.09138162 -0.02500388 0.11867628 0.034246735 0.1262657 0.023399979
-0.14091608 -0.07108761 0.10739233 -0.16439988 0.14690691 0.15580553 -0.009524026 -0.05995301
0.059428807 0.016085505 -0.086398624 -0.049095035 -0.046837892 -0.013465727 -0.07701659 -0.05890306
0.052371364 0.11944684 0.0008946964 0.15539548 -0.058097135 -0.1493071 -0.096897475 0.122057244
-0.027661994 -0.11339363 -0.101672575 0.077016436 -0.10464079 -0.068048604 0.013026914 -0.12243161
00000000: 7b6f 09be 5c6a dabd f1fc 4f3a 02e3 b5bb
00000010: 1452 c0ba dd14 bcbc 089c 05be 4f74 cd3d
00000020: f017 febc 96de 19bd 738d df3c 145a 7dbd
00000030: ca44 4cbe 7693 cb3d 4251 373d 7a0f 1cbc
00000040: ef1b 8dbd 9c4f 27bd 2216 1abd f17a 83bc
00000050: 1193 ebbd e0d7 483d c931 38be f239 39bd
00000060: 71b2 e1bd 20b7 38bc 4926 bb3d f0d4 ccbc
00000070: 8d0c f33d 4e46 0c3d cc4b 013e 50b1 bf3c
00000080: 4e4c 10be 6296 91bd 83f0 db3d 7158 28be
00000090: c46e 163e 7c8b 1f3e a90a 1cbc 4a91 75bd
000000a0: 9f6b 733d c0c5 833c c3f1 b0bd e017 49bd
000000b0: 17d9 3fbd 5a9f 5cbc e0ba 9dbd 5644 71bd
000000c0: 5b83 563d 8ba0 f43d 0f8a 6a3a fe1f 1f3e
000000d0: 43f7 6dbd f6e3 18be 2f72 c6bd 26f9 f93d
000000e0: 689b e2bc eb3a e8bd b639 d0bd cbba 9d3d
000000f0: e94d d6bd 115d 8bbd d66e 553c 6dbd fabd

h4.weight f4 [64, 64]
-0.09821161 -0.09286948 0.07219798 -0.08391625 0.035762746 -0.031324398 -0.037784714 0.06380776
-0.03228525 -0.124138266 0.028558288 -0.00584701 0.11569647 0.031197075 0.023344902 -0.11323628
0.06406924 -0.025790673 -0.077378064 0.114298806 -0.07117943 -0.076386794 -0.04662495 -0.14689308
-0.038907036 0.08268006 0.05563566 -0.037293058 0.046029907 -0.11928479 -0.031635784 -0.070941664
-0.06711211 0.051054038 0.06833523 -0.067517966 -0.11629675 0.004991797 -0.122025274 -0.035149843
-0.05729328 0.019733522 0.086380936 -0.06487377 0.08202753 0.053882703 0.03881124 -0.06247452
0.073006935 0.029200261 -0.0068078944 0.021789743 0.010522275 -0.017522344 -0.0006734363 0.19531752
-0.09123373 -0.14456718 -0.12507631 -0.09860851 0.03614066 -0.08765346 0.017740022 0.029165035
-0.010436924 0.058849577 0.01670497 0.13468096 0.014063751 -0.020104133 -0.0185744 0.007141009
0.01793422 0.068004645 0.01753984 0.033690292 0.018399904 0.034772832 0.11725763 0.025420852
-0.06324757 0.0036598302 -0.026015177 -0.081006646 -0.031943224 0.05685747 0.031651095 -0.1252586
-0.043096002 0.047570348 0.12141796 -0.08077952 -0.09420925 0.024420215 -0.074246496 0.12074753
0.059974458 -0.09382049 0.022172373 0.099918984 0.12943262 -0.10088457 -0.115767926 -0.008286589
0.05852441 -0.084608935 -0.02671556 0.05522095 -0.049815796 -0.009006895 0.12371195 0.11442686
0.045193538 -0.011038649 -0.033260517 0.1404215 0.011769926 -0.09922995 0.05221285 0.027713077
-0.04658046 -0.017740482 0.020008449 0.1338738 0.06541651 0.1790311 0.043647103 -0.055552635
0.063495316 -0.13864622 0.16881244 0.101922385 -0.11147497 0.109508306 0.15159538 0.10781556
0.116652034 -0.15420058 0.15794975 0.016717836 0.0012465875 -0.118465416 0.09720157 -0.04215697
0.101727754 -0.06118619 0.078552745 -0.08800373 0.051566076 0.14550208 -0.039276842 -0.047574606
0.081117995 -0.08655498 0.020745626 -0.14723055 -0.11915905 0.016086822 0.103219226 0.029537361
-0.09105649 -0.09436295 0.1806191 -0.08575983 0.047351472 0.09824108 0.09102651 0.049641766
-0.026365293 0.073378935 -0.036178727 0.006612764 -0.016565967 -0.079668775 0.068666175 0.0007499542
0.087141514 -0.07253768 -0.074279614 0.10824591 0.014853634 -0.17461492 -0.04310859 0.24282259
0.0564341 0.012891321 0.06422047 0.20182583 -0.10886321 -0.13708304 0.0044009564 -0.025927493
-0.20565693 0.0018330007 -0.16477688 -0.09314917 0.05687974 -0.079930976 0.10807531 -0.1372666
0.041477874 -0.034158286 -0.19139132 0.012973319 0.038285967 -0.10909956 -0.07234944 0.15276003
0.09023111 -0.1898238 0.04593086 0.018882765 0.14297065 -0.0652899 0.10076837 -0.022590453
-0.16016127 -0.08269066 0.012569887 -0.09377909 -0.014663391 -0.08085281 0.12600403 -0.077269055
-0.12227956 -0.072941974 -0.12001448 0.053214855 -0.21920721 -0.53263766 -0.052877042 0.06975575
-0.23057991 0.023929125 -0.28710485 -0.094924495 0.004572973 0.032270838 -0.08171732 -0.09618227
-0.046445187 -0.0042182775 -0.0020155895 -0.016661765 0.08141365 0.09778505 -0.12629662 -0.042313505
-0.014566855 -0.04815395 -0.20024124 -0.14227983 0.18379639 0.010507681 -0.19841337 -0.109839596
00000000: 2b23 c9bd 5b32 bebd 89dc 933d 48dc abbd
00000010: f57b 123d 034e 00bd 25c4 1abd a5ad 823d
00000020: 8a3d 04bd 343c febd 12f3 e93c 4698 bfbb
00000030: 45f2 ec3d 0291 ff3c cf3d bf3c 6ce8 e7bd
00000040: bc36 833d f646 d3bc 6478 9ebd 7e15 ea3d
00000050: 85c6 91bd ae70 9cbd cef9 3ebd 246b 16be
00000060: fc5c 1fbd 2a54 a93d 38e2 633d 9bc0 18bd
00000070: db89 3c3d 954b f4bd 8694 01bd dd49 91bd
00000080: 1372 89bd 0a1e 513d 57f3 8b3d dc46 8abd
00000090: fe2c eebd 3a92 a33b 63e8 f9bd 48f9 0fbd
000000a0: 5cac 6abd 32a8 a13c 7de8 b03d 8adc 84bd
000000b0: 0dfe a73d 1cb4 5c3d 89f8 1e3d 48e5 7fbd
000000c0: a984 953d 6335 ef3c c214 dfbb 6780 b23c
000000d0: 9f65 2c3c 058b 8fbc 8c89 30ba 5101 483e
000000e0: c0d8 babd 6b09 14be 0114 00be 42f3 c9bd
000000f0: 3b08 143d a883 b3bd 8653 913c 83eb ee3c
00000100: a2ff 2abc 410c 713d dcd8 883c cee9 093e
00000110: a66b 663c 6cb1 a4bc 5729 98bc 20ff e93b
00000120: c9ea 923c 0546 8b3d b6af 8f3c d5fe 093d
00000130: 65bb 963c f56d 0e3d c524 f03d 643f d03c
00000140: f187 81bd c3d9 6f3b c81d d5bc d0e6 a5bd
00000150: e6d6 02bd 61e3 683d 94a4 013d ca43 00be
00000160: 6f85 30bd 20d9 423d fba9 f83d bc6f a5bd
00000170: c7f0 c0bd e70c c83c 8c0e 98bd 7b4a f73d
00000180: c7a7 753d f524 c0bd d6a2 b53c 53a2 cc3d
00000190: fc89 043e 929c cebd bc17 edbd 79c4 07bc
000001a0: 4bb7 6f3d 7347 adbd 97da dabc 5d2f 623d
000001b0: a60b 4cbd a891 13bc b15c fd3d a158 ea3d
000001c0: dc1c 393d 73db 34bc 2e3c 08bd a7ca 0f3e
000001d0: a6d6 403c 1239 cbbd 24dd 553d 8906 e33c
000001e0: 27cb 3ebd 7d54 91bc c2e8 a33c 3716 093e
000001f0: 17f9 853d ee53 373e 4ec7 323d 298b 63bd
00000200: d509 823d 46f9 0dbe 2bdd 2c3e afbc d03d
00000210: fd4c e4bd e445 e03d d23b 1b3e 68ce dc3d
00000220: 43e7 ee3d c2e6 1dbe 94bd 213e d8f3 883c
00000230: 8964 a33a ff9d f2bd 9e11 c73d c9ac 2cbd
00000240: a456 d03d 5f9e 7abd 43e0 a03d 4d3b b4bd
00000250: f336 533d 7ffe 143e c1e0 20bd 97dd 42bd
00000260: 3121 a63d bd43 b1bd bbf2 a93c 9bc3 16be
00000270: a909 f4bd 83c8 833c 9a64 d33d 56f8 f13c
00000280: d37b babd 5d41 c1bd 37f4 383e daa2 afbd
00000290: 9ef3 413d 9f32 c93d 1b6c ba3d 2a55 4b3d
000002a0: 07fc d7bc b247 963d 2530 14bd e3af d83b
000002b0: 5ab5 87bc 6229 a3bd daa0 8c3d 9398 443a
000002c0: 4077 b23d a38e 94bd e91f 98bd 08b0 dd3d
000002d0: a85c 733c 41ce 32be a292 30bd 7ca6 783e
000002e0: 7127 673d 1f36 533c 0686 833d 6eab 4e3e
000002f0: adf3 debd 7f5f 0cbe e635 903b e565 d4bc
00000300: bb97 52be 4c41 f03a 45bb 28be fec4 bebd
00000310: bbfa 683d dab2 a3bd 9756 dd3d 9e8f 0cbe
00000320: b4e4 293d 8fe9 0bbd 16fc 43be 0b8e 543c
00000330: bfd1 1c3d 976f dfbd f12b 94bd 206d 1c3e
00000340: 17cb b83d 2c61 42be ff21 3c3d 07b0 9a3c
00000350: e666 123e b6b6 85bd a65f ce3d 9d0f b9bc
00000360: 5101 24be b959 a9bd edf1 4d3c 400f c0bd
00000370: b83e 70bc 2896 a5bd 3307 013e 3d3f 9ebd
00000380: b56d fabd 9a62 95bd 27ca f5bd d2f7 593d
00000390: db77 60be f15a 08bf 9995 58bd 1adc 8e3d
000003a0: 241d 6cbe 0307 c43c 68ff 92be c667 c2bd
000003b0: e1d8 953b 6d2e 043d 695b a7bd 36fb c4bd
000003c0: 4f3d 3ebd 7a39 8abb fb17 04bb 417e 88bc
000003d0: 33bc a63d 8743 c83d e753 01be ed50 2dbd
000003e0: d1a9 6ebc 143d 45bd 0a0c 4dbe ceb1 11be
000003f0: 1f35 3c3e 6928 2c3c e02c 4bbe 95f3 e0bd

h4.bias f4 [64]
0.02893386 -0.019043311 0.046863563 -0.0947953 -0.12494772 0.0411044 0.08024857 -0.11332905
-0.05438391 0.036233317 -0.11638186 -0.023845194 0.00507444 -0.004068083 0.05107606 -0.011304847
-0.055354457 0.16220681 0.012835532 -0.03521832 -0.108273946 -0.09077972 -0.0022247904 0.053324834
-0.13640833 -0.0907704 -0.097028464 0.057008248 -0.046270326 0.14476758 -0.12466365 0.06284689
0.0709038 0.13451889 0.0015584732 -0.09749467 -0.008490769 0.033310715 0.008485848 0.07467143
-0.13546987 0.06341065 -0.16429491 0.05044055 -0.18263598 0.10686413 -0.072369315 -0.20290372
-0.07088322 -0.041218765 -0.038345244 0.084415585 0.0029221484 0.033541795 -0.0005036158 -0.053562794
-0.16536324 -6.396366e-06 0.061339866 0.08455223 -0.032088246 0.12993386 -0.11568015 -0.117374115
00000000: b406 ed3c b800 9cbc 02f4 3f3d 0a24 c2bd
00000010: 97e4 ffbd 165d 283d 5d59 a43d 1019 e8bd
00000020: aac1 5ebd 6369 143d 9d59 eebd ff56 c3bc
00000030: 7d47 a63b 8e4d 85bb 2135 513d f737 39bc
00000040: 5bbb 62bd 8b19 263e 204c 523c 1641 10bd
00000050: bbbe ddbd b8ea b9bd cacd 11bb 246b 5a3d
00000060: a0ae 0bbe d5e5 b9bd dcb6 c6bd 7b81 693d
00000070: f485 3dbd f43d 143e a84f ffbd dfb5 803d
00000080: 0336 913d 52bf 093e af45 cc3a 49ab c7bd
00000090: de1c 0bbc d170 083d 3a08 0b3c 56ed 983d
000000a0: 9db8 0abe 71dd 813d ed3c 28be c09a 4e3d
000000b0: ed04 3bbe 95db da3d 5d36 94bd fec5 4fbe
000000c0: 392b 91bd 02d5 28bd e70f 1dbd 14e2 ac3d
000000d0: 8481 3f3b 1f63 093d 1605 04ba a964 5bbd
000000e0: fb54 29be 5ea0 d6b6 833f 7b3d b829 ad3d
000000f0: f76e 03bd 620d 053e b7e9 ecbd d761 f0bd

h5.weight f4 [32, 64]
0.111784235 0.014163931 -0.06926391 -0.03554359 0.033651143 0.06258847 0.12405943 0.105633795
-0.0960737 -0.11300897 0.014999248 -0.038873676 -0.038200267 0.13596238 -0.037671622 -0.102202736
0.012390499 0.08685419 -0.14522344 0.1051477 -0.11697048 0.013635256 0.037187096 0.07994313
0.09395986 0.030832814 -0.012901355 0.013598942 0.079941034 0.015509575 -0.04881786 -0.022484494
0.07525267 0.097334266 -0.13096729 -0.12916663 -0.06717217 0.019361243 0.06752701 0.0689664
-0.107019946 0.054533806 -0.13549043 -0.026203038 0.0117749 -0.088494755 -0.07876032 -0.09637483
-0.043221142 -0.043964002 -0.11831098 -0.029408315 0.14301263 0.011116856 -0.12932523 -0.0499361
0.0069844485 -0.11811108 -0.00419486 0.07499558 0.09267315 0.011353698 -0.0033570249 0.02679211
-0.03608705 -0.08984827 -0.0026330994 0.17487909 0.048342932 0.06667297 -0.073925406 0.10698714
-0.07524905 -0.09266289 -0.039348118 0.007137658 -0.01272029 -0.024964586 -0.08410772 0.009619814
0.019972727 -0.13970557 -0.07654478 -0.015131438 0.009200759 0.07548762 0.0361964 0.05052968
-0.077823386 0.027785057 -0.06322664 0.05463805 -0.0061585084 0.024354115 0.0055365297 0.016087119
0.124308705 -0.02143605 0.041644815 -0.11417379 -0.029589172 -0.10384467 0.057584904 -0.09907224
-0.15578166 -0.023572944 0.07215061 -0.11773779 0.059137594 0.06467682 -0.032160632 0.12662955
-0.13444403 0.04176246 0.06892889 -0.010545695 -0.112513535 -0.034808047 -0.02438253 -0.060922563
0.0442005 0.074411154 -0.0882735 0.052729733 -0.083914354 -0.037074015 -0.10359228 -0.08075429
0.119276986 -0.07779638 0.017222134 0.0021134936 -0.10329164 -0.109422386 -0.048423916 -0.06522098
0.09177448 0.08505677 0.032126483 -0.0042420933 0.063429564 -0.020455787 -0.08743759 0.11309757
0.03776772 0.11436022 -0.055423833 0.10856123 -0.23003413 -0.03198302 0.058973044 -0.09099556
-0.07455432 0.021524563 0.15119298 -0.10412973 -0.08025709 0.055575587 0.14493383 0.02091471
0.08727005 0.1378119 0.01682308 -0.0299255 -0.09434448 -0.07616254 0.09030673 -0.007638564
-0.025060948 0.2751553 0.0014021407 0.10199034 0.102122426 -0.025978368 0.108003035 0.12124308
-0.0143552935 0.016429076 0.030276498 0.07549839 -0.044529915 0.1254209 0.06015467 -0.16353387
0.0016084174 0.0041754125 0.056376837 0.017769609 0.07192139 -0.0097952215 0.015653707 0.13839667
0.07344424 -0.048990052 -0.111043476 0.017248718 -0.011594431 0.056448787 0.044092353 0.04864296
0.03904361 -0.091758855 0.08301142 0.06643299 0.018631728 -0.055402953 0.030972462 -0.054105546
-0.17227095 0.08621109 -0.13918123 0.008866267 -0.14249699 0.11119129 -0.024173358 -0.031982414
-0.14720906 -0.060909543 -0.056528065 0.06797038 0.13256745 -0.012901937 -0.06874327 0.07709439
0.1165688 0.045061197 0.04537945 -0.15080135 0.018140478 -0.0077811526 -0.07356305 0.11032678
0.13327752 0.048671883 -0.09351207 0.03219286 -0.09790655 0.11324627 0.028432814 -0.11119138
0.04959561 -0.1644636 -0.09698143 -0.043619826 0.08640143 0.10815864 -0.09147412 -0.109958924
0.070242405 -0.13690807 0.07378285 -0.05835545 0.07853912 0.07533225 0.06411202 -0.028430864
00000000: 22ef e43d d50f 683c 3dda 8dbd 2896 11bd
00000010: c8d5 093d 622e 803d df12 fe3d 8856 d83d
00000020: 4ac2 c4bd 3f71 e7bd 68bf 753c 013a 1fbd
00000030: e277 1cbd b939 0b3e 8f4d 1abd ab4f d1bd
00000040: 8501 4b3c 9ce0 b13d 74b5 14be ad57 d73d
00000050: 388e efbd 6966 5f3c 7f51 183d 39b9 a33d
00000060: 076e c03d 1995 fc3c 3460 53bc 19ce 5e3c
00000070: 20b8 a33d df1b 7e3c 3df5 47bd 6731 b8bc
00000080: 121e 9a3d 3057 c73d 4a1c 06be 4244 04be
00000090: 9091 89bd 789b 9e3c 9a4b 8a3d 423e 8d3d
000000a0: 462d dbbd d75e 5f3d 01be 0abe c1a7 d6bc
000000b0: 83eb 403c bd3c b5bd 174d a1bd 2b60 c5bd
000000c0: a708 31bd 9913 34bd 074d f2bd b5e9 f0bc
000000d0: e771 123e 7923 363c d56d 04be cc89 4cbd
000000e0: cddd e43b 39e4 f1bd 0975 89bb 4897 993d
000000f0: 6ccb bd3d dc04 3a3c 8801 5cbb 217b db3c
00000100: 04d0 13bd 5f02 b8bd 1490 2cbb 8113 333e
00000110: 3d03 463d d78b 883d 3466 97bd 131c db3d
00000120: 2d1c 9abd 0bc6 bdbd 7e2b 21bd 04e3 e93b
00000130: c368 50bc 8882 ccbc ab40 acbd 6d9c 1d3c
00000140: d89d a33c fa0e 0fbe 82c3 9cbd dae9 77bc
00000150: c8be 163c 4199 9a3d ad42 143d 36f8 4e3d
00000160: de61 9fbd 7d9d e33c f87c 81bd 26cc 5f3d
00000170: 50cd c9bb 4882 c73c c76b b53b 22c9 833c
00000180: 9095 fe3d a89a afbc c193 2a3d f3d3 e9bd
00000190: fe64 f2bc 84ac d4bd 26de 6b3d 63e6 cabd
000001a0: 3a85 1fbe 0c1c c1bc b3c3 933d 8320 f1bd
000001b0: 433a 723d 4875 843d deba 03bd 2dab 013e
000001c0: b2ab 09be 1d0f 2b3d 972a 8d3d dac7 2cbc
000001d0: 7f6d e6bd e292 0ebd dfbd c7bc f089 79bd
000001e0: 950b 353d e064 983d bdc8 b4bd 22fb 573d
000001f0: 4adb abbd ecda 17bd 3028 d4bd 8162 a5bd
00000200: 7e47 f43d b553 9fbd 6f15 8d3c 8a82 0a3b
00000210: 918a d3bd d818 e0bd 2858 46bd 9492 85bd
00000220: 42f4 bb3d 3e32 ae3d 0f97 033d 4201 8bbb
00000230: 5ce7 813d e592 a7bc 7b12 b3bd b39f e73d
00000240: 53b2 1a3d b135 ea3d 1a04 63bd 5a55 de3d
00000250: 118e 6bbe a100 03bd b88d 713d e15b babd
00000260: efaf 98bd 4854 b03c 55d2 1a3e f841 d5bd
00000270: d45d a4bd 3aa3 633d 8969 143e 5355 ab3c
00000280: a4ba b23d 901e 0d3e 8ed0 893c 5226 f5bc
00000290: ae37 c1bd 1bfb 9bbd bcf2 b83d eb4c fabb
000002a0: 9e4c cdbc 28e1 8c3e 09c8 b73a 50e0 d03d
000002b0: 9025 d13d 96d0 d4bc b230 dd3d 4b4e f83d
000002c0: 7732 6bbc 4596 863c 6b06 f83c e69e 9a3d
000002d0: 0065 36bd 566e 003e be64 763d 6c75 27be
000002e0: 88d1 d23a e6d1 883b 66eb 663d 9291 913c
000002f0: 864b 933d 237c 20bc 343c 803c dbb7 0d3e
00000300: ef69 963d cba9 48bd c36a e3bd 2f4d 8d3c
00000310: 91f6 3dbc d836 673d 2f9a 343d d73d 473d
00000320: 31ec 1f3d 11ec bbbd e401 aa3d 050e 883d
00000330: 91a1 983c 35ee 62bd f6b9 fd3c c79d 5dbd
00000340: cc67 30be 718f b03d 8685 0ebe d243 113c
00000350: bbea 11be 42b8 e33d 3507 c6bc feff 02bd
00000360: f9bd 16be 497c 79bd f989 67bd 0e34 8b3d
00000370: c3bf 073e a562 53bc 46c9 8cbd aae3 9d3d
00000380: 9fbb ee3d 1792 383d cddf 393d ab6b 1abe
00000390: 579b 943c 0af9 febb 39a8 96bd 02f3 e13d
000003a0: e779 083e 2b5c 473d 4283 bfbd a9dc 033d
000003b0: 3b83 c8bd a9ed e73d efeb e83c 4eb8 e3bd
000003c0: c424 4b3d 2569 28be 339e c6bd b4aa 32bd
000003d0: 3cf3 b03d 4782 dd3d c956 bbbd 2532 e1bd
000003e0: 40db 8f3d a131 0cbe 761b 973d 2006 6fbd
000003f0: 1ed9 a03d cb47 9a3d 2a4d 833d d8e7 e8bc

h5.bias f4 [32]
0.08905904 -0.026525311 0.028194346 0.081793055 -0.0406299 -0.042883623 -0.11373098 0.049575776
-0.0217724 -0.003727991 0.1567132 0.09365733 0.13630079 0.074301 -0.07999247 -0.0763431
0.04473386 0.10756632 0.009361883 0.12569748 -0.14086412 -0.06043697 -0.112725824 0.029540407
-0.11030313 -0.044958785 -0.05304958 -0.026309786 -0.026203768 -0.11598816 0.03668242 0.057045214
00000000: 9664 b63d 9c4b d9bc d4f7 e63c 1e83 a73d
00000010: 8a6b 26bd bda6 2fbd caeb e8bd f80f 4b3d
00000020: 085c b2bc 4f51 74bb 6d79 203e 6acf bf3d
00000030: 6f92 0b3e 1f2b 983d 18d3 a3bd c559 9cbd
00000040: da3a 373d bb4b dc3d 9562 193c d7b6 003e
00000050: af3e 10be c28c 77bd ccdc e6bd b9fe f13c
00000060: 9be6 e1bd b426 38bd 844a 59bd 9f87 d7bc
00000070: 49a9 d6bc 338b edbd 4e40 163d 3ea8 693d
