lightning_logs/version_4/checkpoints/epoch=2-step=1254.ckpt (torch, 70885 bytes, 28 tensors)

input.weight f4 [64, 30]
0.097207986 0.014662133 -0.08214755 -0.04108011 0.06492188 -0.10903507 0.10517487 -0.16417499
0.10654015 0.008854945 0.020216456 0.24194932 -0.21822032 -0.06603793 -0.090799265 -0.090679385
-0.07545643 -0.22754331 0.039950144 -0.1696868 0.07965405 -0.142525 0.24116194 0.10281312
0.036729615 -0.12952052 0.12696198 0.04492367 -0.06636775 0.037848987 -0.04549066 -0.16949503
-0.04865195 -0.11904721 -0.0062861 0.12438114 -0.10703787 -0.09843342 -0.21774687 -0.07900222
0.09959723 -0.006947195 -0.047702674 0.011802941 -0.2514242 0.04511939 -0.17206964 -0.024867846
-0.1311702 0.12590618 -0.14416812 0.07917237 0.029926125 0.026725782 -0.081341594 -0.12250124
-0.065343134 0.06272439 -0.06917073 0.07030071 -0.16167836 -0.22050306 0.1291844 0.03806398
0.2572262 0.059204686 0.023100464 -0.32027584 -0.08956648 0.0063011665 -0.22443871 0.28406212
-0.35370666 -0.17609102 -0.15999193 -0.13812764 -0.19708471 0.008863886 0.021295425 -0.108910955
0.0004998847 -0.060562756 -0.036965042 -0.067424186 -0.10416288 0.060791396 -0.027745845 0.018790793
0.11921586 0.04641124 0.24619943 0.13579093 -0.0931903 -0.16429758 0.02676467 -0.09217493
-0.12196357 -0.061189283 0.0025293906 -0.011483248 0.107091546 -0.1964339 0.17071985 -0.10292034
0.054972198 -0.18408696 0.19439562 -0.026313458 -0.16864894 0.006173305 -0.010399976 -0.117754035
0.08803862 0.19484706 -0.092333816 -0.20579104 -0.051140834 -0.11338213 -0.04038403 0.17794076
-0.1922172 -0.056008846 -0.010119968 -0.037228975 -0.07812476 0.1668115 -0.060911138 -0.066299275
0.22052893 -0.2135149 0.03993051 0.16580562 0.13173515 0.1723372 0.12009238 0.10669732
0.06340444 0.17329267 -0.12826012 -0.11126184 0.12469816 -0.035394933 0.15816407 -0.030850155
0.10652916 -0.08411364 -0.23605894 0.0077245496 -0.10920768 0.04941862 -0.21461028 0.014753962
0.13259515 0.19622876 -0.22783022 0.1268336 0.18389408 -0.15531944 0.2019979 -0.05413267
-0.07781587 0.037683588 -0.015129706 0.06941011 0.14134166 -0.08740722 0.088965885 -0.1741289
0.033410918 -0.10403083 0.18190794 -0.1002422 0.11731978 -0.07006765 0.009966347 -0.0648456
-0.27761704 0.2605375 0.2686976 -0.07057452 0.06715915 0.029846683 0.12484217 -0.029434917
-0.023419542 -0.18915506 0.033296503 -0.120065615 -0.15711969 0.076709114 -0.22875069 0.113708384
-0.13365418 -0.13182001 -0.24035409 -0.07550694 -0.25017926 -0.16236432 0.06724532 0.10185039
0.065035805 0.23786359 0.105533816 0.0610341 0.04488898 0.0284592 0.07430157 -0.055512846
0.04684769 -0.04718388 0.23204637 -0.14193797 0.20173559 0.027841354 -0.28336814 -0.066577606
-0.1123451 0.0784714 0.046229295 -0.13312833 0.0856625 -0.22854206 -0.14609058 -0.18767822
0.06774616 -0.08793087 0.019131532 0.14001632 -0.048119314 0.11065008 0.06283348 -0.21475263
0.015620216 -0.07525291 -0.25317186 -0.19208086 0.21636413 -0.03912217 0.039775744 -0.049423296
-0.023961255 0.017198723 -0.12064808 0.12936842 0.077331215 0.11268269 -0.08218881 0.00059929554
-0.08322882 0.13259508 0.014746026 -0.14255266 0.1553631 0.19703577 0.05490712 0.03295412
00000000: fb14 c73d 7139 703c fa3c a8bd 9e43 28bd
00000010: c3f5 843d c74d dfbd ec65 d73d 7d1d 28be
00000020: b931 da3d 5514 113c fb9c a53c 90c1 773e
00000030: 2675 5fbe e53e 87bd f7f4 b9bd 1db6 b9bd
00000040: e788 9abd 1d01 69be c3a2 233d 60c2 2dbe
00000050: aa21 a33d 13f2 11be 28f3 763e af8f d23d
00000060: cb71 163d 07a1 04be 5202 023e e201 383d
00000070: d1eb 87bd 8a07 1b3d 6a54 3abd 1b90 2dbe
00000080: 4447 47bd 06cf f3bd a1fb cdbb 8abb fe3d
00000090: ac36 dbbd 7697 c9bd 09f9 5ebe eacb a1bd
000000a0: a2f9 cb3d 4ca5 e3bb e163 43bd 1f61 413c
000000b0: acba 80be 1ccf 383d 0633 30be a7b7 cbbc
000000c0: 7b51 06be 8ded 003e cfa0 13be 2025 a23d
000000d0: a227 f53c 07f0 da3c 6c96 a6bd eee1 fabd
000000e0: 9fd2 85bd a575 803d 62a9 8dbd d2f9 8f3d
000000f0: 038f 25be 8ecb 61be ea48 043e fae8 1b3d
00000100: 27b3 833e 9d80 723d 2f3d bd3c 32fb a3be
00000110: a16e b7bd 047a ce3b 43d3 65be 9770 913e
00000120: 0a19 b5be 3451 34be edd4 23be 5571 0dbe
00000130: 93d0 49be d539 113c be73 ae3c b50c dfbd
00000140: b20a 033a a710 78bd a868 17bd b115 8abd
00000150: 5953 d5bd 6600 793d 414b e3bc 26ef 993c
00000160: 7227 f43d b619 3e3d b41b 7c3e c70c 0b3e
00000170: 8eda bebd a03d 28be 9541 db3c 36c6 bcbd
00000180: 09c8 f9bd 9da1 7abd 22c4 253b 3c24 3cbc
00000190: d052 db3d f825 49be 2fd1 2e3e e6c7 d2bd
000001a0: 872a 613d 4b81 3cbe a50f 473e 528f d7bc
000001b0: 4fb2 2cbe 7049 ca3b a964 2abc 0729 f1bd
000001c0: 984d b43d fd85 473e 8319 bdbd e3ba 52be
000001d0: 0d79 51bd e434 e8bd ba69 25bd 1a36 363e
000001e0: 96d4 44be 8869 65bd 39ce 25bc 697d 18bd
000001f0: e0ff 9fbd a2d0 2a3e f57d 79bd eac7 87bd
00000200: 56d2 613e a6a3 5abe 2d8e 233d f3c8 293e
00000210: 94e5 063e 2a79 303e fef2 f53d 2084 da3d
00000220: 30da 813d a273 313e 9f56 03be 3fdd e3bd
00000230: c061 ff3d 47fa 10bd c3f5 213e 77b9 fcbc
00000240: f62b da3d c643 acbd 6fb9 71be 381e fd3b
00000250: 47a8 dfbd 2e6b 4a3d ccc2 5bbe 9aba 713c
00000260: 06c7 073e 31f0 483e 534c 69be abe0 013e
00000270: bb4e 3c3e 0f0c 1fbe 8ad8 4e3e 38ba 5dbd
00000280: ed5d 9fbd 1b5a 1a3d 96e2 77bc e326 8e3d
00000290: debb 103e 8e02 b3bd bf33 b63d d94e 32be
000002a0: e3d9 083d 1e0e d5bd 1346 3a3e c84b cdbd
000002b0: 5a45 f03d a17f 8fbd e449 233c c5cd 84bd
000002c0: d223 8ebe 2c65 853e bb92 893e 6089 90bd
000002d0: bd8a 893d 0881 f43c 40ad ff3d 7f21 f1bc
000002e0: 57da bfbc ddb1 41be ea61 083d f6e4 f5bd
000002f0: fce3 20be ab19 9d3d 9f3d 6abe f1df e83d
00000300: a4dc 08be d3fb 06be 621f 76be 62a3 9abd
00000310: 7f17 80be d542 26be eab7 893d f096 d03d
00000320: 7e31 853d 8392 733e 1d22 d83d e4fe 793d
00000330: 82dd 373d 4523 e93c 6c2b 983d 7061 63bd
00000340: 5de3 3f3d e243 41bd 909d 6d3e 3058 11be
00000350: c693 4e3e 8d13 e43c a115 91be d759 88bd
00000360: 3015 e6bd 9db5 a03d ee5a 3d3d cb52 08be
00000370: d26f af3d ee06 6abe c598 15be b82e 40be
00000380: 80be 8a3d 1a15 b4bd bbb9 9c3c 7060 0f3e
00000390: c218 45bd 829c e23d d7ae 803d 1de8 5bbe
000003a0: efeb 7f3c 331e 9abd be9f 81be d8b0 44be
000003b0: 8f8e 5d3e 923e 20bd e4eb 223d 1570 4abd
000003c0: 654a c4bc 56e4 8c3c 5716 f7bd 2879 043e
000003d0: d45f 9e3d 2fc6 e63d 9b52 a8bd 0b1a 1d3a
000003e0: df73 aabd 01c7 073e 5199 713c 53f9 11be
000003f0: 8117 1f3e bfc3 493e 4ae6 603d e6fa 063d

input.bias f4 [64]
-0.12034796 -0.0005841072 0.03767972 -0.060337126 0.17366731 0.09869411 -0.18397254 0.25498414
0.1642644 -0.15967567 0.2882237 -0.021392997 0.3177123 0.121019475 0.44225875 0.09494568
0.11242443 0.022456724 -0.19610906 0.29876077 0.3149265 0.33850306 0.017292948 -0.0369841
-0.12998864 0.34030822 0.08154751 -0.058124356 0.013151955 0.14154278 -0.048537776 0.021930357
0.10503581 0.25657815 0.3435304 0.005250725 0.104046255 -0.197601 0.22797816 -0.11672729
0.093697555 0.31051758 0.044992115 0.20217596 0.03146807 0.07497102 0.21183611 0.027350124
0.3974814 -0.12877786 0.14873703 0.2528212 0.20832345 -0.13361551 0.0140266195 0.016991831
0.24010399 0.12179439 0.05550919 -0.017959282 0.12321217 0.1515015 -0.062261976 0.04102005
00000000: fe78 f6bd c51e 19ba 0d56 1a3d 1024 77bd
00000010: d8d5 313e 2320 ca3d 4c63 3cbe 488d 823e
00000020: ed34 283e 0582 23be 0f92 933e 5e40 afbc
00000030: 30ab a23e 0fd9 f73d bd6f e23e e172 c23d
00000040: c83e e63d 2af7 b73c d0d0 48be 2cf7 983e
00000050: 0c3e a13e 4650 ad3e f1a9 8d3c a47c 17bd
00000060: be1b 05be e13c ae3e 6202 a73d ce13 6ebd
00000070: 4c7b 573c 97f0 103e 8ccf 46bd 4ba7 b33c
00000080: 041d d73d 365e 833e 37e3 af3e 460e ac3b
00000090: 3416 d53d eb57 4abe 1b73 693e b80e efbd
000000a0: 81e4 bf3d 29fc 9e3e a749 383d 3707 4f3e
000000b0: aae4 003d 688a 993d 91eb 583e 5e0d e03c
000000c0: af82 cb3e 58de 03be 854e 183e c871 813e
000000d0: be52 553e 81d2 08be e8cf 653c 7432 8b3c
000000e0: d2dd 753e 566f f93d 9b5d 633d 581f 93bc
000000f0: aa56 fc3d 3623 1b3e 6a06 7fbd a404 283d

h1.weight f4 [32, 64]
-0.08412903 -0.0766786 0.0021255524 0.051110685 0.105446994 0.044515103 -0.07188948 0.020451685
-0.046891507 -0.04565331 -0.03416078 0.026562482 0.079798825 0.032708634 0.33524436 0.106723726
0.19421422 0.31831682 -0.0392587 0.41384798 -0.100384995 0.08194977 0.076672606 0.10542274
-0.03672028 -0.008787724 0.12600508 0.06288353 0.0045027295 0.013144487 -0.09402334 0.07457091
-0.084116824 0.058872852 0.039544936 0.020468218 0.09459899 0.0927622 0.016905036 -0.044520583
0.14145836 0.15825762 0.016084615 -0.033562012 -0.13156143 0.14399599 0.4736436 0.18087363
0.14152195 0.017809853 0.026778165 0.014823537 0.014107483 0.038811907 0.107775114 -0.012362066
0.1158759 -0.06861991 0.012992027 0.13225381 0.025504505 0.22834975 -0.038901594 -0.051622253
-0.067591794 -0.11126224 -0.18622987 0.20735417 0.17462605 0.13301365 0.026025278 0.16317508
0.053664174 -0.045809764 0.19220525 0.21713555 0.094915494 0.2325614 0.107920565 0.046510547
0.23386067 0.06449894 -0.075206846 0.21463323 0.09288985 0.26146895 0.10658914 0.010280913
0.087626815 0.120318614 -0.03845419 -0.02375648 0.029564995 0.22374499 0.024580868 0.32560384
0.08826277 0.09484122 0.1978438 0.0830672 -0.05436339 -0.089757435 0.10456995 -0.041781668
0.024647305 0.12186674 -0.03857193 0.10108692 -0.13379112 0.09763385 0.34515843 0.23128761
0.07725288 -0.12301291 -0.11229782 0.20998174 0.09572104 0.024993205 0.14969112 0.12159825
0.27894232 0.100878514 0.1677118 0.044509277 -0.050145376 0.2668555 0.049324725 -0.16107188
0.05422458 -0.100666136 0.06177655 -0.0018807185 0.10920884 0.1962754 -0.13912189 0.16103342
0.11050997 -0.06187072 0.07922614 0.22050396 0.03633567 0.13005154 0.1068116 0.15117931
0.26316315 0.17076738 -0.04977842 0.27259544 0.017581081 0.074309915 0.15241672 -0.028295204
-0.11971123 0.090677716 0.04938264 0.058157068 0.008244054 0.13925782 -0.16489829 0.21839456
-0.08205121 0.064695925 0.23220521 0.04939831 -0.10687765 -0.115952976 -0.024463123 -0.03155836
0.09710095 0.054776993 -0.12881927 0.028212491 -0.003911011 0.22275421 0.16041495 0.19069009
0.16162473 0.008403955 -0.03756041 0.12088661 0.24719602 -0.01845811 0.018383374 0.19019882
0.23031266 0.03814321 -0.009158979 0.14778708 0.1266212 0.27911305 0.10421189 -0.17844573
-0.0064287605 0.14256643 0.23277998 -0.35582328 0.021915184 0.08905501 0.045931753 -0.372395
-0.13271235 0.042344484 0.0028341492 -0.18278284 0.04346962 -0.13409856 -0.30900002 -0.07592248
-0.25804415 -0.01887026 0.092615776 -0.2779573 0.16608472 -0.10247234 0.01919949 0.1469959
0.09408671 0.019648334 0.14900257 -0.09285074 0.044486586 0.049377184 0.057526916 -0.06339242
-0.089372836 0.18050118 -0.40639362 0.07528 0.1206236 -0.049194068 -0.18004811 -0.07710496
-0.27140796 -0.15629889 -0.02902982 -0.03317991 0.22549751 -0.18443061 -0.086113766 -0.032729045
-0.34578744 0.10496046 0.1363081 -0.03491807 -0.1607042 0.089745075 -0.07243552 -0.045880232
-0.1676608 0.08007973 0.067725405 -0.0020525241 0.18817097 -0.14910191 0.051493797 -0.01705601
00000000: d74b acbd ab09 9dbd da4c 0b3b 7059 513d
00000010: 98f4 d73d 7855 363d cb3a 93bd 4b8a a73c
00000020: 4f11 40bd f7fe 3abd 2dec 0bbd 9099 d93c
00000030: 916d a33d 7df9 053d 26a5 ab3e f891 da3d
00000040: 18e0 463e 6cfa a23e bbcd 20bd e2e3 d33e
00000050: a696 cdbd 48d5 a73d 8706 9d3d e1e7 d73d
00000060: 0168 16bd 63fa 0fbc 7a07 013e 15c9 803d
00000070: a28b 933b f95b 573c 4f8f c0bd a2b8 983d
00000080: 7145 acbd a924 713d dff9 213d f7ac a73c
00000090: 1ebd c13d 1cfa bd3d 6e7c 8a3c 375b 36bd
000000a0: 76da 103e 490e 223e e2c3 833c 5278 09bd
000000b0: 0ab8 06be af73 133e 6a81 f23e f036 393e
000000c0: 21eb 103e f8e5 913c e25d db3c 6cde 723c
000000d0: 1323 673c 3cf9 1e3d 33b9 dc3d 438a 4abc
000000e0: 5850 ed3d 9888 8cbd 83dc 543c 8b6d 073e
000000f0: d3ee d03c 84d4 693e 4757 1fbd db71 53bd
00000100: 916d 8abd 75dd e3bd 0bb3 3ebe a754 543e
00000110: 2cd1 323e bb34 083e f732 d53c 5e17 273e
00000120: f7ce 5b3d 05a3 3bbd 74d1 443e c858 5e3e
00000130: 0e63 c23d 9324 6e3e 7505 dd3d d881 3e3d
00000140: 2c79 6f3e 0518 843d 0c06 9abd d0c8 5b3e
00000150: 093d be3d 42df 853e 684b da3d 4671 283c
00000160: b075 b33d 9b69 f63d 2482 1dbd f39c c2bc
00000170: 4a32 f23c 681d 653e d15d c93c 8cb5 a63e
00000180: 1cc3 b43d 1d3c c23d 9197 4a3e 231f aa3d
00000190: 25ac 5ebd bfd2 b7bd c528 d63d 4123 2bbd
000001a0: 25e9 c93c 4595 f93d 9afd 1dbd a906 cf3d
000001b0: 8a00 09be 42f4 c73d 9bb8 b03e a9d6 6c3e
000001c0: c236 9e3d 31ee fbbd 66fc e5bd 7405 573e
000001d0: 6509 c43d 8dbe cc3c a148 193e 8108 f93d
000001e0: 87d1 8e3e 6599 ce3d a4bc 2b3e 5c4f 363d
000001f0: 3d65 4dbd 49a1 883e b908 4a3d 07f0 24be
00000200: 981a 5e3d 0c2a cebd 6809 7d3d 7182 f6ba
00000210: e2a8 df3d 6bfc 483e f875 0ebe f2e5 243e
00000220: 0d53 e23d 276c 7dbd 5141 a23d cacb 613e
00000230: b6d4 143d 3b2c 053e 0ac0 da3d c0ce 1a3e
00000240: 52bd 863e a5dd 2e3e 75e4 4bbd a191 8b3e
00000250: 3306 903c cc2f 983d 2113 1c3e 58cb e7bc
00000260: 292b f5bd 3db5 b93d 7345 4a3d 1b36 6e3d
00000270: 1212 073c 9a99 0e3e 19db 28be d3a2 5f3e
00000280: 770a a8bd 4c7f 843d 34c7 6d3e e255 4a3d
00000290: abe2 dabd c178 edbd e366 c8bc 5743 01bd
000002a0: dddc c63d d75d 603d 33e9 03be e21d e73c
000002b0: f027 80bb ae19 643e d143 243e 4344 433e
000002c0: f480 253e beb0 093c f2d8 19bd 6693 f73d
000002d0: f420 7d3e 7635 97bc bb98 963c 7bc3 423e
000002e0: 15d7 6b3e 0e3c 1c3d 8b0f 16bc 7f55 173e
000002f0: fda8 013e e8e7 8e3e 0b6d d53d 7aba 36be
00000300: 5aa8 d2bb effc 113e e05d 6e3e 782e b6be
00000310: 7987 b33c 7962 b63d ef22 3c3d 8faa bebe
00000320: bfe5 07be 6971 2d3d 22bd 393b 6d2b 3bbe
00000330: 330d 323d 2251 09be 4035 9ebe 3f7d 9bbd
00000340: 5d1e 84be ce95 9abc 57ad bd3d 6b50 8ebe
00000350: 1d12 2a3e 05dd d1bd 4048 9d3c 1886 163e
00000360: 88b0 c03d 8bf5 a03c 2194 183e 8728 bebd
00000370: 9137 363d bb3f 4a3d 58a1 6b3d e3d3 81bd
00000380: 1b09 b7bd 4dd5 383e d312 d0be 672c 9a3d
00000390: 8209 f73d b87f 49bd 885e 38be 35e9 9dbd
000003a0: fcf5 8abe d10c 20be f2cf edbc a8e7 07bd
000003b0: d2e8 663e 61db 3cbe 6a5c b0bd e40e 06bd
000003c0: 0d0b b1be 82f5 d63d 5a94 0b3e 4006 0fbd
000003d0: a48f 24be 44cc b73d 1359 94bd e9ec 3bbd
000003e0: 46af 2bbe d700 a43d 9eb3 8a3d a483 06bb
000003f0: e4af 403e 2cae 18be 29eb 523d 0cb9 8bbc

h1.bias f4 [32]
0.013108912 0.14473462 0.08859951 -0.014422305 0.20267 -0.062485296 0.019357456 0.041961476
-0.05184759 -0.13370645 0.16526103 -0.012963892 -0.020622823 0.038498957 0.032554295 0.24508925
0.069912635 0.03725625 0.028335474 0.18417098 -0.072467044 -0.04779063 0.08866165 -0.0071460367
-0.031196319 0.14584292 0.08877196 0.011807877 0.046196368 0.16516331 0.037230887 0.0016503129
00000000: c3c6 563c 5035 143e a973 b53d 884b 6cbc
00000010: b988 4f3e 95f0 7fbd 8793 9e3c ccdf 2b3d
00000020: 235e 54bd 58ea 08be 303a 293e 8166 54bc
00000030: 32f1 a8bc 15b1 1d3d a757 053d adf8 7a3e
00000040: 5b2e 8f3d 029a 183d cc1f e83c 5197 3c3e
00000050: 9a69 94bd 1cc0 43bd 3d94 b53d 4d29 eabb
00000060: 6c8f ffbc d957 153e 13ce b53d d375 413c
00000070: 6738 3d3d 9220 293e 6a7f 183d 504f d83a

h2.weight f4 [16, 32]
-0.15589373 0.088201545 0.04834018 0.050016254 0.13879447 0.123094365 0.047790095 0.026605396
-0.14108096 0.16263759 0.17508298 0.058557104 0.030725272 0.06871675 -0.18761674 -0.036676437
-0.08191076 -0.15415767 0.14783712 -0.18746868 0.10756527 0.096444935 -0.027003458 0.12937261
-0.120005615 0.0633878 0.26896 0.20829134 0.15285097 -0.121165015 0.030338954 0.20547515
0.12687354 0.06258158 0.11706042 0.07671693 -0.08623381 -0.17530811 -0.15134962 -0.14404422
0.073743924 -0.09186474 0.14934908 0.06404394 -0.11229957 0.07575789 0.30208334 0.01638343
0.113051735 0.06434568 -0.08707733 -0.03151083 -0.13864855 0.13426405 0.20364745 0.23585294
0.089998044 -0.19753937 -0.06760636 0.00944084 -0.08391518 0.20404647 0.13552131 0.0047495747
-0.06993374 0.031947836 -0.19833486 -0.038157225 -0.017926442 -0.020217057 -0.19263767 0.03378082
-0.17137282 0.14397755 -0.11613004 0.13672628 -0.14135225 -0.10902222 -0.09395976 -0.09490307
0.13821566 0.14675173 -0.14165373 0.15838313 0.09801052 -0.13299239 0.16778862 0.042639263
0.030963358 -0.008922324 -0.2107929 0.014689901 -0.0694451 -0.039389316 0.01293 -0.11362055
0.06471438 0.27699095 -0.0929393 -0.2512261 0.030130528 -0.0747648 0.11488991 -0.15735526
0.011890029 -0.14327267 0.14394106 0.007199498 0.08870009 -0.091970526 0.22732085 0.26995775
0.024592241 0.068862975 0.22980852 0.035920486 -0.083035514 -0.1139538 0.080021605 0.06438507
-0.07885197 0.01896764 -0.10329633 0.10292689 -0.120082274 0.06735105 -0.170138 -0.094895035
-0.11081263 0.029857269 -0.019692717 -0.039255112 0.1691584 0.17193262 7.450091e-05 0.09307242
-0.11468422 -0.12091538 0.13146272 -0.018447947 0.02786192 -0.05482535 -0.111201 -0.14010072
0.17475654 -0.09687608 0.11792375 -0.13247621 0.18686277 0.062313434 -0.0350851 0.013589125
0.1050168 0.22975127 0.06474174 -0.024173938 0.033590585 -0.08907742 0.14784093 0.19804879
0.23426107 0.18120132 0.15396996 -0.09890114 -0.011351463 0.053924285 -0.15195057 0.06099638
0.04144469 -0.034445297 -0.0054092407 -0.018481662 0.0056577097 0.069170274 0.32269168 0.030174786
0.27618408 0.10253971 0.08845054 0.1283238 -0.008083736 0.16198099 0.12250431 0.12364391
-0.0022804993 -0.055378865 -0.13765985 -0.036482472 0.0777725 0.1795234 -0.20777489 -0.0047061564
-0.014849791 -0.048328858 0.028369378 0.1301339 -0.008140358 -0.17828405 -0.14426368 -0.13588642
0.11600521 0.11278515 0.11539832 0.1918625 -0.13752815 0.014545811 0.16335568 0.06122685
-0.14435641 0.38118428 -0.094569445 0.27542314 0.0579076 -0.12875812 0.12819697 0.26020026
0.14324005 -0.18607788 -0.119308375 0.122560784 -0.14876083 0.06463817 0.019976327 0.14266041
0.050310425 0.26401255 0.21086873 0.056440327 0.16429406 -0.04674333 -0.2005574 0.0066759367
-0.013143459 0.066520065 0.113335386 0.2583385 -0.04757356 0.23172098 0.2479658 0.20471723
0.059553448 0.10256314 -0.107179575 0.020221112 -0.20200507 0.19831339 0.1753351 0.036233045
-0.091926984 -0.215029 -0.13320793 0.054839477 -0.072179876 -0.0008352543 0.074635856 0.09717937
00000000: 9ba2 1fbe 03a3 b43d 5a00 463d d8dd 4c3d
00000010: 2320 0e3e e618 fc3d 8cbf 433d 8ff3 d93c
00000020: 8777 10be 788a 263e f448 333e 93d9 6f3d
00000030: 91b3 fb3c 5ebb 8c3d 9a1e 40be 083a 16bd
00000040: d4c0 a7bd 82db 1dbe 9d62 173e caf7 3fbe
00000050: 2e4b dc3d ec84 c53d 5b36 ddbc 417a 043e
00000060: 81c5 f5bd 76d1 813d 20b5 893e 534a 553e
00000070: f784 1c3e 5d25 f8bd 6689 f83c 1468 523e
00000080: 23eb 013e c52a 803d 60bd ef3d c41d 9d3d
00000090: 5a9b b0bd f883 33be 65fb 1abe 5480 13be
000000a0: 0e07 973d 9523 bcbd f7ee 183e 7829 833d
000000b0: 51fd e5bd f426 9b3d abaa 9a3e 8b36 863c
000000c0: ab87 e73d abc7 833d 9955 b2bd 8011 01bd
000000d0: e3f9 0dbe 847c 093e f588 503e 6f83 713e
000000e0: e550 b83d c347 4abe 3475 8abd c1ad 1a3c
000000f0: b9db abbd 8ff1 503e 19c6 0a3e 52a2 9b3b
00000100: 6c39 8fbd bcdb 023d 4b18 4bbe c04a 1cbd
00000110: 79da 92bc 3e9e a5bc cf42 45be c25d 0a3d
00000120: 5b7c 2fbe da6e 133e 96d5 edbd f901 0c3e
00000130: a5be 10be 0b47 dfbd fa6d c0bd 8a5c c2bd
00000140: 6888 0d3e 1646 163e ad0d 11be 302f 223e
00000150: bdb9 c83d 282f 08be c8d0 2b3e 82a6 2e3d
00000160: dea6 fd3c f02e 12bc 18da 57be e9ad 703c
00000170: 3c39 8ebd b156 21bd 5ad8 533c e4b1 e8bd
00000180: f988 843d c2d1 8d3e f656 bebd b5a0 80be
00000190: 4cd4 f63c 4a1e 99bd 674b eb3d bd21 21be
000001a0: 65ce 423c 12b6 12be 4965 133e c4e9 eb3b
000001b0: 65a8 b53d 0b5b bcbd ccc6 683e e737 8a3e
000001c0: ab75 c93c 0808 8d3d ed52 6b3e 5c21 133d
000001d0: 860e aabd 9c60 e9bd 5ee2 a33d 52dc 833d
000001e0: 247d a1bd 0662 9b3c 078d d3bd 55cb d23d
000001f0: b2ed f5bd 59ef 893d a838 2ebe 5458 c2bd
00000200: bbf1 e2bd 3b97 f43c 9f52 a1bc f8c9 20bd
00000210: dc37 2d3e 1b0f 303e 5f3d 9c38 c19c be3d
00000220: 8fdf eabd 7ca2 f7bd 2a9e 063e 2620 97bc
00000230: ae3e e43c 8c90 60bd 5abd e3bd 9076 0fbe
00000240: 61f3 323e f766 c6bd 0282 f13d d8a7 07be
00000250: f458 3f3e 5f3c 7f3d 65b5 0fbd eca4 5e3c
00000260: 0c13 d73d eb43 6b3e 5197 843d 6c08 c6bc
00000270: 4896 093d 396e b6bd 9d63 173e 4dcd 4a3e
00000280: 22e2 6f3e d78c 393e 4daa 1d3e ae8c cabd
00000290: 7dfb 39bc b6df 5c3d ee98 1bbe 57d7 793d
000002a0: e8c1 293d 8316 0dbd 0040 b1bb db66 97bc
000002b0: 4f64 b93b 25a9 8d3d d837 a53e 1d31 f73c
000002c0: 0068 8d3e 5700 d23d 8f25 b53d 5067 033e
000002d0: a571 04bc 58de 253e 8ae3 fa3d 0539 fd3d
000002e0: 6e74 15bb f3d4 62bd b4f6 0cbe a56e 15bd
000002f0: 3047 9f3d fbd4 373e f1c2 54be 1a36 9abb
00000300: 8a4c 73bc 7bf4 45bd e666 e83c d241 053e
00000310: 235f 05bc 1890 36be dcb9 13be cf25 0bbe
00000320: 2494 ed3d e7fb e63d f455 ec3d 9a77 443e
00000330: 2ed4 0cbe 8e51 6e3c b646 273e 01c9 7a3d
00000340: 2bd2 13be 962a c33e a0ad c1bd 4304 8d3e
00000350: 8530 6d3d 2bd9 03be 1146 033e f838 853e
00000360: 85ad 123e 338b 3ebe f357 f4bd 2601 fb3d
00000370: c254 18be 0461 843d 65a5 a33c 9215 123e
00000380: 4e12 4e3d a72c 873e f9ed 573e f92d 673d
00000390: b43c 283e ef75 3fbd eb5e 4dbe d1c1 da3b
000003a0: aa57 57bc ac3b 883d 621c e83d f244 843e
000003b0: 7edc 42bd 4448 6d3e bfea 7d3e 65a1 513e
000003c0: 51ee 733d a00c d23d f780 dbbd bfa6 a53c
000003d0: 6bda 4ebe aa12 4b3e 0b8b 333e 1a69 143d
000003e0: 3744 bcbd 9030 5cbe a967 08be 5c9f 603d
000003f0: 0bd3 93bd f8f4 5aba afda 983d fa05 c73d

h2.bias f4 [16]
-0.048286725 0.0036739483 -0.1378386 0.270994 0.11344059 -0.0038279693 -0.0082741 0.07861195
0.23943457 -0.099552535 0.15220247 -0.032309435 -0.08203732 0.24907833 0.24661367 -0.18204586
00000000: 4dc8 45bd a0c6 703b 9025 0dbe babf 8a3e
00000010: 8a53 e83d abde 7abb 1790 07bc 4dff a03d
00000020: 562e 753e 33e2 cbbd f7da 1b3e e656 04bd
00000030: 2f03 a8bd 640e 7f3e 4b88 7c3e 3b6a 3abe

h3.weight f4 [8, 16]
-0.06344073 0.16039345 0.11805912 0.33788353 -0.07677209 0.09877775 -0.13371098 0.12422388
0.136869 0.011815773 -0.1314625 0.32435784 -0.015609847 0.17615661 0.0646959 0.16331303
-0.15264419 -0.08501384 -0.1918434 -0.22004199 -0.12817849 -0.04656426 -0.4688499 -0.07037841
-0.23064376 0.38902974 -0.10630089 -0.17893763 0.13364986 -0.0974517 -0.096184865 -0.096164286
-0.037473127 0.146016 -0.06463305 0.40189272 -0.12765805 0.33324927 0.3992247 0.12494355
0.18076965 0.0048890803 -0.2500759 0.23479505 0.031902708 0.02351152 -0.038269203 0.13306166
-0.1659949 -0.029008405 0.028914873 0.30427754 -0.046864923 -0.022028338 0.019352626 0.08414824
0.29002213 -0.16431688 -0.0013721625 0.14191656 0.25413418 0.19437991 0.34202746 -0.09524303
-0.020284967 0.22283709 0.1300342 0.24811807 -0.14556178 0.114832625 0.25402254 0.22788918
0.29462066 0.0072030304 -0.17102194 0.039095685 0.09337564 -0.019967869 0.27930346 0.11721767
-0.07140991 0.03449355 -0.06753555 0.033210333 -0.054086134 -0.13953252 0.08300303 -0.12029667
-0.1809638 0.34066266 0.3310209 -0.0596089 -0.24398522 -0.20824137 -0.0717945 -0.11517149
0.10235835 -0.27570087 0.02166091 -0.3146871 -0.1497223 -0.1696419 -0.0115619125 -0.08623242
-0.1145883 0.12124412 0.3824688 -0.23044568 -0.27375087 -0.029716311 0.12695456 0.21311918
0.16365299 -0.032836422 -0.07763404 -0.25355306 0.3048391 -0.44610077 -0.17001654 -0.16848415
-0.08935974 0.146919 0.068028994 0.06433708 -0.25212982 -0.25796792 0.056519568 -0.15089592
00000000: 37ed 81bd 2e3e 243e fbc8 f13d 12ff ac3e
00000010: af3a 9dbd fd4b ca3d 88eb 08be 1769 fe3d
00000020: 6327 0c3e f296 413c 1b9e 06be 3b12 a63e
00000030: 72c0 7fbc 6662 343e 497f 843d 883b 273e
00000040: c24e 1cbe bc1b aebd 9972 44be b052 61be
00000050: 3941 03be 2aba 3ebd 180d f0be 8e22 90bd
00000060: e12d 6cbe e82e c73e 48b4 d9bd 6d3b 37be
00000070: 82db 083e c294 c7bd 92fc c4bd c8f1 c4bd
00000080: 6c7d 19bd 3885 153e 555e 84bd e2c4 cd3e
00000090: cbb8 02be a69f aa3e 2e67 cc3e 67e2 ff3d
000000a0: ae1b 393e 9434 a03b f309 80be 1d6e 703e
000000b0: 6aac 023d 3b9b c03c 2bc0 1cbd 5141 083e
000000c0: 91fa 29be 09a3 edbc e2de ec3c 44ca 9b3e
000000d0: 6ff5 3fbd c674 b4bc 6689 9e3c ea55 ac3d
000000e0: c87d 943e af42 28be 22da b3ba 9352 113e
000000f0: e01d 823e 870b 473e 391e af3e c70e c3bd
00000100: a92c a6bc 682f 643e af27 053e aa12 7e3e
00000110: 260e 15be 5e2d eb3d 3e0f 823e c85b 693e
00000120: 85d8 963e 6607 ec3b 6020 2fbe cc22 203d
00000130: ba3b bf3d a893 a3bc dd00 8f3e d10f f03d
00000140: 5c3f 92bd 1c49 0d3d 1450 8abd 8f07 083d
00000150: 6c89 5dbd 9de1 0ebe 7efd a93d 1a5e f6bd
00000160: 934e 39be 566b ae3e 927b a93e 7628 74bd
00000170: 43d7 79be 3a3d 55be ff08 93bd 08df ebbd
00000180: 41a1 d13d aa28 8dbe 3972 b13c ab1e a1be
00000190: cd50 19be 9bb6 2dbe 2d6e 3dbc 9f9a b0bd
000001a0: 45ad eabd d64e f83d f3d2 c33e f4f9 6bbe
000001b0: 1329 8cbe 9f6f f3bc 6000 023e ea3b 5a3e
000001c0: a694 273e 7c7f 06bd 98fe 9ebd b5d1 81be
000001d0: df13 9c3e 5267 e4be d118 2ebe 1c87 2cbe
000001e0: 3d02 b7bd ef71 163e c952 8b3d 29c3 833d
000001f0: 2917 81be 5f14 84be 1081 673d 7684 1abe

h3.bias f4 [8]
-0.059328474 0.22788492 0.0908639 0.16183507 0.042746864 0.16878892 0.0052824537 0.11754357
00000000: 6a02 73bd aa5a 693e da16 ba3d 18b8 253e
00000010: 5617 2f3d 01d7 2c3e 6f18 ad3b afba f03d

h4.weight f4 [1, 8]
-0.32495856 0.25388142 -0.15945363 -0.29502994 -0.25475755 0.31953108 0.21693926 0.47150952
00000000: f860 a6be bffc 813e d047 23be 2a0e 97be
00000010: 956f 82be 9499 a33e 5325 5e3e b269 f13e

loss_fn.pos_weight f8 [1]
289.43766937669375
00000000: c4b5 9ab1 0017 7240

exp_avg f4 [64, 30]
0.00030840913 1.9879049e-06 -0.0003313324 -2.7060201e-05 0.0018428499 7.85716e-05 0.0007234493 0.00091723347
-0.00017833183 9.385672e-06 0.0005952142 0.00040904726 -0.0007045098 -0.00046539647 -0.0004873097 -0.0008450747
0.00096622587 0.0013710685 0.0010482683 -0.0010120135 0.00030475677 0.00013094467 0.00080569583 0.0002384258
-0.00053011137 -0.00030968967 6.0850085e-05 2.2654027e-05 -0.00020979183 0.001024368 0.00011417281 0.0009530395
0.0023042257 0.00065996253 0.0007053384 0.0034035286 -0.0014453488 -0.0060698115 -0.00035344268 2.7767946e-05
-0.00089454226 0.005527324 0.0010258334 -0.0010989049 -0.007872795 -0.0032573773 0.004733872 0.008003305
0.0019691298 -0.0056128837 0.0008210195 0.0007380966 -0.007009497 9.702687e-05 0.0018512219 0.004231289
0.00016667659 -0.0024264716 -0.0024216664 -0.0061743623 -0.00051880645 -0.0014497564 0.0015359451 -0.0026457533
0.006451964 0.0033884887 -0.0002535761 0.0019453204 -0.0022415365 -0.0008140997 -0.0024406333 0.00185246
-0.002411103 -0.0034852643 -0.007907733 0.00053450244 0.002131526 0.008893284 0.005039058 -0.0017046874
0.0003715879 0.0015697939 6.253393e-05 0.0001528575 -0.0033244123 0.001135998 -0.0020577852 0.0006017133
9.05662e-05 0.0010245979 9.0150024e-05 -0.0015961307 -0.000926431 -0.0025136515 -0.0011339237 -3.2523738e-05
-0.00075355254 0.0040695453 -0.0012127731 0.00025931516 -0.00035943804 -0.0021665439 -0.00047408245 -2.632285e-05
0.0020010571 0.0017493749 -0.0024072602 -0.0011977088 -0.00028658696 0.0027159231 -0.0037806188 -8.0883e-06
0.0035456414 -0.0006406499 -0.0011123321 -0.0026962368 -0.0008436644 0.0031462458 0.0019696986 0.0026695065
-0.008610321 -0.004436258 0.00939087 0.012082461 0.002717903 0.004014846 -0.013725568 0.015862554
-0.002403194 -0.0069338144 -0.014672278 -0.011732674 -0.012253153 -0.015545302 -0.006402979 0.012249009
0.0064631067 -0.00025008776 0.006408759 -0.01583528 -0.00038967008 0.00070040964 -0.0024484503 -0.002805668
0.0042549483 0.013523949 -0.015629705 -0.0025577324 -0.00077050907 -0.0023329437 -0.0074981805 -0.004549886
0.011771287 0.007812056 0.0026577504 0.008211157 -0.021647183 0.017213628 -0.0025380543 -0.008963112
-0.019444807 -0.00820697 -0.013176983 -0.01978434 -0.013422099 0.008292857 0.011291882 0.0062939688
0.0075696954 -0.02637683 -0.003417754 -0.00029633913 -0.0063138935 -0.0049416204 0.009279161 0.017241683
-0.019962585 -0.002553366 -0.00094355125 -0.0047472105 0.00036297922 -0.0002244951 0.0006644226 -0.00077752495
0.0012594096 0.0003609354 0.0001757729 0.0010219621 -0.0014196564 0.00038103448 -0.0011280726 0.00030673112
-0.0006519392 -0.0014923589 -0.0028605694 -4.7066642e-05 0.0003142696 0.0030725352 0.0021084337 0.0001036285
9.458948e-06 0.001688055 0.00052373967 0.00041823124 -0.0010971 0.00028299663 -0.00012948936 0.00014717084
-0.00011555858 0.0005509082 -0.011915714 -0.007997613 0.0094830375 0.008523267 0.0059452117 0.007223521
-0.020290192 0.02961799 -0.005820025 -0.009974715 -0.020986337 -0.015886776 -0.016165577 -0.02016683
-0.008953487 0.016932413 0.0077594295 0.0004850341 0.008338409 -0.021777792 -0.007006507 0.0010548
0.0030801273 -0.0052224337 0.0055367034 0.014789109 -0.025619783 0.0022333907 0.0024225374 0.003929705
-5.3507658e-05 -0.0008002882 -0.0008077563 -0.0010189846 4.1987416e-05 -0.0007716139 0.00043762143 0.003601676
-0.000365436 -0.0005684784 -0.00036492132 -0.0019207916 -0.000918194 -0.00010479011 0.0011731136 0.0031607947
00000000: f9b1 a139 f267 0536 afb6 adb9 57ff e2b7
00000010: c88b f13a cec6 a438 dca5 3d3a 7f72 703a
00000020: 96fe 3ab9 2777 1d37 2608 1c3a 6575 d639
00000030: daae 38ba 7500 f4b9 9a7d ffb9 0188 5dba
00000040: 524a 7d3a 6db5 b33a 0c66 893a 8aa5 84ba
00000050: c3c7 9f39 314e 0939 5535 533a f001 7a39
00000060: 2cf7 0aba d85d a2b9 4839 7f38 2709 be37
00000070: 91fb 5bb9 1644 863a 1070 ef38 66d5 793a
00000080: 7e02 173b 5601 2d3a 75e6 383a bc0d 5f3b
00000090: dc71 bdba 45e5 c6bb 464e b9b9 36ef e837
000000a0: b77f 6aba 8e1e b53b 4275 863a 2109 90ba
000000b0: e5fc 00bc b979 55bb 991e 9b3b 4b20 033c
000000c0: 840c 013b 48ec b7bb b039 573a d37c 413a
000000d0: ecaf e5bb e77a cb38 b3a4 f23a a0a6 8a3b
000000e0: e8c5 2e39 7005 1fbb d2b4 1ebb 4e52 cabb
000000f0: 8300 08ba c105 beba c451 c93a 6064 2dbb
00000100: ff6a d33b 6811 5e3b 68f2 84b9 1ffa fe3a
00000110: bee6 12bb 4e69 55ba 08f3 1fbb 3ece f23a
00000120: 9903 1ebb 0869 64bb 708f 01bc da1d 0c3a
00000130: 12b1 0b3b 23b5 113c af1e a53b d16f dfba
00000140: afd1 c239 8bc1 cd3a a624 8338 5f48 2039
00000150: 62de 59bb c5e5 943a e8db 06bb 4cbc 1d3a
00000160: 5cee bd38 cd4b 863a ed0e bd38 4235 d1ba
00000170: bbdb 72ba 13bc 24bb 2aa0 94ba 196a 08b8
00000180: 0e8a 45ba d259 853b eaf5 9eba b1f4 8739
00000190: f572 bcb9 93fc 0dbb 458e f8b9 e4cf dcb7
000001a0: 2b24 033b 484b e53a 20c3 1dbb 70fc 9cba
000001b0: 0d41 96b9 a1fd 313b 42c4 77bb fcb2 07b7
000001c0: fe5d 683b 49f1 27ba accb 91ba 59b3 30bb
000001d0: 5c29 5dba 3f31 4e3b 0f16 013b e3f2 2e3b
000001e0: 4e12 0dbc 085e 91bb 2adc 193c 84f5 453c
000001f0: d81e 323b f88e 833b 34e1 60bc 30f2 813c
00000200: e87e 1dbb 0d35 e3bb ff63 70bc 673a 40bc
00000210: 73c1 48bc b9b1 7ebc 15d0 d1bb 11b0 483c
00000220: 78c8 d33b 361e 83b9 9100 d23b fdb8 81bc
00000230: a24c ccb9 b29b 373a 2e76 20bb 4cdf 37bb
00000240: 186d 8b3b 8e93 5d3c de09 80bc a19f 27bb
00000250: fdfb 49ba 4de4 18bb 4cb3 f5bb 3617 95bb
00000260: 5bdc 403c 47fc ff3b a72d 2e3b 1788 063c
00000270: 6f55 b1bc 9803 8d3c 7c55 26bb 04da 12bc
00000280: b74a 9fbc 8776 06bc 46e4 57bc c512 a2bc
00000290: 5de8 5bbc c3de 073c 9601 393c a33d ce3b
000002a0: 350b f83b 3914 d8bc 66fc 5fbb f75d 9bb9
000002b0: c7e4 cebb 51ed a1bb 9f07 183c 6e3e 8d3c
000002c0: 9388 a3bc 5f56 27bb a758 77ba 7d8e 9bbb
000002d0: 3f4e be39 7266 6bb9 a52c 2e3a d1d2 4bba
000002e0: c612 a53a ee3b bd39 ae4f 3839 5cf3 853a
000002f0: c413 baba 95c5 c739 d6db 93ba c1d0 a039
00000300: e6e6 2aba 419b c3ba 6478 3bbb 6c69 45b8
00000310: 8dc4 a439 965c 493b a62d 0a3b 2153 d938
00000320: dfb1 1e37 ba41 dd3a 934b 093a 0c46 db39
00000330: 91cc 8fba 2a5f 9439 89c7 07b9 df51 1a39
00000340: 0a58 f2b8 d36a 103a 203a 43bc 6c08 03bc
00000350: be5e 1b3c 2ca5 0b3c 0dd0 c23b 49b3 ec3b
00000360: 9e37 a6bc 6da1 f23c e9b5 bebb fd6c 23bc
00000370: 8aeb abbc fc24 82bc ac6d 84bc e834 a5bc
00000380: a5b1 12bc d8b5 8a3c d042 fe3b 2d4c fe39
00000390: d29d 083c 5767 b2bc d796 e5bb 3741 8a3a
000003a0: f6db 493b f320 abbb 3c6d b53b 054e 723c
000003b0: 94e0 d1bc 145e 123b 6fc3 1e3b c1c4 803b
000003c0: 696d 60b8 6fca 51ba 9cbf 53ba 738f 85ba
000003d0: a51b 3038 2246 4aba 8e70 e539 190a 6c3b
000003e0: fd97 bfb9 f105 15ba e952 bfb9 12c3 fbba
000003f0: f5b2 70ba c3c2 dbb8 29c3 993a 5625 4f3b

exp_avg_sq f4 [64, 30]
0.000113195136 0.00025309072 0.00018261683 0.0004916056 0.000611918 0.00040340002 0.00013763002 0.00051457353
0.00031359616 0.00016297291 0.0003721622 0.00023231361 0.00042338937 0.00015624268 0.00037050675 0.00028099088
0.0002940515 0.0008607401 0.00012946766 0.0003169273 0.00015401578 0.00011120022 0.00024418026 3.8148384e-05
8.008308e-05 0.00012580055 7.383964e-05 8.852036e-05 0.00020838424 6.8914684e-05 0.0003403145 0.0004673856
0.00047478004 0.0007030061 0.0005797093 0.0005782819 0.00025603166 0.0010454891 0.002819583 0.0005703589
0.00077043887 0.00036439337 0.00041283056 0.00033379512 0.0014343978 0.00045081158 0.0006991992 0.0016494795
0.00050783757 0.0010782307 0.00079922366 0.0060819476 0.0009072449 0.0004041213 0.00047689932 0.0008299864
0.00022119655 0.00027941525 0.0003147308 0.00023663075 0.0010674394 0.0010973522 0.0015769205 0.0012135212
0.0026696764 0.0012849745 0.00086005 0.0019489905 0.010266653 0.0017692453 0.0015350769 0.0014498325
0.0013767747 0.0012089423 0.0037631853 0.0018784972 0.0015275384 0.003762259 0.0016324427 0.002631596
0.0023274822 0.022948833 0.0023570727 0.0011397302 0.0011863348 0.0020241563 0.0008697735 0.00028448756
0.00058030017 0.0004501682 0.0004988321 0.00030898576 0.00048302667 0.0005604851 0.00086008763 0.00038529315
0.00029835623 0.001257209 0.00023589807 0.0004237741 0.00049872673 0.0005226855 0.00024203611 0.00043719928
0.0008553635 0.00051720324 0.00048346526 0.00083596504 0.0001882996 0.0010917304 0.00083182735 0.00022302498
0.0005043052 0.00036713431 0.00031770536 0.00036549312 0.0002879369 0.00017085783 0.0009525811 0.001508114
0.001046085 0.0007320136 0.0013930001 0.0014422535 0.00134273 0.0007231491 0.0005970225 0.0013510538
0.00067806937 0.00090363825 0.00095028745 0.0009929519 0.0010500993 0.00096009084 0.0016070318 0.0017592278
0.0010344795 0.0018413216 0.0005344905 0.0022726674 0.0018487081 0.00054011756 0.00075636414 0.0010276145
0.0010064819 0.0005730815 0.0006840554 0.00074067 0.00018332455 0.0036625473 0.00054000405 0.00033105802
0.00022098479 0.0002711802 0.0013075416 0.00028512525 0.0004394322 0.000333065 0.00011509353 0.0004557517
0.00044056267 0.0005183411 0.0008343581 0.00052573567 0.0007477218 0.001111384 0.00071788626 0.00083517254
0.00032515946 0.0016301689 0.00027274212 0.00025696403 0.00044520528 0.0004077757 0.00036196594 0.00047317153
0.00028987115 0.0006925473 6.095663e-05 0.00010148984 0.0001259856 0.00013292312 0.00017428404 0.00036435213
0.00022430232 0.0001609335 0.000110938316 0.0005050199 0.0014395058 0.0002171626 0.00020999987 0.00021592189
0.00019604797 0.00013454161 0.0006201208 0.00010172921 0.00026921032 0.0007625648 0.00024132895 9.863161e-05
0.0002015098 0.002993492 0.0003587923 0.00013845276 0.000113115115 0.00033358342 0.00011868054 3.8372113e-05
3.171001e-05 0.00013258128 0.000997995 0.0013405866 0.0010145991 0.0033161114 0.0017367947 0.0017773997
0.0005666249 0.004506291 0.002317249 0.0012291431 0.002045885 0.0017911176 0.0017811347 0.0010231235
0.002808138 0.002048166 0.0017886397 0.004983658 0.0009464199 0.00250129 0.0007087565 0.0007622343
0.000995399 0.00041606478 0.0014019089 0.0015058713 0.0010662281 0.00053288357 0.0005526478 0.0011205613
0.00063245127 0.00043773916 0.0007485023 0.00023074435 0.00066599424 0.00019993997 0.00040216325 0.00082575396
0.0073566693 0.0009519262 0.00037753207 0.00095369434 0.00029820055 0.0005263479 0.004042111 0.0013146722
00000000: 2d63 ed38 43b1 8439 d57c 3f39 18df 003a
00000010: 1f69 203a 6f7f d339 c750 1039 72e4 063a
00000020: 2a6a a439 b5e3 2a39 c41e c339 3699 7339
00000030: 5cfa dd39 13d5 2339 9340 c239 f551 9339
00000040: ed2a 9a39 4aa3 613a b6c1 0739 4329 a639
00000050: 4c7f 2139 2a34 e938 5205 8039 8401 2038
00000060: 47f2 a738 54e9 0339 5bda 9a38 02a4 b938
00000070: b881 5a39 4a86 9038 3d6c b239 6f0b f539
00000080: e6eb f839 f149 383a a2f7 173a d797 173a
00000090: fd3b 8639 cb08 893a c1c8 383b 2384 153a
000000a0: 47f7 493a 0d0c bf39 2e71 d839 3901 af39
000000b0: 6702 bc3a e85a ec39 774a 373a 5933 d83a
000000c0: 6720 053a 6b53 8d3a fe82 513a 134b c73b
000000d0: 2dd4 6d3a 3ee0 d339 5808 fa39 7293 593a
000000e0: fff0 6739 7b7e 9239 7402 a539 1520 7839
000000f0: 53e9 8b3a 08d5 8f3a acb0 ce3a 040f 9f3a
00000100: bdf5 2e3b 976c a83a fa74 613a 4575 ff3a
00000110: 7735 283c 05e6 e73a a234 c93a 4e08 be3a
00000120: e574 b43a 5f75 9e3a c69f 763b e837 f63a
00000130: af37 c83a 3b90 763b b0f7 d53a db76 2c3b
00000140: ac88 183b 31ff bb3c 1e79 1a3b 0063 953a
00000150: ca7e 9b3a b5a7 043b 8301 643a 4627 9539
00000160: 491f 183a 8e04 ec39 0ec4 023a 5eff a139
00000170: be3e fd39 85ed 123a 8177 613a 2c01 ca39
00000180: b26c 9c39 efc8 a43a 685b 7739 ff2d de39
00000190: fcbc 023a d504 093a 13cb 7d39 e537 e539
000001a0: 793a 603a ec94 073a 9c79 fd39 aa24 5b3a
000001b0: 4a72 4539 6518 8f3a fd0e 5a3a d0db 6939
000001c0: 5933 043a ef7b c039 b191 a639 a89f bf39
000001d0: 3df6 9639 4d28 3339 a3b6 793a e9ab c53a
000001e0: ca1c 893a 9ae4 3f3a 5495 b63a ff09 bd3a
000001f0: 8bfe af3a b791 3d3a 8081 1c3a d815 b13a
00000200: 77c0 313a 23e2 6c3a b61c 793a f025 823a
00000210: 7ca3 893a 9bae 7b3a 0aa3 d23a e495 e63a
00000220: 5f97 873a 8058 f13a 0d1d 0c3a 08f1 143b
00000230: 5a50 f23a ad96 0d3a bd46 463a 05b1 863a
00000240: eeeb 833a d93a 163a 2e52 333a 8629 423a
00000250: cf3a 4039 5907 703b 0f8f 0d3a db91 ad39
00000260: 27b8 6739 312d 8e39 d161 ab3a dd7c 9539
00000270: 9763 e639 3a9f ae39 5e5e f138 f5f1 ee39
00000280: 52fb e639 48e1 073a d3b8 5a3a 86d1 093a
00000290: c302 443a dcab 913a 8830 3c3a 7bef 5a3a
000002a0: 2a7a aa39 64ab d53a d4fe 8e39 21b9 8639
000002b0: 716a e939 baca d539 3fc6 bd39 0214 f839
000002c0: d9f9 9739 108c 353a afab 7f38 f1d6 d438
000002d0: 011b 0439 4761 0b39 04c0 3639 8406 bf39
000002e0: b232 6b39 42c0 2839 8ea7 e838 5063 043a
000002f0: cdad bc3a 24b6 6339 6933 5c39 1769 6239
00000300: 3a92 4d39 bd13 0d39 9a8f 223a 7457 d538
00000310: cc24 8d39 dce6 473a 3f0d 7d39 71d8 ce38
00000320: 604c 5339 762e 443b 4a1c bc39 a12d 1139
00000330: 3738 ed38 cfe4 ae39 21e4 f838 bef1 2038
00000340: 5d00 0538 8405 0b39 28cf 823a 9fb6 af3a
00000350: 4cfc 843a 1e53 593b 29a5 e33a a3f7 e83a
00000360: 8e89 143a 82a9 933b fddc 173b 331b a13a
00000370: 4114 063b efc3 ea3a f774 e93a 541a 863a
00000380: bd08 383b 863a 063b ca70 ea3a f44d a33b
00000390: 2a19 783a afec 233b d8cb 393a aed0 473a
000003a0: 0c78 823a 4523 da39 42c0 b73a a860 c53a
000003b0: aec0 8b3a 36b1 0b3a 91df 103a ccdf 923a
000003c0: 16cb 253a 5b80 e539 2437 443a f7f3 7139
000003d0: 1e96 2e3a faa6 5139 70d9 d239 6977 583a
000003e0: 3710 f13b b08a 793a 7fef c539 5801 7a3a
000003f0: cd57 9c39 9cfa 093a af73 843b 1451 ac3a

exp_avg f4 [64]
0.0014514194 0.0007829089 0.007099652 -0.00021042964 0.014097772 0.016978418 0.0024512608 0.023019906
1.1536081e-06 0.0025823335 -0.00069584255 -0.006536224 -0.0022896496 -0.0009703927 -0.010060806 -0.0032246888
-0.007606316 0.017148802 1.3486514e-05 0.03436942 0.0049550366 0.017631004 -0.00096864096 0.0043330775
0.00013243462 -0.0036340004 0.017001644 -0.0010906673 0.0043273536 0.011175906 0.0015287367 0.0034934648
-0.0072987424 -2.798745e-05 -0.0046177413 0.0041124346 -0.004690508 0.00035989407 -0.00088364753 -0.00035239075
0.010995047 0.0031787637 -0.011694585 0.008993429 -0.0052260594 0.02700751 0.046052065 -0.00092808314
-0.005447992 -0.0045958813 -0.004835351 -0.006919938 0.011058357 -0.0003915038 -0.00085677905 0.01232077
0.016485624 0.0022616654 -0.0004749172 -0.0023607006 -0.00028859 0.036517773 0.0003181255 -0.008262842
00000000: 8e3d be3a 203c 4d3a 33a4 e83b c7a6 5cb9
00000010: 57fa 663c 5316 8b3c 55a5 203b 3e94 bc3c
00000020: acd5 9a35 5e3c 293b 3469 36ba d22d d6bb
00000030: f20d 16bb f461 7eba 14d6 24bc 4d55 53bb
00000040: 673e f9bb a57b 8c3c 2344 6237 f3c6 0c3d
00000050: dc5d a23b e56e 903c 65ec 7dba 7dfc 8d3b
00000060: 26de 0a39 6928 6ebb 0847 8b3c b9f4 8eba
00000070: 79cc 8d3b 261b 373c e45f c83a 9df2 643b
00000080: 4a2a efbb 97c6 eab7 6c50 97bb 9ac1 863b
00000090: d5b2 99bb 2ab0 bc39 95a4 67ba 16c1 b8b9
000000a0: 9224 343c ce52 503b a59a 3fbc 2d59 133c
000000b0: 5d3f abbb db3e dd3c 17a1 3c3d 9b4a 73ba
000000c0: 1285 b2bb 0c99 96bb dd71 9ebb a6c0 e2bb
000000d0: 1c2e 353c c042 cdb9 7899 60ba 0edd 493c
000000e0: dc0c 873c 7338 143b 4ffe f8b9 fcb5 1abb
000000f0: e54d 97b9 a993 153d 15ca a639 df60 07bc

exp_avg_sq f4 [64]
0.00012800936 0.00046600803 0.001306676 0.0004675252 0.0011428593 0.0006499521 0.0001386014 0.001215575
0.0005799299 0.00032855183 0.00013250411 0.0018252748 0.0013342845 0.001144372 0.0031414619 0.00049793575
0.001548747 0.0011383817 5.56278e-05 0.0037902629 5.271569e-05 0.001830475 4.6624125e-05 0.00010014736
0.00022664864 0.00082233216 0.00015781814 0.00033667765 7.200061e-05 0.0008720656 0.00041010627 0.0012235387
4.8144713e-05 0.00018201451 0.004030507 4.2733245e-05 0.00023711297 0.00020502812 4.779282e-05 7.2588635e-05
0.00031013213 0.00049430033 0.0010144641 0.00025927456 0.0011560731 0.0017960438 0.0054727183 0.0016635322
0.0023003398 0.0006164866 0.0003282429 0.0023240887 0.0013821307 0.0002755144 0.0017360112 0.0009628269
0.0023957477 5.868718e-05 0.0010136988 0.00066023483 5.279896e-05 0.0026836786 7.466245e-05 0.0012405285
00000000: 403a 0639 8a52 f439 c544 ab3a 2c1e f539
00000010: ffcb 953a 8c61 2a3a 8855 1139 ee53 9f3a
00000020: 7006 183a 7b41 ac39 cdf0 0a39 0f3e ef3a
00000030: 29e3 ae3a c1fe 953a fce0 4d3b e787 023a
00000040: 53ff ca3a c035 953a e551 6938 0f66 783b
00000050: 0b1b 5d38 8dec ef3a 468e 4338 3406 d238
00000060: 88a8 6d39 c791 573a fc7b 2539 1c84 b039
00000070: 08ff 9638 559b 643a 8803 d739 255f a03a
00000080: feee 4938 26db 3e39 5812 843b 793c 3338
00000090: 87a1 7839 d1fc 5639 2675 4838 ba3a 9838
000000a0: 3b99 a239 ef93 013a c4f7 843a 3eef 8739
000000b0: 6087 973a 3b69 eb3a 7d54 b33b e10a da3a
000000c0: 4cc1 163b b79b 213a 0418 ac39 bd4f 183b
000000d0: 9c28 b53a eb72 9039 df8a e33a 3866 7c3a
000000e0: fa01 1d3b e126 7638 16de 843a 9c13 2d3a
000000f0: 7474 5d38 a8e0 2f3b 1994 9c38 3b99 a23a

exp_avg f4 [32, 64]
-0.0008508447 -0.0021427209 -0.004494717 -0.0014063964 0.0033210607 0.0028347492 -0.0009008566 0.00046581347
0.00031742326 -0.0011264414 -0.0010075814 -0.00084222504 -0.00020219201 -0.0007703163 -0.0020629957 -0.001417606
-0.0017289015 0.005650181 -0.00052521814 0.008505024 -0.00031966393 0.0065396787 -0.00086679816 0.003358663
-0.0017535276 -0.0014781221 0.0034290224 -0.0008801913 0.0005746485 0.005795872 -0.0017321089 0.00020342518
0.0054005585 -0.0010251093 -0.0012458129 0.0013160083 0.0011073381 -0.0004951151 -0.002402545 -0.0009910533
0.00077421096 0.003971995 0.0055456636 -0.00078637846 0.010088235 0.002314099 0.00019426216 0.001225712
-0.0014581893 0.007194065 0.0023039063 -0.0014243943 0.006843265 -0.0011788689 -0.0007558648 0.0036253615
0.0024520634 0.01012071 0.0007102154 -0.0010491953 -0.0010203044 0.0024836648 -0.0008157935 0.010075986
-0.0012350262 0.0014898872 -0.004280346 0.0007400284 -0.00164837 -0.0012910495 -0.0012164365 0.0014644705
0.0023232198 -0.0016375731 -0.0011003637 -0.0010225362 -0.00023765105 -0.00093181373 -0.0023722139 -0.001609068
-0.0021912954 -0.00087175367 -0.0006012168 -0.0011843556 -0.0007026935 0.0003534841 -0.0012730277 -0.0010246581
-0.0017934897 -0.0018585806 -0.0019187877 -0.0010186773 -0.00086136686 -0.0018700087 0.0018361867 0.00034929163
-0.0008525081 -0.0013942524 -0.00054478744 -0.0013781576 0.00046782717 0.001115663 0.002324898 -0.0018072234
-0.0013386454 -0.0024796205 0.0019241496 -0.0012252985 -0.004640456 -0.0015302512 -0.0010047525 0.0015779588
-0.0018378723 -0.0024475886 -0.0004782007 -0.0017657676 -0.002408082 0.0017762801 -1.931355e-05 -0.002389933
-0.0014672633 0.00016585996 0.0010979127 -0.0012118474 -0.0012301926 -0.0012566539 -0.0009620489 -0.00027501336
-0.0008196098 -0.0014297384 -0.0032299208 -0.0012676216 0.0022023513 0.0019555672 -0.00083521486 -0.00042126302
-0.0014339734 -0.0012470201 -0.0012875344 -0.00074061536 -0.0015118918 -0.0009970621 -0.0018905571 -0.0010927937
-0.0014964568 0.004165517 -0.00040914357 0.0059274137 -0.00043204165 0.003020797 -0.0009110191 0.002359234
-0.0012243964 -0.0012932089 0.0025493014 -0.0007727116 0.00032181878 0.0043441253 -0.0013927843 -0.00069429853
0.00362584 -0.0016909268 -0.0011337174 0.00080334453 0.0010645853 -0.0003919978 -0.0023615165 -0.0005255243
-0.00013435281 0.0026818586 0.0028629345 -0.00076995045 0.0069984193 0.0015035794 2.004678e-05 -0.0009319151
-0.0012730546 0.0052574207 0.0001223644 -0.0012511787 0.0048621446 -0.00062150066 -0.000648673 0.0023940878
0.0016532902 0.00703917 -0.000929448 -0.0007301382 -0.00092391047 0.0017564713 -0.00067316863 0.007355837
0.00024886898 0.0017789291 0.00279196 9.132102e-05 0.0009459073 7.498834e-05 0.00055463123 0.00057967234
0.00040562692 0.00054533896 0.00033621397 7.415821e-05 0.0006126444 0.00014412278 0.00015248368 0.00043520765
0.00032200862 0.00012088823 0.00014414053 0.00010765022 9.13672e-05 0.0007387437 0.00018986849 0.0005192054
0.0010851099 0.000158161 0.0010437841 0.00029226343 0.00021202267 0.00056961767 0.0007745767 0.0001301287
0.00084234466 0.0013349401 0.000118137024 0.00049475284 0.0013331149 0.00011735226 0.0016370139 0.0007254611
0.0005967202 0.0003935368 0.002861695 0.00012916954 0.0022408143 0.00028034305 0.00016143377 7.642211e-05
0.00018494553 0.0019062986 0.0005518711 0.00021218824 0.00057233544 0.00055475684 0.000101733625 0.00012304679
0.00016815714 0.00089259516 0.00027002703 0.00040237294 0.00031877204 0.00017260597 0.0003089542 0.0011877145
00000000: 390b 5fba e46c 0cbb 6b48 93bb d556 b8ba
00000010: 27a6 593b 33c7 393b 7727 6cba 6d38 f439
00000020: d46b a639 1aa5 93ba d210 84ba c4c8 5cba
00000030: 8103 54b9 0def 49ba 5333 07bb f7ce b9ba
00000040: 4f9c e2ba 2725 b93b cbae 09ba a858 0b3c
00000050: 9198 a7b9 cd4a d63b d739 63ba 041d 5c3b
00000060: 9fd6 e5ba 8cbd c1ba 73b9 603b a3bc 66ba
00000070: 02a4 163a 4ceb bd3b ee07 e3ba 884e 5539
00000080: 2bf7 b03b f65c 86ba 8b4a a3ba e97d ac3a
00000090: 1a24 913a 9dca 01ba 0474 1dbb 3be6 81ba
000000a0: 6bf4 4a3a 8227 823b 66b8 b53b f724 4eba
000000b0: 2049 253c 24a8 173b dab2 4b39 12a8 a03a
000000c0: b720 bfba 31bc eb3b 22fd 163b beb2 baba
000000d0: 783d e03b 4784 9aba 3a25 46ba 7997 6d3b
000000e0: ccb2 203b 56d1 253c c02d 3a3a 2785 89ba
000000f0: bcbb 85ba fbc4 223b fada 55ba c015 253c
00000100: 9ae0 a1ba 5248 c33a 2542 8cbb 77fe 413a
00000110: 1e0e d8ba 6f38 a9ba d670 9fba 7af3 bf3a
00000120: 2941 183b d6a3 d6ba 143a 90ba 9f06 86ba
00000130: f831 79b9 f644 74ba 2577 1bbb 5de7 d2ba
00000140: d69b 0fbb 6686 64ba fa9a 1dba 613c 9bba
00000150: f634 38ba d553 b939 b9db a6ba d24d 86ba
00000160: 8713 ebba 9e9b f3ba d57f fbba 2385 85ba
00000170: 5acd 61ba 141b f5ba 34ac f03a 2121 b739
00000180: da7a 5fba 59bf b6ba 11d0 0eba 4ca3 b4ba
00000190: b346 f539 703b 923a 515d 183b 5be0 ecba
000001a0: 7c75 afba 2181 22bb bf33 fc3a 329a a0ba
000001b0: f70e 98bb b692 c8ba e6b1 83ba 83d3 ce3a
000001c0: c3e4 f0ba b967 20bb 03b7 fab9 5471 e7ba
000001d0: e9d0 1dbb 12d2 e83a 8803 a2b7 6ca0 1cbb
000001e0: 3051 c0ba b2ea 2d39 d6e7 8f3a dad6 9eba
000001f0: 6a3e a1ba 4fb6 a4ba 0232 7cba ab2f 90b9
00000200: 15db 56ba 0f66 bbba 14ad 53bb 5326 a6ba
00000210: 5355 103b f928 003b 52f2 5aba f7dc dcb9
00000220: 2af4 bbba 0d73 a3ba 7cc2 a8ba db25 42ba
00000230: ac2a c6ba daaf 82ba 92cc f7ba 123c 8fba
00000240: c224 c4ba e47e 883b 5282 d6b9 c03a c23b
00000250: a683 e2b9 90f8 453b 75d1 6eba 619d 1a3b
00000260: ed7b a0ba e480 a9ba 2e12 273b cc8f 4aba
00000270: c9b9 a839 2a59 8e3b 168e b6ba 9601 36ba
00000280: 809f 6d3b 17a2 ddba 3e99 94ba 8a97 523a
00000290: 8e89 8b3a 0e85 cdb9 acc3 1abb 57c3 09ba
000002a0: 0fe1 0cb9 1fc2 2f3b 12a0 3b3b 80d6 49ba
000002b0: ff52 e53b c113 c53a 222a a837 c44b 74ba
000002c0: a0dc a6ba 7146 ac3b f24e 0039 97fe a3ba
000002d0: a052 9f3b 34ec 22ba b50b 2aba 21e6 1c3b
000002e0: 37b3 d83a d6a8 e63b 33a6 73ba bf66 3fba
000002f0: 9532 72ba 6639 e63a 9577 30ba 3c09 f13b
00000300: a17a 8239 f52a e93a 51f9 363b 9983 bf38
00000310: c4f6 773a 0f43 9d38 ac64 113a 27f5 173a
00000320: 53aa d439 14f5 0e3a e045 b039 6385 9b38
00000330: df99 203a aa1f 1739 07e4 1f39 952c e439
00000340: 44d3 a839 6085 fd38 6e24 1739 46c2 e138
00000350: 649c bf38 40a8 413a 6f17 4739 491b 083a
00000360: 3f3a 8e3a 05d8 2539 95cf 883a ef3a 9939
00000370: 6752 5e39 6552 153a f60c 4b3a 2873 0839
00000380: cbd0 5c3a 28f9 ae3a 55c0 f738 4db2 013a
00000390: eabb ae3a 041b f638 1291 d63a df2c 3e3a
000003a0: 376d 1c3a 9d53 ce39 468b 3b3b af71 0739
000003b0: a0da 123b 02fb 9239 8c46 2939 cf44 a038
000003c0: f0ed 4139 c4dc f93a 71ab 103a d97e 5e39
000003d0: c808 163a 1a6d 113a d359 d538 1f06 0139
000003e0: 5753 3039 0cfd 693a 6a92 8d39 95f5 d239
000003f0: dc20 a739 90fd 3439 21fb a139 16ad 9b3a
