lightning_logs/version_0/checkpoints/epoch=17-step=120168.ckpt (torch, 70885 bytes, 28 tensors)

input.weight f4 [64, 30]
00000000: cb1e 01bd 144b cd3e 76b3 e63e 5b72 0fbe
00000010: 3b30 32bf 0953 dbbd c041 11bf 4121 c13b
00000020: f545 f13c fb51 fdbd 012f 16be c611 03be
00000030: 2e5a 1c3f e465 e83d 2c77 4c3e 158f 323f
00000040: 6315 c63e 399d 6abc c382 273f fcff dfbe
00000050: 33fd 7a3e 9234 0cbe 5bf1 803e 43c9 c7bc
00000060: 73ec 74be 16a8 cabe 3965 283f ee39 353e
00000070: fff8 c23e 5e89 15be 43e6 5fbd 7ae8 443f
00000080: 2d93 2a3d 5454 b23d a984 10bd 60fe 76bf
00000090: b98c 83be 6f3e debe 9e5a f13e f8f2 a83c
000000a0: 39d2 603f 5932 13bf 17fe 563f db69 4fbe
000000b0: 5d81 7abe f0dc f63d cf0a cdbd c4e5 093f
000000c0: e741 10bf c511 09bf 1def 573e f630 233e
000000d0: 5d37 c73e 230e 0e3f c73b 8d3e 4e95 65be
000000e0: 86ec 2fbe c0c4 aebc 4e5a 0dbf 18bd c03e
000000f0: 7bdc 9a3e 343f 3e3f a1b9 9dbe 3652 083e
00000100: 4af8 27bf 1c6a 46be e5fd 71be d023 30be
00000110: 0c66 8c3d 5064 21be 690d ec3e b074 b13e
00000120: d3c5 d83e 2d77 323f f662 1bbe 8278 c73e
00000130: 153a 1d3e 3374 6f3e b960 bbbe 9e88 91bf
00000140: 4dc7 ce3e 6781 f83e b9a2 403f 9794 8bbd
00000150: 4270 40bf 7786 b0bd 34c1 dc3e b5ec 3a3f
00000160: 59d2 dc3d 9c89 be3e 0a8f 883d c93f 4dbe
00000170: 6262 1d3f d47f ff3e 196d f03d ccaf c3be
00000180: 8bb8 d5be 2340 5f3e 0571 1d3f 59dc 2b3e
00000190: a528 973e 275e 193e a6cc 8f3e a38f 203f
000001a0: 150b 2c3e 8947 b0be 7f16 90be 5267 a43e
000001b0: fd67 313f c859 da3e 2202 86be 8d44 9f3d
000001c0: 0dad 003f f618 163d 5e1d e43e 3107 803b
000001d0: 9c86 17bf f21a dcbe 8bfc b0be 44f9 31be
000001e0: fed7 7ebe c83e 823e e04e 863d 85db 0d3f
000001f0: 445f 91be 106f 45be 8ace b43e dc65 47be
00000200: 85c4 5d3f 18fd 96bc 0e28 2d3f 7aa2 5ebe
00000210: a37b 07be 787c b2be 8e1e ee3e 0e59 cfbd
00000220: e97b 143f 395e edbe b903 d43e c909 19bc
00000230: b030 513e b547 98bd 2b72 003e 11dc 02bf
00000240: c6fa d7bd 3595 05be 670d 32be 464f 4e3f
00000250: 5a6c 8d3e 4975 9a3e ec51 b5bc 675d 843f
00000260: 0f6d 0bbe 7782 d93e 03ab 12bf 2df9 77be
00000270: 177a 46bf 0a77 85bc 3192 3bbf b78a 663d
00000280: 57db 853e b9a6 91bd 93b3 f43e 058f e53c
00000290: 7bbe 0d3e 92fb 073f 2698 88be d616 033f
000002a0: 346e 02bf dc1c 23bf 83c9 9c3e 8f09 8bbe
000002b0: b961 00bf ebac 603d d123 ee3b de61 f1bd
000002c0: 67a1 293f c044 47be ffae 46bf bf28 8f3e
000002d0: 359e 433e 47c9 153f bc28 9f3e b3c5 493e
000002e0: be95 083e e080 cc3e 259b cbbd 39f3 913e
000002f0: 214e 323f 99af 3e3e 48d8 8f3d 582d 0fbd
00000300: fad2 583f a38c 9f3d 8c7f dfbe 16c9 c23e
00000310: 37f0 023e 4168 56bd c6b0 ff3e 7ed4 77be
00000320: 5783 c8bb c3d4 3f3d 569c da3c 914d 01bf
00000330: bccb 433e c123 b93e 831e 5bbe 499b d53e
00000340: e5f7 c0bd 5c56 093e be0d 803e 07e6 a23e
00000350: acbb ed3e f837 bbbd 3635 3fbf 81dd cebe
00000360: 5ba9 95bf e87c b63e 068e 99be c151 0bbc
00000370: d9f5 863e f75b 953e db5a 203f dc33 d83e
00000380: 3968 603e 648b 1b3f 68ad 993e b4d2 dbbe
00000390: d8c9 093f 80de c9be f111 7e3e bee2 a53d
000003a0: 4919 083d b26c 28be 5618 21bf b5e2 aebe
000003b0: 9292 9b3e 42f9 38be 50cd b1be 7f19 ecbd
000003c0: de25 c83e 00ca 9a3e 9365 373f 7b03 b9be
000003d0: 0834 fd3e f4e1 b73e 99c6 d4be 183c c03e
000003e0: b690 583f 237b 453a 6fcd 65bb 624b 14bf
000003f0: 0367 6c3f caa5 80bf 074a 183f 6fa1 a13e
-0.031523507 0.40096343 0.45058793 -0.14008467 -0.69604844 -0.10709197 -0.5674095 0.0058938568
0.029452303 -0.12369152 -0.14666368 -0.12799749 0.61075103 0.11347559 0.19967335 0.69749576
0.38688192 -0.014319711 0.654339 -0.43749988 0.2451065 -0.13691929 0.2518414 -0.024387961
-0.23918323 -0.39581364 0.65779454 0.1769788 0.38080594 -0.14603183 -0.054662954 0.7691723
0.041644264 0.087074906 -0.035282765 -0.96481895 -0.256933 -0.43407008 0.47139448 0.020623669
0.87820774 -0.574987 0.8398146 -0.20255224 -0.2446341 0.12053859 -0.10011827 0.5386622
-0.5635056 -0.5354274 0.21087308 0.15936646 0.38909426 0.5549032 0.2758467 -0.22420236
-0.1718007 -0.021334052 -0.5521592 0.37644267 0.30246338 0.7431519 -0.30805686 0.13312611
-0.65613234 -0.19376415 -0.2363201 -0.17201161 0.068554014 -0.15760922 0.4610398 0.34659338
0.42338428 0.697131 -0.1517447 0.38959128 0.15354188 0.2338417 -0.3659723 -1.1369817
0.4038643 0.48536226 0.75248295 -0.06815451 -0.7517129 -0.08619397 0.43116152 0.73017436
0.10782308 0.37214363 0.066679075 -0.20043863 0.61478245 0.49902213 0.11739559 -0.3822006
-0.41742358 0.2180181 0.6150058 0.16783275 0.29523197 0.14977323 0.28085822 0.6271917
0.16801102 -0.34429577 -0.28142163 0.32110077 0.692993 0.42646623 -0.26173502 0.07776747
0.50264055 0.0366449 0.44553655 0.0039071073 -0.5918977 -0.42989308 -0.34567675 -0.17380244
-0.24887082 0.25438523 0.06558013 0.55413085 -0.28392994 -0.19280648 0.35313827 -0.1947245
0.8662799 -0.018431231 0.67639244 -0.21741667 -0.13230757 -0.34860587 0.46507686 -0.10124408
0.5800157 -0.4636095 0.4140909 -0.009340712 0.20428729 -0.07435552 0.12543552 -0.51117045
-0.10545878 -0.13045199 -0.17387925 0.8058971 0.27621728 0.30167606 -0.02213379 1.0341004
-0.13615821 0.4248235 -0.57292193 -0.24216147 -0.77530044 -0.016292114 -0.73269945 0.056284633
0.26143906 -0.07111878 0.47793254 0.028022299 0.13842194 0.5311824 -0.2667858 0.5120672
-0.50949407 -0.6371591 0.3062249 -0.2715573 -0.5014911 0.054852407 0.0072674532 -0.11786245
0.66261905 -0.1945982 -0.7761077 0.27960774 0.1910332 0.5851025 0.31085765 0.19704323
0.13338372 0.39942074 -0.09941701 0.28505877 0.69650465 0.18621673 0.07023674 -0.034955353
0.84696925 0.07790496 -0.43651998 0.3804404 0.12786947 -0.052345518 0.49939555 -0.24202153
-0.0061191726 0.046833765 0.026685875 -0.5050898 0.19120687 0.3616009 -0.21398358 0.41720036
-0.09422282 0.1341185 0.25010484 0.31816122 0.46432245 -0.091415346 -0.7469057 -0.4040337
-1.1692308 0.3564217 -0.29991168 -0.008503378 0.26359442 0.29171726 0.62638634 0.42227066
0.21914758 0.6075957 0.3001511 -0.4293419 0.53823614 -0.39427567 0.24811532 0.08099888
0.03322724 -0.16447714 -0.6292776 -0.3415734 0.30385262 -0.18063834 -0.34726954 -0.115283005
0.3909139 0.3023224 0.71639365 -0.36135468 0.4945376 0.35914576 -0.41557768 0.37545848
0.8459581 0.00075333024 -0.0035065075 -0.57927525 0.92344683 -1.0050595 0.59487957 0.31568477

input.bias f4 [64]
00000000: eacf 22bf 363e 7abe 6d59 77be 51c4 cabe
00000010: c9c9 d7be ec23 6fbe 4a3d d5bc e89d 86be
00000020: 7479 ac3d 6b90 02bf 53b9 23bf 3eb6 8cbe
00000030: c7c1 17bf dab0 2abe 899f dc3e a521 7e3f
00000040: 7ec2 04bf 3cdc 763e 94e5 f6be 6158 d6bd
00000050: 3cae 5d3d 1314 dfbe 3984 45bd cf47 fabe
00000060: 5394 15bf bb38 d6be 5239 bcbc 48a1 acbe
00000070: c766 07be 8e34 31be fe3c e1be edd5 90be
00000080: d87b 2fbf 7674 893f 9308 033b 33e5 7abe
00000090: ecf2 3cbf 359d 99be 8c9c a1be a6de 23bf
000000a0: 81ef cfbe dd92 00be b777 8e3f ee99 a8be
000000b0: 66ec 7fbe e89d 14bf 12fc b0be ab1b 0ebe
000000c0: d347 90be 9eb5 ebbe 8d32 5d3f 29c0 ad3d
000000d0: 7210 a33e 5163 66be 9184 debe 1e0e 5abd
000000e0: 47b0 83be b926 1fbe afff a3be 95cd 0bbe
000000f0: 6f3f d53f 56f9 bdbe ff4e 93be 6a6e e4be
-0.635985 -0.24437794 -0.24155207 -0.39602903 -0.42146137 -0.23353547 -0.026030201 -0.26292348
0.08421603 -0.51001614 -0.6395466 -0.2748279 -0.59280056 -0.16669026 0.43090466 0.9927009
-0.5185927 0.2410745 -0.4822203 -0.10466076 0.05412124 -0.43570003 -0.0482218 -0.4888291
-0.5842945 -0.41840157 -0.022976551 -0.33716798 -0.132228 -0.17305204 -0.43991846 -0.28288212
-0.68548346 1.0738666 0.0019994124 -0.24501495 -0.7380817 -0.30002752 -0.31564748 -0.6401161
-0.40612414 -0.12556024 1.1130284 -0.3292994 -0.24992523 -0.58053446 -0.34567314 -0.13877742
-0.28179798 -0.46037 0.8640526 0.08483917 0.31848484 -0.22498824 -0.43460515 -0.05323612
-0.25720426 -0.15542115 -0.3203101 -0.13652642 1.6659983 -0.3710429 -0.28771207 -0.4461549

h1.weight f4 [32, 64]
00000000: af72 5f3e 3c7c fb3f 3b6d 433f 2d4b b23f
00000010: eaa4 a93f 9b8a 103f 532c 49be 1e99 9f3f
00000020: ec4b 923f e834 0f3f ed17 d0bc e2d8 113f
00000030: 215b 2a3f 454d af3f f450 bb3f 5e90 4cbe
00000040: 74b0 463f 4fb0 af3f 078e 2d3f 44b4 9f3e
00000050: 3005 853f 0100 143f c9d9 0140 83b5 fb3e
00000060: 28e2 583d 8a77 053f 03fe ccbe 56dd 1d3f
00000070: 620f 1c3f 2a02 00be 0f9c 643f ac64 a63d
00000080: 32db 063f f48e c5be 9644 a23f a3a4 653f
00000090: 2312 373f c44c eb3f b41f 293f 04ad 553f
000000a0: 24d8 2b40 0143 e63e 65d9 c5be bfaa a33f
000000b0: d21a b43f dd6d ab3f 6656 f0be 2f70 903f
000000c0: 9581 93bd 5b95 05be 2af2 bd3c 77b5 993f
000000d0: 3360 a33f 4137 4e3f d776 5e3f 6c9c 9a3e
000000e0: 5464 233f 4941 9b3f 27de 473f 831c 083e
000000f0: 1803 febc bff4 0f3f 4ee1 203f 77ed 723f
00000100: aebe 8abf 6ee8 4bbf 8c2e a6be f768 4ebf
00000110: 533b 1cbf 9646 87bf 68ef 25bf 7da1 88bf
00000120: 0e69 56bf 1c20 69bf 0c19 dbbd 4d1a 96bf
00000130: 48c3 23bf e08f ce3d 7f47 97bf fc8c 94be
00000140: 4048 26bf 9b71 eabe 301c 20bf b719 cebf
00000150: 8073 d9be aedb 93bf d927 4dbf e3c3 00bf
00000160: fcf6 2cbf 2e3a 08bf 8923 32bf b474 77bf
00000170: 1d7a 84bf 3249 4dbf 7ab5 86be dacd 1bbf
00000180: f82c 31bf 7698 033d e88e 08c0 2979 39bf
00000190: ddc0 3fbf 050e 43be 5b5c bdbe 94d7 36bf
000001a0: 275e b7bf 16a9 22bf 1fdc ca3e be4a 76bf
000001b0: 4ddf 98be 4525 b9be ef13 92bf 4eb0 1fbf
000001c0: 1488 29bf 5de2 8fbf a68b 1ebc 2f57 58bf
000001d0: 2fb6 f0be 321c 9ebf 301e 8bbe 911d 92bf
000001e0: 71ea d5bf 53bd 443d 6442 58bf 1e18 e6bc
000001f0: 3bc1 423e 367b 0fbf 4939 d1be ec33 32be
00000200: e466 2240 e49d 1b40 e066 c53f f323 2840
00000210: fe44 c93f af82 3140 a184 a33e aa70 2b40
00000220: 9ea2 d23f 066a ab3f b16c 433f b274 e23f
00000230: 791c e53f ce9d f53f a840 7940 18cc b5be
00000240: 449e 983f 9636 dd3f ef5c f53f 6e90 a93f
00000250: 93ef 5e40 775b e43f 33db 0840 4fbb 953f
00000260: a36f 933f 1b35 ba3f 14bb 693f 66bc c53f
00000270: 7833 b13f 62df 743f 2992 8b3f 6a90 ab3f
00000280: 2134 e63f a4ad 27bf f358 ac3f 10c9 9a3f
00000290: 87aa 1f3f dc7d 4d3f 7801 a13f 5827 573f
000002a0: f6d3 0c40 60b7 a83f 7205 45bf 9b5f ea3f
000002b0: d42f 3c40 8103 ff3f 6462 733f 5c68 0240
000002c0: 1937 8a3f ce7c 0a3e ad8f ccbe 33f0 253f
000002d0: d12c 433f fcbf 3540 fdc5 b03f d1a7 6a3f
000002e0: 45f6 7c3f f2a6 e73f b0cf 193f 2e35 873f
000002f0: 5ba5 5dbf fec8 2740 6876 733e a86a 993f
00000300: 061e f53e a2be ed3f b35f 2340 04b5 e33f
00000310: 649b 1140 cc9b 4440 d3d5 b2bd a45b 0640
00000320: d67f 543f 2707 813f 36d5 a33e 18aa aa3f
00000330: 8828 593f 7aec b73f 218c 4440 7ad4 debe
00000340: bfe2 0640 aa08 f13f 59e3 9e3f dca9 783f
00000350: eea6 4340 9f2d 3e3f 5baa e63f 40bb 8c3f
00000360: 87f2 e93e 9fd1 993f e6a5 d03f 6c08 923f
00000370: 4660 b23f 47c8 873f dca8 ca3f 970b 2540
00000380: 40b2 f33f 443f 29bf 056e cd3f 18ef 2a3f
00000390: 7dd8 1c3f 68d6 f83f 6511 bb3f 047d 0d3f
000003a0: 71e8 0040 0638 243f dd66 52bf f530 573f
000003b0: ff7c 1740 098a c63f 5196 9c3e 2df8 0140
000003c0: 0e07 963f 812d c53e af0a 33bf 22ee 4e3f
000003d0: c0aa 693f e21e b93f b2e8 0040 5913 243f
000003e0: 2a57 083f 34bf fc3f 052f 993f b9b6 9d3f
000003f0: d00e 6ebf 91af ec3f 7e2d e73e ffea 9b3f
0.21821092 1.9647288 0.7633855 1.3929192 1.3253453 0.56461495 -0.19645815 1.2468603
1.142942 0.55940104 -0.025402034 0.5697156 0.665453 1.3695456 1.463408 -0.19976947
0.77612996 1.372568 0.6779484 0.3119222 1.0392208 0.57812506 2.0289176 0.4916192
0.052950054 0.5213553 -0.40037546 0.61665857 0.6096097 -0.12500826 0.89300627 0.081246704
0.52678216 -0.38585627 1.2677181 0.8970434 0.7151205 1.8382802 0.66064 0.83467126
2.6850672 0.44972995 -0.3864242 1.2786483 1.4070685 1.3392903 -0.46940917 1.1284236
-0.0720245 -0.13045256 0.023186762 1.2008504 1.2763733 0.8055306 0.86900085 0.30197465
0.63824964 1.2129298 0.7807335 0.13292126 -0.031007335 0.5623283 0.6284379 0.9489359
-1.0839441 -0.79651535 -0.32457387 -0.80628914 -0.6102802 -1.0568416 -0.6481843 -1.0674282
-0.8375405 -0.9106462 -0.10698137 -1.1726776 -0.6396985 0.10086036 -1.1818694 -0.29013813
-0.64953995 -0.457898 -0.6254301 -1.6101598 -0.42470932 -1.1551416 -0.8013893 -0.502989
-0.6756437 -0.53213775 -0.6958547 -0.9666245 -1.0349766 -0.8018981 -0.2631033 -0.6086098
-0.6920924 0.03212782 -2.1337223 -0.724505 -0.7490366 -0.19048317 -0.36984524 -0.71422696
-1.4325608 -0.63539255 0.39621064 -0.962078 -0.29857865 -0.36161247 -1.1412333 -0.62378395
-0.66223264 -1.1240956 -0.0096768495 -0.8450803 -0.47013995 -1.2352355 -0.2717147 -1.1415273
-1.6712171 0.048032116 -0.84476304 -0.028087672 0.19019024 -0.5604738 -0.40864018 -0.17402619
2.53753 2.4315119 1.542202 2.6271942 1.572418 2.7736013 0.31937125 2.6787515
1.6455877 1.3391731 0.76337725 1.7691863 1.7899314 1.9188783 3.8945713 -0.35507274
1.1923299 1.7282283 1.9168986 1.3247201 3.4833724 1.7840413 2.1383789 1.1697787
1.1518444 1.4547457 0.91301084 1.544812 1.3843832 0.95653355 1.090398 1.3403447
1.7984658 -0.6549933 1.3464645 1.209261 0.6236958 0.8027017 1.2578573 0.8404441
2.200437 1.3180962 -0.76961434 1.8310426 2.9404192 1.9922944 0.9507201 2.0376196
1.0798064 0.13524172 -0.39953366 0.6481964 0.7624026 2.8398428 1.3810421 0.9166232
0.9881328 1.8097823 0.6008253 1.0563104 -0.8658044 2.6216426 0.23775637 1.1985674
0.4787447 1.8573802 2.552716 1.7789617 2.2751093 3.072009 -0.0873219 2.0993433
0.8300756 1.0080308 0.31998605 1.3333158 0.8482747 1.4369042 3.0710528 -0.43521482
2.1075895 1.8830769 1.2413131 0.97134185 3.0570636 0.7428836 1.8020738 1.0994644
0.45692846 1.2017096 1.6300628 1.140882 1.393563 1.0607995 1.5832782 2.5788324
1.9038773 -0.6611216 1.60492 0.6677108 0.61267835 1.9440432 1.4614683 0.55268884
2.014187 0.64147985 -0.82188207 0.8405908 2.3670042 1.5510875 0.30583432 2.0307724
1.1720903 0.3851128 -0.69938177 0.8083211 0.9127617 1.446255 2.0142026 0.6409202
0.53258 1.974585 1.1967474 1.2321388 -0.9299135 1.8491079 0.45151895 1.218109

h1.bias f4 [32]
00000000: d326 91bf 0566 843f 70fd e8bf 6028 08c0
00000010: c839 bb3d 672e bbbf 433b 56bf f2ac 0fc0
00000020: 6772 f7bf b299 f7bf c548 07c0 b494 cbbf
00000030: 9c9b dfbf 5e0f 11c0 35b0 6f3f 04a5 00c0
00000040: a3d7 0bc0 196d 47bf 2853 0cc0 d99d d6bf
00000050: caff 14c0 797d 3b3f db45 79bf cdcb 02c0
00000060: dda1 703f 1183 e5bf dcf8 383f dc59 4d3f
00000070: 97ab 08c0 e4da 183f 608d 3c3f 72f6 01c0
-1.1339973 1.0343634 -1.8202343 -2.1274643 0.0914188 -1.4623536 -0.83684176 -2.2449307
-1.9331788 -1.9343779 -2.1138165 -1.5904756 -1.7469363 -2.266563 0.93628246 -2.0100718
-2.1850364 -0.77900845 -2.1925755 -1.6766921 -2.3281121 0.7323833 -0.97372216 -2.043689
0.93996984 -1.7930623 0.7225473 0.8021524 -2.135473 0.59709 0.7365322 -2.0306668

h2.weight f4 [16, 32]
00000000: 145e 90be 3fdb b63e de71 41be 04df 29be
00000010: f503 f83d 7e6a f3bd 3a1e 20be 75e1 05be
00000020: 618f f5be a777 f9be 1ee3 c0bc bc20 a1be
00000030: 53fc 0ebf d4b7 3abf 5d23 0ebd dbf0 783d
00000040: cb54 32be 8350 09bf 2ed8 a5be 7717 86be
00000050: 1db5 bfbe 6cff d43e d0c3 7dbf 40bd 18be
00000060: 8bbb b83e d296 1ebf 6dd6 b53c 2162 c23e
00000070: bcb8 5ebe 99c9 ce3e 9339 063e 5029 88be
00000080: f7e5 dabd becb 06bd 3e03 8e3c 13e0 ed3e
00000090: 3541 29be c7bb 0abe b0a2 afbe 4020 c8be
000000a0: b382 b43e 71bf 08be cab1 363e 16fd dd3e
000000b0: 3bb7 1f3d 5e50 81be dc67 66be e82e 8bbe
000000c0: cb2f 503e a3aa 363e 992b 033f aa5f 9abe
000000d0: bc7b ce3e a10f bb3d 594b 8f3d 75a5 c33d
000000e0: 7b53 733d 24dc 313e 1572 7dbc afa6 a23d
000000f0: 992c 2fbb 7ce5 8c3c 0ea9 c3bd be4d adbd
00000100: 7899 2b3e a98e b9bc 872f de3e c3d5 cd3d
00000110: da49 5dbe 8499 d53d 2a01 e73e ef0d 7fbd
00000120: f154 19be fcd9 ebbc 67d3 df3d e142 b63e
00000130: cf78 72be 39eb b03e b46c 59be 23ea c23e
00000140: 4efa a03e 5631 9d3d 80f8 a73e e52a 383e
00000150: c00c 5b3e e1af e9be b2db 353d cb0d a7be
00000160: c573 28bc 5741 f8bd b8f1 2dbe ef35 593e
00000170: 7ac0 2e3d 64d4 833d 880f dcbd b0c4 063e
00000180: f23d ca3d 4082 39bd 07bb debd 3900 f33d
00000190: 28b8 823d 4c74 03be 29c1 973d a663 703e
000001a0: 5d8a 15be 52d7 d23d 2934 633e 1801 c0bd
000001b0: 8310 9bbd ee97 75bd 10c5 97bd 62da b43e
000001c0: dee4 a93e 9c0e d73e 2ea2 1d3e f7dc 48be
000001d0: fc55 523d 74ca b1be 4415 bebe b35f b5bc
000001e0: 42f7 d3bd 12eb c7bd 59fb 6ebe ac7a c53c
000001f0: 11a9 a5bc b5c5 9dbe 8533 64b9 20c4 10be
00000200: d051 11bf f0df a23e 2acb f0bd bf68 2ebf
00000210: 4563 903e 6e43 bdbe 80ce 8fbe 75b2 72bf
00000220: 4798 06bf 792e 6ebf 09ae 12bf 4277 2cbf
00000230: f8c7 95bf dbcd 92bf 4830 3c3e 0855 b5be
00000240: d4a7 1bbe 30f6 26bf 48cc 13bf 871f 3fbf
00000250: 1283 2fbf 6a7f bb3e c8db b9bf cfb8 4fbf
00000260: 9998 c33d 2a9b aebf da5d 8c3e 9d7c b23d
00000270: c3d3 febe 30f6 313e a2ce 6c3e 4047 84be
00000280: 43ac 893e fd29 673e 1f3c ab3d 565e b33e
00000290: 0bf0 2dbe 1011 0cbe 359c 2a3e 7c20 f73e
000002a0: 7057 453e adba 7abe 2f68 fb3e b0a9 cc3d
000002b0: 778c bcbd c5c0 14be ad4d 9439 a86b 33be
000002c0: 115a 363e 7adb 7dbe 3ab4 e03e ae54 56be
000002d0: c489 243e dd97 dabc 7993 f0be b6ac 593e
000002e0: f106 24bb 6a8b d5bd 5a56 1a3d 4ac5 a2bd
000002f0: 6000 983e 5cd5 43bd dd8e 61be 4340 833d
00000300: 6d75 8f3d d9b9 3a3d 0248 883e acdd 7d3e
00000310: df53 653e 92c8 bf3e f2ef 483d 5339 913e
00000320: cf40 b53e c2d4 1c3e 7e5b 1f3f 3fde 983e
00000330: f9c6 d43d a531 c73b de67 82be 01ff b43e
00000340: 5808 d53e ace6 b2bd 26d9 173f 85e1 e03d
00000350: 0ec9 9c3d a78c 8abc e459 0d3f ae86 f63e
00000360: 4e22 a1bd 576b e93e a2a6 cfbd 5394 94be
00000370: 56e1 4f3f b86d 093d bc19 81be 036a a13e
00000380: 44cc 1fbe e296 4d3c 4dd2 163e c57b c63e
00000390: 8aee ebbc 09b8 873e 45a6 c4be c2ae d03e
000003a0: 531b e13d 1aaa 1d3e de34 3d3e 74d9 36be
000003b0: 10d7 6d3e 9c08 47be c9d6 6fbd f954 6ebd
000003c0: cf84 2fbe 41e6 d43c a10a ac3e f779 2f3e
000003d0: cc5c a43e 794f 963d d596 943e 054f 3a3e
000003e0: 3199 90be 8422 a03e 4761 bcbd 3518 143d
000003f0: 4d52 cc3e df8c 8abd 2074 17be aeb2 b83d
-0.28196776 0.35714146 -0.18891093 -0.1658898 0.1211013 -0.11885546 -0.1563653 -0.13074286
-0.47960952 -0.487241 -0.023545798 -0.31470287 -0.55853766 -0.7293675 -0.034701694 0.060776573
-0.17415158 -0.53638476 -0.32391495 -0.26189777 -0.37442866 0.4160112 -0.9912691 -0.14915943
0.36080584 -0.61948884 0.022196973 0.3796549 -0.21750158 0.40388182 0.131079 -0.2659402
-0.106883936 -0.032909147 0.01733553 0.46460018 -0.16528781 -0.13548194 -0.34303808 -0.39087105
0.35255966 -0.13354279 0.17841259 0.43357152 0.0389931 -0.25256628 -0.22500557 -0.27184224
0.20330732 0.1783853 0.512384 -0.3015111 0.40328777 0.0913384 0.06996793 0.09553043
0.059405785 0.17369133 -0.015469094 0.079419486 -0.0026729463 0.01719927 -0.09553729 -0.08462094
0.16757762 -0.022651033 0.43395635 0.100505374 -0.21610203 0.104296714 0.45118076 -0.062269147
-0.14973809 -0.028790466 0.10928994 0.355979 -0.23678897 0.3455446 -0.21232873 0.38069257
0.31440967 0.07675426 0.32806778 0.17985113 0.21391582 -0.45641997 0.04439897 -0.3262771
-0.010281508 -0.121218376 -0.1698674 0.2121198 0.04266403 0.06436995 -0.1074515 0.13160968
0.098750964 -0.04529023 -0.108755164 0.11865277 0.06382781 -0.12837332 0.07409889 0.23475513
-0.14603563 0.10294975 0.22187866 -0.093752086 -0.07571509 -0.059959345 -0.074106336 0.35322863
0.33182424 0.42003334 0.15393898 -0.19615541 0.051351532 -0.34724772 -0.371256 -0.02214036
-0.10349895 -0.09761633 -0.23338069 0.024106346 -0.020222219 -0.308149 -0.00021762967 -0.14137316
-0.5676546 0.31811476 -0.117575005 -0.6812858 0.28200737 -0.36965507 -0.28087234 -0.94803554
-0.52576107 -0.9303966 -0.57296807 -0.67369473 -1.1701651 -1.1469072 0.18377793 -0.35416436
-0.1520074 -0.652194 -0.57733583 -0.7465748 -0.6855937 0.36620647 -1.4520197 -0.8114137
0.0955059 -1.3641102 0.27415353 0.08715174 -0.49770936 0.1737907 0.23125699 -0.2583561
0.26889238 0.22574611 0.083610766 0.3503291 -0.169861 -0.13678384 0.16661151 0.4826697
0.19271636 -0.24485274 0.49102923 0.09993303 -0.09206479 -0.1452666 0.00028286633 -0.17521536
0.17807795 -0.24790755 0.43887502 -0.2093074 0.16068178 -0.026683742 -0.46987513 0.2125729
-0.0025028551 -0.10426982 0.037680008 -0.07947786 0.29687786 -0.047810897 -0.22027154 0.06408741
0.07004819 0.045587394 0.26617438 0.24791592 0.22395276 0.3745771 0.049056955 0.28364047
0.35401008 0.15315536 0.6224898 0.2985706 0.103895135 0.006078916 -0.2546987 0.35350803
0.41607928 -0.087354034 0.5931572 0.109805144 0.07655536 -0.016912771 0.5521529 0.48149627
-0.07867871 0.45589706 -0.101392046 -0.29019412 0.8120321 0.0335519 -0.25214946 0.31526193
-0.15605265 0.01254818 0.14728661 0.38766304 -0.028800268 0.26507595 -0.38408104 0.4075833
0.1099154 0.1539692 0.18477198 -0.1785639 0.23226571 -0.19436878 -0.058554444 -0.058186505
-0.17140506 0.0259887 0.3360186 0.1713637 0.32102048 0.07339377 0.29021326 0.18194206
-0.28241876 0.31276333 -0.09198242 0.036155898 0.3990654 -0.0676515 -0.14790392 0.090184554

h2.bias f4 [16]
00000000: 4437 663e 975d 71bf 436d c5bf 963c 08bf
00000010: 9c38 263f 4af8 e2bf eb1a 3cbf deb5 21bf
00000020: ddd8 d83e 8f87 d7bf bdf3 2cbe b74c 96be
00000030: eb0d b5bf 3bb2 b4bf 6635 67bf 3a12 ecbf
0.2248202 -0.9428343 -1.5423969 -0.53217447 0.6493013 -1.7732022 -0.73478574 -0.6316813
0.42352954 -1.6838244 -0.16889854 -0.29355404 -1.4144872 -1.4116892 -0.90315855 -1.8443062

h3.weight f4 [8, 16]
00000000: 74d3 8a3e e432 fdbf 6ba5 67bf 5019 d0bf
00000010: 7609 493e cc03 3fbf 17c4 adbf 0c93 22c0
00000020: 9f80 703e 4a53 28bf 7065 733e 30e2 3b3d
00000030: a87f 7fbf fb0a 96bf 4371 a7bf 3e10 81bf
00000040: f97e 3ebe bf38 e5bd e94e d63b 3e85 d33e
00000050: c7f7 e1bc 15ac 193e de8c b3bc 956b 2f3d
00000060: 842b 06be 9f92 9e3d 2bc5 d83e 77a6 e8bc
00000070: fa88 a43d 8c58 a43d 28f4 393e f10f d33e
00000080: 9b7d d73c a60d 273d cdc7 343d 04b8 81be
00000090: fdda 413d 5b33 c83d 1422 fd3d bea8 953d
000000a0: 6a8c 98bd 4bd0 d03d 01b9 303e 8f5f 6dbe
000000b0: 2b7a 903e ecba 4f3d a577 153d f22a e13d
000000c0: fd32 94bd b912 543e 49da 383e aa81 cd3c
000000d0: 6b4b ddbd c555 873e cc2c 12be 2c6f 35be
000000e0: 3fbd 85be 3a13 293e c6f2 363f ce05 1e3e
000000f0: fc07 b4bd 51ab 6b3e b8c0 8cbd b738 5a3e
00000100: f272 a0bd 3ab9 d63d d927 493e 86b2 e53c
00000110: b550 c4bb 43f3 a43e ea3e 293e 1a7d 673e
00000120: 5a81 45be 9543 0ebd ee28 ac3e 79ff 39be
00000130: a261 893b 6cba e53c 41f5 5c3d bfe0 8a3d
00000140: b4c7 13be 9fef 0fbe 5ae6 8b3d c6e2 73be
00000150: f9c7 5dbe d1e8 9c3e 5660 dfbd c877 b3bd
00000160: 37d9 e7bd 0f0a 843e 3a0d 003f 68d9 03be
00000170: f489 8c3d 0f9e 323e 28cc 5dbe b7c4 e83e
00000180: 9ca9 13be 7cef c3bc 261b 68be 5294 72be
00000190: ce68 c73b f8f9 8fbc 90b3 06bd 758e ffbd
000001a0: 5ece 8dbe f20c 91be 2389 5fbd d80b 64be
000001b0: f3a9 20be 15ff 57be b1ba 9abe 85af c6bc
000001c0: 189c 33be b48c e23e 3707 3b3d 2c30 86bd
000001d0: 91c5 59be 3d84 143f cf38 88be f81b 643e
000001e0: 9dbe 36be ca3d 62be 9714 ff3e 84a1 0cbe
000001f0: 9bd0 fbbe c147 05bd 705f 85be 95f9 b33e
0.2711445 -1.9781156 -0.9048678 -1.6257725 0.19632515 -0.7461517 -1.3575467 -2.540225
0.23486565 -0.6575209 0.23769164 0.045870006 -0.9980416 -1.1722101 -1.308144 -1.0083082
-0.18603124 -0.11192464 0.0065401685 0.41312593 -0.02758397 0.1500705 -0.021917757 0.042827208
-0.13102537 0.077428095 0.42337927 -0.02839969 0.08033939 0.080247015 0.18159544 0.412231
0.02630501 0.0407845 0.044135857 -0.25335705 0.047327984 0.0977542 0.123600155 0.07307576
-0.07448657 0.10195979 0.17258073 -0.23180984 0.28218207 0.050715372 0.036491055 0.10994519
-0.07236288 0.20710267 0.18052019 0.025086243 -0.108054005 0.26432624 -0.14274901 -0.1771819
-0.26120946 0.1651124 0.7146419 0.15431902 -0.087905854 0.23014571 -0.06872696 0.21310697
-0.07834424 0.10484548 0.19644107 0.028039228 -0.0059910663 0.32216844 0.16527906 0.22606316
-0.19287625 -0.03473242 0.33624977 -0.18163861 0.004192547 0.028042994 0.05394483 0.06781148
-0.1443165 -0.14056252 0.068310454 -0.23816976 -0.21658315 0.30646375 -0.109070465 -0.08763081
-0.11320727 0.25788924 0.5002018 -0.12875903 0.0686225 0.17443107 -0.2165991 0.45462582
-0.1442017 -0.023917906 -0.22666606 -0.23689392 0.0060854917 -0.01757525 -0.032886088 -0.124783434
-0.27696508 -0.2833019 -0.054574143 -0.22270143 -0.1568983 -0.210934 -0.3022056 -0.024253616
-0.17540014 0.44247973 0.045661177 -0.06552157 -0.21266772 0.5801428 -0.26605842 0.22276294
-0.1784615 -0.22093883 0.49820396 -0.13733488 -0.4918259 -0.032539133 -0.26049376 0.35151353

h3.bias f4 [8]
00000000: 13b5 ae3f c9a6 bcbf 3670 99bf a661 a0bf
00000010: bd92 86bf 8694 c6bf 7594 aabe 1228 babf
1.364901 -1.4738399 -1.1987369 -1.25298 -1.0513531 -1.5514076 -0.3331639 -1.4543478

h4.weight f4 [1, 8]
00000000: 19eb 393f 0058 83bc f1e2 96bc 1c6c cbbb
00000010: c81c 86bc baac a8bc 1df1 0d3e 91d7 7dbc
0.72624356 -0.016033173 -0.018418761 -0.006207956 -0.016371146 -0.020590175 0.13861509 -0.01549329

loss_fn.pos_weight f8 [1]
00000000: c4b5 9ab1 0017 7240
289.43766937669375

exp_avg f4 [64, 30]
00000000: 49c9 833a 4cf1 b0ba 5474 acba 66a3 053b
00000010: 636b 90ba 5c2c 10bb ba85 973a a02f 06ba
00000020: 0186 6838 fef4 ffb9 18f3 453b 77d8 09bb
00000030: a651 af38 ebf7 433a 4c51 d73b 2653 59bb
00000040: a7a7 27bb eff0 94bb 05d1 8abb 430c b73a
00000050: 2fda 0fb9 09b0 1e39 ae63 26b9 7181 c839
00000060: 7bb5 37ba 14f0 a0ba 0310 d63a f19c e3b9
00000070: ddbd 3fb9 54d7 8e3a 56b6 353b 512a a3ba
00000080: d2f4 59ba f50d 633a 1d69 95bb 7584 023b
00000090: 4123 cc39 cb64 8fba b4a7 973a 602d b939
000000a0: 250f 203a e1de 32ba df54 76b8 0eaf 013b
000000b0: 5b38 693b 31e2 b5ba 8688 c8ba 199a 7abb
000000c0: 2145 a3ba 3f1a 833a 57b4 90b9 a0a7 e4ba
000000d0: 6b6a b13a 1ebb 3b39 2358 60ba eb60 50bb
000000e0: be09 f93a e73d aaba 7a79 7eb9 5ebd d2ba
000000f0: c878 2cba 7daf e4ba 6585 12ba e9fc df3a
00000100: 6720 37ba d06a 17bb da10 9bba 3d6c ac38
00000110: 7081 68b9 9066 94b9 c827 f33a 5814 96ba
00000120: da3b d3b7 3f9e cab9 95ea b63b 3ad6 25bb
00000130: f306 3ebb b558 2bbb 51ca 0dbb b4ff 3e3b
00000140: efc6 0e39 1882 90b9 536d acba 232b d639
00000150: f736 89ba 37bf 75ba d2a7 ba3a ec4c 7239
00000160: 6a5c 6e39 93d3 5a3a abd2 9139 09a0 bdba
00000170: 46cb 9cba eda5 433a 6b12 08bb 8314 09ba
00000180: 003b de3a 0a5d 94ba 3503 c839 b77a 50ba
00000190: 6e14 0f3b 58b9 5fbb 54b6 deba a329 25b9
000001a0: 4b35 d83b 9e39 243a 7e60 ceba dcc7 79bb
000001b0: 402a 74bb 9a31 a83a c99a 5bb9 4ac5 3339
000001c0: 85ad 0bba 496c f539 b74a 77ba 728f 7ab9
000001d0: 19ea d93a 06c2 b9b8 0db9 8239 c823 033a
000001e0: ee1b 4b3a 60dc 13b5 daa8 37b9 d595 5eba
000001f0: f5eb efba fa66 5db9 c138 88ba 2505 31ba
00000200: 71dc bbb9 6386 0a3a 2e75 2db9 baeb cb38
00000210: c3fa 9539 6c34 cc3a cea1 1c39 7672 193a
00000220: 12d5 44ba 1dbb 453a 93ab 97ba 60bd 41b9
00000230: e9c6 adb9 b2fe da38 4d34 d439 cfaa 4cb9
00000240: 492b 913a 972c 75ba 4229 af39 e45c 5db9
00000250: ec61 47b8 3f6a a7b9 d2ed db3a 1d92 09ba
00000260: 58f9 8cb9 6594 2138 caf2 e4ba 956e a2b9
00000270: 6b4f f93a 3fe1 acb9 1b13 5b3a 6d88 103a
00000280: 9d48 873a b25b c5b9 c685 bc38 7b5b 0a3a
00000290: 1c27 c43a 2ef3 04bb bb1f 58ba 2668 d6ba
000002a0: aeee 43ba 80ca 243a dc6a 17ba 388d 7b39
000002b0: ad0b 5e3a aaba a139 0f66 55ba 1a2e b2ba
000002c0: 62c7 1a3a 929c 0ab9 ceab 0aba 9012 7c37
000002d0: 81ff 7eb9 b184 3fb8 caf2 d039 67ef cdb9
000002e0: 5ed4 0a3a 46bb 5339 f0fa 71b9 e6a0 74b9
000002f0: 13b7 8b39 f8e8 5eb9 71c7 a8ba 54c3 663a
00000300: 20a7 2bba 0978 1bba 3b74 0cbb 36c6 0bb8
00000310: e6f7 d7b8 b7b6 ec38 5365 ae39 3949 f2b9
00000320: 6aff d737 a903 1238 6500 80b9 1db9 07b9
00000330: bd53 15b9 4d86 8339 a133 fbb9 59bf 8d39
00000340: aa17 4539 b3d0 1db9 9d62 b83a cec0 e3b9
00000350: af91 8cba 32b6 4739 a803 a6ba c8a6 06ba
00000360: c376 103b 4e0c 8cba f3d9 f239 a1b2 9a39
00000370: 657c b13a 1e45 23bb a187 44ba 058a f839
00000380: d18e 863b d8e5 8eba c21e 0abb cd96 01bb
00000390: 1511 42bb 919e 8b3a 667f ebb9 1967 f239
000003a0: 9138 783a a322 033a f20e 2eba cc34 51ba
000003b0: 206a f83a 2562 a0b9 c8e7 2039 63c3 9a39
000003c0: b1b8 feb9 ccae 04bb 932e 6bba 6221 443b
000003d0: 265f 5ebb 8016 3cbb dfc7 0bba de0e a3ba
000003e0: 3f32 22ba b5c0 123a 3584 013b b5bc d9ba
000003f0: 3260 593a c96a 613b ac9d ab3b a077 38ba
0.0010054494 -0.0013499646 -0.0013157227 0.0020391583 -0.0011018332 -0.0021999096 0.0011560239 -0.0005118791
5.543791e-05 -0.00048819924 0.003020471 -0.0021033564 8.3598585e-05 0.00074756023 0.0065709706 -0.0033161133
-0.0025582106 -0.004545323 -0.004236343 0.0013965446 -0.00013718822 0.00015133632 -0.00015868127 0.00038243414
-0.00070079387 -0.001227858 0.0016331676 -0.00043413744 -0.00018285909 0.0010897913 0.002772709 -0.0012448524
-0.0008314374 0.00086614426 -0.0045596496 0.0019915376 0.00038936178 -0.0010940073 0.0011570365 0.00035319757
0.00061057723 -0.00068233727 -5.8730013e-05 0.0019788179 0.003558657 -0.0013876614 -0.0015299476 -0.0038238822
-0.0012456515 0.0010002329 -0.00027600184 -0.0017444976 0.0013535743 0.00017903416 -0.0008558055 -0.003179605
0.0019000096 -0.0012988419 -0.00024268581 -0.0016078164 -0.0006579277 -0.0017447319 -0.00055893353 0.0017088923
-0.00069857243 -0.0023104437 -0.0011830584 8.22176e-05 -0.00022173463 -0.00028305175 0.0018551284 -0.0011450155
-2.518103e-05 -0.00038646345 0.0055821636 -0.002530469 -0.0028995841 -0.0026145403 -0.0021635483 0.002914411
0.00013616284 -0.00027562748 -0.001315514 0.000408494 -0.0010468651 -0.00093745015 0.0014240688 0.00023107574
0.00022731876 0.0008347567 0.00027813515 -0.001446725 -0.0011962436 0.00074633845 -0.002076293 -0.0005229192
0.0016954839 -0.0011319232 0.00038149362 -0.0007952856 0.0021832245 -0.0034137573 -0.0016991594 -0.00015751137
0.00659815 0.0006264689 -0.001574531 -0.003811351 -0.0037256628 0.0012832165 -0.0002094313 0.00017144266
-0.00053282856 0.0004681072 -0.00094334356 -0.00023895295 0.0016625553 -8.857627e-05 0.00024933406 0.0005002585
0.00077479973 -5.5082455e-07 -0.00017515142 -0.00084909546 -0.0018304574 -0.00021114564 -0.001039289 -0.0006752781
-0.0003583166 0.00052843074 -0.00016542219 9.723702e-05 0.00028606327 0.0015579588 0.00014937596 0.0005853543
-0.00075085566 0.00075428357 -0.0011571519 -0.00018476462 -0.0003314533 0.00010442491 0.00040474758 -0.00019518587
0.0011075522 -0.00093526527 0.0003340934 -0.00021110807 -4.7536494e-05 -0.00031931882 0.001677925 -0.0005247908
-0.00026888656 3.8523594e-05 -0.0017467376 -0.00030981438 0.0019020861 -0.00032974218 0.0008357034 0.0005513493
0.0010321323 -0.00037643086 8.989456e-05 0.0005277914 0.0014965269 -0.0020286548 -0.00082444743 -0.0016357943
-0.0007474226 0.00062862784 -0.0005776116 0.00023989833 0.0008470368 0.0003084739 -0.0008140513 -0.0013594062
0.0005904344 -0.00013219033 -0.0005289883 1.5024692e-05 -0.0002431851 -4.5661527e-05 0.00039853744 -0.00039279016
0.00052959274 0.00020192293 -0.00023077033 -0.00023329593 0.00026648547 -0.00021258357 -0.0012876821 0.000880291
-0.0006548036 -0.00059306674 -0.0021431583 -3.332478e-05 -0.000102981736 0.0001128739 0.0003326336 -0.00046212392
2.5748934e-05 3.481252e-05 -0.00024414356 -0.00012943563 -0.00014240942 0.0002508633 -0.00047912917 0.0002703618
0.000187962 -0.00015050433 0.0014067475 -0.00043440465 -0.001072457 0.00019045992 -0.0012665885 -0.00051365467
0.0022043444 -0.001068482 0.00046320222 0.00029506258 0.0013541101 -0.0024913023 -0.0007497017 0.0004740508
0.0041063805 -0.0010902239 -0.0021075462 -0.0019773722 -0.0029612232 0.0010652115 -0.00044917612 0.0004623465
0.0009468878 0.00050024147 -0.00066398 -0.00079805846 0.0018952526 -0.00030590701 0.00015345134 0.00029518743
-0.0004858426 -0.0020245789 -0.00089714787 0.0029927124 -0.0033931225 -0.0028699934 -0.00053322123 -0.0012440344
-0.0006187297 0.00055981736 0.001976264 -0.0016612025 0.0008292227 0.0034395924 0.005237302 -0.00070368685

exp_avg_sq f4 [64, 30]
00000000: 8ad1 a03b c17c 163c 6428 3a3b da30 513c
00000010: eb16 d43a ba28 b23b 2fd0 103c a7d5 eb3b
00000020: f044 7d3a 0d0d b33a 5a53 a43c be84 2b3d
00000030: 9faf 693b 0ebc 4a3d e85d 073d 63ff dd3b
00000040: 66f3 453d 2e59 093c e700 493d f6fd c03c
00000050: 8c9e 803b 3e57 a73b f142 673b ac17 993c
00000060: b36a 2a3c 902f 0e3c 6ce2 363c 0e27 d73c
00000070: 5a36 2a39 a7d7 5e3a bb64 e23e 341a 913e
00000080: 136a be3e df3f 113e fdd8 753e ff2a 433d
00000090: ec21 693d a43f dc3d 1c79 bb3c d3cb 1f3d
000000a0: ccaf 3c3d e8b6 e13e d2a9 853e 964a b53f
000000b0: dd5a 493d 6523 1b3f 61b9 003e 7b31 123f
000000c0: 35f6 183c 1f2b bf3b bccc f73e 7110 9e3d
000000d0: 597f c03d 3816 5c3e 755c a23e 3cbb 6d3f
000000e0: 0eaa ee3e 25ae db3d 7c05 a23c c134 9c3f
000000f0: d2cd ba3c a988 023d 7460 213c dae4 223d
00000100: 3414 543b 6a92 673c d59c e83c 135c 113d
00000110: ac78 043b 1a80 cd3c e800 693d 3025 e23d
00000120: 350a 383d 5d14 123e 0a30 c53d 5620 8e3d
00000130: ed1e 043e a82c 823c 5e9a 003e 2c46 d23d
00000140: 00c0 283c c8ad 423c 70c4 513c 7ef8 173d
00000150: 243c 543d 9131 1f3d 568c 1b3e bc0c 873d
00000160: 00ae c639 4716 c63b 8d45 273b f15e 9739
00000170: bec6 c23a d82c 173b 5cdc 743b 83ff 5e3b
00000180: 180c 803a c131 0d3b fa0f 8739 9d5f 3a3b
00000190: 697e b63b d851 233b 8642 d03b deed cc3a
000001a0: c515 873c dc2f c43b 0622 253b baf3 9a3c
000001b0: e85b a23b c58d cd3b 7a6a 3b39 2257 fa39
000001c0: 4241 003b 956c e739 4fad f93a 8e96 803a
000001d0: ccff 923a 7786 833a 69a9 8c3a a1c6 8139
000001e0: 180a 553e d3b8 033e c896 323e 99a8 b83d
000001f0: 396b e23d ae64 f93c 4b75 0e3d 97a8 883d
00000200: 45bf 343c ee05 053d 94be 6c3d 64a6 973e
00000210: aaf0 1b3e 0aba 443f e631 9c3d 0af3 a03e
00000220: 38db 243e b059 873e 7384 e73d 86ba b33d
00000230: 103c 5c3e 0670 f53c 940f 393d 5ffa a43d
00000240: 659c 383e 7a5f e23e daf4 a63e 7f0a 303c
00000250: d017 143c ca4b 0c3f 0e8f 043e bd01 a23d
00000260: bbf4 6f3c b033 aa3e 942b 223c 8b9d ac3d
00000270: 1370 e23d f6b5 7c3d a386 923c b2ec cf3c
00000280: c433 673d 49c7 023c 0dd1 463d 33a4 1a3d
00000290: caa6 353e adaa 8c3d cca8 683c 4605 8f3e
000002a0: 4c2b 2e3d b2e7 6e3d 3043 9f3b 8643 d03b
000002b0: 2185 803d e181 103d 43fd 883d fe51 623e
000002c0: be57 203e c118 903a c2d8 8a3a d219 0b3c
000002d0: 8b7c eb39 79ba a339 c5c4 3838 0221 193a
000002e0: 44ef 1239 11fa 2039 737f 8139 35a6 ec38
000002f0: ab25 1938 ab45 5538 0248 0139 b7ee 6039
00000300: 40c6 5039 449c 3c3a 42dd bf39 31d9 e039
00000310: 3a84 bd38 1263 4b3a 526f b038 2cfb d638
00000320: 9ee9 1438 16fb 5d38 d268 1b39 2410 3839
00000330: 4889 8739 ccdd 583a 6486 dc39 b9b6 8339
00000340: 416e 3036 dc7b 4e38 12d6 d63c 35d8 3b3d
00000350: e0c1 7f3c 950b 983d 31bb ee3b 70d9 f53c
00000360: c56f 3c3d 083a 583d 6832 cb3b 9a28 e83b
00000370: 874f e53d 01af 653e d8a1 983c 92fc 863e
00000380: d1b0 3b3e 02ab 043d e88d 833e ef24 4e3d
00000390: 920d 883e c550 fe3d 6e37 a03c c488 d13c
000003a0: d3a9 9b3c 51bb cd3d 2dfb 673d b403 693d
000003b0: df92 743d 0a55 033e 414d ba3a be7e fb3b
000003c0: 3351 843c 7878 1d3c dfae 0c3c 1022 123d
000003d0: 4885 f33b a318 3e3c 8e68 533c 82aa 9d3c
000003e0: aaf3 9539 68a8 543b 2336 523d e24e fb3d
000003f0: 8b93 3d3c 659b 113e 55e1 aa3d 7240 3f3c
0.0049077915 0.009185017 0.0028405422 0.012767995 0.0016181146 0.005436984 0.008838697 0.0071971
0.00096614566 0.0013660506 0.020059276 0.04187464 0.0035657657 0.04949575 0.03304854 0.0067748292
0.048327826 0.0083830785 0.049073126 0.023558598 0.0039251503 0.0051068356 0.0035287703 0.018688045
0.010401416 0.008678332 0.011162382 0.02626374 0.00016232711 0.00085007626 0.44217476 0.28340304
0.37190303 0.14184521 0.24008556 0.047648426 0.056917116 0.10754326 0.022884898 0.03901274
0.04606609 0.4408486 0.26106125 1.4163387 0.04915892 0.6060088 0.12570716 0.5710675
0.009336044 0.005833998 0.48398387 0.0771798 0.0939929 0.21492851 0.31711164 0.9286382
0.46614116 0.10726575 0.019778006 1.2203599 0.02280322 0.03186861 0.009849656 0.03976903
0.0032360675 0.014134029 0.028395096 0.0354882 0.0020213528 0.025085498 0.05688563 0.11042249
0.04493161 0.1426558 0.09628303 0.06939761 0.12902422 0.015890434 0.12558886 0.102672905
0.010299683 0.011882253 0.012803182 0.037102215 0.051815167 0.03886563 0.15190253 0.06594226
0.00037895143 0.006045136 0.0025523633 0.000288717 0.0014860255 0.00230675 0.003736279 0.0034026809
0.0009769229 0.0021544548 0.0002576111 0.0028438338 0.0055692685 0.002492061 0.0063555865 0.0015634855
0.016489873 0.0059871506 0.0025197282 0.018915046 0.0049548037 0.0062730038 0.00017873375 0.00047748635
0.0019570147 0.00044140653 0.0019048842 0.0009810494 0.001121515 0.001003458 0.001073164 0.00024752787
0.20804632 0.12863474 0.17440331 0.090165325 0.11055607 0.030443516 0.034779828 0.06672781
0.01103193 0.032476358 0.057798937 0.29619133 0.15228525 0.76846373 0.07626705 0.31435424
0.1609925 0.26435614 0.113045596 0.08775811 0.21507287 0.029960644 0.045180872 0.08055567
0.1802841 0.44213468 0.32608682 0.01074469 0.0090388805 0.54803145 0.12945196 0.07910488
0.014645751 0.3324256 0.009898085 0.084284864 0.11056533 0.06169697 0.017886465 0.02538142
0.056445852 0.007982084 0.04853921 0.03775425 0.17739406 0.06868491 0.014200401 0.2793371
0.04252176 0.05832643 0.0048603043 0.0063557057 0.06275392 0.035280112 0.06688931 0.2210159
0.15658471 0.0010993705 0.0010593163 0.008490043 0.00044915485 0.00031228716 4.4052274e-05 0.00058414054
0.00014012778 0.00015351946 0.00024699754 0.000112843154 3.6513124e-05 5.084804e-05 0.00012329224 0.00021451233
0.0001991028 0.0007194916 0.0003659521 0.0004288643 9.0368514e-05 0.0007758598 8.413069e-05 0.000102510996
3.5503523e-05 5.2924348e-05 0.00014821 0.0001755362 0.0002585149 0.00082727964 0.000420618 0.00025122406
2.629022e-06 4.922958e-05 0.026225124 0.045860488 0.015610188 0.07424084 0.0072854985 0.030010909
0.04600503 0.052789718 0.0062010773 0.007084918 0.11196809 0.2243004 0.01863186 0.2636457
0.18329169 0.03238965 0.25694203 0.05032819 0.26572853 0.12417749 0.019557681 0.02557791
0.019001877 0.100454934 0.056636024 0.056888297 0.05971038 0.12825409 0.0014213697 0.007675021
0.016152 0.0096112415 0.008586614 0.035677016 0.00743166 0.011602554 0.012903346 0.019246344
0.00028601039 0.003244901 0.05132116 0.12270905 0.0115708215 0.14219435 0.0834376 0.01167308

exp_avg f4 [64]
00000000: 99f9 7cbb e1be 98bb a8ff 75bb 09b0 81bb
00000010: 1850 09bb dca2 29bb a0bf 3a3a c557 72bb
00000020: 9dd3 b8bb 0f5e f4ba f6f3 63ba 08fe acbb
00000030: 3ae2 2abb c38d 2cbb 19a6 b8bb a94c 553b
00000040: c066 b5ba ca9f 82bb b75d 24bb cee5 4dbb
00000050: 5fcb b6bb 1b2f 8cbb b1d2 babb 076e 9bba
00000060: c498 0dbb 7e00 64bb d8f2 f5ba a834 55bb
00000070: eb53 60bb 041c 00bb a019 05bb 2d2a 4ebb
00000080: 07f4 6dbb 4a32 383b d63b 94bb 8c6e 3bbb
00000090: 374e e8b9 dc87 15bb 9411 5abb ade6 e5ba
000000a0: 4af4 7cbb 345d 13bb dcb1 8e3b 8fb6 00bb
000000b0: 53e8 7ebb 4936 87bb 8f7f 23ba fba9 76bb
000000c0: 37db a0ba 638a 40ba e72d 653b 19fa 67bb
000000d0: 78e7 08bb 9098 9ebb a964 8bbb f352 20bb
000000e0: 83a5 78bb 76d1 f3ba 9ee4 cbba 5871 6fbb
000000f0: 88ed 933b 4ddb bfbb 2a3c 03bb 43ff d8b9
-0.003860092 -0.0046614264 -0.0037536416 -0.0039577526 -0.002095228 -0.0025884425 0.0007123891 -0.0036978584
-0.0056404606 -0.0018643754 -0.0008695716 -0.0052793063 -0.0026074783 -0.0026329614 -0.0056350348 0.0032546914
-0.0013839826 -0.0039863335 -0.0025080272 -0.0031417492 -0.005578443 -0.0042780763 -0.005701386 -0.0011858352
-0.0021605948 -0.0034790332 -0.001876439 -0.0032532606 -0.0034229707 -0.0019547949 -0.0020309463 -0.0031458244
-0.0036308782 0.0028106146 -0.0045237346 -0.0028599827 -0.00044308763 -0.0022816574 -0.0033274638 -0.001754006
-0.0038597756 -0.0022485973 0.0043546986 -0.0019640063 -0.00388958 -0.0041263443 -0.0006236964 -0.0037637937
-0.0012272362 -0.000734484 0.0034969987 -0.0035396873 -0.002088992 -0.004839964 -0.004253943 -0.0024463504
-0.003794045 -0.0018601853 -0.0015555804 -0.0036536064 0.0045144 -0.005855 -0.0020024874 -0.00041388915

exp_avg_sq f4 [64]
00000000: 9786 b53c 0738 143f 3e7e 9f3d 3e04 0a3b
00000010: 0538 a23e e7cc b33d 7d06 e539 ddde f13d
00000020: 31ce 7d3d a99a 2c3e 6814 373c ec4f e23d
00000030: ab4c 0d3e bdcc 073f 7780 a33f bb2b fa3b
00000040: a2aa 663d f7d1 613c 2d00 2b3e 3cbe c43d
00000050: 4388 033e 0970 a93c ec7d 993d 43c5 cf3d
00000060: 45d0 e13d 3e4f b23d 68a1 423e 648e 8c3d
00000070: 34e2 0d3b 293e c03c 8e0c 653c 68c0 e93c
00000080: 856b 9a3c 2b5c 693c 750f 213d 1428 4c3e
00000090: 6131 0d3d 4ca1 313e 2550 f03c 3870 823c
000000a0: c1fa 8a3b 2684 b33c cf77 6a3c e825 293c
000000b0: c248 c63b acee fd3e 29e8 2a3b 4f07 833d
000000c0: 38ef b13a cb43 973c f44c 6f3d 67e5 ae3a
000000d0: f839 f83d c1b0 c73e 5ce9 6d3e df9f 003e
000000e0: 0015 b03d 44e5 2f3e 3024 9d3a 9ba2 5c3d
000000f0: 670c ad3d ea77 ad3e 396f f23b 3481 003e
0.022158904 0.5789799 0.07787751 0.0021059657 0.31683365 0.087793164 0.00043683118 0.11810086
0.061964218 0.16855873 0.011174299 0.110504 0.13798778 0.5304678 1.2773579 0.0076346076
0.056315072 0.01378297 0.16699286 0.09606597 0.12844948 0.020683305 0.07494721 0.101450466
0.110260524 0.087065205 0.19006884 0.06863096 0.002164972 0.02346714 0.013980044 0.02853413
0.018850097 0.014243166 0.03932138 0.19937164 0.03447092 0.17346686 0.02933509 0.01592265
0.004241318 0.0219136 0.014310791 0.010323979 0.006051154 0.49596155 0.002607832 0.063978784
0.0013575321 0.018464943 0.058422998 0.0013343514 0.12120432 0.3900204 0.23233551 0.12560986
0.085977554 0.17177302 0.0011988934 0.05386601 0.08449631 0.3388055 0.0073985127 0.12549287

exp_avg f4 [32, 64]
00000000: 3434 42b9 2508 bbb8 62fc efb8 0f31 09b9
00000010: 38ee 8eb8 d31c bfb8 0b5d 71ba f5c1 a3b8
00000020: 4f3d 6cb9 0142 f2b8 8b60 e0b8 be87 05b9
00000030: a44e 33b9 44e1 b9b8 b027 66b8 5aaa 15bb
00000040: 7335 92b7 be06 08b9 db68 52b9 3b0e dcb9
00000050: 2cab 6db8 7202 53b9 eb98 f4b8 8a99 78b8
00000060: a8ba 95b9 c6fe 14b9 cb7b 02b9 876b 1eb9
00000070: 633a e2b8 6f7a b9b8 667f e8b8 ecff 83b8
00000080: 5ecf e4b8 09c0 d7ba 4588 a2b9 4dca 4cb9
00000090: 5520 fab7 c1d5 beb8 45f2 54b9 cd82 bbb9
000000a0: 996c 97b8 e1cd 84b8 364e 04bb 7a45 41b8
000000b0: e2ea 5cb8 1b88 7fb8 243e 99b9 6fe4 27b9
000000c0: 2e1f 02b9 82ba 53b9 9c87 f3ba eccc b8b9
000000d0: 6473 36b9 4dae 7fb9 6907 a3b9 e1ea a7b9
000000e0: 73c8 2ab9 7f51 5fb8 4df4 73b8 c7a5 8fb9
000000f0: 4455 ecba 1f9c 40b9 624e 11b9 d13b d3b6
00000100: 0400 0000 0400 0080 0400 0080 0400 0080
00000110: 0400 0080 0400 0080 8094 61b8 0400 0000
00000120: 0400 0080 0400 0080 0400 0080 ef4d 27b6
00000130: 0400 0080 99ef 249a 5a64 2c8c c5d6 a8ba
00000140: 0400 0080 0400 0080 0400 0000 0400 0080
00000150: 0400 0080 0400 0000 0400 0080 0400 0080
00000160: 0400 0000 0400 0080 0400 0080 0400 0080
00000170: 0400 0000 0400 0000 0400 0080 0400 0080
00000180: 0400 0080 1f4c 90ba 0400 0080 0400 0080
00000190: 0400 0080 8c3c 218e 0400 0080 0400 0000
000001a0: 0400 0000 0400 0080 ccf8 5bba 0400 0080
000001b0: 0400 0000 0400 0080 0400 0000 0400 0080
000001c0: 0400 0000 0400 0000 f7e9 9bba 4726 0680
000001d0: 0400 0000 0400 0080 0400 0080 0400 0000
000001e0: 0400 0000 7996 be88 5a3c 1280 0400 0080
000001f0: f056 93ba 0400 0080 0400 0080 e3df 4b99
00000200: 99e0 58b9 6ec4 b1b8 95a2 1fb9 f9e9 28b9
00000210: 7807 f3b8 5f07 e1b8 68cb 8eba e481 c9b8
00000220: e3cb 9db9 4aa9 1ab9 7a98 acb8 3d5e 4bb9
00000230: 5cc3 32b9 2a05 f8b8 42e7 15b9 0333 2dbb
00000240: b564 6fb8 203f 62b9 d439 76b9 c9d3 fab9
00000250: 0709 d2b8 e2cd 8cb9 f5ce 11b9 e825 8db8
00000260: b592 b0b9 f700 2bb9 c67a 34b9 683c 53b9
00000270: 19ee 21b9 abad bbb8 af3f 06b9 a6d9 bdb8
00000280: 21e8 fbb8 eca4 06bb 3bce f6b9 834a 7fb9
00000290: 3d00 cfb7 566c d9b8 c248 82b9 a6e0 ceb9
000002a0: 39ac 07b9 b3a5 edb8 324e 1dbb bd95 92b8
000002b0: 7cdd cbb8 ffd6 c0b8 16e9 bfb9 a237 4cb9
000002c0: 330b 21b9 4ea5 93b9 26e4 1abb ba81 f4b9
000002d0: 3fb0 6fb9 459e 94b9 69e3 b1b9 23de afb9
000002e0: d34b 6eb9 844e c1b8 3a97 96b8 49ad cfb9
000002f0: 14dc fcba 79a2 60b9 b092 10b9 deaa c0b7
00000300: 95e8 96b8 a3c5 1ab8 c642 d5b8 86ff 5ab8
00000310: 5000 b4b8 1536 25b8 7e7c d2b9 edec 55b8
00000320: 05de 23b9 fa3c 58b8 1798 d2b7 e1b0 e9b8
00000330: 620a 38b8 e183 7db8 2795 e9b8 a131 69ba
00000340: 3e53 2bb8 845f d7b8 c294 2fb8 5b46 4ab9
00000350: d7c7 9db8 4ad1 0ab9 e7f9 f9b8 13ca e2b7
00000360: cfaf 43b9 65e0 bdb8 7b61 aeb8 cd64 13b9
00000370: f06b 6cb8 21f4 76b7 50d6 ccb8 920d 73b8
00000380: 84d6 9cb8 289f 27ba 5b7e a9b9 3a9f fab8
00000390: 284d 0a36 3069 86b8 906f abb8 6ada 1ab9
000003a0: 177d 8fb8 7ac5 eeb7 bfd7 66ba 27c2 6eb7
000003b0: 776e 71b8 7700 c2b7 e573 eab8 f08b 8eb8
000003c0: 0e11 51b8 9d54 e4b8 dd64 8cba 9b61 19b9
000003d0: f062 bab8 bafd d8b8 46c9 25b9 d2be a4b8
000003e0: 792e eab8 aa67 4cb8 b18c 2db8 51db 22b9
000003f0: b626 53ba 4a1e 09b9 5bba 9eb8 bce9 99b7
-0.00018520729 -8.918372e-05 -0.00011443418 -0.00013083614 -6.815459e-05 -9.112959e-05 -0.0009207285 -7.808573e-05
-0.00022529553 -0.000115517534 -0.00010699135 -0.00012734436 -0.00017100066 -8.8634464e-05 -5.4873235e-05 -0.0022837133
-1.7429446e-05 -0.00012972482 -0.00020066222 -0.00041972272 -5.666462e-05 -0.00020123439 -0.0001166331 -5.9270802e-05
-0.00028558564 -0.0001420929 -0.00012443883 -0.00015108111 -0.00010787395 -8.8442925e-05 -0.00011086352 -6.294236e-05
-0.00010910512 -0.0016460429 -0.00031000577 -0.00019530319 -2.9817378e-05 -9.099721e-05 -0.00020308148 -0.00035764874
-7.220469e-05 -6.3325984e-05 -0.002018822 -4.607949e-05 -5.267084e-05 -6.0923496e-05 -0.00029228732 -0.00016011459
-0.00012409381 -0.00020192008 -0.0018579843 -0.00035247894 -0.00017399859 -0.00024383627 -0.00031095304 -0.0003202772
-0.00016287137 -5.3243242e-05 -5.8163238e-05 -0.000273986 -0.0018030782 -0.00018368707 -0.00013857477 -6.2952536e-06
6e-45 -6e-45 -6e-45 -6e-45 -6e-45 -6e-45 -5.378248e-05 6e-45
-6e-45 -6e-45 -6e-45 -2.4930303e-06 -6e-45 -3.410795e-23 -1.3280596e-31 -0.0012881389
-6e-45 -6e-45 6e-45 -6e-45 -6e-45 6e-45 -6e-45 -6e-45
6e-45 -6e-45 -6e-45 -6e-45 6e-45 6e-45 -6e-45 -6e-45
-6e-45 -0.0011009014 -6e-45 -6e-45 -6e-45 -1.9873934e-30 -6e-45 6e-45
6e-45 -6e-45 -0.00083912606 -6e-45 6e-45 -6e-45 6e-45 -6e-45
6e-45 6e-45 -0.0011895288 -5.64744e-40 6e-45 -6e-45 -6e-45 6e-45
6e-45 -1.1470585e-33 -1.674689e-39 -6e-45 -0.0011241119 -6e-45 -6e-45 -1.05400676e-23
-0.00020683034 -8.4766056e-05 -0.00015223988 -0.0001610889 -0.00011588534 -0.00010730209 -0.001089436 -9.608621e-05
-0.0003009728 -0.0001474965 -8.23e-05 -0.00019394695 -0.0001704818 -0.000118265234 -0.00014295898 -0.002642811
-5.707583e-05 -0.00021576555 -0.00023481931 -0.00047841508 -0.00010015262 -0.00026856276 -0.00013905375 -6.7304645e-05
-0.0003367864 -0.0001630819 -0.00017211874 -0.00020145031 -0.00015442855 -8.949203e-05 -0.0001280296 -9.0527625e-05
-0.0001201185 -0.0020545078 -0.0004707443 -0.00024346453 -2.4676434e-05 -0.000103675455 -0.0002484974 -0.00039458758
-0.00012938761 -0.000113319045 -0.0024002907 -6.9897134e-05 -9.721049e-05 -9.1953196e-05 -0.0003660402 -0.00019475681
-0.00015358329 -0.00028161186 -0.0023634522 -0.0004663596 -0.00022858473 -0.0002834668 -0.00033929505 -0.00033544106
-0.00022725695 -9.217582e-05 -7.1807255e-05 -0.00039611224 -0.0019291663 -0.0002142283 -0.00013787556 -2.296775e-05
-7.195879e-05 -3.6900525e-05 -0.00010169069 -5.2213225e-05 -8.583127e-05 -3.9389433e-05 -0.00040147075 -5.100381e-05
-0.000156276 -5.1555202e-05 -2.5104773e-05 -0.00011143252 -4.387869e-05 -6.0442722e-05 -0.000111380876 -0.000889564
-4.0847102e-05 -0.0001026979 -4.1861793e-05 -0.0001929043 -7.5235665e-05 -0.00013238672 -0.00011919793 -2.7035398e-05
-0.00018662143 -9.054019e-05 -8.315124e-05 -0.00014056564 -5.636731e-05 -1.4719583e-05 -9.767397e-05 -5.7948353e-05
-7.478616e-05 -0.00063942606 -0.00032328334 -0.00011950587 2.0608513e-06 -6.4092106e-05 -8.1746955e-05 -0.0001476795
-6.842071e-05 -2.8463768e-05 -0.00088059524 -1.423111e-05 -5.7561756e-05 -2.3126819e-05 -0.000111795765 -6.797153e-05
-4.9845366e-05 -0.00010887648 -0.0010711212 -0.00014627578 -8.8876e-05 -0.00010346943 -0.00015810606 -7.8556724e-05
-0.00011166646 -4.8733935e-05 -4.1377443e-05 -0.00015531226 -0.00080547796 -0.00013076622 -7.5687385e-05 -1.8347862e-05
