lightning_logs/version_3/checkpoints/epoch=6-step=2926.ckpt (torch, 70885 bytes, 28 tensors)

input.weight f4 [64, 30]
0.17490551 0.24345966 0.18208992 0.124454826 -0.21969607 -0.22128242 0.063066326 -0.013424951
0.28860334 0.25285012 0.26607203 -0.18723552 -0.022218265 -0.22105365 -0.041593447 0.13708057
-0.03937688 0.018367305 -0.17870146 -0.13681145 0.12293194 0.023333212 0.029170305 -0.06612948
-0.2001545 -0.25836453 -0.12945236 0.19588494 -0.02910108 -0.09912007 0.254975 -0.10695694
-0.19299552 0.06274285 -0.19678052 -0.015506895 0.049410254 -0.015964393 -0.16283454 0.09743322
-0.12026109 -0.17618082 -0.017741764 0.0019262237 0.11002084 -0.17277655 0.17595376 -0.11682044
0.030563679 -0.032059792 0.2079109 -0.042265385 -0.101228595 -0.02147903 0.019602004 -0.040260147
0.2515847 0.13595523 -0.026569793 0.187123 0.036445353 -0.09920109 0.06747134 -0.24863487
0.0025071744 -0.017483985 -0.14022018 0.06355657 0.088009946 -0.062365867 -0.12626497 0.044484533
-0.10125307 -0.21146579 -0.19930108 -0.06486952 -0.41808146 -0.35344103 -0.098725654 -0.0039536105
-0.024452982 0.23343353 -0.014420062 -0.100844964 0.180058 -0.12310783 -0.16293418 -0.11432695
-0.10357643 0.12289731 0.11960598 -0.23008628 -0.06596536 -0.004608433 0.2240081 0.073048145
-0.1690103 -0.132528 0.07679747 0.06752637 -0.2421464 0.27191994 -0.055748813 -0.10686788
-0.18355303 0.05179981 -0.09014874 -0.13477536 0.011693749 0.08476767 -0.0045236046 0.080601655
-0.09819043 -0.0067431103 0.288987 -0.13778916 -0.14791274 0.016569126 0.09088814 0.001798583
-0.25021356 0.3652984 -0.024174588 0.022716083 0.08796241 0.019668417 -0.040496238 0.12846307
0.17368492 -0.09391413 0.11635403 0.082132466 0.15352605 -0.20569927 0.32645798 0.20990446
-0.18691462 -0.0814826 -0.14755997 -0.05855591 -0.14606683 0.083167955 -0.17162718 0.0013355123
0.19740492 0.10716374 0.22902419 -0.119692236 -0.10130835 0.026324596 -0.03685291 0.36997944
0.18130729 -0.037356317 0.04266631 -0.18230331 -0.17360279 -0.059718046 0.32586625 -0.0104697915
0.18557402 0.0019310365 0.17282078 -0.24500698 0.26769733 -0.07121333 -0.19582725 0.18601881
0.14896739 0.08185388 -0.15172157 -0.16550508 -0.104845844 0.12282585 0.25806186 0.17596322
-0.06431193 -0.2990459 -0.13811867 -0.036987647 0.05984256 -0.24304648 -0.1348077 0.090213165
0.07192979 -0.047562573 -0.14297023 0.071164176 -0.03356707 0.2069774 -0.22723505 0.15703988
-0.112582095 -0.27483016 -0.19831128 0.21277912 -0.22944394 -0.2706533 -0.020268466 0.06674792
0.17719527 0.232561 -0.021034328 0.110121906 0.03978313 -0.15383177 -0.19506545 0.015821416
-0.08645052 -0.060648683 0.040810715 -0.15077174 0.091129236 0.14152692 0.23978262 -0.065647386
0.028432116 -0.24060081 -0.00058558024 0.062400438 -0.0054225028 0.047005754 -0.18460847 -0.0003728191
-0.1702961 -0.121115334 -0.013059506 0.109953985 -0.055633433 0.07061334 0.14662176 0.154737
0.109011255 0.02008578 -0.10582561 0.0062265974 0.049863264 -0.14234966 0.102657065 0.024778817
-0.024395451 0.07144033 0.11745014 -0.09350101 0.20467237 0.08465736 -0.021563841 -0.19534501
0.069772966 -0.20922987 -0.10433663 0.120301776 -0.073182724 0.13685684 -0.11277076 0.022075562
00000000: 6e1a 333e 7d4d 793e c875 3a3e 2ce2 fe3d
00000010: 02f8 60be dc97 62be eb28 813d 53f4 5bbc
00000020: d1c3 933e 9275 813e 983a 883e abba 3fbe
00000030: 1403 b6bc e35b 62be e45d 2abd d95e 0c3e
00000040: a749 21bd 0877 963c 84fd 36be 4d18 0cbe
00000050: bec3 fb3d 4b25 bf3c 90f6 ee3c e56e 87bd
00000060: 4df5 4cbe 5b48 84be 298f 04be 1096 483e
00000070: 6365 eebc 77ff cabd 158c 823e 3d0c dbbd
00000080: 9ea0 45be 537f 803d d580 49be a210 7ebc
00000090: 6862 4a3d c2c7 82bc 19be 26be 118b c73d
000000a0: 724b f6bd bf68 34be 2d57 91bc 5879 fc3a
000000b0: 9b52 e13d 56ec 30be 392d 343e 8e3f efbd
000000c0: ae60 fa3c 2151 03bd 98e6 543e 781e 2dbd
000000d0: f050 cfbd caf4 afbc 6294 a03c d3e7 24bd
000000e0: b6cf 803e d937 0b3e e5a8 d9bc 2c9d 3f3e
000000f0: b947 153d f129 cbbd 6a2e 8a3d 249a 7ebe
00000100: 684f 243b 933a 8fbc e195 0fbe f229 823d
00000110: 8f3e b43d 5a73 7fbd 9b4b 01be 6a35 363d
00000120: c55d cfbd 7d8a 58be 9515 4cbe 50da 84bd
00000130: c60e d6be 39f6 b4be ad30 cabd 4a8d 81bb
00000140: 9f51 c8bc 3309 6f3e 2042 6cbc ce87 cebd
00000150: 2061 383e f51f fcbd 38d8 26be 3f24 eabd
00000160: e11f d4bd 96b1 fb3d fbf3 f43d bd9b 6bbe
00000170: d918 87bd 5702 97bb 6162 653e 449a 953d
00000180: 0911 2dbe 6cb5 07be fe47 9d3d 444b 8a3d
00000190: 3af5 77be 1739 8b3e de58 64bd 8cdd dabd
000001a0: 53f5 3bbe 0a2c 543d e79f b8bd 8d02 0abe
000001b0: 2397 3f3c ac9a ad3d bf3a 94bb 7b12 a53d
000001c0: 1018 c9bd 4ff5 dcbb 1bf6 933e 9a18 0dbe
000001d0: 7076 17be fabb 873c 9023 ba3d 6ebe eb3a
000001e0: fe1b 80be 6408 bb3e c909 c6bc 1417 ba3c
000001f0: a325 b43d a91f a13c 62df 25bd d38b 033e
00000200: 76da 313e 0d56 c0bd 064b ee3d 1135 a83d
00000210: ef35 1d3e d4a2 52be 8025 a73e 32f1 563e
00000220: 8c66 3fbe 59e0 a6bd f619 17be 52d8 6fbd
00000230: 8b92 15be f653 aa3d 09bf 2fbe 5b0c af3a
00000240: 8424 4a3e aa78 db3d 5185 6a3e 3421 f5bd
00000250: c17a cfbd aea6 d73c 14f3 16bd f26d bd3e
00000260: 9ea8 393e f002 19bd dec2 2e3d b8ad 3abe
00000270: eec4 31be e99a 74bd f1d7 a63e 7d89 2bbc
00000280: 1e07 3e3e d51a fd3a eef7 303e 1ce3 7abe
00000290: a00f 893e 4bd8 91bd f086 48be b77b 3e3e
000002a0: e88a 183e 02a3 a73d e65c 1bbe 2a7a 29be
000002b0: 6bb9 d6bd 1f8c fb3d af20 843e b42f 343e
000002c0: f9b5 83bd 8b1c 99be fb6e 0dbe 5c80 17bd
000002d0: 791d 753d 2de1 78be 080b 0abe aec1 b83d
000002e0: ed4f 933d f9d0 42bd ca66 12be 86be 913d
000002f0: a07d 09bd e2f1 533e 4eb0 68be 10cf 203e
00000300: 7191 e6bd 8ab6 8cbe 1d12 4bbe c5e2 593e
00000310: 5af3 6abe 1293 8abe 0e0a a6bc 22b3 883d
00000320: ad72 353e 7924 6e3e 2f50 acbc 9887 e13d
00000330: a3f3 223d 1386 1dbe 3dbf 47be ea9b 813c
00000340: f80c b1bd c16a 78bd 2329 273d e863 1abe
00000350: f7a1 ba3d 6fec 103e 9389 753e 2372 86bd
00000360: 78ea e83c 0f60 76be a081 19ba 9a97 7f3d
00000370: 40af b1bb 1b89 403d 010a 3dbe ef76 c3b9
00000380: 1a62 2ebe 510b f8bd 8af7 55bc 8e2f e13d
00000390: e2df 63bd ba9d 903d 0424 163e 6073 1e3e
000003a0: 4b41 df3d ef8a a43c 19bb d8bd 7c08 cc3b
000003b0: 6c3d 4c3d 1cc4 11be de3d d23d f2fc ca3c
000003c0: f8d8 c7bc 4f4f 923d b389 f03d 757d bfbd
000003d0: a295 513e d760 ad3d a7a6 b0bc 8608 48be
000003e0: 21e5 8e3d 5b40 56be 71ae d5bd c760 f63d
000003f0: d3e0 95bd 3324 0c3e 5bf4 e6bd cfd7 b43c

input.bias f4 [64]
0.22775698 -0.040711094 -0.00051242096 -0.16647345 0.04565504 0.028757019 -0.07652788 0.008493554
-0.087650284 -0.1403544 0.076623276 -0.09414119 0.11972308 -0.041418906 -0.14798662 0.010873794
0.10920887 -0.07861559 0.2904878 0.2096445 0.3269263 -0.12795477 -0.036537446 -0.01613922
-0.10280604 0.29623255 0.10851418 0.020837396 -0.059367854 0.026658501 0.19594662 -0.13104977
0.23848848 0.16161846 -0.045568917 0.3271255 -0.14880575 0.31111395 -0.031154016 -0.01855094
0.17539436 0.18426535 0.16907014 0.008279347 0.045358784 0.2059162 0.16952343 -0.048942953
-0.035826538 -0.00020753927 0.08441397 -0.08985525 0.056891702 0.05955327 0.20823935 0.07049541
0.15618342 0.08990697 0.16979633 0.1707282 0.07256247 0.08690997 0.20432614 0.1961415
00000000: 2039 693e adc0 26bd fd53 06ba 0478 2abe
00000010: c700 3b3d d793 eb3c a6ba 9cbd 8c28 0b3c
00000020: fe81 b3bd 10b9 0fbe aaec 9c3d 19cd c0bd
00000030: 6031 f53d dfa6 29bd ce89 17be ff27 323c
00000040: e6a8 df3d 3601 a1bd d1ba 943e 0cad 563e
00000050: e262 a73e 9306 03be 4aa8 15bd 6636 84bc
00000060: f98b d2bd cbab 973e af3c de3d 30b3 aa3c
00000070: b52b 73bd ee62 da3c 3ba6 483e e931 06be
00000080: 5336 743e 4f7f 253e 79a6 3abd fe7c a73e
00000090: 8960 18be 544a 9f3e b536 ffbc 24f8 97bc
000000a0: 949a 333e 0eb0 3c3e b920 2d3e 19a6 073c
000000b0: 22ca 393d b2db 523e 8d97 2d3e 6878 48bd
000000c0: d9be 12bd e69e 59b9 3be1 ac3d 0806 b8bd
000000d0: 4607 693d 21ee 733d b23c 553e e65f 903d
000000e0: 8cee 1f3e 2521 b83d 17df 2d3e 60d3 2e3e
000000f0: a29b 943d dbfd b13d df3a 513e 51d9 483e

h1.weight f4 [32, 64]
0.09717028 0.1428502 -0.19317694 -0.057916258 0.11321626 0.24299622 -0.016873797 -0.04590727
-0.11010989 0.066700846 0.19791594 0.0040106922 -0.07006532 -0.14995854 -0.18164921 -0.03421957
0.101856135 -0.08853075 0.077455 0.025643038 -0.023166671 0.092871346 0.14976703 -0.008069007
0.14264454 0.2428007 0.17709127 0.07286832 0.040682215 0.08523608 0.081582844 -0.026520688
0.29673597 0.206448 -0.009061661 0.08308589 0.063049324 0.19647282 0.15480846 -0.008489708
0.16175435 0.18531023 0.03665805 0.054241385 -0.04305173 0.10823657 0.012100357 0.16777754
-0.039414153 0.027320487 0.094083674 0.03661082 0.15056717 0.16228876 0.16212742 -0.021628765
-0.027906643 0.16220121 0.13248423 -0.053575885 0.0143205505 0.015390329 0.095559224 0.035618145
0.008495263 0.03118075 0.15333045 0.09549864 -0.010001394 -0.11694251 0.17362127 0.11999253
0.111683674 -0.17858975 -0.00013622626 0.04558383 -0.05510075 0.17348424 0.17253345 0.052261557
-0.12507649 -0.22585729 -0.061525475 -0.038688682 -0.10883168 0.2099085 -0.09356716 0.049338333
0.029273976 -0.08575619 -0.12479694 0.06677265 -0.0075506954 -0.064387165 -0.019428793 0.21022987
-0.0571027 -0.039809614 -0.08327138 -0.27515435 -0.06339363 -0.037154548 -0.028772045 -0.07994649
-0.05618679 -0.14010154 -0.13283579 0.14988574 -0.17668478 -0.043946523 -0.13787791 -0.098343566
0.039871957 0.101378605 -0.6331052 0.015262748 -0.038954783 0.115373544 -0.12579295 0.034369852
0.20056799 -0.26213032 -0.033237293 0.14965178 -0.079452954 -0.12366282 -0.026080268 0.088593684
0.05430995 0.5791212 0.021696875 -0.10011495 0.18777426 0.04405789 0.015620361 4.721248e-05
-0.044003453 0.11562563 0.19946665 0.040788136 0.3687852 -0.15575588 -0.009856856 0.064225964
0.14954782 0.17727639 0.083446704 0.034601532 0.04754987 -0.17651701 -0.02440173 -0.0054892534
0.15335251 0.16257215 0.04266048 -0.011950067 -0.08019995 0.20847274 -0.061045036 0.108806826
0.21833564 0.18495207 0.16880068 0.046179406 0.16716519 0.18164502 0.18528996 -0.0004933931
0.12727414 0.19554421 0.05725376 -0.0071908045 0.046500646 0.016926935 0.08591004 0.28128162
0.12723759 0.09447148 0.2068966 0.10193422 0.21262147 0.1861473 0.1737319 0.019823011
-0.0684061 0.04163861 0.08586288 0.09544621 0.23115358 0.20951915 -0.014367465 0.03365292
0.3641965 -0.014248017 0.09255112 -0.06128703 0.11975797 0.3067124 -0.12812433 0.049495168
0.01088721 0.010823815 0.10615803 0.032588534 -0.016226446 -0.0056775818 -0.022090985 -0.06505566
0.057611804 0.004244684 -0.05005273 0.14043297 0.09795643 -0.06785442 0.10732964 0.240176
0.13228472 0.317662 0.09412059 0.059522264 0.08098168 -0.14244737 -0.022992624 0.17433795
0.35830835 0.023316383 0.010670051 0.06958912 0.016919337 0.09902487 0.041886687 -0.058678817
0.04927263 0.19537112 0.011508642 -0.064060986 0.11222759 0.17106831 0.17726633 0.13701141
0.0815921 0.14212163 0.06062617 -0.028257467 0.065726765 0.19008866 0.052353725 0.11020598
0.053012356 0.22089545 0.18288961 0.0648819 0.055607587 0.044475924 0.11614094 0.12698348
00000000: 3601 c73d 5347 123e 2dd0 45be 9939 6dbd
00000010: eddd e73d 00d4 783e eb3a 8abc 4309 3cbd
00000020: 4b81 e1bd 749a 883d 7aaa 4a3e 206c 833b
00000030: 687e 8fbd bb8e 19be 4002 3abe d229 0cbd
00000040: f399 d03d 9c4f b5bd baa0 9e3d 5911 d23c
00000050: 08c8 bdbc 5533 be3d 875c 193e de33 04bc
00000060: 6911 123e bfa0 783e 6a57 353e fc3b 953d
00000070: 65a2 263d 4190 ae3d e814 a73d ea41 d9bc
00000080: c7ed 973e 1b67 533e 5c77 14bc ef28 aa3d
00000090: 0120 813d 2c30 493e 1c86 1e3e 6b18 0bbc
000000a0: efa2 253e f7c1 3d3e c026 163d 372c 5e3d
000000b0: 0357 30bd 23ab dd3d 9340 463c e0cd 2b3e
000000c0: bc70 21bd 37cf df3c f1ae c03d 3af5 153d
000000d0: 482e 1a3e 062f 263e bb04 263e cf2e b1bc
000000e0: 799c e4bc 1318 263e f2a9 073e 6372 5bbd
000000f0: bea0 6a3c b827 7c3c 8eb4 c33d 55e4 113d
00000100: b72f 0b3c c66e ff3c a802 1d3e ca94 c33d
00000110: e3dc 23bc 8e7f efbd c6c9 313e a5be f53d
00000120: 69ba e43d 3be0 36be f5d7 0eb9 1cb6 3a3d
00000130: 53b1 61bd daa5 313e 9cac 303e 3710 563d
00000140: 0d14 00be 2247 67be 2302 7cbd 0678 1ebd
00000150: 25e3 debd 41f2 563e 24a0 bfbd fe16 4a3d
00000160: facf ef3c f1a0 afbd 8a95 ffbd 19c0 883d
00000170: d36b f7bb 6bdd 83bd 2229 9fbc 8046 573e
00000180: 85e4 69bd 680f 23bd 2f8a aabd 08e1 8cbe
00000190: 85d4 81bd 5e2f 18bd 5ab3 ebbc fcba a3bd
000001a0: 1f24 66bd c776 0fbe 1b06 08be a67b 193e
000001b0: dbec 34be 4501 34bd de2f 0dbe 5a68 c9bd
000001c0: c750 233d 969f cf3d 2f13 22bf 9b10 7a3c
000001d0: 0d8f 1fbd f748 ec3d decf 00be 67c7 0c3d
000001e0: b261 4d3e f235 86be d423 08bd 513e 193e
000001f0: 3bb8 a2bd ef42 fdbd 49a6 d5bc 9b70 b53d
00000200: 1c74 5e3d 4941 143f a5bd b13c 1109 cdbd
00000210: e547 403e 0c76 343d 8bec 7f3c 0406 4638
00000220: f73c 34bd 21cd ec3d fc40 4c3e 7611 273d
00000230: 6ad1 bc3e 787e 1fbe a77e 21bc e788 833d
00000240: 1023 193e f187 353e 1be6 aa3d 56ba 0d3d
00000250: a7c3 423d e0c0 34be 23e6 c7bc 32df b3bb
00000260: 7108 1d3e 5079 263e c1bc 2e3d 37ca 43bc
00000270: df3f a4bd e179 553e 5c0a 7abd 1dd6 de3d
00000280: 6193 5f3e 1364 3d3e 16da 2c3e 9e26 3d3d
00000290: 5a2d 2b3e 2701 3a3e a7bc 3d3e 0d57 01ba
000002a0: 2754 023e be3c 483e eb82 6a3d d7a0 ebbb
000002b0: 7677 3e3d 5baa 8a3c 9af1 af3d 2504 903e
000002c0: 924a 023e 437a c13d b4dc 533e e3c2 d03d
000002d0: 71b9 593e 669d 3e3e c6e6 313e de63 a23c
000002e0: 7f18 8cbd 3f8d 2a3d e1d8 af3d 4d79 c33d
000002f0: 86b3 6c3e 308c 563e 8465 6bbc a5d7 093d
00000300: f777 ba3e 8470 69bc 718b bd3d 1c08 7bbd
00000310: ab43 f53d 6809 9d3e 0633 03be 72bb 4a3d
00000320: 4560 323c 5f56 313c 6269 d93d 8e7b 053d
00000330: 53ed 84bc 020b babb 27f8 b4bc e73b 85bd
00000340: 5bfa 6b3d fd16 8b3b 1704 4dbd a9cd 0f3e
00000350: 619d c83d 42f7 8abd a4cf db3d b3f0 753e
00000360: a575 073e 98a4 a23e 4cc2 c03d 9ecd 733d
00000370: b9d9 a53d b9dd 11be 075b bcbc a685 323e
00000380: 3174 b73e 0002 bf3c 70d1 2e3c be84 8e3d
00000390: 6c9a 8a3c 8dcd ca3d 6091 2b3d 3359 70bd
000003a0: 19d2 493d 5e0f 483e be8e 3c3c 6832 83bd
000003b0: 94d7 e53d 882c 2f3e 4e85 353e b84c 0c3e
000003c0: c219 a73d 5588 113e 2653 783d 347c e7bc
000003d0: c19b 863d 9aa6 423e dc70 563d acb3 e13d
000003e0: 7c23 593d 6b32 623e 6a47 3b3e cde0 843d
000003f0: c8c4 633d 632c 363d 4ddb ed3d f507 023e

h1.bias f4 [32]
0.023171708 0.053957634 -0.001926436 0.14108686 0.13380261 0.11011655 -0.032708924 0.13689496
0.056882184 -0.17630416 0.055419154 0.1320018 0.14549537 -0.055580534 0.107022025 0.07903387
-0.02123389 0.009986696 0.052962977 0.10568852 0.04235317 0.06379978 0.16027908 -0.049455423
0.20664564 0.015754646 0.057948764 0.06467519 0.22503094 0.08876445 0.029644076 0.032782644
00000000: 98d2 bd3c ae02 5d3d 7780 fcba 1379 103e
00000010: 8d03 093e c984 e13d cbf9 05bd 312e 0c3e
00000020: 4bfd 683d 1489 34be 32ff 623d 7b2b 073e
00000030: bdfc 143e 6aa8 63bd 5d2e db3d 82dc a13d
00000040: b2f2 adbc 3d9f 233c b5ef 583d 3973 d83d
00000050: 857a 2d3d 76a9 823d 3320 243e c591 4abd
00000060: ea9a 533e e30f 813c af5b 6d3d 6d74 843d
00000070: 836e 663e 23ca b53d 22d8 f23c 1847 063d

h2.weight f4 [16, 32]
0.16662225 0.101048395 0.15059036 -0.07564097 0.1460409 0.23905785 -0.25334588 0.16896972
-0.028500136 0.0320675 0.0893465 -0.11004206 -0.19444944 0.28425896 0.26650366 -0.25793985
-0.028077168 0.31405783 0.05846711 -0.16841194 0.10532525 0.1069565 -0.08746452 -0.21188128
0.07891466 0.009026958 -0.1740402 -0.01638267 0.08779292 0.21471408 -0.0888206 0.04210773
0.084963135 -0.046770386 0.33907878 0.08857082 -0.22548737 0.17172572 -0.07995245 -0.117977664
0.19749373 0.07155234 0.2172057 -0.06196549 -0.11712008 0.18818446 0.08376312 -0.06159349
0.08912209 0.031789966 -0.13733983 -0.17093061 0.2155867 0.058434792 -0.015207649 0.03216404
-0.21007958 -0.2149493 -0.19303322 0.18774861 0.1349382 0.32527152 0.027357453 -0.029261366
0.1099728 0.19743112 -0.11522896 0.19708437 0.08944443 0.031746097 -0.003949701 0.07458633
-0.11790642 -0.0010729978 -0.038231224 0.043234184 0.20679756 -0.21989797 -0.24509068 0.25997445
-0.14248376 0.023453753 0.24501297 0.16753449 -0.09909884 0.110514656 -0.08467941 0.2659349
0.0739751 0.3453745 0.15036404 -0.0330744 0.011020938 -0.08487072 0.29811975 -0.08451388
-0.010277898 -0.12863177 0.015684178 0.14280662 0.16216801 0.11007086 -0.23157871 0.32713118
0.23982847 0.19699503 0.10630612 -0.008366152 0.0051052924 -0.046133216 0.16040751 -0.06971005
0.055365317 0.032133844 -0.20171466 -0.1592688 0.18803889 0.23765981 0.23510718 -0.18406871
-0.13457571 -0.10113492 -0.037079018 0.24298239 0.19654386 0.10764688 -0.10230555 0.19465761
0.053565543 0.27357033 -0.011106276 0.23752964 -0.026997058 -0.01759293 0.21835567 -0.11939969
-0.048674118 -0.09800254 -0.02280934 0.20580693 0.13778277 -0.1826131 -0.08359029 0.09539372
-0.011338325 -0.264836 0.27072516 0.27276573 -0.18134557 0.25291976 0.001638842 0.07108918
0.16475144 0.21070197 0.27386585 -0.16715416 -0.15541083 -0.05283677 0.10588301 0.13955043
-0.24970134 -0.037158806 0.06268754 0.021653144 0.18253113 0.0143112 0.11944233 -0.13946398
-0.11848229 0.00296236 -0.0018033489 -0.057547703 0.2486463 -0.22195996 -0.4311613 0.18728828
-0.23739834 -0.20775136 -0.043480024 0.0067277737 -0.12129859 0.17588747 -0.19062531 0.24615256
0.14334196 0.19567937 -0.004516762 -0.3816477 -0.044623118 -0.13048154 0.10617205 -0.08205893
0.05919608 0.040188108 0.1493327 0.09880742 -0.12786543 0.18563536 -0.1800417 0.1046875
0.14855061 0.075657025 -0.008209448 0.032377042 -0.07318708 0.13621485 0.014218072 -0.17863455
0.19217479 0.20869388 -0.09752397 -0.12994637 0.14351198 0.2190214 0.18009834 -0.12622593
0.08685219 -0.14135998 -0.24194942 0.1924661 0.13884038 0.10051991 -0.11986531 0.10071344
0.16866903 -0.032909516 0.4281022 0.047913868 -0.18979014 0.21341354 -0.122720465 0.20361196
0.10699397 0.21899574 0.086964086 -0.010645289 -0.15677366 0.43406206 0.19378665 -0.02391521
0.243849 -0.10920456 -0.21109544 -0.14555374 0.05394684 0.07989252 -0.05113181 -0.09663739
-0.25585154 -0.24107717 0.06289256 0.22405379 0.1966791 0.17366432 -0.09095255 0.020447252
00000000: 069f 2a3e 76f2 ce3d 5c34 1a3e a7e9 9abd
00000010: bf8b 153e 95cb 743e 8db6 81be 6606 2d3e
00000020: 1e79 e9bc 3659 033d 4cfb b63d bb5d e1bd
00000030: c11d 47be 648a 913e 2b73 883e b110 84be
00000040: 1702 e6bc 30cc a03e 357b 6f3d 2e74 2cbe
00000050: c4b4 d73d 020c db3d 9920 b3bd 68f7 58be
00000060: 029e a13d cee5 133c 9837 32be f334 86bc
00000070: c6cc b33d 02de 5b3e 93e7 b5bd 2879 2c3d
00000080: 2701 ae3d 4e92 3fbd bc9b ad3e 9e64 b53d
00000090: 29e6 66be ded8 2f3e 1cbe a3bd 469e f1bd
000000a0: cc3b 4a3e 098a 923d 2c6b 5e3e 87cf 7dbd
000000b0: a7dc efbd 6db3 403e 008c ab3d 7549 7cbd
000000c0: a485 b63d 3236 023d d0a2 0cbe 6f08 2fbe
000000d0: c3c2 5c3e 5259 6f3d 8129 79bc 71be 033d
000000e0: 1a1f 57be ab1b 5cbe 80aa 45be 2c41 403e
000000f0: 3d2d 0a3e fd89 a63e bd1c e03c 88b5 efbc
00000100: 6b39 e13d 622b 4a3e 29fd ebbd 7cd0 493e
00000110: a42e b73d 3208 023d 7e6c 81bb b8c0 983d
00000120: ec78 f1bd d5a3 8cba 5898 1cbd 5416 313d
00000130: bdc2 533e ef2c 61be 0df9 7abe 5f1b 853e
00000140: 43e7 11be 1622 c03c aee4 7a3e 298e 2b3e
00000150: 55f4 cabd 8255 e23d 666c adbd 9f28 883e
00000160: 4280 973d edd4 b03e 08f9 193e 0679 07bd
00000170: 2a91 343c b3d0 adbd 27a3 983e 9d15 adbd
00000180: a164 28bc 0cb8 03be 1b7c 803c e63b 123e
00000190: 5f0f 263e d56c e13d f822 6dbe bd7d a73e
000001a0: 9895 753e 11b9 493e 06b7 d93d 2f12 09bc
000001b0: 4c4a a73b 2ff6 3cbd de41 243e 25c4 8ebd
000001c0: bec6 623d c79e 033d 4a8e 4ebe 5c17 23be
000001d0: 448d 403e 185d 733e f0bf 703e 827c 3cbe
000001e0: 37ce 09be d31f cfbd 2be0 17bd 60d0 783e
000001f0: cb42 493e f875 dc3d 9285 d1bd 5354 473e
00000200: 8b67 5b3d 6911 8c3e 19f7 35bc f83a 733e
00000210: ef28 ddbc 0c1f 90bc a198 5f3e d387 f4bd
00000220: 835e 47bd 8eb5 c8bd a7da babc 0dbf 523e
00000230: ed16 0d3e eefe 3abe 6331 abbd c85d c33d
00000240: 62c4 39bc 9698 87be 7d9c 8a3e f3a7 8b3e
00000250: a7b2 39be b37e 813e 6ace d63a 3497 913d
00000260: 9ab4 283e 42c2 573e 2538 8c3e 762a 2bbe
00000270: 0424 1fbe 5e6b 58bd 31d9 d83d 4fe6 0e3e
00000280: b5b1 7fbe d533 18bd 5362 803d ef61 b13c
00000290: 71e9 3a3e 8679 6a3c 2e9e f43d a5cf 0ebe
000002a0: d8a6 f2bd 2724 423b 595e ecba 24b7 6bbd
000002b0: 239d 7e3e 7949 63be 2dc1 dcbe 80c8 3f3e
000002c0: 8d18 73be c6bc 54be 1c18 32bd a874 dc3b
000002d0: 656b f8bd d81b 343e 4833 43be 6b0f 7c3e
000002e0: 3cc8 123e 2c60 483e 5901 94bb 5467 c3be
000002f0: bbc6 36bd f49c 05be bb70 d93d 830e a8bd
00000300: 9777 723d 499c 243d acea 183e 8b5b ca3d
00000310: 28ef 02be 3217 3e3e da5c 38be 6666 d63d
00000320: a71d 183e 12f2 9a3d ec80 06bc ca9d 043d
00000330: 1ce3 95bd e87b 0b3e ebf2 683c faeb 36be
00000340: 78c9 443e d9b3 553e a6ba c7bd a910 05be
00000350: cef4 123e 2547 603e b36b 383e 5f41 01be
00000360: 90df b13d acc0 10be 97c1 77be d515 453e
00000370: 2c2c 0e3e 62dd cd3d f27b f5bd d942 ce3d
00000380: 93b7 2c3e 21cc 06bd 3630 db3e 5541 443d
00000390: 5958 42be 1489 5a3e de54 fbbd a77f 503e
000003a0: a81f db3d 6b40 603e 3a1a b23d 9469 2ebc
000003b0: 4689 20be 623d de3e 0270 463e d5e9 c3bc
000003c0: 8db3 793e a4a6 dfbd 6729 58be 0a0c 15be
000003d0: 5df7 5c3d b19e a33d 976f 51bd d3e9 c5bd
000003e0: f9fe 82be efdc 76be d1cd 803d 5b6e 653e
000003f0: 3f66 493e 0fd5 313e 5545 babd ff80 a73c

h2.bias f4 [16]
0.0075829895 -0.09941089 -0.035407197 0.10264434 -0.04396303 -0.06063682 0.08831754 -0.14586373
-0.04236716 0.11452478 0.057278562 -0.15439673 -0.038530134 0.25184268 0.22167782 0.13842076
00000000: ba7a f83b f097 cbbd 2307 11bd 3237 d23d
00000010: 9412 34bd 505e 78bd d4df b43d 4d5d 15be
00000020: 3089 2dbd f88b ea3d ed9c 6a3d 2d1a 1ebe
00000030: c6d1 1dbd 86f1 803e 83ff 623e 2cbe 0d3e

h3.weight f4 [8, 16]
0.13080801 0.4279235 -0.06939755 0.27436888 -0.1970644 -0.18590648 0.1968569 0.24599636
0.1907934 0.05318996 0.40495747 0.1663509 0.3454913 0.31663322 -0.01878835 0.1792146
-0.17900448 -0.23192318 -0.14449288 -0.18267201 -0.2120416 -0.27903384 0.09261255 -0.3146576
0.036472127 -0.3661199 0.17870326 0.23099022 -0.31238627 -0.25970867 -0.1434375 -0.12830603
0.30527297 0.12036591 -0.3677073 0.3797123 -0.08370999 -0.21292278 0.32302237 0.058769323
0.23423389 0.053405717 0.16821364 0.09915939 0.27042142 -0.011785771 0.3439768 0.12934165
-0.31484464 -0.4997459 0.35150063 0.050841924 0.35181978 0.21171126 -0.03769783 -0.31286535
0.12881707 0.26389277 -0.02855531 0.16114853 -0.22292227 -0.23149906 -0.18738046 -0.19247895
0.09351887 0.032317266 -0.20659994 0.14734247 -0.31101355 -0.219937 0.32655427 -0.08477211
0.28555006 0.06294361 0.21141614 -0.017531093 0.07189162 0.116250485 0.073920876 0.26538178
-0.021875707 -0.29003492 0.060810994 -0.24362555 0.2243114 0.36474082 -0.2051277 -0.32315433
-0.10518937 0.3504984 -0.03547816 -0.06929826 -0.071285695 -0.2712851 -0.050741907 -0.088246204
-0.04800367 0.19358203 -0.062775575 -0.07420224 -0.1887518 0.07165628 0.085067324 0.11597361
0.16091615 -0.1577075 0.37314904 0.120308235 0.16557029 0.023118023 0.2068458 0.033170592
0.05009355 0.33958283 -0.2667076 0.16120252 -0.13756356 -0.06532303 0.048771597 0.24555023
0.0005334334 0.06722323 0.10223417 -0.1267285 -0.05558264 0.2558865 0.15226965 0.18080702
00000000: 89f2 053e ca18 db3e 4d20 8ebd 147a 8c3e
00000010: 40cb 49be 455e 3ebe db94 493e 78e6 7b3e
00000020: 585f 433e b7dd 593d 9656 cf3e e457 2a3e
00000030: 3ce4 b03e c01d a23e 07ea 99bc 0884 373e
00000040: f34c 37be 457d 6dbe f1f5 13be 5f0e 3bbe
00000050: 6f21 59be 86dd 8ebe a6ab bd3d cd1a a1be
00000060: cc63 153d 1174 bbbe fdfd 363e b388 6c3e
00000070: 18f1 9fbe 89f8 84be 48e1 12be a862 03be
00000080: bd4c 9c3e 6782 f63d 2244 bcbe a769 c23e
00000090: 2570 abbd 6e08 5abe 3063 a53e 1ab8 703d
000000a0: 02db 6f3e f4bf 5a3d 3240 2c3e 1414 cb3d
000000b0: ad74 8a3e 1b19 41bc ba1d b03e 2372 043e
000000c0: 5133 a1be b2de ffbe e4f7 b33e 9f3f 503d
000000d0: b921 b43e d6ca 583e 0a69 1abd e32f a0be
000000e0: 9fe8 033e f41c 873e d3ec e9bc 1f04 253e
000000f0: bc45 64be 170e 6dbe aae0 3fbe 3419 45be
00000100: d286 bf3d 1c5f 043d ef8e 53be f2e0 163e
00000110: 2b3d 9fbe 2a37 61be 1f32 a73e 009d adbd
00000120: 9e33 923e 94e8 803d 797d 583e 5e9d 8fbc
00000130: ea3b 933d bc14 ee3d d463 973d 1fe0 873e
00000140: af34 b3bc 757f 94be f314 793d fa78 79be
00000150: e3b1 653e 4fbf ba3e ff0c 52be 7c74 a5be
00000160: 866d d7bd 8774 b33e 8c51 11bd 3fec 8dbd
00000170: 3cfe 91bd e1e5 8abe bfd6 4fbd 6dba b4bd
00000180: 7f9f 44bd 5e3a 463e 7b90 80bd 58f7 97bd
00000190: 2748 41be 87c0 923d c737 ae3d 9283 ed3d
000001a0: 34c7 243e 137e 21be 640d bf3e 2a64 f63d
000001b0: 428b 293e 0262 bd3c 63cf 533e e3dd 073d
000001c0: e52e 4d3d cddd ad3e e68d 88be 4612 253e
000001d0: 76dd 0cbe 15c8 85bd bac4 473d 8571 7b3e
000001e0: 1cd6 0b3a 55ac 893d 2660 d13d 1ec5 01be
000001f0: 9faa 63bd 8e03 833e 93ec 1b3e 7a25 393e

h3.bias f4 [8]
-0.031005232 0.19463658 0.2558243 0.10463533 0.021960257 0.022576662 -0.06332127 0.15402503
00000000: affe fdbc d04e 473e 67fb 823e 0c4b d63d
00000010: ffe5 b33c b1f2 b83c 95ae 81bd bdb8 1d3e

h4.weight f4 [1, 8]
-0.12749428 0.16215663 -0.12254895 0.23054446 -0.2385538 0.30626282 -0.21408759 -0.21193694
00000000: dc8d 02be 630c 263e f2fa fabd d913 6c3e
00000010: 7347 74be 7bce 9c3e c739 5bbe ff05 59be

loss_fn.pos_weight f8 [1]
289.43766937669375
00000000: c4b5 9ab1 0017 7240

exp_avg f4 [64, 30]
0.0003261828 -0.0013703143 -0.00035441344 0.000111389025 -0.003179806 0.00037660502 0.001194572 -0.0012958789
0.0005279146 7.598389e-06 0.0008564284 0.00046435234 0.0018832353 0.004533791 0.004235773 -0.0008563075
-0.0022147729 -0.0038414642 -6.477765e-05 0.00079866505 -0.00039685593 -0.00026496948 -0.0010500364 0.00059011375
0.0011647257 3.9748767e-05 0.0027143422 -0.000887845 -0.00048353916 -0.00058197376 -0.0012766232 0.001205919
0.002436956 0.00045171543 -0.0030061584 0.0019457259 -0.0006090154 -0.0029948622 0.0015338687 -0.0019294523
0.0023675102 0.0011602105 0.00042563234 9.885201e-05 0.0005219695 0.0016538288 -6.941256e-06 -0.00024566444
-0.0018012078 0.002545538 -0.0030474404 -0.0007367137 0.0007138866 -5.8250276e-05 -0.002122817 -0.0008358693
0.00025324873 -0.00031062236 9.926352e-05 -0.006103824 -0.014619125 -0.014138746 -0.0070061013 0.022736195
0.0002928428 -0.0122030005 0.013095626 -0.0045636683 0.003665574 -0.0020574366 0.008363332 0.0034941407
0.002723122 0.0028779 0.013361366 -0.0038777823 0.0038233395 -0.021207042 -0.0060598855 0.0018437094
0.006020056 -0.00041467795 -0.009504111 0.0034252598 -0.0068761334 -0.019186925 0.0024191327 -0.0006050413
0.0017845272 0.010771027 -0.00029621215 -0.0013015536 -0.00094042957 -0.0024451828 0.004513944 0.0012309247
-0.0019797601 0.0027319388 -0.0008632226 -0.0004289743 -0.00282537 0.0040209386 -0.001073727 -0.0028653294
-0.0062574577 0.0012951744 0.00072992116 0.0054652644 0.0029961374 -0.0008307832 0.0011260201 0.00042540557
0.0002880197 -0.00030868207 0.0006714384 0.0006454696 -0.0018314928 -0.00033082964 0.0015911016 0.0032128065
0.0025117076 -0.0002794816 0.0005224498 -0.00061482954 -0.004706782 0.000137674 -0.00013683953 -0.0019553548
0.0008365615 0.001394878 -0.00051590736 -0.0015547435 7.130432e-05 0.0024765604 -0.0006953338 -0.0005829111
0.000110924426 -0.00037875993 0.00022335009 0.0012510247 -0.00092339155 -0.0010090398 0.00010585259 0.0006968084
-0.0001279828 -0.0018123013 0.0005296898 0.00017898316 4.927129e-06 -0.0022501978 0.054403897 0.036976125
0.012880732 -0.08077814 0.0042866627 0.03907344 -0.03930655 0.028395448 -0.015669568 0.0069118557
-0.03179078 -0.009112159 -0.0069124266 -0.01069347 -0.05068739 0.007530117 -0.013505425 0.06308077
0.026313547 -0.0053613326 -0.008435626 0.0068089785 0.029576512 -0.013418562 0.02024831 0.05700453
-0.014734117 -0.0018572719 -0.0034067964 -0.011600049 -0.0014099244 -0.0031984507 -0.0022954715 -0.00060193107
0.003583712 -0.0005704017 -0.0011171607 0.004674833 -0.00140853 -4.9864425e-06 -0.0019522636 0.002018077
-0.0017802354 -0.003928389 -0.0036435996 0.0026219212 -0.00029085993 0.0017709073 0.0024750435 8.924613e-05
0.0020897056 0.0009750672 0.001093378 0.00068923004 0.00033211292 0.00056451093 -0.002854301 -0.0008068796
0.0012341789 0.005790035 -0.0013784141 -0.0008258399 -0.00014210623 -0.00052297884 0.0024465316 -8.153142e-05
-0.00036877042 0.0007486443 -0.00096735597 -0.0009443594 -0.0007894901 0.0012115584 -0.001631611 -0.0012826115
-0.0019626918 0.0014938075 0.00075561315 0.0029347094 0.00054812187 -0.0008210468 0.0014231276 -3.3370652e-05
0.0003783041 -0.00067968393 -0.00045705412 0.00067406974 -0.000110098954 -0.00033207182 0.0007008811 0.0017574605
-0.0039297207 0.00013833468 0.0018280898 0.0010057677 0.0061644483 0.00040266817 -0.0019935279 0.0005974624
-0.00090284034 -0.0020386663 -0.0010631294 0.0016565167 -0.00344949 -0.000995612 -0.00400068 0.0014912486
00000000: 8403 ab39 1e9c b3ba 91d0 b9b9 8799 e938
00000010: 4b64 50bb 1273 c539 2f93 9c3a 7bda a9ba
00000020: c063 0a3a aaf5 fe36 f081 603a 5174 f339
00000030: e4d6 f63a 3290 943b 3dcc 8a3b d379 60ba
00000040: b925 11bb 13c1 7bbb 3cd9 87b8 815d 513a
00000050: 1a11 d0b9 9aeb 8ab9 60a1 89ba ddb1 1a3a
00000060: b6a9 983a eab7 2638 1be3 313b 45be 68ba
00000070: 8783 fdb9 998f 18ba 5e54 a7ba ed0f 9e3a
00000080: 56b5 1f3b 38d4 ec39 f802 45bb ba07 ff3a
00000090: 55a6 1fba 7345 44bb 180c c93a ade5 fcba
000000a0: 3b28 1b3b 3412 983a 6827 df39 c54e cf38
000000b0: c8d4 083a 49c5 d83a efe8 e8b6 86cc 80b9
000000c0: 8116 ecba 0ad3 263b 91b7 47bb 0520 41ba
000000d0: 1e24 3b3a c251 74b8 f61e 0bbb 3d1e 5bba
000000e0: 78c6 8439 07db a2b9 b22b d038 9602 c8bb
000000f0: 0e85 6fbc 33a6 67bc 7093 e5bb 4241 ba3c
00000100: b288 9939 18ef 47bc 098f 563c d38a 95bb
00000110: 203a 703b 0fd6 06bb 5b06 093c f4fd 643b
00000120: 6876 323b 269b 3c3b a1e9 5a3c 6422 7ebb
00000130: fe90 7a3b 64ba adbc 0192 c6bb 9fa8 f13a
00000140: e443 c53b 2269 d9b9 21b7 1bbc 537a 603b
00000150: 3051 e1bb e62d 9dbc 508a 1e3b a29b 1eba
00000160: cce6 e93a f678 303c ec4c 9bb9 e498 aaba
00000170: 2987 76ba 5c3f 20bb b5e9 933b fb56 a13a
00000180: ddbe 01bb 540a 333b e349 62ba f5e7 e0b9
00000190: d829 39bb 14c2 833b 4dbc 8cba 40c8 3bbb
000001a0: 5c0b cdbb d7c2 a93a 2e58 3f3a f615 b33b
000001b0: d85a 443b ebc8 59ba f796 933a f808 df39
000001c0: 5a01 9739 9bd6 a1b9 7803 303a bb34 293a
000001d0: b30e f0ba 3473 adb9 838c d03a f38d 523b
000001e0: 769b 243b 6387 92b9 03f5 083a 832c 21ba
000001f0: 593b 9abb 955c 1039 957c 0fb9 6925 00bb
00000200: b14c 5b3a 57d4 b63a f53d 07ba 89c8 cbba
00000210: 3789 9538 ca4d 223b 1047 36ba 80ce 18ba
00000220: 19a0 e838 4c94 c6b9 1533 6a39 6cf9 a33a
00000230: c20f 72ba c241 84ba 2dfd dd38 05aa 363a
00000240: 1f33 06b9 be8a edba e1da 0a3a 6dad 3b39
00000250: b753 a536 0e78 13bb 9fd6 5e3d 4774 173d
00000260: b509 533c 026f a5bd 2277 8c3b 790b 203d
00000270: e8ff 20bd 929d e83c 775d 80bc d97c e23b
00000280: 0d37 02bd 2a4b 15bc a381 e2bb aa33 2fbc
00000290: 959d 4fbd 33bf f63b dc45 5dbc 7e30 813d
000002a0: 828f d73c 1eae afbb 9435 0abc da1d df3b
000002b0: 714a f23c 87d9 5bbc c9df a53c 957d 693d
000002c0: 5e67 71bc b46f f3ba 8f44 5fbb 220e 3ebc
000002d0: 36cd b8ba 199d 51bb 9f6f 16bb e9ca 1dba
000002e0: b6dc 6a3b 0387 15ba b16d 92ba 572f 993b
000002f0: 6d9e b8ba 3751 a7b6 19e3 ffba b741 043b
00000300: ca56 e9ba b7b9 80bb 75c9 6ebb 8ad4 2b3b
00000310: 8f7e 98b9 ca1d e83a 5734 223b a729 bb38
00000320: 71f3 083b a79b 7f3a ae4f 8f3a 72ad 343a
00000330: 711f ae39 b0fb 133a 390f 3bbb c684 53ba
00000340: 2cc4 a13a 55ba bd3b e7ab b4ba 2d7d 58ba
00000350: 5a02 15b9 8418 09ba fd55 203b d9fb aab8
00000360: 8757 c1b9 ab40 443a 2996 7dba e38e 77ba
00000370: c9f5 4eba 27cd 9e3a c8db d5ba 4d1d a8ba
00000380: 81a0 00bb ddcb c33a 5714 463a 4154 403b
00000390: d6af 0f3a 853b 57ba 3d88 ba3a 77f7 0bb8
000003a0: 1e57 c639 d12c 32ba c4a0 efb9 0eb4 303a
000003b0: ede4 e6b8 ed19 aeb9 56bb 373a 975a e63a
000003c0: e3c4 80bb ef0d 1139 849c ef3a f7d3 833a
000003d0: 24ff c93b 351d d339 d9a5 02bb 069f 1c3a
000003e0: 97ac 6cba 259b 05bb b458 8bba 7a1f d93a
000003f0: d710 62bb 327f 82ba 2318 83bb 0076 c33a

exp_avg_sq f4 [64, 30]
0.0020658777 0.00089049066 0.00080275 0.0014587195 0.0017315057 0.00065269344 0.0010323306 0.0014751262
0.00032646078 0.0008699589 0.0009982602 0.0023430663 0.00092288794 0.0020609691 0.0040043695 0.003223463
0.0030972338 0.00326167 0.0006609799 0.0041290536 0.0009899364 0.0007083181 0.0018173925 0.00045614422
0.0018419734 0.0016784219 0.001162001 0.00030637972 0.00043067968 0.000898128 0.00089883036 0.0006555617
0.0034511765 0.0017099943 0.0019205331 0.000994881 0.0005059777 0.0026095945 0.001990381 0.0022042862
0.0011004576 0.00126861 0.0020491998 0.0024804985 0.0018029418 0.0023584764 0.00076712656 0.0016622314
0.00050077337 0.0054246015 0.0055348366 0.0016506971 0.00197444 0.0024343238 0.0026983132 0.0007333862
0.0025777565 0.0004502794 0.00066596514 0.01159798 0.0008168725 0.0018972827 0.0030643332 0.0036753144
0.00095508026 0.0018632625 0.0004802039 0.0029782434 0.0016902924 0.0007487558 0.0010942487 0.0014974986
0.00050833845 0.0018286405 0.0016501243 0.001181614 0.0014006242 0.002192669 0.0005316129 0.0024297195
0.004427934 0.0012039568 0.0013546818 0.0018152344 0.00063714205 0.0007226889 0.0012613247 0.00038934118
0.00066284364 0.007586816 0.00069571706 0.0026802653 0.0019030913 0.004616979 0.0009370673 0.0028756296
0.00041593725 0.0030925488 0.002767508 0.00045310648 0.0010833278 0.0012379647 0.00065201666 0.0016893011
0.0014838537 0.0006215933 0.0009100165 0.002761756 0.000942731 0.0009812744 0.001628186 0.00087084604
0.00096172193 0.0011248731 0.00040925472 0.0006421787 0.0007219953 0.0004039749 0.00028711619 0.0023468034
0.0015742326 0.0014520839 0.0033617213 0.0017165721 0.0036858886 0.001123324 0.0008035604 0.0029876295
0.0007062881 0.0017176856 0.001454053 0.0023776286 0.0023097482 0.0036200762 0.0012590305 0.0041566542
0.0011828038 0.0012587142 0.000460128 0.004313984 0.0054290495 0.0015448995 0.0014406479 0.003085584
0.0013984843 0.0017401178 0.004321307 0.0013479384 0.0011046788 0.0105301095 0.00460585 0.025831468
0.011574127 0.04523308 0.010640484 0.026933435 0.0036654323 0.029500624 0.02864676 0.003854474
0.0074454555 0.0057905335 0.008661489 0.007204324 0.007818005 0.003589151 0.0077929865 0.022940556
0.004680475 0.008009521 0.0041934876 0.0036344598 0.007978511 0.0021320507 0.0025439833 0.006738061
0.0027645887 0.0016563789 0.0017730665 0.0018469788 0.00074248615 0.0005694956 0.0023671032 0.001436979
0.00064484327 0.00067470846 0.0004662347 0.0015789611 0.0003495941 0.0005229829 0.0009262305 0.0013747525
0.00028100074 0.0020232447 0.0016422595 0.0012768605 0.00074995233 0.001134582 0.00083509355 0.0011881209
0.0035304795 0.0011545472 0.0010297402 0.0016653339 0.0006639274 0.000533087 0.0010680173 0.00058275694
0.0004651348 0.0072644926 0.00018127912 0.0001137826 0.00024590263 0.00020839424 0.00036641723 9.1731206e-05
0.00010371788 0.0001915453 0.00017975783 0.00015376061 0.00012150981 0.00026100298 0.00015894012 0.00033204618
0.0004149257 0.000373444 0.0002089872 0.0003305403 0.0001715879 0.0004016935 0.0003759562 0.00034930767
0.00016960285 0.00021907821 0.00017702991 0.00012893433 0.00016179364 3.5133842e-05 8.424973e-05 0.00056503573
0.0011877902 0.0035629082 0.0017464665 0.0063652038 0.0023929703 0.0036863661 0.0008014692 0.0042783543
0.004750216 0.0013493126 0.0013631044 0.0015008524 0.0017134158 0.0009575488 0.002810138 0.0017218582
00000000: ad63 073b d16f 693a a46f 523a 8132 bf3a
00000010: b1f3 e23a 8419 2b3a 444f 873a 0659 c13a
00000020: d328 ab39 f40d 643a 0ed8 823a 218e 193b
00000030: f6ed 713a 5311 073b 1637 833b bc40 533b
00000040: f6fa 4a3b bec1 553b 9c45 2d3a 034d 873b
00000050: c1c0 813a 6cae 393a 9335 ee3a a426 ef39
00000060: 5f6e f13a 7efe db3a 494e 983a 97a1 a039
00000070: d9cc e139 5a70 6b3a 7c9f 6b3a 00da 2b3a
00000080: 222d 623b e321 e03a 66ba fb3a ab66 823a
00000090: 97a3 043a bb05 2b3b 0d71 023b c975 103b
000000a0: 3b3d 903a 7d47 a63a de4b 063b dc8f 223b
000000b0: b050 ec3a ab90 1a3b fe18 493a 3bdf d93a
000000c0: 5546 033a dbc0 b13b 935d b53b 345c d83a
000000d0: 9b65 013b 2d89 1f3b 2fd6 303b b740 403a
000000e0: 94ef 283b 7a13 ec39 2a94 2e3a 7405 3e3c
000000f0: 6323 563a 3eae f83a fbd2 483b 8bdd 703b
00000100: 5a5e 7a3a b738 f43a e0c3 fb39 a22e 433b
00000110: cd8c dd3a 2748 443a e56c 8f3a b747 c43a
00000120: 0442 053a feae ef3a fc48 d83a 63e0 9a3a
00000130: 2695 b73a e2b2 0f3b f05b 0b3a ee3b 1f3b
00000140: 3418 913b 16ce 9d3a 948f b13a 29ed ed3a
00000150: e105 273a d572 3d3a 0953 a53a 7d20 cc39
00000160: afc2 2d3a d39a f83b c860 363a 64a7 2f3b
00000170: 2671 f93a 074a 973b 86a5 753a 0f75 3c3b
00000180: 2712 da39 5cac 4a3b 145f 353b ec8e ed39
00000190: 73fe 8d3a 3443 a23a 19ec 2a3a 8a6b dd3a
000001a0: de7d c23a 6cf2 223a 2c8e 6e3a 94fe 343b
000001b0: 9b21 773a 1b9e 803a db68 d53a 7d49 643a
000001c0: 111c 7c3a 7a70 933a 3d91 d639 e257 283a
000001d0: 4944 3d3a 98cc d339 1588 9639 d4cc 193b
000001e0: 7b56 ce3a da53 be3a 5350 5c3b 9afe e03a
000001f0: f38e 713b 803c 933a 07a6 523a 1bcc 433b
00000200: 3126 393a f723 e13a ec95 be3a fdd1 1b3b
00000210: 255f 173b cd3e 6d3b 0e06 a53a 8b34 883b
00000220: 4f08 9b3a 71fb a43a 563d f139 525c 8d3b
00000230: 2be6 b13b 3a7e ca3a 1fd4 bc3a 8237 4a3b
00000240: 594d b73a aa14 e43a c099 8d3b 4fad b03a
00000250: dfca 903a 7b86 2c3c acec 963b 849c d33c
00000260: 68a1 3d3c 5246 393d 6d55 2e3c 82a3 dc3c
00000270: c037 703b 4bab f13c 9cac ea3c 589b 7c3b
00000280: 02f9 f33b 84be bd3b ebe8 0d3c 4012 ec3b
00000290: 1717 003c f637 6b3b 4f5c ff3b d5ed bb3c
000002a0: ac5e 993b 5e3a 033c 8669 893b 1e30 6e3b
000002b0: 4db8 023c e0b9 0b3b f5b8 263b f4ca dc3b
000002c0: 1a2e 353b da1a d93a 3d66 e83a 5316 f23a
000002d0: 67a3 423a 344a 153a 6721 1b3b 0459 bc3a
000002e0: b30a 293a ebde 303a f670 f439 25f5 ce3a
000002f0: ba49 b739 ca18 093a 47ce 723a 0a31 b43a
00000300: 4853 9339 6a98 043b 1641 d73a 545c a73a
00000310: 7398 443a 41b6 943a 2eea 5a3a b9ba 9b3a
00000320: 9e5f 673b 2d54 973a 59f8 863a 5547 da3a
00000330: 6a0b 2e3a ddbe 0b3a b7fc 8b3a 28c4 183a
00000340: 56dd f339 fb0a ee3b be15 3e39 919e ee38
00000350: 7eec 8039 6784 5a39 b01b c039 d15f c038
00000360: 1d83 d938 8dd9 4839 607d 3c39 cd3a 2139
00000370: 15d3 fe38 3ad7 8839 2aa9 2639 7c16 ae39
00000380: 628a d939 ceca c339 9323 5b39 5e4c ad39
00000390: 47ec 3339 649a d239 fd1b c539 4823 b739
000003a0: 6bd7 3139 5cb8 6539 1ba1 3939 8c32 0739
000003b0: 26a7 2939 ad5c 1338 3baf b038 e81e 143a
000003c0: a0af 9b3a ae7f 693b b1e9 e43a 3393 d03b
000003d0: 61d3 1c3b f696 713b b019 523a 7031 8c3b
000003e0: b3a7 9b3b 6bdb b03a 32aa b23a 40b8 c43a
000003f0: b294 e03a 0304 7b3a 4b2a 383b f9af e13a

exp_avg f4 [64]
-0.007495985 -0.0034172295 -0.004666693 0.0061729285 -0.0054199323 0.026139144 0.0062398915 0.00229911
0.0057354504 -0.00031980922 -0.00472856 0.0016375033 0.009034844 0.00923512 0.00868006 -0.0017651332
-0.005689851 -0.0028344074 -0.0058849375 -0.0038504684 -0.008394979 0.004038738 -0.0021742936 0.00314863
-0.0030754253 0.027747544 -0.006115896 -0.0065476676 2.8416343e-06 -0.0030240456 0.0024281777 -0.001773301
-0.009222949 -0.0035603966 -0.006626019 0.011814687 0.002201192 -0.007457084 0.007203454 0.015163906
0.012340978 -0.002983549 0.006100655 0.0036239447 0.014063293 -0.0034817685 -0.0037709717 -0.0024693375
-0.00055991113 -0.000513602 -0.009035276 -0.001024333 -0.0019038615 -0.0020960274 -0.010623888 -0.005143554
-0.0027989051 -0.008541094 -0.0071626077 0.007967809 -0.00344331 -0.0017416268 0.009076275 0.0016960164
00000000: e1a0 f5bb 99f3 5fbb 0feb 98bb 4746 ca3b
00000010: b099 b1bb c221 d63c 0178 cc3b aaac 163b
00000020: 72f0 bb3b 11ac a7b9 09f2 9abb 7ea1 d63a
00000030: e206 143c e74e 173c cf36 0e3c 0b5c e7ba
00000040: ee71 babb 77c1 39bb 6fd6 c0bb 2458 7cbb
00000050: 188b 09bc 6457 843b 987e 0ebb 3f59 4e3b
00000060: 138d 49bb d14e e33c db67 c8bb d18d d6bb
00000070: e8b2 3e36 112f 46bb 1022 1f3b 1c6e e8ba
00000080: da1b 17bc 8b55 69bb 131f d9bb 6492 413c
00000090: e041 103b 8e5a f4bb f40a ec3b 0872 783c
000000a0: d031 4a3c a587 43bb 01e8 c73b b47f 6d3b
000000b0: ba69 663c 622e 64bb 6822 77bb 9cd4 21bb
000000c0: 00c7 12ba 3fa3 06ba b208 14bc e942 86ba
000000d0: fe8a f9ba 815d 09bb d10f 2ebc 428b a8bb
000000e0: d66d 37bb f2ef 0bbc 4fb4 eabb 6a8b 023c
000000f0: 28a9 61bb 4c47 e4ba a8b4 143c de4c de3a

exp_avg_sq f4 [64]
0.002496415 0.001634682 0.0012414653 0.0008575872 0.0024903277 0.0048974063 0.0011935969 0.00022676244
0.00140693 0.00059648335 0.002029126 5.8114616e-05 0.001195816 0.0025220355 0.0019822717 0.0001830797
0.0029923317 0.00057793 0.0020598401 0.0014122736 0.0031716574 0.0009205515 0.00048934686 0.0003360333
0.0007122494 0.0049374797 0.004136993 0.00018507292 7.3526186e-05 0.001048473 0.00027799208 0.00073013175
0.005489426 0.0018695449 0.0027342283 0.0039747986 7.990721e-05 0.0019512614 0.0004333823 0.0013478962
0.00095767074 0.0049258755 0.00057820574 0.00046314608 0.0023132258 0.0010144458 0.001285552 0.0010386504
0.0001483117 0.0001443581 0.00787183 0.00012488144 0.0012448665 0.0007773836 0.006779334 0.0015607172
0.0018455468 0.006349874 0.0033333648 0.0015856159 0.0022329586 0.0007609427 0.00069536065 0.00081695034
00000000: e59a 233b d342 d63a aab8 a23a b4cf 603a
00000010: c434 233b 6c7a a03b 7772 9c3a 14c7 6d39
00000020: bd68 b83a 525d 1c3a 16fb 043b 18c0 7338
00000030: edbc 9c3a bc48 253b 00e9 013b 15f9 3f39
00000040: ff1a 443b 3a80 173a 62fe 063b 0a1c b93a
00000050: 95db 4f3b 2a51 713a 8347 003a a02d b039
00000060: 40b6 3a3a 95ca a13b 9d8f 873b 2210 4239
00000070: 1232 9a38 ea6c 893a 77bf 9139 5066 3f3a
00000080: a5e0 b33b 840b f53a bd30 333b 073f 823b
00000090: db93 a738 78c1 ff3a 9637 e339 e4ab b03a
000000a0: 320c 7b3a 3d69 a13b bb92 173a 6ad2 f239
000000b0: 7d99 173b 27f7 843a f87f a83a 5323 883a
000000c0: 1e84 1b39 d55e 1739 d9f8 003c 9bf2 0239
000000d0: ca2a a33a 55c9 4b3a 2d25 de3b fb90 cc3a
000000e0: 46e6 f13a 9b12 d03b 9574 5a3b 71d4 cf3a
000000f0: d456 123b 007a 473a dd48 363a 9c28 563a

exp_avg f4 [32, 64]
-0.00048340904 -0.0005217094 0.0035123297 -0.00062804855 -0.00054775196 0.005034783 -0.0007232274 -0.0008811028
-0.000508635 -0.00013023982 -0.0007201829 -0.00069032604 0.0010229631 -0.0007955952 -0.0009409838 -0.00051541656
-0.00059241004 -0.00050015544 -0.0005294766 -0.0004918244 -0.000834894 -0.0005253937 -0.00041625387 0.000578037
-0.0003074656 0.006274708 -0.00039866977 0.0030157191 -0.00023351336 -0.0004798915 0.0024357166 0.0008617987
-0.00058967865 -0.0004661581 -0.000539851 0.0047706557 0.001192823 -0.00055199064 0.0022918344 0.0006037467
0.0019975011 -2.3597693e-05 0.0025323557 -0.00066214585 0.0023877088 -0.00057803973 -0.0007598235 -0.000368411
-0.000374978 -0.0004834359 -0.0005704078 -0.0003081797 -0.0004076271 -0.0006245054 -0.0005273357 0.0066758594
0.0046452302 -0.00063033804 -0.0008076023 -0.0011675869 -0.00038741087 -0.0003648866 0.0037967558 0.0033705886
0.00054179726 0.00073420856 0.0020210666 0.001664143 0.00058607623 0.00057463313 0.0018941147 0.0014682086
0.0021488192 0.00027658706 0.0012529902 0.0018895771 0.00044223553 0.0025370826 0.002415269 0.0010070137
0.0005224612 0.0007448859 0.00048286282 0.00046013185 0.0008291374 0.0009632341 0.00053587434 0.0010623626
0.00020370807 0.0006464545 0.00064839533 0.0014807384 0.0004682133 0.0005881032 0.0005857773 0.001707487
0.00065162935 0.00045038294 0.0009179775 0.0009237174 0.00068609003 0.00035690342 0.0007132152 0.0004875831
0.00055535726 0.00024190599 0.00095690653 0.002087892 0.0004749521 0.00064621045 0.000744633 -1.2465389e-05
0.00061032566 9.650712e-05 0.00019047689 0.00018613579 0.00043340455 0.0014208904 0.00051942206 0.0035765448
0.0038833914 0.00047601125 0.0010795618 0.0024726624 0.00039908697 0.00014257531 0.0013783431 0.0029195729
-0.0007468132 -0.0009226673 0.0025488103 -0.0012393168 -0.0009206882 0.0046427175 -0.0016529654 -0.0011976188
-0.0006953551 -9.35114e-05 -0.0014103368 -0.0013665545 0.0010811255 -0.0020039468 -0.0020628567 -0.0009928463
-0.00082220795 -0.0007731208 -0.0008176786 -0.00076128216 -0.0011814025 -0.0006959355 -0.0006061726 4.8974674e-05
-0.00044811136 0.00566689 -0.0007833799 0.0033150339 -0.00041052242 -0.00088224886 0.0027184258 0.0003653974
-0.000845613 -0.000612452 -0.00092561234 0.005475942 0.0008271088 -0.0006970234 0.0016978376 0.00031312852
0.0019501373 0.0002828456 0.0020201113 -0.0013266513 0.002019463 -0.000869894 -0.0011766576 -0.00019269368
-0.00068211113 -0.00039769258 -0.000754341 -0.00040331847 -0.00052950263 -0.00096722704 -0.00077861344 0.006414325
0.0031192286 -0.00094257185 -0.0014359133 -0.0019799822 -0.0006251601 -0.0004448026 0.003721221 0.002042086
3.2364437e-06 0.00013361091 0.0017835122 0.0006427161 -3.5173598e-05 0.00093369075 0.000858784 0.00022169465
0.00065221806 -1.0753863e-05 0.00024378498 0.000764091 0.00026375818 0.0012378768 0.0011557423 0.0002692226
-6.071873e-06 7.573231e-05 -3.460475e-05 -2.940826e-06 -3.089307e-05 0.0002657635 -1.7723917e-06 0.0004831262
1.9986936e-05 0.0011906871 0.00017047297 0.0010554878 0.00016689925 9.646709e-05 0.00050302414 0.0009760671
1.7044977e-05 1.612612e-08 9.516266e-05 0.0010515212 0.00039420192 -0.00012763623 0.0005501813 0.00017288496
0.00039464975 1.8639808e-05 0.000529135 0.0011900121 0.0006622705 -3.332158e-05 8.022245e-06 5.50733e-05
5.2214386e-05 0.00019898497 -4.741148e-05 9.309496e-06 1.695997e-05 0.00023144377 -4.350142e-05 0.0027462477
0.0024865796 -0.00012958761 4.149717e-05 0.00074702274 0.000107817934 -4.300391e-05 0.0011100858 0.0021004425
00000000: 1072 fdb9 53c3 08ba 1d2f 663b a0a3 24ba
00000010: 0397 0fba d2fa a43b f896 3dba cff9 66ba
00000020: eb55 05ba fc90 08b9 a8ca 3cba fff6 34ba
00000030: f214 863a 7d8f 50ba 5bac 76ba 051d 07ba
00000040: f74b 1bba dd1c 03ba 93cc 0aba c7ed 00ba
00000050: cadc 5aba 93ba 09ba a63c dab9 6887 173a
00000060: 5633 a1b9 119c cd3b 8d04 d1b9 5fa3 453b
00000070: 44db 74b9 f299 fbb9 8ba0 1f3b 55ea 613a
00000080: aa94 1aba ae66 f4b9 ca84 0dba 2953 9c3b
00000090: 8058 9c3a 77b3 10ba 9a32 163b c144 1e3a
000000a0: 82e8 023b a9f3 c5b7 e1f5 253b db93 2dba
000000b0: 1b7b 1c3b 9787 17ba e42e 47ba 4a27 c1b9
000000c0: b298 c4b9 ab75 fdb9 6b87 15ba 2e93 a1b9
000000d0: c9b6 d5b9 d9b5 23ba e63c 0aba 2bc1 da3b
000000e0: 0437 983b 453d 25ba 46b5 53ba b709 99ba
000000f0: 681d cbb9 404e bfb9 fed2 783b 18e5 5c3b
00000100: 6607 0e3a e777 403a df73 043b 601f da3a
00000110: e9a2 193a faa2 163a f143 f83a e870 c03a
00000120: 34d3 0c3b e302 9139 603b a43a b0ab f73a
00000130: d9db e739 2f45 263b 7d49 1e3b c6fd 833a
00000140: c7f5 083a 7244 433a c028 fd39 da3d f139
00000150: 785a 593a 8c81 7c3a eb79 0c3a f93e 8b3a
00000160: 789a 5539 d476 293a 13f9 293a 5615 c23a
00000170: 867a f539 f02a 1a3a d98e 193a c2cd df3a
00000180: 1bd2 2a3a 6021 ec39 6da4 703a a025 723a
00000190: b9da 333a c41e bb39 10f7 3a3a 4ca2 ff39
000001a0: 6595 113a 25a8 7d39 e9d8 7a3a 04d5 083b
000001b0: fe02 f939 7366 293a 7a33 433a 7022 51b7
000001c0: 43fe 1f3a de63 ca38 c0ba 4739 722d 4339
000001d0: 933a e339 2c3d ba3a d329 083a 7764 6a3b
000001e0: 7f80 7e3b 2691 f939 1580 8d3a 640c 223b
000001f0: 8c3c d139 4580 1539 85a9 b43a 4e56 3f3b
00000200: c9c5 43ba 28df 71ba f109 273b 9270 a2ba
00000210: 575a 71ba f021 983b 51a8 d8ba 6bf9 9cba
00000220: 7e48 36ba 8d1b c4b8 0ddb b8ba f61d b3ba
00000230: 8db4 8d3a a654 03bb fe30 07bb 6522 82ba
00000240: 7189 57ba 42ab 4aba 7b59 56ba c890 47ba
00000250: 4ad9 9aba 716f 36ba 8ee7 1eba 286a 4d38
00000260: 7df0 eab9 52b1 b93b bc5b 4dba 0a41 593b
00000270: 633b d7b9 b846 67ba 9e27 323b cf92 bf39
00000280: 21ac 5dba f58c 20ba cba4 72ba 886f b33b
00000290: 55d2 583a 73b8 36ba fa89 de3a 662b a439
000002a0: c09b ff3a e54a 9439 d863 043b 08e3 adba
000002b0: f858 043b 9909 64ba 143a 9aba d10d 4ab9
000002c0: b4cf 32ba 6581 d0b9 f8be 45ba 7d74 d3b9
000002d0: 52ce 0aba 828d 7dba dd1b 4cba 422f d23b
000002e0: f96b 4c3b ed16 77ba 4135 bcba 97c2 01bb
000002f0: c9e1 23ba 6534 e9b9 badf 733b 85d4 053b
00000300: ae31 5936 e819 0c39 bdc4 e93a f37b 283a
00000310: 5d87 13b8 edc2 743a 0520 613a b476 6839
00000320: 9df9 2a3a 7d6b 34b7 88a0 7f39 474d 483a
00000330: 0649 8a39 4140 a23a 477c 973a 7226 8d39
00000340: febc cbb6 79d2 9e38 9124 11b8 025b 45b6
00000350: 2e93 01b8 2c56 8b39 eae2 edb5 1a4c fd39
00000360: 9ea9 a737 d410 9c3a fdc0 3239 4b58 8a3a
00000370: ad01 2f39 604e ca38 61dd 033a c1de 7f3a
00000380: cffb 8e37 b785 8a32 1092 c738 32d3 893a
00000390: e3ac ce39 17d6 05b9 0b3a 103a 7448 3539
000003a0: fee8 ce39 af5c 9c37 a6b5 0a3a 2efa 9b3a
000003b0: 399c 2d3a c6c2 0bb8 4897 0637 81fe 6638
000003c0: c500 5b38 9fa6 5039 b0db 46b8 fb2f 1c37
000003d0: 4245 8e37 b7af 7239 4b75 36b8 64fa 333b
000003e0: e2f5 223b e9e1 07b9 3f0d 2e38 d9d3 433a
000003f0: 501c e238 195f 34b8 4c80 913a 94a7 093b
