lightning_logs/version_2/checkpoints/epoch=7-step=6680.ckpt (torch, 70885 bytes, 28 tensors)

input.weight f4 [64, 30]
00000000: fc0b 6ebe 3b21 263e 0df9 4f3e 55c7 233c
00000010: bfaa 943e 2987 723c 323f b5bd efd2 56be
00000020: 81b8 a13d e054 ccbd 997c 37bd 8bd2 54bd
00000030: 19f9 04be 20a0 fe3c 5e66 93be 3ce4 36bd
00000040: 9af3 f13d 0f09 b1bd 70f6 7fbe 5d82 cb3d
00000050: 7ae8 a83d fa9d 383e 678e 3a3c f69e 8ebd
00000060: 546c a2bd f137 8c3e ae1b 483e 487e 143d
00000070: 6123 be3d 7335 efbd 0d4d 5a3e 74d1 1fbd
00000080: 411b 99bd 5734 bc3d 3261 68be bc20 ee3d
00000090: 0bbf c23c 4ead f3bd 088e d13e 3588 9dbe
000000a0: 16dd 203c d60a 78be 61b2 233d fe7e 0ebe
000000b0: 0b27 c33d 0722 b63d 5da9 2e3e c381 3dbe
000000c0: d291 243d 43af 363e 903c 1fbd f6fd b33d
000000d0: a7c9 1abe 5fec 03be 721a 063d 7aa2 893d
000000e0: 2908 cfbc 4946 d53d 9b81 393e a7bb 9cbd
000000f0: 854b 723e f5c5 3c3e 7a8e 6f3e 2220 e53d
00000100: ff8e 28bc ae9b 1bbe 4641 aabd 4c9a 45be
00000110: 7017 163e fdb4 6d3c cda2 a03e 2caf 033d
00000120: 20cf cc3d e069 24bd edaf 693e d0eb 153e
00000130: 9100 29bd d0ea 4abe c1e2 2c3e e44a 4a3d
00000140: c376 38be 18ef 3d3e 3529 e5bd 6014 09be
00000150: 061d 063e aff7 9a3e 1dc0 49bd 4476 65bd
00000160: 8a98 ea3d eddf b43d 06fd 1cbe b548 333e
00000170: a5c5 90be 74fb 503e cbac fd3c 7236 a2bd
00000180: b53b 71bd 2a20 34be 0d2b 9a3e 8c73 98bd
00000190: 2d0e 013e 7941 5f3d 975a 01be a7ff 74bd
000001a0: 8e8f 393e 95e2 37bc 3344 d03c a0f8 0bbc
000001b0: 74a5 a93d 0aea 0dbd 054a 203c b922 a4bd
000001c0: c86d a2bd b460 133d f010 c83e 898e 353e
000001d0: 6ba3 2fbe 1ff4 be3d 9959 82be 9405 603c
000001e0: 4af7 81bc 4c44 a9bd e0fb 77bd fb18 013e
000001f0: 6bdb 21be 6456 fabd c704 78bc 7deb c8bd
00000200: 79ef e7bd 1bbe b8bd dc95 5ebe 9380 923e
00000210: 97f3 86be 054e b6be 5d8c 16be 831a 103e
00000220: 9fb0 433b ba46 02be a14c f6bd 59f6 973e
00000230: 7bbc ec3c 85b0 873e 0652 de3d be9a 643d
00000240: ec90 d63d 82ab 80be 86a2 8bbd 28b3 22be
00000250: 4af5 d9bd 0e9a 1c3e be40 7c3e 10f5 da3b
00000260: f40a 583e 71bf 67be 57f1 09be c830 37be
00000270: 3957 24bd 60da 3dbd 63f3 353e 5a9c 65be
00000280: eee9 4e3e d6d4 3bbd 751a 613e ac1c 893d
00000290: 285e 4b3e 8a21 ce3e cc5c b5bd a4af 923e
000002a0: cc90 953d c7dc a7be 25f6 1f3e fb5b 8ebc
000002b0: 4598 89bd 1efe 66bc 37ef ee3d 195f 31be
000002c0: 0a14 d1bd 363e a93d b2af 0ebe a152 96bd
000002d0: 2ab6 42be a189 20be e481 5dbc 4bca 633d
000002e0: 4390 7cbe 339b a8bd db0b 8dbd ad97 41bc
000002f0: e287 abbd 79c8 093d 1fb3 a7bc b200 80be
00000300: 5124 833e 4072 47bd cbd6 68bd 3ff7 bd3d
00000310: 0c15 173e 30ae b5bc 6bcd 473e 17d6 b3bd
00000320: 1511 7c3d e85c 1c3c fff9 e43b 7efa dfbc
00000330: 4ce7 853e 093f 8d3d 8684 8c3e 5b96 76bd
00000340: 5ae0 59be 2766 c9bc 2eae a3bd 8bc2 bcbe
00000350: 88e5 623e e181 5f3e 0a0c c7be d65f 843d
00000360: a55b ebbc 4f8b af3d baa6 0b3e 1947 5cbd
00000370: eb3a 833e 191d 83be 4e56 8bbe 1f90 403e
00000380: 8d88 603d cbda 00be fb54 a1bd da6f 0b3e
00000390: b2ab ba3d 19b4 ef3d cd65 863e a4dc d33d
000003a0: 340d c93d e7ce 85be 9ed4 e73d 4e38 eb3d
000003b0: 2385 493e 749e c8bd 9457 cb3d 4f8d 79be
000003c0: 0f2a 823c e10e 4dbd 46ed 4ebe 219c 6ebc
000003d0: 028b 49be b1a8 babd 2ff6 9d3e c6f5 69be
000003e0: 71ec 4f3e 75f2 413e 4942 20be f98a 41bd
000003f0: 45e0 f93d 75fb 8c3c 14fe 603c ba81 773e
-0.23246759 0.16223614 0.20309849 0.009996255 0.2903652 0.0148027325 -0.08849944 -0.20978902
0.078965195 -0.09977126 -0.04479656 -0.051958602 -0.12985648 0.031082213 -0.28789037 -0.044651255
0.118140414 -0.08644306 -0.24996352 0.09936974 0.082474664 0.18029013 0.01138649 -0.06963913
-0.07930818 0.2738643 0.19541809 0.036253244 0.09284092 -0.116801165 0.21318455 -0.03901811
-0.074759014 0.091896705 -0.22693327 0.11627337 0.023772737 -0.118982896 0.40928674 -0.3076798
0.009818336 -0.24222884 0.039965037 -0.13915631 0.09528931 0.08893209 0.17056794 -0.18506531
0.040178128 0.17840295 -0.038876116 0.087886736 -0.15115987 -0.12883137 0.032740064 0.06720443
-0.025272446 0.104137965 0.18115847 -0.07652979 0.23661621 0.1843489 0.23394194 0.111877695
-0.010287999 -0.15196106 -0.08313231 -0.19297141 0.14657378 0.014508483 0.31374207 0.03214948
0.100004435 -0.040140033 0.22821017 0.14640737 -0.041260306 -0.19816136 0.16883375 0.049387828
-0.18014054 0.18548238 -0.111895 -0.13386679 0.13097009 0.30267093 -0.04925548 -0.05602099
0.11454876 0.08831773 -0.15330896 0.17508204 -0.2827579 0.20408422 0.030966183 -0.07920541
-0.05889483 -0.17590395 0.3011097 -0.07443914 0.12603064 0.0545058 -0.12632214 -0.05981412
0.18121168 -0.011223455 0.025423145 -0.008543164 0.08283511 -0.034647025 0.009783273 -0.08014435
-0.07931095 0.035980895 0.39075422 0.17730154 -0.17152183 0.09323906 -0.25458983 0.013673205
-0.015864987 -0.0826498 -0.06054294 0.12607186 -0.15806358 -0.12223509 -0.015137858 -0.09810541
-0.11324973 -0.09020635 -0.21736854 0.2861372 -0.2635772 -0.356064 -0.14701982 0.14072613
0.0029859913 -0.12722293 -0.120263346 0.29680136 0.028898468 0.2650186 0.108554885 0.055811636
0.104768604 -0.2513085 -0.06818108 -0.15888655 -0.10642488 0.15293142 0.24634072 0.0066820458
0.21097928 -0.22631623 -0.1347097 -0.17889702 -0.040122245 -0.046350837 0.17768626 -0.22422925
0.20206425 -0.045857273 0.21982749 0.06694922 0.19860137 0.40259963 -0.0885559 0.28649628
0.073030084 -0.32785627 0.1562124 -0.017377844 -0.06718496 -0.014098672 0.1166672 -0.17321433
-0.102089 0.08263819 -0.1393421 -0.07339979 -0.19014803 -0.15677501 -0.013519738 0.055612843
-0.24664406 -0.08232727 -0.06887027 -0.0118159475 -0.08375527 0.03363845 -0.020471154 -0.2500053
0.25613645 -0.04869294 -0.056845468 0.09275674 0.14754122 -0.022177786 0.19511954 -0.08781069
0.06153973 0.009543635 0.0069878097 -0.027341124 0.26153028 0.068967886 0.27444857 -0.060201984
-0.2127699 -0.024584843 -0.079922065 -0.36867175 0.22157872 0.21826889 -0.38876373 0.06463592
-0.028730223 0.08571493 0.1363782 -0.05377874 0.25630888 -0.25608137 -0.27214283 0.18804978
0.054817725 -0.12583463 -0.07877537 0.13616887 0.091147795 0.11704273 0.26249543 0.10344818
0.098169714 -0.26134416 0.113198504 0.11485349 0.19679694 -0.097958475 0.099288136 -0.24370311
0.015889196 -0.050063018 -0.202077 -0.014563591 -0.19681934 -0.091142066 0.30851886 -0.22847661
0.20305039 0.18940146 -0.15650286 -0.047251675 0.12200979 0.017209748 0.013732452 0.2417058

input.bias f4 [64]
00000000: fda3 323e 60c9 3d3e 3d61 fc3d 7147 153d
00000010: f544 03bd 2e6d 813d 7c5c 2f3e ed1b 443e
00000020: 7b9e 563d e393 dfbd 82cc 9d3d 08e3 793e
00000030: 5d07 a53c be54 c03d c8c5 3c3e b664 a13d
00000040: 8c8b 823d 0c1a 05be 3317 283d 39ca 2e3b
00000050: b193 353e cc14 793d 93e4 1cbc 7604 6abe
00000060: eef0 193e a041 6d3e b2d5 463c baf4 33bd
00000070: 3ab2 cc3d c391 0e3e ce95 02bd df35 c43d
00000080: fe9f 833c ce20 833e e30b a13d ca37 c83d
00000090: 15d2 923e 1665 8e3e e05c 633e 17c7 803d
000000a0: cfcd 613e accc 793e 4980 503d 6687 75bc
000000b0: bb7b 923e a347 533e 7bbf b63d 738c 1cbe
000000c0: 04ad 353e e945 29bd af67 ed3c a921 843e
000000d0: ef7b e3bd ca54 853c 6be9 7d3e 45f0 95bd
000000e0: 61f0 b4bd 95e1 b73d 731b 1c3e 5e63 0abe
000000f0: 282f 593e 7479 623e 9da9 b2bd b88d 953e
0.17445369 0.1853385 0.12323234 0.036445085 -0.032048184 0.063196525 0.17125124 0.19151278
0.052397233 -0.10916879 0.077050224 0.24403012 0.020145113 0.09391163 0.18434823 0.07880537
0.06374273 -0.12998217 0.04103775 0.0026670827 0.17732121 0.06081085 -0.009575981 -0.22853264
0.15033314 0.23169565 0.01213591 -0.04393456 0.099949315 0.13922791 -0.031881146 0.095805876
0.016067501 0.25610965 0.07863595 0.09776266 0.28675905 0.27811497 0.22203398 0.062879734
0.22051166 0.24394482 0.050903592 -0.014985895 0.28610024 0.20632796 0.08923241 -0.15287952
0.17741781 -0.041326437 0.028980104 0.2580693 -0.11107623 0.016275782 0.24796073 -0.073212184
-0.08834911 0.08978573 0.15244846 -0.13514468 0.21209395 0.22116643 -0.087237574 0.29209685

h1.weight f4 [32, 64]
00000000: ee15 36bd 72e0 963d 81b3 4d3e 8ca9 fc3d
00000010: 561c ffbd 6987 223e 515c 0ebe bd33 923e
00000020: 2403 1e3e f917 a5bd 5c48 a3bb d087 163d
00000030: dad7 53bd 2604 df3e e57f abbd 7768 4c3e
00000040: 5669 dc3d 93b1 2a3e b9df b93d c912 293e
00000050: a750 3d3e 6087 e7bd 65e9 de3e 1219 be3c
00000060: 7e13 933d 9a02 0c3e 460c ccbc 2798 45be
00000070: 6019 343e a96b 053e 5cb8 2b3e 4177 d3bc
00000080: 4ff0 7f3c b819 b53d 7219 0cbe 7463 dd3d
00000090: 6a5f 183f 21cc 6c3d e08d 733e 1cf1 343e
000000a0: 3793 383d 6140 e43d 8f59 4cbd 3771 93bd
000000b0: 065f 683e 1dd4 603e 0a08 853e d698 8c3d
000000c0: dea5 d4bd d048 463e af06 2a3d b66c 353e
000000d0: d774 ad3c b494 0ebd e775 8d3e 0dba 8a3e
000000e0: cab0 d83a 79d4 283e 7cc8 3a3e af37 aabc
000000f0: a7ee 383f e66d 5d3e 31fb 39be 7500 f13d
00000100: ac86 483c c037 c93d 624d b23e 7d97 123e
00000110: fe45 cebd c721 233e a84e 30be 9979 e43d
00000120: 567d 733e 5634 c2bd 44cd 88bd 0488 5b3e
00000130: ccfb 453d 852d df3d 4c10 21be b2aa 683d
00000140: ae6d 203f 0352 0b3e e486 823c 45d0 153e
00000150: aa0a 8a3e 53ec ddbd a0c1 a23e 9891 0ebd
00000160: c7be 923d ab03 443e 1bf7 19be d0de e8bd
00000170: dda5 833e 9443 5c3e 3ee6 6f3e a22b ae3d
00000180: 4dc1 983c 2e1d 903d d9a3 9dbc 5820 32bc
00000190: 533c 363e 872c 833d 436f 9e3e 7d59 663e
000001a0: 3aaa babd b384 2a3e eace 0dbe aaf3 0e3e
000001b0: ccf2 a33e c837 113e 6865 8a3e 4b9c fe3d
000001c0: 833c 8cbd e88e 903e 4c4b 0d3e 055b a03d
000001d0: c723 993d a3fc abbd 094c 6a3e 636a ab3e
000001e0: f6e1 1abd bb8a 273e 1011 933e 6d76 76bd
000001f0: a2e7 da3e 7604 43bd 29f4 34be 88f2 273e
00000200: 2513 843d 2621 013e be1d ff3d 32e1 25bd
00000210: 1d8f 65be 8a33 673e 20a1 943d 5825 5a3e
00000220: 604f 19bc 987a 6ebd e287 0f3d 1380 6d3e
00000230: 33e9 a9bd fd43 b63e bf13 87bd 5d06 663e
00000240: b275 f23d c493 6d3e 6b4e 5e3d ee56 783e
00000250: 2055 af3e cc37 50be 463d e63e 7d0e c0bd
00000260: e16d 7f3e e671 993e 0cd0 96bd d9a9 e5bc
00000270: 8cf2 a13d 77e6 e73e 9340 983e e938 263e
00000280: a3ab a7bd 3ca0 a93d 9516 03be ed21 8c3e
00000290: b1f8 5e3e 00b5 173e 66e3 9b3e fc9b ad3e
000002a0: e228 163e c750 753e 3927 f5bd 9cce 2f3d
000002b0: 9573 193e cd5a c33d 422f ae3e 6a50 d13d
000002c0: 1fd7 3ebd 53b3 bb3d d668 073e a907 fa3e
000002d0: e6c4 f8bd 7c82 d4bd 2297 363e 0e05 a33e
000002e0: f878 9f3d 5311 753e 0116 a43d f88c 0d3c
000002f0: 3364 ff3e a41b 963e 981f 1abe b42e 953e
00000300: 16a6 d1bd 724f 21bd f42c e8bd f990 3fbd
00000310: e1a5 223d 78a4 06be 7a44 5abb 6c6a b3bd
00000320: 9551 fc3b 74ae b8bd 1129 86bd 1cb5 efbd
00000330: bf7a 35bd 86c6 493c 1b48 fdbd 1e6d 48b8
00000340: c57d b53c 7326 3c3c 7fb8 6a3c b529 0bbe
00000350: af80 0ebc 8995 3a3d d253 c1bd 5642 2cbe
00000360: 96af c53c e5f6 b5bd 6ac9 9d3d 515b b0bb
00000370: 2b30 24bd c737 f2bd e2c6 273d 0ffb 3f3d
00000380: f91a bfbc 2e9e 0fbe a828 15be 4ddf 783d
00000390: b580 4abc 1273 89bd 4e2d 1cbe f3d2 14bc
000003a0: 90e6 4fbd 2136 a5bd 3a0b 19be 6bab b2bd
000003b0: 32ce a0bd 2114 ecbd d9c2 5b3d 12df 50ba
000003c0: 033b 8bbd 1f76 93bd 8cd1 30be f689 ccbb
000003d0: f6df babd 6a20 63bd 79fa b1bd fdcf 92bd
000003e0: 4e9b 1bbe e9d9 afbd 2c68 f5bd 815a babb
000003f0: 345c 49bd 3ddb 913b eea9 25bc dce3 1a3d
-0.044454508 0.07367028 0.20088007 0.12337026 -0.124565765 0.15871967 -0.13902403 0.28555098
0.15430886 -0.08061213 -0.004982991 0.036750615 -0.051719524 0.43557853 -0.08374003 0.19961725
0.10762279 0.16669302 0.09075875 0.16511072 0.18487798 -0.113051176 0.4353744 0.023205314
0.07181452 0.13672867 -0.024908196 -0.19296323 0.17587805 0.1302935 0.16769546 -0.0258137
0.015621259 0.08842796 -0.13681582 0.10809985 0.5952059 0.05781186 0.2378459 0.17670101
0.04506227 0.11145092 -0.049890097 -0.071993284 0.22692499 0.21955915 0.25982696 0.06865089
-0.10383199 0.19363713 0.04151028 0.17717251 0.021173878 -0.034809783 0.27629015 0.2709507
0.001653218 0.16487302 0.18240541 -0.020778505 0.72239155 0.21623954 -0.18162228 0.11767665
0.0122391395 0.098250866 0.34824663 0.143156 -0.10071944 0.15930854 -0.17217505 0.111560054
0.2377828 -0.094826385 -0.06679776 0.21438605 0.048335835 0.10897354 -0.15728873 0.056803413
0.6266736 0.13605504 0.015933461 0.1463023 0.2696126 -0.10836091 0.3178835 -0.034806818
0.07165294 0.19142024 -0.1503567 -0.11370623 0.2571248 0.21510154 0.23427674 0.08504416
0.01864686 0.070368156 -0.019243168 -0.010871969 0.1779645 0.06404977 0.3094426 0.22495075
-0.091144994 0.16652183 -0.13848463 0.13960138 0.32021177 0.14181435 0.27030492 0.12432154
-0.06847479 0.2823403 0.13798255 0.078298606 0.07477527 -0.08397796 0.22880568 0.33479604
-0.03781315 0.16361515 0.28723955 -0.060171533 0.42754847 -0.047611676 -0.17671265 0.16401112
0.06448964 0.12610301 0.12456845 -0.040497966 -0.22417875 0.22578254 0.07257295 0.21303308
-0.009357303 -0.058222383 0.035041697 0.23193388 -0.08296432 0.35598746 -0.06595563 0.22463365
0.11838855 0.232009 0.054274004 0.24251911 0.34244633 -0.20333785 0.44968623 -0.093777634
0.24944259 0.2996971 -0.073639005 -0.028035091 0.0790759 0.45293018 0.29736766 0.16232647
-0.08187034 0.082825154 -0.12801583 0.27369633 0.21774556 0.1481514 0.3044693 0.3390807
0.14664033 0.23956595 -0.11970372 0.042921647 0.14985497 0.09538803 0.3402043 0.10220416
-0.046591874 0.09165063 0.13223585 0.4883397 -0.121469304 -0.103764504 0.1783109 0.31839794
0.07786745 0.2393239 0.080120094 0.008639567 0.49881133 0.29317963 -0.15051115 0.29137194
-0.102367565 -0.039382406 -0.11336699 -0.046769116 0.039708976 -0.13148677 -0.0033304975 -0.08760533
0.007700155 -0.09017649 -0.065508015 -0.11704466 -0.044306513 0.012315398 -0.12367269 -4.778534e-05
0.022154698 0.011483776 0.014326214 -0.13590129 -0.008697673 0.045552764 -0.094398156 -0.1682218
0.024131577 -0.08884982 0.07704432 -0.0053819795 -0.040085 -0.11827045 0.040961154 0.046870288
-0.023328291 -0.14025185 -0.1456629 0.06075983 -0.012359788 -0.06711401 -0.15251657 -0.009083497
-0.05075699 -0.08066965 -0.14945689 -0.08724102 -0.07851829 -0.11527277 0.053652618 -0.00079678104
-0.06798365 -0.07200264 -0.17267436 -0.006242032 -0.091247484 -0.055450834 -0.08690352 -0.07168577
-0.15195963 -0.08586485 -0.1198276 -0.0056870584 -0.049160197 0.004451184 -0.010111315 0.03781496

h1.bias f4 [32]
00000000: d377 23be 1108 cebd 94b6 64bd ed82 0cbe
00000010: a5a2 b8bd 62ef 64bd 0fc5 303e dff6 babc
00000020: 644c 2f3b 01ab e63c 7a2b 15be 4cd4 493c
00000030: 18e7 5c3e 8cfc 13bd b9e8 6b3b d8e3 9c3d
00000040: ae61 3b3d a025 11bd cd4d cabd c8dc 483e
00000050: d48e 6e3d e4ba 893c 0049 563d bbb6 8abd
00000060: 4e33 6f3d f092 0abd e092 b43d 4e28 433e
00000070: 6a0c efbd 1125 1e3e 0a11 583d 9ce3 033e
-0.15963678 -0.10060132 -0.055838183 -0.13721819 -0.09015397 -0.055892356 0.17262672 -0.022822795
0.0026748413 0.028157713 -0.14567366 0.012318682 0.2157253 -0.03612952 0.0035996868 0.07660645
0.04574745 -0.035436273 -0.098781206 0.19615471 0.05824168 0.01681275 0.052315712 -0.06773134
0.058398537 -0.033831537 0.08817077 0.19058344 -0.1167229 0.15443827 0.052750625 0.12879795

h2.weight f4 [16, 32]
00000000: 588a 263f e5b1 ad3e c3bc 7f3e 9f67 a6bd
00000010: b224 013c c6d1 3c3e 0fa4 e9bd 3b09 693e
00000020: 709e d4bd 6698 0cbe f409 e83e a013 753e
00000030: bc65 9dbd 74df a03d 37ce 293e d540 32be
00000040: 7529 7c3d 21d5 703e 5672 a93e a6f6 c9bd
00000050: c893 483c b602 303e a91b 0cbe 09c3 023e
00000060: 8995 883c 3f1a 153e 7292 893d af0c eabc
00000070: c039 063d 7e29 26be 2bff 65bd 7f2d 05be
00000080: d3bc 62be 38ef c8bd c176 0cbe a389 95bd
00000090: 0115 243d ba46 4c3d 36bb a9bd fa35 50be
000000a0: 690d 793d 3625 773d 57be 923d c9d7 6bbe
000000b0: dfad dabd 0170 313d 5426 343d 835d 3cbd
000000c0: 4390 ca3d 23b5 7a3d 3709 553c 97df 6fbd
000000d0: 98d6 bc3d 1ccf cb3d 9929 963d 25ec 21be
000000e0: f72f 84bd 11e1 f93c 7432 b73c 2b2d 35be
000000f0: 65c0 47be af02 afbd 5ce7 3bbe 6b9e bb3d
00000100: 3819 c7bb 266b 843c d5cb c23e fbfb bfbd
00000110: 15fa 5b3e 3282 b33e 687a 5fbe 6834 4c3e
00000120: a970 f2bd 046e 04be f6b4 393e 447e 15bd
00000130: e5ff d13c abda 4e3e 8fc0 873e 9f31 003c
00000140: dc0a acbd f177 6d3d 757c 623e 6d50 8ebc
00000150: 9596 e4bd 2f9a 93bd 82ed bc3d 3f5b 16bd
00000160: 7ec7 4f3e 4db8 423d c7b7 71bd 1c17 4cbe
00000170: 9a6f abbd ca77 4cbe 1d66 50bd e7b3 edbd
00000180: 90e9 083e 5e31 cf3d 9d16 df3d 1eeb bf3d
00000190: d3d0 2f3e d46d 843e 6abd a0bd 6819 c93d
000001a0: 05f4 66be e7dc a0bc 3bc1 073e 83e7 3b3d
000001b0: ac77 69be d686 5a3e d0b3 2b3e d5b2 6abe
000001c0: 5501 3abe c8ee 093c a3d3 813e 46e2 65be
000001d0: 5090 adbd 3c39 f63e 1663 29be 0057 b63d
000001e0: 6392 023e af96 883c f420 663e 5519 c3bd
000001f0: 83de 05bd 373b f2bc 9b43 df3c dc2f 8cbe
00000200: efee 733d d3a4 27bd f72f 8abd 2574 a4bd
00000210: 593c d5bc b061 0abd cbd4 debd 5d9f 89bc
00000220: 621e 0fbe 3b22 f83d 15f9 dfbd 45b0 b3bd
00000230: 1974 9e3c ca05 993d 3955 43be ff83 743d
00000240: 089c 81be 3c8b fbbb 7098 a63c 1f76 b0bd
00000250: 4190 16be 8d5c 0dbe 2053 23be 373b 6bbd
00000260: 2d6f 5fbd 1bb4 c03c 784f 6ebc c5bc 98bd
00000270: efbf 62bc 2e70 c1bd fc8f 11be 0930 d7bd
00000280: 3b6e 50be f6d7 54be 9c92 19bd 5c5a 9cbc
00000290: 34b9 c03d da65 c23d cfbb 323d 88e5 03be
000002a0: 47e0 5e3e eb25 2d3d 20ed 853d c757 013e
000002b0: 5944 683e cff1 2f3d 23e3 58be ecac 763d
000002c0: 7d57 6a3e 1c5d 72bd f692 06be 2c4f 803e
000002d0: 7044 943e b1da 77be 1278 ee3d 2758 5fbd
000002e0: 12fd 04be 01eb 48be a74d e83b 560d 6f3e
000002f0: 4dd4 88bd aff2 993e a88f 9a3e 563e 143c
00000300: 20e9 8cbc ba32 55be bdae 7cbd 165e 053e
00000310: 96e6 073e 7277 b63d 0a6a 913e 625a 22be
00000320: c146 92bd 11ac 653d 1087 14be 6f37 993c
00000330: 76db 673e ee86 10be 6221 06be 89d9 223e
00000340: 4755 2e3e 6244 efbd 7463 07be 0184 9c3d
00000350: 17f0 873e 09eb 06bd 066f 1b3e f3ca 4f3d
00000360: 4b09 183e c175 603d 754b 2ebe 91f2 d63d
00000370: 4b46 92bd b4a7 853e 89d4 a23d a368 4f3e
00000380: a813 14be d481 9cbd c335 19be adb4 3d3e
00000390: 25f6 cebd 7b9d 233d 03ea 553e 0b79 e5bc
000003a0: 370a b9bd a821 3f3e 8a8d 5c3d f5d1 42be
000003b0: ed23 d5bc 2dbd e73d d02e 13be 942b 2c3e
000003c0: 14c4 603d 15a7 50be 25cf 6cbe e9e0 d13d
000003d0: 30a4 2a3e 664e 63be 9563 773e c95d bd3c
000003e0: 74b2 f43d 7f81 6cbe 72f2 7bbc 19ed 923c
000003f0: dd7a c53c c13e 873e 6236 253e bf87 253e
0.65054846 0.33924785 0.2497435 -0.08125233 0.007882284 0.18439397 -0.11408245 0.22757427
-0.10381782 -0.1373001 0.45320094 0.23933268 -0.0768542 0.0785512 0.16582571 -0.17407544
0.061562974 0.23518802 0.33095044 -0.098614976 0.012242265 0.17188534 -0.13682427 0.12769713
0.016672866 0.14560793 0.06717385 -0.028570501 0.03276992 -0.16226766 -0.05615155 -0.13005637
-0.22142343 -0.09811252 -0.13717176 -0.07301643 0.040059093 0.049872138 -0.08287661 -0.2033309
0.060803805 0.06033822 0.07165211 -0.23031534 -0.106776945 0.043319706 0.043981865 -0.045987617
0.09890797 0.0612079 0.013002685 -0.05856284 0.09220618 0.09951612 0.07332153 -0.15812738
-0.06454461 0.030502828 0.022362925 -0.17693011 -0.19506986 -0.08545434 -0.18349975 0.09161075
-0.0060760044 0.016164374 0.38046136 -0.09374233 0.21482117 0.3506027 -0.21824038 0.19941866
-0.118378945 -0.12932593 0.18135437 -0.03649737 0.025634715 0.20200603 0.26514098 0.007824331
-0.08400509 0.057975713 0.22117789 -0.017372334 -0.11161534 -0.072071426 0.092249885 -0.036708113
0.20290944 0.047539044 -0.059013154 -0.1993069 -0.08370896 -0.19967571 -0.050878633 -0.11606579
0.13370347 0.10116838 0.10892985 0.09371017 0.17169504 0.25865042 -0.07848628 0.09819299
-0.22554024 -0.019636584 0.13257305 0.045875084 -0.22799557 0.21340498 0.16767812 -0.22919782
-0.1816457 0.008418746 0.25356779 -0.22449598 -0.08474791 0.4809054 -0.16541705 0.08903313
0.12751155 0.016673414 0.22473508 -0.09526316 -0.032682907 -0.029569251 0.027253916 -0.27380264
0.059554037 -0.040928673 -0.0674743 -0.08029965 -0.026029753 -0.03378457 -0.10880431 -0.016799623
-0.13976434 0.12115904 -0.109361805 -0.08773855 0.019342469 0.07471807 -0.19075479 0.059696194
-0.25314355 -0.00767651 0.02033636 -0.0861628 -0.14703466 -0.13804837 -0.15949678 -0.05742952
-0.054549385 0.023523381 -0.014545314 -0.0745788 -0.013839706 -0.09445225 -0.14215082 -0.10507209
-0.2035455 -0.20785508 -0.037493333 -0.019086055 0.09410325 0.09492083 0.04363614 -0.12880528
0.21765243 0.04227249 0.06539369 0.1263114 0.22682323 0.042955216 -0.21180396 0.060223505
0.22884937 -0.059170827 -0.13141999 0.25060403 0.28958464 -0.24204518 0.11643995 -0.054527428
-0.12987164 -0.19620897 0.007089335 0.23344931 -0.06681118 0.30067965 0.30187726 0.009048065
-0.017201006 -0.20820132 -0.06169008 0.13024172 0.13271555 0.08909501 0.28401214 -0.15854791
-0.071424015 0.0560723 -0.14504647 0.01870319 0.22642311 -0.14113972 -0.13098672 0.15903296
0.17024718 -0.11682965 -0.13221532 0.07642365 0.26550362 -0.03293899 0.15179071 0.050730657
0.14847295 0.0547998 -0.17020972 0.104954846 -0.071423136 0.2610451 0.07950694 0.2025476
-0.14460623 -0.0764195 -0.14961915 0.18525954 -0.10105542 0.039945107 0.2089005 -0.02801182
-0.090351515 0.18665183 0.05384592 -0.19025405 -0.026018107 0.11315379 -0.14373326 0.16813499
0.054874495 -0.20376237 -0.23125894 0.10247976 0.16664195 -0.22197875 0.24159081 0.02311601
0.119481 -0.23096274 -0.015377628 0.017935323 0.024106437 0.26415065 0.16134027 0.16165064

h2.bias f4 [16]
00000000: 6a42 16be 57cb 78be 67a9 063e 74ba 053d
00000010: 3f13 48be cc1a 8c3d b331 873e c839 4e3e
00000020: c02d 5e3c 3665 44bd 2a6e 023d 006b 38bd
00000030: 9e95 15bd 64b7 1dbe bdd1 06be c0cf 1b3e
-0.14673772 -0.24296318 0.1315056 0.03264852 -0.19538592 0.068410486 0.26405105 0.2013923
0.013560712 -0.047948085 0.031843342 -0.04502392 -0.03651964 -0.15401989 -0.13165946 0.15215969

h3.weight f4 [8, 16]
00000000: bd4a 77be 6bd4 173d 4b1d 52be f2e4 d7be
00000010: b4be be3d ce2f 923e 04f4 ac3d 307f 453d
00000020: 23b4 a73e 1dbc 09be 4e7e 2e3e 0b40 82be
00000030: 7a50 38be 8cf8 17be 89aa 9bbe 50de 53bc
00000040: deaf f7bc c0e1 96bd 8852 2dbe 8db5 36be
00000050: 0d80 41be 3fa2 c13d de2d a83e face f73d
00000060: 3dbd 2c3e e628 713e 2035 6a3e b67d 88be
00000070: 5e61 a63c 2d1b 24be 706f 98be 09e2 54be
00000080: 61e7 00bf 91d0 dfbd f47f 72be 9f31 18be
00000090: 0c07 033e b534 4d3e 3d6e 8f3c b7a4 993e
000000a0: 3b8c 803e 2ff6 7d3e de7f 733d 1f4d 9bbe
000000b0: 2d1e 1bbe 52b4 8dbe 8688 0fbe 4145 78be
000000c0: 01ae 6abe b9b2 5e3e 66d6 dabc 58be cfbd
000000d0: 8785 e93d 0f52 5abe 0a4d 4ebe b1fd 3fbe
000000e0: 83c0 623d 365d 9fbd 241d a0be 245d 13be
000000f0: 2023 05be 213a 5839 1093 1abe 3fea fbbd
00000100: 2b0c d7be ee49 35be 946e 3dbe 3a8c 82be
00000110: c2bc fcbd a47a f6be bc86 cd3d e8fd adbd
00000120: 4374 7dbd d3d1 2bbe 0597 9d3e 4ff4 1ebf
00000130: ec9b 4abe a64f 84bd c8d5 74be 25ea f3be
00000140: be8f 3c3e b107 50be d677 8e3e 886f 253e
00000150: 3c3d 06be 4db3 45be c6ad 38be 3e78 e5bb
00000160: ed8d 05be a568 b63d 17fa 4cbe ab3c 9f3d
00000170: 281e fb3d 3f8f 7c3e 3e8e 4d3e e74f 863e
00000180: 70e8 dcbc c12c 5c3c a7d7 5bbc 2a56 d63c
00000190: 643b 3fbe 046f c7bd e014 af3d 7209 36be
000001a0: 0236 743c 67d6 91be 5896 60be 16c6 04be
000001b0: 1024 d2bc f26f 93bd b427 08be 4e9a eabd
000001c0: a8e9 c33e 0379 25bd c360 5e3e 62cc 003f
000001d0: 4d5f 07be 9e1e 05be abdc 08be 01d3 3dbd
000001e0: 2728 70be 62bd 1f3e fe12 53bb a838 3b3d
000001f0: 41e6 9d3e fadd 133f 9b38 9b3e 6152 a13d
-0.24149604 0.037067812 -0.20518987 -0.4216686 0.093137175 0.28552097 0.0844498 0.048217
0.3275462 -0.13450666 0.17040369 -0.25439486 -0.1799945 -0.14840907 -0.30403545 -0.012931421
-0.030235227 -0.07367277 -0.16926014 -0.17842694 -0.18896504 0.09454774 0.32847494 0.121000245
0.16869064 0.23550758 0.22871828 -0.2665841 0.0203101 -0.16025992 -0.2977252 -0.2078935
-0.50353056 -0.10928453 -0.23681623 -0.14862679 0.12795657 0.20039637 0.01750862 0.3000848
0.25106987 0.24800943 0.059448116 -0.30332276 -0.1514823 -0.27676636 -0.14016923 -0.24245168
-0.2291794 0.21747865 -0.026713561 -0.10143727 0.114024214 -0.21320365 -0.20146576 -0.1874912
0.055359375 -0.077814505 -0.31272233 -0.14390999 -0.1300168 0.0002062102 -0.15095162 -0.12300538
-0.4200147 -0.17703983 -0.18499213 -0.2549761 -0.1234069 -0.48140442 0.10035464 -0.084956944
-0.061878454 -0.1677926 0.3077928 -0.62091535 -0.19786042 -0.06460504 -0.23909676 -0.47639576
0.18414208 -0.20315434 0.27825803 0.16155827 -0.13109297 -0.19306679 -0.1803504 -0.0070028594
-0.13042422 0.08906678 -0.20017277 0.07775243 0.12261611 0.24664019 0.20073792 0.26232836
-0.026966304 0.013438405 -0.013418115 0.026164133 -0.18675 -0.097379714 0.085489035 -0.1777704
0.014905455 -0.28483889 -0.21932352 -0.12966189 -0.025651962 -0.07199086 -0.13296396 -0.114552125
0.38264203 -0.04039861 0.21716599 0.50311863 -0.13219948 -0.12999961 -0.13365428 -0.046343807
-0.23452817 0.15599588 -0.0032207365 0.04570833 0.30839732 0.57760584 0.30316624 0.07877041

h3.bias f4 [8]
00000000: 18bc a13e cbc4 aa3e 68b0 4b3d 70a6 083e
00000010: 6b38 15bd 0b98 76be 8cf9 98be 6ce3 19be
0.31588817 0.33353266 0.04972878 0.13344741 -0.036430757 -0.24081437 -0.2987789 -0.15028161

h4.weight f4 [1, 8]
00000000: 5b47 923e 2727 9f3e b420 a93e 1baf 9a3e
00000010: d0d5 873e 5b1d a3be c78b f13d c76f 40be
0.28570065 0.31084558 0.33032763 0.3021172 0.26530313 -0.31858334 0.117942385 -0.1879264

loss_fn.pos_weight f8 [1]
00000000: c4b5 9ab1 0017 7240
289.43766937669375

exp_avg f4 [64, 30]
00000000: 7d6b 3ab9 f21d 3b3a a2b7 103a 680e c9ba
00000010: 6353 883a 3370 c03a 1213 d9ba 96b9 d83a
00000020: 0b42 513a 3925 6339 799c a6ba c3b7 1d39
00000030: 8144 acba 9d8c d5b9 66b6 86bb 66eb f0b9
00000040: b746 e73a c5bb 2e3b fb8f cf3a 1f16 9dba
00000050: 9712 43ba b4b7 b63a 80cd 8dba 1a14 9cb9
00000060: d079 97ba 7294 4c3a 08f0 b7ba 95f2 e237
00000070: 8955 adb9 0ec9 5cb9 1d2e 25ba 1606 f539
00000080: 9a82 05ba 21de 773a 159b 8bba 6b43 d0b8
00000090: abd5 e239 e4d7 7c39 8903 dcb9 90c0 103a
000000a0: 3fe8 dd39 56ed 72b9 88c9 c639 c2b4 483a
000000b0: c11a 9a3a 652b 4139 6f9e 3dba 8906 3839
000000c0: 579a 48ba 2aef cbb9 4526 12b9 6b68 39b9
000000d0: c052 d4b9 dd07 1c39 4402 c839 2c8c 02ba
000000e0: da2e f039 fbc2 8ab9 58a5 c6b9 0c94 db38
000000f0: 825b 9bb9 0b84 dab9 7bce 79ba 620f e53a
00000100: 78e6 aabb 7e50 1038 5b92 4b39 b2b6 9ab9
00000110: d1f1 7b3a f266 1e3a 100d 68ba e623 66ba
00000120: 5dc8 b339 4552 a23a 2371 2a3a 4cfb 9c3a
00000130: 9f43 abba 6cb4 423a b459 c4ba 3529 943a
00000140: 6709 c23a dd46 c8ba b1d5 2eba cfb4 b83a
00000150: b3ec b039 f222 14bb d4bd d53a aa83 71ba
00000160: 8ce6 2739 afe8 06ba d97d c6b8 0f2e 01b9
00000170: cc49 013a 81bb 423a 1977 7e3a 0c31 aeb9
00000180: 381d 473a 6ff8 72ba 217f 97ba 77d3 3bba
00000190: 4287 c438 3a7a 473a dcb4 183a 72a8 88b8
000001a0: 0f86 7a39 fa50 d539 1e0b 4fb7 ce1c ba39
000001b0: 7d49 1b39 9f93 bd39 0fa2 123a 4f15 74ba
000001c0: dce2 6e3a d95a 1bb9 3031 c638 bb01 2b3a
000001d0: cbea 583a 7749 5c39 9213 f139 5773 a8b9
000001e0: 9d3f fd39 55d9 1bbb fc48 06b9 0e6f 02bb
000001f0: ac55 023b e256 42ba ed9f 90b9 aa48 a33a
00000200: 7a3a 0ebb 1384 07ba 3bf1 cbba 9819 0f3b
00000210: 7b27 d8ba 06a7 4cbb 7247 86bb 5854 793a
00000220: 98dd cb3a 8366 193b fb7d e83a 6226 aa3a
00000230: c88f 1dba 9fa4 b43a f11e b43a 0f62 1c39
00000240: b4d4 6239 18a6 81ba cb87 99ba fd44 be3a
00000250: 2650 55ba fa51 2f3b cb4d 19bb ee24 3bb8
00000260: 30e4 6bb9 8398 2d3c d845 a93b be0a 3abb
00000270: 560e 023c 3f91 fcbb f481 e3bb 806b 30bb
00000280: 46e4 9d3b c128 073b c65d 8d3b cb64 b439
00000290: bc93 203c fec9 7bb8 f066 e2ba 2911 89bb
000002a0: 0052 1dbb b1c6 6c3b 694e 643b 65a3 e3bb
000002b0: c6b0 db3b 1aca c7b9 c09a 563a 6ed7 7a3b
000002c0: 3812 e93b 0d3b 7c39 9238 173b bcdf 07bb
000002d0: 1c42 7639 4301 de38 8e90 1cb9 6457 d83a
000002e0: 8770 8539 a8f6 77ba b442 bb3a dece ccba
000002f0: 7de5 b439 1261 b2b9 a872 be3a a442 f1b9
00000300: 8ba8 413a cd52 033a fec8 733b 5aa8 c8b9
00000310: 22f0 a2ba cc31 28bb 8398 bbba 802d 3b3a
00000320: 7be0 9e3a d802 d0ba ff14 a63a b4af 5039
00000330: 7773 9639 d5ca 0cb9 7677 823a 7164 b2b9
00000340: d29d 023a 05e4 feb9 fe4d 9fba 7589 713a
00000350: 3f8c 8a3a 0370 8e3b 98cc dc3b 5e5e 8cbb
00000360: 9ea9 a63b 177b e3bb 6b44 ddbb 1990 6bbb
00000370: b8de f13a eade a93b d4be ac3b ec7a 5339
00000380: 4f0d af3b b59b 293b 1582 04ba f17d 7bba
00000390: a8d2 f2b9 d23c c03a 268c 6e3b 8166 c9bb
000003a0: 9cd1 a53b 20e7 c038 b1cf 243b 7b95 933b
000003b0: 5cdb 913b 8f45 b73a fd5d 433b d9ed 5bba
000003c0: ad21 50b9 e119 4b3a d5d9 4439 8df7 b23a
000003d0: a74c a4ba 3b06 573a b83a 14ba 8832 5c3a
000003e0: 48d6 053a a5e4 efb9 f76a 4b3a 4fe4 1dba
000003f0: 3e53 9539 8b4f 433a 1118 0d3b a9cb 44ba
-0.00017778385 0.0007137946 0.00055205275 -0.0015339376 0.0010400828 0.0014681875 -0.001656147 0.0016534801
0.00079825585 0.00021662274 -0.0012711427 0.00015041143 -0.0013142974 -0.0004073129 -0.004111099 -0.00045951753
0.0017644976 0.0026662212 0.0015835756 -0.0011984742 -0.000744143 0.0013940246 -0.001081869 -0.00029769616
-0.0011556689 0.00078041025 -0.0014033327 2.705426e-05 -0.0003306086 -0.00021055734 -0.0006301122 0.00046734576
-0.00050930085 0.0009455402 -0.0010651076 -9.9307705e-05 0.00043265274 0.00024113018 -0.00041964304 0.0005521858
0.00042325442 -0.00023167333 0.00037915655 0.00076563295 0.0011757241 0.0001842208 -0.0007233386 0.00017550042
-0.0007652393 -0.00038897368 -0.00013937902 -0.00017681874 -0.00040497445 0.00014880249 0.0003814866 -0.00049799937
0.00045811274 -0.00026466683 -0.00037888694 0.0001047031 -0.00029632082 -0.0004167858 -0.0009529364 0.0017475898
-0.0052154623 3.440724e-05 0.0001941411 -0.00029509288 0.00096109236 0.0006042562 -0.0008852044 -0.0008779153
0.00034290823 0.0012384137 0.0006501844 0.0011976748 -0.0013066417 0.00074273976 -0.0014980347 0.0011303785
0.0014803828 -0.0015279908 -0.0006669416 0.0014091971 0.0003374569 -0.0022603837 0.0016307184 -0.000921304
0.00016012246 -0.0005146367 -9.464817e-05 -0.00012319557 0.0004931956 0.0007428453 0.0009707078 -0.0003322441
0.00075956015 -0.0009268587 -0.0011558273 -0.00071649946 9.371202e-05 0.0007609461 0.000582529 -6.516361e-05
0.00023891799 0.00040686858 -1.234075e-05 0.00035498146 0.00014809328 0.00036158875 0.00055936066 -0.00093110366
0.0009112784 -0.00014815795 9.4505376e-05 0.000652339 0.0008274733 0.00021008203 0.00045981683 -0.00032129392
0.00048303316 -0.0023780663 -0.00012806425 -0.001990262 0.001988749 -0.0007413459 -0.00027584974 0.0012457569
-0.0021702335 -0.0005169522 -0.0015559563 0.0021835323 -0.0016491258 -0.0031227483 -0.0040978724 0.00095111644
0.0015553711 0.002340705 0.001773774 0.001298141 -0.00060105 0.0013781971 0.0013742131 0.00014913849
0.00021632278 -0.0009891419 -0.0011713443 0.001451641 -0.0008137248 0.0026751743 -0.0023392315 -4.4618668e-05
-0.00022496353 0.010595444 0.0051657967 -0.002838775 0.007937988 -0.0077077444 -0.006942982 -0.0026919544
0.004818472 0.0020623656 0.004314157 0.00034407372 0.009800848 -6.0031183e-05 -0.0017273109 -0.004182954
-0.0024005175 0.0036129171 0.0034836775 -0.0069469684 0.0067044226 -0.00038106815 0.00081865117 0.0038275379
0.0071127675 0.00024054591 0.002307449 -0.0020732721 0.00023485016 0.0001058602 -0.0001493117 0.0016505537
0.00025451576 -0.0009459057 0.0014286847 -0.0015625616 0.00034503257 -0.0003402313 0.001453002 -0.00046016753
0.00073874806 0.00050095917 0.0037198658 -0.00038272404 -0.0012431184 -0.0025664447 -0.001431242 0.0007140264
0.0012121344 -0.0015869988 0.0012671052 0.0001990188 0.00028696258 -0.00013427001 0.0009953815 -0.0003402564
0.00049826235 -0.00048616543 -0.0012153981 0.0009213903 0.0010570361 0.004346849 0.0067382567 -0.0042837104
0.005086138 -0.0069421637 -0.006752541 -0.0035944043 0.0018453216 0.005184044 0.005271772 0.0002016832
0.0053421627 0.0025880162 -0.0005054784 -0.0009593657 -0.00046314788 0.0014666563 0.0036399453 -0.0061462526
0.005060388 9.198324e-05 0.0025148208 0.0045039034 0.0044511985 0.0013982522 0.002981066 -0.0008389629
-0.00019848971 0.00077476917 0.00018773165 0.0013654098 -0.0012535051 0.00082025275 -0.0005654502 0.0008399864
0.0005105478 -0.00045755986 0.00077597745 -0.00060230953 0.00028481515 0.00074505125 0.0021529237 -0.00075071544

exp_avg_sq f4 [64, 30]
00000000: 9b9a 7b3a d2c8 123a d885 ae39 b1ab 9b3a
00000010: ad0c 873a bc2f 093a 7689 c339 82bf 1b3a
00000020: 7e53 293a a30c 093a 7fd9 063a 5806 873a
00000030: 7ce1 313a a809 693a 04b2 ba3a 44fc 983a
00000040: 1bad 043a 9440 d63a 5fc7 393a c2a0 743a
00000050: cb9a 5539 8a04 373a 19de 003a ecde 3039
00000060: 7c22 3d3a 62ce 6d3a 70c9 3a3a 6733 d338
00000070: 621e b938 ea8f 0e39 54a8 cd3a 4754 373a
00000080: abe0 463a e4aa 6f3a cfb1 e93a 5639 6a3a
00000090: 21d0 ca39 a72f 9e3a 561e d139 374e 8e3a
000000a0: 8089 7f3a 99c2 c33a 7deb 563a cee2 cd3a
000000b0: f3c8 ba3a e169 143b 4baa 773a 2617 a63a
000000c0: 46f8 ed39 27cc 423b 3000 793a 98b4 f439
000000d0: 7bd8 9f3a 3ff1 3f3a e8ab 823a 49ef bb3a
000000e0: d810 b03a 403a 303a 74db d439 33e6 ab3a
000000f0: 4fa0 383b f564 723a e76e db3a ed7c c43a
00000100: 6ac0 383b 3790 8e3a 9b50 353a d773 a03a
00000110: 74f7 383a fab0 073b f763 6a3a a1cc 833b
00000120: 46a0 fe3a 5076 6d3b cc08 053b 34cb 9c3b
00000130: d33b 7d3a 096b 113b e33c 073b eb3c 4d3b
00000140: 8163 003b f141 b53a 24a8 053b 6d2d 8f3a
00000150: 4e3a 203b 1118 173b 159c 9e3b f683 9839
00000160: d738 c639 ade4 423b edc5 8b39 5d72 d738
00000170: d55f 4139 990e 0c39 842b 8339 d83d 1039
00000180: a411 af38 02fb 5839 28d7 7338 9eee d338
00000190: bee0 c338 6da6 d939 cd69 e338 8e72 023a
000001a0: 076e 6639 0683 c639 4c68 da38 50c1 2c39
000001b0: ef98 8e39 6451 0739 1efa a739 906f 1139
000001c0: 483b 7d39 1913 bf39 3a14 d238 5797 1439
000001d0: f230 6b39 5874 2d39 652c 1a38 e27a c839
000001e0: 5b84 0b3b 173b 473a 131b d53a faf8 0f3b
000001f0: 7370 843a 8ca2 bb3a 4569 3e3a 1427 3b3b
00000200: 25cf ab3a 2d1e 963a b8bd 793a 1808 663b
00000210: 47f0 c339 e81d 803b 2b0d 493b 0bb5 053b
00000220: 762d 1e3b 53b0 343b 63af 023b 559d e53a
00000230: 3629 2a3b 2533 523b 2bf7 613b 63c6 ce3a
00000240: 0a5a bb3a c47c f53a 5e67 be3a d2f2 2e3a
00000250: 4234 273a 23bf 893b b8c1 b23b c5cf 2f3b
00000260: 6162 cb3a e319 223c 60df 803b e925 443b
00000270: 37ee 603b 5e3b 593b 5261 2b3b 0084 fc3a
00000280: 71cb 1f3b 5315 b03b c774 963a b5e2 613b
00000290: 125b f83b 3dc0 3e3b 81c9 0d3b 8070 143c
000002a0: 30c9 563b 7514 363b 0d96 ca3a 6f79 ed3a
000002b0: 6d85 873b 6f42 653a 203b 343b 625f d73b
000002c0: 4432 f83a b7a0 9f39 3fca af39 73a0 563a
000002d0: 1fca 223a da42 bb39 e4d8 9039 aa3e 043a
000002e0: 59a0 f739 fd61 7539 74c1 9739 d1aa 3f3a
000002f0: 15ce 123a 1fbb 6039 e792 153a cb1c 023a
00000300: 0f1d 8539 72f7 3b3a 90d8 c23a 4806 3c3a
00000310: c224 1d3a be79 7e3a 29fc bf39 1024 133a
00000320: 3476 ec39 5558 713a 0e88 ce39 ffca cb39
00000330: 319c e739 6888 253a 62c7 e639 8642 8c39
00000340: 2b6a 0639 a451 f439 e844 a53b d64c b63a
00000350: 5226 e73a abb2 243b ac6a fc3b 1891 253b
00000360: 607d e33a ddb7 a23b 0e26 073b 0b8a 8a3b
00000370: 805c 673b 1fff d73b 0ff7 7a3b dad2 133c
00000380: 4cf1 973b 0436 0c3c 2c34 603b 28c4 723b
00000390: dacd 1f3b 25b4 1a3c 8e8c 613b 90a4 2b3b
000003a0: f1a2 b93b 275e 393b 7d66 4b3b ce2b bd3b
000003b0: 3091 ee3b 5a8c 8b3a b390 f13a d96a 0a3b
000003c0: 3b7b b73a a4f0 523a 8d4c f439 1e8f 333a
000003d0: 1f86 3b3b dbb5 5c3a 2234 f73a 8f25 8d3a
000003e0: b2e7 8e39 9f96 2d3a 5976 793a acc5 0c3b
000003f0: f01b d83a d582 073b 0c07 283b 455d 8c3b
0.0009597928 0.00055993826 0.00033287588 0.001187673 0.001030346 0.0005233248 0.00037295715 0.00059413176
0.00064592797 0.0005228018 0.0005144104 0.0010301573 0.0006785614 0.00088896835 0.0014243727 0.0011671861
0.0005061195 0.001634615 0.00070868985 0.0009331816 0.00020370928 0.00069815724 0.00049159076 0.00016867713
0.00072149164 0.0009071586 0.00071253534 0.000100708385 8.827147e-05 0.00013595787 0.0015690424 0.00069934543
0.0007586579 0.0009142591 0.001782948 0.00089349353 0.0003868351 0.0012068645 0.00039886188 0.001085705
0.0009747967 0.0014935314 0.00081985426 0.0015707852 0.0014250561 0.0022646117 0.0009447678 0.0012671694
0.0004538914 0.0029723735 0.0009498624 0.0004667386 0.0012195254 0.000732202 0.0009969445 0.001433828
0.0013432754 0.0006722547 0.00040599296 0.0013114869 0.0028171723 0.0009246611 0.0016741425 0.0014990844
0.002819086 0.001087672 0.0006916613 0.0012241554 0.00070559164 0.0020704851 0.00089412875 0.0040221964
0.0019426427 0.003623385 0.0020299433 0.004784966 0.00096600986 0.0022189042 0.0020635657 0.0031316828
0.001959056 0.0013828856 0.002039441 0.0010923572 0.0024448815 0.0023055116 0.004840384 0.00029090018
0.00037807852 0.0029738352 0.00026659612 0.00010273301 0.00018441615 0.00013356878 0.0002501869 0.00013755949
8.347936e-05 0.00020692873 5.8136095e-05 0.0001010571 9.340186e-05 0.00041513462 0.000108439104 0.00049761764
0.00021975498 0.00037863123 0.00010414477 0.00016475213 0.00027198295 0.00012904924 0.00032039074 0.00013869838
0.00024150044 0.00036444588 0.00010017348 0.00014170758 0.0002242958 0.00016541907 3.6757807e-05 0.00038238527
0.0021288607 0.00076000526 0.0016258679 0.002196847 0.0010104313 0.001431541 0.0007263611 0.0028557228
0.0013107999 0.0011453085 0.00095268665 0.003510004 0.0003737232 0.003909815 0.0030678015 0.00204021
0.0024135984 0.0027570918 0.0019940964 0.0017518202 0.0025964505 0.0032073942 0.00344796 0.0015775677
0.0014293802 0.00187292 0.0014526655 0.0006673756 0.00063783315 0.0042036935 0.005455222 0.002682672
0.001551699 0.009893867 0.0039328784 0.0029929823 0.0034321675 0.0033146958 0.0026150537 0.0019265413
0.0024382735 0.005373636 0.0011478894 0.0034467403 0.007579216 0.0029106282 0.0021634998 0.009060025
0.0032773726 0.002778319 0.0015456096 0.0018117855 0.0041357786 0.0008745556 0.0027501062 0.00657265
0.0018935879 0.00030446585 0.00033529286 0.0008187361 0.0006209928 0.00035717228 0.00027627416 0.0005044738
0.0004723098 0.00023401524 0.00028945098 0.00073115254 0.00056001666 0.00021432013 0.0005705789 0.0004963397
0.00025389387 0.0007170356 0.0014865566 0.0007172567 0.0005994552 0.0009707472 0.00036618233 0.0005612979
0.00045101496 0.0009206583 0.0003939275 0.0003887042 0.00044176125 0.00063145766 0.0004401757 0.00026752445
0.00012818786 0.00046600134 0.0050436147 0.0013908397 0.0017635322 0.0025130908 0.007703146 0.0025263485
0.001735609 0.004965766 0.0020622048 0.004227882 0.0035302937 0.006591692 0.003829423 0.009022439
0.004636919 0.0085578 0.0034210784 0.0037043188 0.0024384172 0.009442364 0.0034416053 0.0026190616
0.005665176 0.002828488 0.003103643 0.005773044 0.0072804913 0.0010646686 0.0018429965 0.0021120815
0.0013998518 0.00080467225 0.0004659634 0.0006849634 0.0028613878 0.00084194326 0.0018860141 0.001076864
0.00027256977 0.00066218706 0.00095162314 0.0021480126 0.0016487818 0.0020677347 0.0025638966 0.0042835795

exp_avg f4 [64]
00000000: 3219 203b 1922 00bb 40db 9ebb 823e bd38
00000010: 95e4 933b bb1e beba e979 a0ba 995c 95b6
00000020: 9995 18bb 471c 833a c3e9 243b 30da d83a
00000030: 6c88 063b e3fc 6fbb cdb7 213b 9d51 25bb
00000040: 1538 3dbb 56af 5ebb 90df 393b e46e 58bb
00000050: 3ecb 5abb f6c4 7a3b c386 71bb 3ed9 383a
00000060: dbe3 02bb f721 cabb bdbf 2d3b 664b 2d3b
00000070: f818 a5ba 1bc6 a3bb 1855 30bb 0d60 32ba
00000080: dd47 5f3a 9458 1dba f908 543b 1f54 78b9
00000090: 26ad 94bb d34c a7ba 18c8 a0bb 0b52 64bb
000000a0: d69e 1abb 04f5 0fbb 0154 b03b 0a6b e53a
000000b0: 8ea4 d4bb 1c7d 81bb d8c6 e3bb 60b0 6837
000000c0: dd34 a13b fe50 9f3a acc4 6abb 602b 2abb
000000d0: b09e 1b3b 17b5 153b 1a86 79bb fa2f 65bb
000000e0: 558b 14ba 1eb1 50bb ccf4 36bb fe63 3e3b
000000f0: 03aa 59bc bdce deba 80f2 0d3b e737 cfbb
0.002442908 -0.0019551574 -0.004847914 9.023865e-05 0.004513333 -0.0014505008 -0.0012243363 -4.451326e-06
-0.0023282527 0.0010002934 0.0025163747 0.0016544517 0.002052809 -0.0036619238 0.0024676204 -0.0025225647
-0.0028872539 -0.003397902 0.0028362013 -0.003302508 -0.0033385302 0.003826437 -0.0036854006 0.00070514146
-0.0019972238 -0.0061685997 0.002651199 0.0026442646 -0.0012595942 -0.0049979812 -0.0026906189 -0.0006804474
0.00085174834 -0.0006002274 0.003235398 -0.0002368246 -0.0045372425 -0.0012763984 -0.0049066655 -0.003483894
-0.0023593209 -0.002196611 0.005381108 0.0017503214 -0.006489343 -0.003951682 -0.0069511943 1.3869343e-05
0.004919632 0.0012154875 -0.0035822792 -0.0025965795 0.0023745708 0.0022843534 -0.0038074316 -0.0034971223
-0.0005666514 -0.0031843851 -0.0027916906 0.00290513 -0.013285163 -0.0016998869 0.0021659434 -0.0063238028

exp_avg_sq f4 [64]
00000000: 6597 723a 9911 cc3a 0b92 573b ecfc 9439
00000010: b799 253b 65a4 a63b 664c 223a 29f3 b83b
00000020: c2ef dc3a f080 6b39 a40c 803a 959d e43b
00000030: b954 f339 4c62 c43b 24be 6b3a 84cf de3a
00000040: 8c88 b73b 8a52 d43a 337e 833a ce3e 5f3b
00000050: b6e6 0c3b 6e4f 093b d991 723b 2911 f738
00000060: 5fd7 e83a c1a9 a73b 44f1 0e3b 8619 9f3a
00000070: dcb1 003a c76b 953b f3b2 f13a e000 8e3b
00000080: 9639 7739 d648 3f3b 0467 253b a54a d03a
00000090: d52b cf3b 780c 433a 2e54 093c 9d86 273b
000000a0: 48ec cf3a d4c2 293b 90b6 423b 0adf e93a
000000b0: a9cf 4c3b d910 3b3b 44b4 003c 5c9a 9a37
000000c0: 5c56 f33a 3278 103b 5f0d 283b c71e 403b
000000d0: c07a 3d3a f137 a03a e4b4 453b 7828 a73b
000000e0: 22e2 6639 fb5f 973a 94fd ac3a 3245 813a
000000f0: 363a 003d 917c 573b f89d 5d3a a91b 243c
0.0009254127 0.0015569209 0.0032893445 0.000284172 0.0025268623 0.0050855153 0.0006191194 0.0056442213
0.0016856121 0.0002245938 0.0009769392 0.006976793 0.00046411695 0.005993163 0.0008992872 0.00169991
0.0056009945 0.0016198915 0.0010032117 0.0034064534 0.002149982 0.0020951885 0.0037013202 0.00011781074
0.0017764381 0.005116672 0.0021811286 0.0012138344 0.00049093156 0.004559967 0.0018440172 0.0043336004
0.00023577208 0.00291877 0.0025238404 0.0015891386 0.006322364 0.00074405177 0.008381886 0.0025562414
0.0015863264 0.002590348 0.0029710867 0.001784296 0.0031251705 0.0028543978 0.007855479 1.843011e-05
0.0018565166 0.0022044298 0.0025642735 0.002931522 0.0007228069 0.0012223703 0.0030167634 0.00510126
0.0002201875 0.001154899 0.0013198131 0.0009862541 0.031305514 0.0032880644 0.000845402 0.01001636

exp_avg f4 [32, 64]
00000000: 8a50 25bb b7c2 d5b9 e3ff 2aba 0dae 41ba
00000010: 881e 95ba b640 2cba 4c6b 2cba dff6 3aba
00000020: 4b6b e0b9 9d99 18ba e4db d0ba c2a2 ffb9
00000030: 1789 a5ba 21dd cdb9 bee0 c1ba a3d6 bbb9
00000040: e938 a9b9 484b 51ba b635 10bb 0e7e 17ba
00000050: 1844 47ba b987 85ba 2b73 a1b9 da52 acb9
00000060: db8f 81ba 1896 80ba 52d4 e0ba 7ae5 1cba
00000070: a38c c6b9 533f 60ba 8f2f c6b9 860e 34ba
00000080: c413 76ba 8b63 26ba 8670 17bb 0f55 2aba
00000090: 259c 13ba bcdd 88ba f014 ffb9 aa7f bbb9
000000a0: d071 20ba a129 f5b9 3365 12bb 6b4f 8cb9
000000b0: 5329 b0ba d467 32ba 6633 65ba f5e9 bab9
000000c0: 3ca5 07bb 7797 11ba 883b 0bba 9d26 f7b9
000000d0: d5dc daba 5270 d2ba 80b5 91ba c1b1 c5b9
000000e0: 34b9 5cba 24b7 84ba 3836 fab9 7192 51ba
000000f0: 3139 67ba f29c 8aba 9816 09ba a797 1cba
00000100: cd09 ceb7 a543 e1b9 bb55 17ba 1117 1d39
00000110: e943 8dba bb2d cdb9 4ac3 e838 60f5 d5b9
00000120: 7fa3 00ba 0be1 1bba 9af3 bcba f56e a73a
00000130: ea11 88ba b80f a4b9 99d3 a3ba dbcb e1b9
00000140: 488a bcb9 e4c1 10ba 9fa4 ddba 48bd fcb9
00000150: ef0c 38ba 1170 98ba abfc 9bb9 51a0 92b9
00000160: 939f 34ba 0ec3 6eba 302f 14ba 4917 23ba
00000170: 6be6 00ba de3d 3cba 0e0e 9bb9 2675 4439
00000180: d0c7 b43a b30c 9f39 5d34 423a cdec 12b9
00000190: 503b fab9 9c39 1b3a e34e ecb9 2d0b c4b9
000001a0: 5c4c 16ba 083c d4b9 a342 e0ba a23c 6c3a
000001b0: 46c0 94ba 0dea 12ba 6215 3dba e099 b1b9
000001c0: e8f5 02bb bd32 d4b8 3533 08ba 3e3f deb9
000001d0: f893 beba 3c19 6137 4a7a 7fba a880 9bb9
000001e0: d0e6 3aba feb4 49ba 1ee7 c9b9 220d 19ba
000001f0: c903 4aba b585 45ba fc23 0aba 9a47 19ba
00000200: 1627 03ba db15 c5b9 91dd 17ba a732 c037
00000210: a3ff 93ba d917 0bba 18e0 6333 9a51 0dba
00000220: 7b84 03ba ef2f 35ba a0b4 01bb 4b29 a63a
00000230: 2f6b acba 0376 b5b9 e949 f5ba 218c d6b9
00000240: c0ea b6b9 f816 50ba d673 1abb cbd5 01ba
00000250: bfd2 53ba 1bec 82ba 99f7 9eb9 49a6 96b9
00000260: b025 70ba 1388 86ba ddd6 80ba 2841 2bba
00000270: d1ea 05ba 85cc 61ba b2e6 b9b9 5973 b038
00000280: ac48 c83a c634 8539 2ff8 8a39 6704 b6b9
00000290: c84e 10ba 478e 053a f0d5 09ba f4a7 adb9
000002a0: b5aa 28ba e9a1 f7b9 edc7 21bb 63a0 733a
000002b0: b917 acba fac7 3eba cd80 64ba cb69 afb9
000002c0: 8e7c 34bb 2543 17b9 b50a 08ba ef3e d4b9
000002d0: a44c f5ba 3d93 9ab9 9a4f 99ba 8e15 afb9
000002e0: 58e1 67ba d4fe 93ba 3070 e7b9 f6a8 7bba
000002f0: 1d30 5cba 223d 7cba 0151 30ba cb49 24ba
00000300: 0400 0000 0400 0000 0400 0000 0400 0000
00000310: 0400 0000 0400 0000 0400 0000 0400 0000
00000320: 0400 0000 0400 0000 0400 0000 0400 0000
00000330: 0400 0000 0400 0000 0400 0000 0400 0000
00000340: 0400 0000 0400 0000 0400 0000 0400 0000
00000350: 0400 0000 0400 0000 0400 0000 0400 0000
00000360: 0400 0000 0400 0000 0400 0000 0400 0000
00000370: 0400 0000 0400 0000 0400 0000 0400 0000
00000380: 0400 0000 0400 0000 0400 0000 0400 0000
00000390: 0400 0080 0400 0000 0400 0000 0400 0000
000003a0: 0400 0000 0400 0000 0400 0000 0400 0000
000003b0: 0400 0000 0400 0000 0400 0000 0400 0000
000003c0: 0400 0000 0400 0000 0400 0000 0400 0000
000003d0: 0400 0080 0400 0000 0400 0000 0400 0000
000003e0: 0400 0000 0400 0000 0400 0000 0400 0000
000003f0: 0400 0000 0400 0000 0400 0000 0400 0000
-0.0025225007 -0.000407716 -0.00065231154 -0.00073883013 -0.0011376897 -0.0006570922 -0.0006577268 -0.00071321236
-0.0004280455 -0.000582123 -0.0015934673 -0.00048758654 -0.0012629357 -0.000392654 -0.001479171 -0.00035827336
-0.00032276593 -0.0007983935 -0.002200467 -0.00057789765 -0.00076013943 -0.0010187543 -0.0003079412 -0.00032868126
-0.0009884791 -0.0009810356 -0.001715312 -0.00059851224 -0.00037870285 -0.0008554358 -0.00037800937 -0.0006868619
-0.00093871006 -0.00063472305 -0.002310784 -0.000649766 -0.00056308723 -0.0010442059 -0.0004865299 -0.00035762537
-0.0006120475 -0.00046761057 -0.0022338151 -0.00026762052 -0.001344005 -0.0006805633 -0.00087433157 -0.00035650996
-0.0020697853 -0.0005553881 -0.00053113 -0.0004714028 -0.0016697893 -0.0016055203 -0.0011116713 -0.00037707205
-0.00084199314 -0.0010125381 -0.00047724112 -0.0007994539 -0.0008820473 -0.0010575338 -0.0005229502 -0.00059735257
-2.4561677e-05 -0.00042965743 -0.00057729677 0.0001498128 -0.0010777685 -0.0003913472 0.000110989975 -0.00040809345
-0.00049071753 -0.0005946315 -0.0014415861 0.0012774157 -0.0010381315 -0.0003129223 -0.0012498974 -0.00043067228
-0.00035961182 -0.0005522056 -0.0016910023 -0.0004820621 -0.000702097 -0.0011630078 -0.00029752156 -0.00027966735
-0.00068902335 -0.0009108045 -0.00056527834 -0.00062214263 -0.00049171475 -0.000718085 -0.00029574375 0.00018735658
0.0013792459 0.00030336305 0.00074083154 -0.0001401186 -0.00047727907 0.0005921365 -0.00045072203 -0.0003739236
-0.00057334243 -0.00040480518 -0.0017109703 0.00090117205 -0.0011348806 -0.00056043343 -0.0007212964 -0.00033874717
-0.0019982997 -0.000101183985 -0.0005195619 -0.0004239026 -0.0014539948 1.341692e-05 -0.00097457005 -0.0002965976
-0.00071297307 -0.00076945114 -0.00038509903 -0.0005838444 -0.00077062525 -0.00075348775 -0.00052696443 -0.0005847156
-0.00050030777 -0.00037591052 -0.0005793209 2.291177e-05 -0.0011291396 -0.0005305983 5.3056368e-08 -0.0005390883
-0.00050169945 -0.0006911745 -0.0019791499 0.0012677101 -0.0013154502 -0.00034610936 -0.0018714044 -0.00040921665
-0.00034888647 -0.0007937993 -0.0023567579 -0.0004952817 -0.0008080415 -0.0009988578 -0.00030320583 -0.00028734122
-0.00091608893 -0.0010263942 -0.0009829659 -0.00065328414 -0.0005108538 -0.00086135446 -0.0003545783 8.413819e-05
0.0015280447 0.00025407056 0.00026506322 -0.00034717025 -0.00055049034 0.00050947483 -0.00052580144 -0.00033122266
-0.0006434129 -0.00047232144 -0.0024685815 0.0009293614 -0.0013129628 -0.00072777236 -0.00087167026 -0.00033457423
-0.002754006 -0.00014425495 -0.0005189584 -0.0004048268 -0.0018714857 -0.0002948287 -0.0011696697 -0.0003339466
-0.00088455295 -0.0011291155 -0.0004414334 -0.0009600067 -0.00083995034 -0.00096221466 -0.0006725938 -0.00062670995
6e-45 6e-45 6e-45 6e-45 6e-45 6e-45 6e-45 6e-45
6e-45 6e-45 6e-45 6e-45 6e-45 6e-45 6e-45 6e-45
6e-45 6e-45 6e-45 6e-45 6e-45 6e-45 6e-45 6e-45
6e-45 6e-45 6e-45 6e-45 6e-45 6e-45 6e-45 6e-45
6e-45 6e-45 6e-45 6e-45 -6e-45 6e-45 6e-45 6e-45
6e-45 6e-45 6e-45 6e-45 6e-45 6e-45 6e-45 6e-45
6e-45 6e-45 6e-45 6e-45 -6e-45 6e-45 6e-45 6e-45
6e-45 6e-45 6e-45 6e-45 6e-45 6e-45 6e-45 6e-45
