lightning_logs/resnet_e5_lr0.001_b512/version_0/checkpoints/epoch=4-step=2090.ckpt (torch, 311378 bytes, 63 tensors)

input.weight f4 [64, 30]
0	0x3e7d81a7	0.2475649
1	0x3e3838aa	0.17990366
2	0x3e402802	0.18765262
3	0xbe141b18	-0.1446346
4	0xbe480914	-0.19534713
5	0x3e346cab	0.17619579
6	0x3d40ede9	0.04710189
7	0xbcd09bb8	-0.025464877
8	0x3dd89ea6	0.10577135
9	0x3dd1a79a	0.102370456
10	0x3d90ad2d	0.07064281
11	0x3ba37a90	0.004988976
12	0x3e26de28	0.16295683
13	0xbe69e8ab	-0.22842662
14	0x3e7a206b	0.24426429
15	0xbd86dff9	-0.06585688
16	0xbcf1eab1	-0.029530855
17	0xbd80ef10	-0.062955976
18	0x3d89b748	0.06724411
19	0xbdd23fae	-0.10266052
20	0xbcc5a48b	-0.024126312
21	0x3cec0442	0.028810624
22	0xbe0bc896	-0.13650736
23	0xbe24e973	-0.16104679
24	0xbe1229c9	-0.14273752
25	0x3e13aae1	0.14420654
26	0x3e527c18	0.2055515
27	0x3d9f5cdf	0.07781386
28	0x3de9e7c9	0.11421163
29	0xbc6c270d	-0.014413607
30	0x3e638f29	0.2222258
31	0xbd58da1e	-0.052942388
32	0xbdb41e53	-0.087948464
33	0xbd4efd76	-0.050534688
34	0x3d9412ae	0.07230125
35	0x3e00aeed	0.12566729
36	0x3e4dfce5	0.20116003
37	0xbdeb4296	-0.1148731
38	0x3e614aba	0.22001162
39	0x3dc7fdbc	0.09765193
40	0xbdd2c006	-0.10290532
41	0xbe27f613	-0.16402464
42	0x3c48b543	0.012250247
43	0xbe08e063	-0.13366847
44	0x3e5b455f	0.21413182
45	0xbdf9a11f	-0.121889345
46	0x3e281f2e	0.16418144
47	0x3dfa82e8	0.12232
48	0x3d9db814	0.07701126
49	0x3e0e2958	0.13882959
50	0x3e07d907	0.13266383
51	0x3d83efc4	0.06442216
52	0x3d17aca9	0.037029896
53	0xbdca0c7a	-0.09865661
54	0x3defb238	0.117039144
55	0x3e3b7b51	0.1830876
56	0xbddde4bd	-0.10834644
57	0x3bc93fea	0.0061416524
58	0x3e18c240	0.1491785
59	0x3dca6865	0.09883193
60	0xbc862edb	-0.016379764
61	0xbccbdf6a	-0.024886806
62	0xbdc8ab14	-0.097982556
63	0xbe84cf78	-0.25939536
64	0x3e4fdaff	0.20298384
65	0x3d82f72c	0.063948005
66	0x3d955e46	0.07293372
67	0x3de1d0f2	0.11026181
68	0x3df323d8	0.11872071
69	0xbcec1b67	-0.02882166
70	0xbe488053	-0.19580202
71	0x3d5fcbee	0.054637842
72	0xbde28de9	-0.110622235
73	0xbe04b339	-0.12958993
74	0xbe38cee3	-0.18047671
75	0xbe50d222	-0.2039266
76	0xbdcff026	-0.101532266
77	0xbd9da17e	-0.07696818
78	0x3d77fdf5	0.060544927
79	0xbe361066	-0.17779693
80	0x3d9e09f7	0.077167444
81	0xbd18e605	-0.03732874
82	0x3d44e754	0.048072174
83	0x3cf7ec3d	0.030264014
84	0x3e3bfd9e	0.18358466
85	0xbc0948dd	-0.008379188
86	0xbe3048b2	-0.17215231
87	0x3dc3910c	0.0954915
88	0x3dc9a094	0.09845081
89	0x3d0874a9	0.03331438
90	0xbd512bdf	-0.05106723
91	0x3c868ee0	0.01642555
92	0xbe2bc2aa	-0.16773477
93	0xbd6475ea	-0.055776514
94	0x3e24ad20	0.16081667
95	0x3ddfeb51	0.10933555
96	0xbdeeab95	-0.116538204
97	0x3db2cc39	0.08730359
98	0x3cf7f559	0.030268358
99	0x3dc9aaa7	0.098470025
100	0x3d7f65a3	0.062352788
101	0x3dfe014f	0.12402593
102	0xbe866351	-0.26247647
103	0xbe632596	-0.22182307
104	0xbdbf29bf	-0.09334134
105	0x3d3bbad1	0.04583246
106	0xbbbc5043	-0.0057468726
107	0x3d0357a8	0.032066017
108	0xbe070e2f	-0.13189004
109	0xbdb59000	-0.088653564
110	0xbd1ebfbb	-0.038757067
111	0x3e176f89	0.14788641
112	0x3e1c1ce9	0.15245403
113	0x3dba8d1c	0.09108946
114	0x3d1fc114	0.039002493
115	0xbc8125f1	-0.015765162
116	0xbd52eb41	-0.051493887
117	0x3d3d6743	0.046241056
118	0xbdaf234a	-0.08551653
119	0x3e78f2d1	0.24311377
120	0x3cc39df8	0.023879036
121	0xbe012d05	-0.1261483
122	0xbdce0ef4	-0.10061446
123	0x3e8e8dac	0.27842462
124	0xbe657870	-0.22409225
125	0x3c4b7773	0.012418616
126	0x3d80677d	0.06269739
127	0xbda837d8	-0.08213776
128	0x3e6af4d0	0.22944951
129	0xbdf39d1c	-0.118952006
130	0x3e1bb772	0.15206698
131	0xbd3c06b3	-0.045904826
132	0x3da398c7	0.07988124
133	0xbdd31757	-0.10307186
134	0x3ce67147	0.028130187
135	0xbde8bf57	-0.1136462
136	0x3de80d8f	0.11330711
137	0xbdffb7a3	-0.12486198
138	0x3e75d38f	0.24006484
139	0x3da3abd8	0.07991761
140	0x3dc5cbd6	0.09658019
141	0xbd70a58f	-0.05875164
142	0x3cc216eb	0.023692569
143	0xbd8a53e8	-0.06754285
144	0x3e247f37	0.16064154
145	0x3df3a236	0.11896174
146	0xbe59ec64	-0.21281582
147	0x3e2a5b0a	0.16636291
148	0x3c3ef7e2	0.01165578
149	0xbd95590d	-0.07292376
150	0x3e38d15b	0.18048613
151	0xbe08e591	-0.13368823
152	0x3c809781	0.015697243
153	0xbe061296	-0.13093027
154	0xbd3cb695	-0.04607256
155	0xbe39f042	-0.18158057
156	0x3dc14579	0.09437079
157	0x3c2599c1	0.010107459
158	0x3d2a75f8	0.04161641
159	0x3db19f1c	0.08672926
160	0x3de6bdc2	0.11266662
161	0xbe080238	-0.13282096
162	0x3e5cfe07	0.21581279
163	0x3cd9e1cd	0.026596928
164	0xbcb135be	-0.021632072
165	0x3e1499c1	0.14511777
166	0x3e5f4421	0.21803333
167	0x3e2d9b6c	0.1695382
168	0xbe5d0aa8	-0.21586096
169	0xbe4ee2a7	-0.20203649
170	0xbc14acca	-0.009074399
171	0xbd1faef7	-0.03898522
172	0x3e165de1	0.1468425
173	0x3e1831ea	0.1486279
174	0x3b361d2f	0.002778839
175	0xbe0a4baa	-0.13505426
176	0x3e340735	0.17580874
177	0x3b3b49fa	0.002857803
178	0xbd0089a5	-0.031381268
179	0x3de49fc0	0.111632824
180	0x3e1a92c4	0.15095049
181	0xbd099c4d	-0.033596326
182	0xbde09034	-0.109650046
183	0xbd80de37	-0.06292384
184	0xbc17aac0	-0.009257019
185	0x3e418913	0.18899946
186	0xbd6251b8	-0.055253714
187	0x3d4afe12	0.049558707
188	0x3c2f3349	0.01069338
189	0xbc117c26	-0.008879697
190	0x3de518c2	0.11186363
191	0x3da45a1d	0.08025
192	0xbd491004	-0.04908754
193	0xbdec15af	-0.11527573
194	0x3e44e185	0.19226654
195	0x3d62c865	0.055366892
196	0xbe3bbcba	-0.18333712
197	0x3d28e826	0.04123702
198	0xbda2e7c2	-0.079543605
199	0x3d5b454e	0.05353289
200	0xbd902d55	-0.070398964
201	0x3c8282ef	0.015931575
202	0xbe42fbd6	-0.1904138
203	0xbe57cd9c	-0.21074528
204	0x3e1d1517	0.15340076
205	0x3e77b10d	0.24188633
206	0x3c506977	0.012720457
207	0xbddc52c1	-0.107579716
208	0x3cf98244	0.030457623
209	0xbe08a4b6	-0.13344082
210	0x3e5f8eb1	0.21831776
211	0x3d4fd6be	0.050741903
212	0x3ce88ef6	0.028388482
213	0xbb944553	-0.0045248657
214	0x3d881284	0.066441566
215	0x3d87c9e2	0.06630303
216	0xbb203f63	-0.0024451844
217	0x3cb07e1b	0.021544507
218	0x3e7ef741	0.24899007
219	0x3cf76f3a	0.030204404
220	0xbe13b59b	-0.14424746
221	0xbdf75f1f	-0.1207869
222	0xbde5a2a8	-0.11212665
223	0x3d6584d1	0.056034867
224	0x3dc5c7e2	0.09657265
225	0x3dc2cdad	0.09511886
226	0x3e4fa17f	0.2027645
227	0x3e137ef6	0.144039
228	0xbda13413	-0.078712605
229	0x3d9df301	0.07712365
230	0xbb741718	-0.003724521
231	0x3e0ad699	0.13558425
232	0x3e37d1b8	0.17951095
233	0x3e0f50cf	0.1399567
234	0xbd2808d0	-0.04102403
235	0xbe241bb4	-0.16026193
236	0x3d915208	0.07095724
237	0x3e00e89c	0.12588733
238	0xbe4a755f	-0.19771336
239	0xbdee3b98	-0.1163246
240	0x3c024f31	0.007953451
241	0xbe439ec4	-0.19103533
242	0xbcc83bfa	-0.024442662
243	0xbd8e3611	-0.06943906
244	0x3e5343fe	0.20631406
245	0xbdbbe239	-0.09174008
246	0xbe15739d	-0.14594884
247	0xbe0eee73	-0.13958149
248	0xbde94e28	-0.1139186
249	0xbe3dfb18	-0.18552816
250	0xbd86b287	-0.0657702
251	0x3e72f2e4	0.23725468
252	0xbe92d3be	-0.2867717
253	0x3d87d22b	0.06631883
254	0xbea4a574	-0.3215748
255	0xbe41aee1	-0.18914367

input.bias f4 [64]
0	0x3e6533cb	0.22383039
1	0xbe01a1d8	-0.12659395
2	0x3bacfde3	0.005279289
3	0xbd8b47e4	-0.068008214
4	0xbd5bd497	-0.05366954
5	0xbcb1ea25	-0.021718094
6	0x3db88de3	0.09011438
7	0xbd974e4c	-0.07387981
8	0x3d91857d	0.07105539
9	0xbe1b072f	-0.15139459
10	0xbb8e1ba8	-0.004336793
11	0xbd9e8113	-0.07739463
12	0xbc276d10	-0.010218874
13	0xbdefa83b	-0.11702009
14	0xbd29a61b	-0.041418176
15	0x3d73c97f	0.059518334
16	0x3b4e3f02	0.003147066
17	0xbc552ae4	-0.013010714
18	0x3e19ab32	0.15006712
19	0x3e0cfa0b	0.13767259
20	0x3e51b816	0.2048038
21	0x3d52732a	0.05137936
22	0x3e275458	0.16340768
23	0xbd9be007	-0.07611089
24	0xbe26df2a	-0.16296068
25	0x3b4d5763	0.0031332604
26	0x3d7eebf6	0.06223675
27	0xbc99ab9a	-0.018758584
28	0xbd61e9cb	-0.055154603
29	0x3e6c1200	0.23053741
30	0x3d9a408d	0.07531843
31	0x3df99aad	0.12187705
32	0x3e36f301	0.17866136
33	0xbe6d8fc0	-0.23199368
34	0xbdd4a8e4	-0.10383776
35	0xbe1a0575	-0.15041144
36	0x3e0dd404	0.13850409
37	0x3d037f77	0.03210398
38	0x3e3d8807	0.18508922
39	0xbdf0a5df	-0.117503874
40	0x3daead27	0.0852912
41	0x3e045135	0.12921603
42	0xbe3226e6	-0.17397651
43	0xbb12f12c	-0.0022421582
44	0x3e231942	0.15927604
45	0x3d8fde9c	0.07024881
46	0xbe20b9cc	-0.15695876
47	0x3e2e3d0c	0.17015475
48	0x3d7b3107	0.061326053
49	0xbe40507b	-0.18780701
50	0xbd385197	-0.044999685
51	0x3dceeffd	0.10104368
52	0x3e1fbe9f	0.1560006
53	0xbe13c618	-0.14431036
54	0x3dde8c2b	0.10866579
55	0xbe5f81d5	-0.2182687
56	0xbe406195	-0.18787225
57	0x3e0defc3	0.13860993
58	0xbdc169e4	-0.09444025
59	0xbe338ef6	-0.17535004
60	0xbe0e8820	-0.13919115
61	0x3e1954f3	0.14973812
62	0xbd372278	-0.044710606
63	0x3e1edbea	0.15513578

h1.weight f4 [64, 64]
0	0x3e14836c	0.14503258
1	0xbd89a223	-0.06720378
2	0xbdf4d11d	-0.11953948
3	0xbd82d609	-0.0638848
4	0x3d9c7697	0.07639807
5	0xbd8419e1	-0.064502485
6	0x3ddd98c3	0.108201526
7	0xbd83a671	-0.064282306
8	0xbd426b90	-0.04746586
9	0xbc385977	-0.011251799
10	0xbafb639e	-0.0019179469
11	0x3de38f39	0.11111302
12	0x3e4f7820	0.20260668
13	0x3d0b9d92	0.034085818
14	0xbdec3347	-0.11533218
15	0xbdab7b95	-0.08373181
16	0x3e5dd4b0	0.21663165
17	0xbe1369a1	-0.14395763
18	0x3d7e44f1	0.062077466
19	0x3d5a1f09	0.053252254
20	0xbcf4fa42	-0.029904488
21	0xbdc2b0d7	-0.09506386
22	0xbd6093ee	-0.054828577
23	0xbd363e20	-0.04449284
24	0x3d08d709	0.0334082
25	0x3c9642b2	0.01834235
26	0x3d19936c	0.037494108
27	0xbdeb12f5	-0.11478225
28	0x3c51fdd8	0.012816869
29	0x3ddf0c33	0.10890999
30	0x3d141d21	0.036160592
31	0xbcaf0d6d	-0.021368707
32	0x3aef7d14	0.0018271529
33	0x3e01e743	0.12685876
34	0xbcd2d782	-0.025737528
35	0xbd4864fd	-0.048924435
36	0xbd230f58	-0.039809555
37	0xbda99416	-0.08280198
38	0x3e35485c	0.17703384
39	0x3d038f81	0.032119278
40	0xbd900dc0	-0.070338726
41	0xbde9623e	-0.11395691
42	0xbd509747	-0.05092552
43	0x3d92408b	0.07141217
44	0x3ccde334	0.025132753
45	0xbdb520fa	-0.088441804
46	0xbe169b69	-0.14707722
47	0x3c9ad2de	0.018899377
48	0xbdb00f85	-0.0859671
49	0x3dc2f322	0.0951903
50	0x3d694125	0.056946892
51	0x3dd9be10	0.10631955
52	0x3e08961b	0.1333851
53	0xbe06b9ad	-0.13156767
54	0x3ddd631e	0.10809921
55	0x3d597b42	0.053096063
56	0xba658f70	-0.00087570306
57	0x3d9bdbea	0.07610305
58	0x3d389326	0.045062207
59	0xbdeeac95	-0.11654011
60	0x3c6a3531	0.014294908
61	0xba0e9a4f	-0.0005439864
62	0x3dc851f7	0.097812586
63	0x3e107bb0	0.14109683
64	0x3e13baa0	0.1442666
65	0x3dbd63f8	0.09247583
66	0xbe19843a	-0.14991847
67	0x3ba89f29	0.0051459265
68	0x3e4804f8	0.19533145
69	0xbda9c291	-0.08289064
70	0x3e151f36	0.14562687
71	0xbccbb1b7	-0.024865014
72	0xbcc052da	-0.023477007
73	0xbda951cc	-0.08267555
74	0x3dc41567	0.09574395
75	0x3e236b7d	0.15958972
76	0x3e14c3d2	0.14527825
77	0xbe0163e1	-0.12635757
78	0xbe0fba8b	-0.14036004
79	0x3d6c7359	0.05772719
80	0x3df3f3ec	0.11911759
81	0xbd7cea04	-0.061746612
82	0x3e53dbf7	0.20689379
83	0x3e162eef	0.14666341
84	0x3e53e593	0.20693044
85	0xbd3c7e92	-0.046019144
86	0x3dda2cbf	0.10653066
87	0x3d5fd23f	0.054643866
88	0x3e17b5b0	0.14815402
89	0xbb8ccd81	-0.004296959
90	0xbe2fcece	-0.17168733
91	0xbd61c5ba	-0.055120207
92	0xbe15ad4f	-0.14616893
93	0xbd05c1b6	-0.03265544
94	0xbd1ee214	-0.038789824
95	0x3e146b2f	0.14494012
96	0x3dd6ca5d	0.104878165
97	0xbe2f3523	-0.17110114
98	0xbdd9dd97	-0.10637968
99	0x3d8df5d1	0.069316514
100	0x3e20c07b	0.15698425
101	0xbe0eadaa	-0.13933435
102	0x3da4cfd1	0.0804745
103	0x3deb35f1	0.11484898
104	0xbe0d2796	-0.13784632
105	0x3d649f62	0.05581606
106	0xbdadecfb	-0.08492466
107	0x3e0430cc	0.1290924
108	0x3e2c1cc1	0.16807844
109	0x3cfe5416	0.031045955
110	0xbdec4d54	-0.11538187
111	0x3e820c02	0.25399786
112	0x3e365ff0	0.17810035
113	0x3d02e2dc	0.03195463
114	0x3d39787e	0.045280926
115	0xbce97319	-0.028497266
116	0x3baf219a	0.005344582
117	0xbdaf4540	-0.0855813
118	0xbdc919de	-0.09819387
119	0x3dcdbcfd	0.10045812
120	0x3c03dedb	0.008048738
121	0x3c0ba1e1	0.008522482
122	0xbbc2a49f	-0.0059400345
123	0x3dbe6945	0.09297422
124	0xbda29875	-0.07939235
125	0x3ce667bf	0.028125642
126	0x3e0d7a54	0.13816196
127	0x3d588e61	0.052870158
128	0x3dee52fe	0.11636923
129	0x3c002f0a	0.007823715
130	0x3ceb9492	0.028757367
131	0xbcbd39e9	-0.023098903
132	0xbc87f1b4	-0.016594745
133	0xbe1d8d36	-0.15385899
134	0xbdb1ef0f	-0.08688175
135	0x3d8a2512	0.06745352
136	0xbe05f187	-0.13080417
137	0xbdbdd19a	-0.09268494
138	0x3c72ee84	0.014827374
139	0x3c82fb38	0.015988931
140	0xbd929efe	-0.071592316
141	0xbd8113e5	-0.06302623
142	0x3dbd00fe	0.09228705
143	0x3cf39a3c	0.02973663
144	0x3d3d4975	0.046212632
145	0x3c9c8bf7	0.01910971
146	0xbdb15791	-0.0865928
147	0xbdd00b2b	-0.1015838
148	0x3d40fae2	0.04711426
149	0xbe051a12	-0.12998226
150	0x3c9d3c57	0.019193811
151	0x3bf815fb	0.0075709797
152	0xbe0884dc	-0.13331932
153	0x3d6e8c98	0.05823955
154	0x3d3fdab0	0.046839416
155	0xbdb7b1c9	-0.08969457
156	0xbc5990af	-0.013279124
157	0xbc784741	-0.015153707
158	0xbda1ee8b	-0.079068266
159	0x3d811b1b	0.06303998
160	0x3d71c784	0.059028164
161	0xbb34d84e	-0.0027594748
162	0x3c336060	0.010948271
163	0x3d2c7360	0.042102218
164	0xbda70d69	-0.08156855
165	0xbc6020df	-0.013679712
166	0xbcd30b39	-0.025762187
167	0x3d42a7d8	0.04752335
168	0x3d44de89	0.04806379
169	0xbdf185f5	-0.117931284
170	0xbd2bff00	-0.041991234
171	0xbd5bd474	-0.053669408
172	0xbe2f2c1b	-0.17106669
173	0xbdc7c6cf	-0.097547166
174	0x3d015837	0.03157827
175	0x3de55cdf	0.111993544
176	0xbcb51c01	-0.02210808
177	0x3cd3fa8c	0.025876306
178	0xbea12d0a	-0.31479675
179	0x3d66e8c7	0.056374338
180	0x3ca91f36	0.020644765
181	0xbdbdcfaa	-0.092681244
182	0x3ca27d59	0.019835161
183	0x3c92a485	0.017900715
184	0xbe29abf7	-0.16569506
185	0x3e0ea06f	0.13928388
186	0xbcf7c4cd	-0.03024521
187	0x3de9886c	0.114029735
188	0x3d5d12de	0.05397307
189	0xbd95b458	-0.073097885
190	0xbdcb6d1c	-0.0993292
191	0xbd894a56	-0.067036316
192	0x3d804f9a	0.06265183
193	0xbd9bb1e3	-0.076022886
194	0xbd68a8cc	-0.056801602
195	0x3deea2df	0.11652159
196	0xbd47913c	-0.04872249
197	0x3e149d66	0.14513168
198	0xbcbff603	-0.023432737
199	0xbdd19e12	-0.10235228
200	0x3db16ae3	0.08662965
201	0x3cdfa881	0.027302029
202	0x3dccdd44	0.100031406
203	0xbd65cb63	-0.056102168
204	0x3d3079e0	0.04308498
205	0x3bf9752a	0.007612844
206	0x3dceb6b4	0.100934416
207	0xbc91973f	-0.017772315
208	0xbd59e75e	-0.053199165
209	0x3d41b90d	0.04729562
210	0xbe248ac4	-0.1606856
211	0x3dfa35ab	0.122172676
212	0xbd1d86d6	-0.038458668
213	0x3dcc93b8	0.099891126
214	0xbd207858	-0.03917727
215	0x3e1aaeff	0.15105818
216	0xbddfd983	-0.10930159
217	0x3d5cdfb3	0.053924274
218	0xbd644d43	-0.055737745
219	0xbd6ff557	-0.058583584
220	0x3d5f8e24	0.054578915
221	0xbd9b294c	-0.07576236
222	0x3e258cef	0.16167043
223	0x3dafbd46	0.08581023
224	0xbdb45ec5	-0.08807138
225	0x3c62c0b7	0.013839892
226	0x3da03a62	0.07823636
227	0x3ddca98d	0.10774527
228	0x3df912c3	0.12161782
229	0x3e1e353c	0.15449995
230	0xbcaa8585	-0.02081562
231	0x3ab3c189	0.0013714294
232	0xbc10196c	-0.008795124
233	0xbda1f077	-0.07907193
234	0x3e26e78b	0.16299264
235	0xbd813728	-0.06309348
236	0xbca50bbc	-0.020147197
237	0x3dced057	0.100983314
238	0x3dda9ace	0.10674058
239	0xbdae6f4d	-0.08517323
240	0xbc1436a0	-0.009046227
241	0xbb340d29	-0.0027473664
242	0xbdc714aa	-0.09720738
243	0xbde77987	-0.113024764
244	0x3e1a38d7	0.15060745
245	0x3d286f8f	0.041122016
246	0x3cc877d9	0.02447121
247	0x3dc51f2a	0.09625085
248	0x3e01d455	0.12678654
249	0x3e594d29	0.2122084
250	0x3d84b507	0.06479841
251	0x3d0aa2d0	0.033846676
252	0xbcdf56ce	-0.027263071
253	0xbe5324b2	-0.20619467
254	0x3db4db82	0.0883093
255	0x3b84351c	0.0040346514

h1.bias f4 [64]
0	0xbd0c2aae	-0.03422039
1	0x3cd229f2	0.025654767
2	0xbc9a6d76	-0.018851023
3	0x3e095329	0.1341063
4	0x3d34767e	0.044058315
5	0xbd641c77	-0.05569121
6	0x3e0c2332	0.13685301
7	0x3ddbac52	0.10726227
8	0xbd8f00ec	-0.06982598
9	0xbde9cb12	-0.11415686
10	0x3d8fd779	0.0702352
11	0x3c30a9a4	0.010782633
12	0x3cc22a91	0.023701938
13	0x3e1798d0	0.14804387
14	0xbd37eed1	-0.044905487
15	0xbd5765b8	-0.05258724
16	0x3d58916c	0.05287306
17	0x3e13b833	0.14425735
18	0x3c17a9b2	0.009256767
19	0xbd7f230e	-0.06228929
20	0xbb3ed632	-0.002911937
21	0xbdba6fa7	-0.09103327
22	0xbdc58e4d	-0.09646282
23	0x3d6b7f5c	0.057494506
24	0x3d98164d	0.074261285
25	0x3d7c17df	0.061546203
26	0x3ccabd06	0.024748337
27	0x3d6d5d9b	0.057950597
28	0xbdd961b3	-0.10614338
29	0x3cc82145	0.024429927
30	0x3cf6e529	0.030138569
31	0x3d87a729	0.0662368
32	0xbe21d783	-0.15804867
33	0xbdcbcb93	-0.09950938
34	0xbd3379fe	-0.043817513
35	0xbc3ad008	-0.011402138
36	0xbd9a7a30	-0.07542837
37	0x3e052baa	0.13004938
38	0x3d9d70c0	0.07687521
39	0x3d966d64	0.07345083
40	0x3c67ea39	0.014154964
41	0xbadc9255	-0.0016828278
42	0xbe127735	-0.14303286
43	0x3da933cb	0.08261832
44	0x3d96a252	0.07355179
45	0x3d20a079	0.03921554
46	0x3d797992	0.060906954
47	0x3da55fc8	0.080749094
48	0x3de3921f	0.11111855
49	0xbdec1815	-0.11528031
50	0x3df81808	0.121139586
51	0xbd7c3c59	-0.06158099
52	0x3c60e644	0.013726775
53	0x3decbc7c	0.11559388
54	0x3d343d49	0.04400376
55	0xbc3892d4	-0.011265475
56	0xbc13d043	-0.009021821
57	0xbe0dd136	-0.13849339
58	0x3d899d63	0.06719472
59	0x3d48c97f	0.049020287
60	0x3d76cfc2	0.060256727
61	0xbc8d908b	-0.017280838
62	0x3c342c5c	0.010996904
63	0x3d285118	0.041092962

h2.weight f4 [64, 64]
0	0xbd32a173	-0.043611
1	0x3dca14b4	0.0986723
2	0xbd20f683	-0.039297592
3	0xbe32bdc0	-0.17455196
4	0x3ccd4640	0.025057912
5	0xbe2b572b	-0.1673247
6	0xbda360d5	-0.079774536
7	0x3dc9a95d	0.098467566
8	0x3dd02072	0.101624385
9	0x3c540d4f	0.012942626
10	0xbdb8f44c	-0.09030971
11	0xbcfa4860	-0.03055209
12	0xbdb64784	-0.08900359
13	0xbcf5b194	-0.029991902
14	0xbd9cfee3	-0.07665803
15	0xbd98dda2	-0.07464148
16	0x3df22cc4	0.118249446
17	0x3e220d06	0.1582528
18	0xbd6ca6c3	-0.057776224
19	0x3d3c1e22	0.045927174
20	0xbd428a38	-0.047495097
21	0xbda60c20	-0.081077814
22	0x3da76474	0.08173457
23	0x3c86814a	0.016419072
24	0xbd662925	-0.056191582
25	0x3da1bbcb	0.07897147
26	0xbdf029e1	-0.11726738
27	0x3d85d74c	0.06535205
28	0x3dc7c626	0.09754591
29	0x3c9978b3	0.018734312
30	0x3d9b021b	0.07568761
31	0xbc20d3cf	-0.009816124
32	0xbdca041e	-0.098640665
33	0x3d44b2f1	0.048022214
34	0xbc69cfc8	-0.01427073
35	0x3d0b6d71	0.03403992
36	0xbcd33532	-0.025782201
37	0x3e13a227	0.14417325
38	0x3e0325d2	0.12807396
39	0x3e4a6a68	0.19767153
40	0x3db3d716	0.08781259
41	0xbc344a96	-0.011004111
42	0xbe2adfd6	-0.16686949
43	0xbd202a04	-0.03910257
44	0x3d81ba8b	0.063344084
45	0x3d23b69b	0.039969068
46	0xbda3cce3	-0.079980634
47	0xbda7f8b9	-0.08201737
48	0xbd5a6861	-0.0533222
49	0x3e2f36d2	0.17110756
50	0xbd1ada22	-0.037805684
51	0x3d5fa566	0.054601096
52	0xbd6af6e3	-0.057364356
53	0x3db58268	0.08862764
54	0x3d5b3612	0.053518362
55	0x3d4e96c7	0.05043676
56	0xbc8b0468	-0.016969875
57	0x3c8bcb9a	0.017064858
58	0x3d34ae9a	0.044111826
59	0x3dadf7a8	0.08494502
60	0xbd6b034e	-0.0573762
61	0xbe076055	-0.13220342
62	0xbe369c5a	-0.17833081
63	0xbdaeef5e	-0.085417494
64	0x3d1d3d15	0.03838833
65	0x3c952903	0.018208032
66	0x3d26f4e6	0.040760897
67	0xbd88cfdb	-0.0668027
68	0x3cd6ad8b	0.026205799
69	0xbe355690	-0.17708802
70	0x3bd5b19b	0.0065214164
71	0xbdfb17c9	-0.12260396
72	0xbe18cd9f	-0.14922188
73	0xbdb6d077	-0.0892648
74	0x3deebf6f	0.11657607
75	0xbc9239ba	-0.017849792
76	0xbd9eebbd	-0.07759807
77	0x3d27ea01	0.040994648
78	0x3d7b2707	0.061316516
79	0xbd464d24	-0.04841341
80	0xbca41458	-0.020029232
81	0x3dca92cf	0.09891283
82	0x3dc68a0b	0.09694298
83	0xbb916a26	-0.0044377027
84	0x3cec559e	0.02884942
85	0xbe28f6a0	-0.1650033
86	0xbdab4c00	-0.08364105
87	0xbd69f26a	-0.05711595
88	0x3d8f5717	0.06999033
89	0x3db47796	0.08811872
90	0xbcdaca67	-0.026707841
91	0xbd5ec331	-0.054385368
92	0xbd5a7132	-0.053330608
93	0xbda6641a	-0.081245616
94	0x3d3c59aa	0.045983948
95	0x3d327343	0.043566953
96	0x3da08a5d	0.07838891
97	0x3d1b6e0e	0.037946753
98	0x3c7edf3c	0.015556153
99	0x3d604356	0.054751717
100	0xbda37bc8	-0.07982594
101	0x3d937945	0.07200865
102	0x3c3eae2d	0.011638206
103	0xbc636799	-0.01387968
104	0x3deef87d	0.11668489
105	0xbd5ad6f7	-0.053427663
106	0xbddb6570	-0.10712707
107	0x3b92f854	0.0044851694
108	0xbde8dbf6	-0.11370079
109	0x3dfca533	0.12336197
110	0x3db98272	0.090580836
111	0x3dc26e8e	0.09493743
112	0xbd8054c9	-0.062661715
113	0x3cde0887	0.027103676
114	0x3d53f21b	0.05174456
115	0xbd9e5f40	-0.07733011
116	0x3d8f1ad7	0.06987541
117	0x3d6d20d4	0.057892635
118	0xbe06435c	-0.13111633
119	0x3c0f24e5	0.008736824
120	0x3a0a337e	0.0005271955
121	0xbd59f718	-0.053214163
122	0xbe44c84e	-0.19217035
123	0x3c8dea75	0.017323712
124	0x3d8de47f	0.06928348
125	0xbdd2136a	-0.10257609
126	0xbdc34126	-0.095339105
127	0xbd7881e1	-0.060670737
128	0xbe68e7db	-0.22744696
129	0x3da0fca0	0.078606844
130	0xbd8a87eb	-0.067642055
131	0x3e0893c4	0.13337618
132	0x3cbf332b	0.023339828
133	0xbd6c4655	-0.05768426
134	0x3bf15ce9	0.007365812
135	0xbe1820e9	-0.14856304
136	0x3e047856	0.1293653
137	0x3dc6f760	0.09715152
138	0x3cba6dab	0.022757372
139	0x3d8faeac	0.07015738
140	0x3d6817b0	0.056663215
141	0xbdbce4e3	-0.09223344
142	0xbd59bf83	-0.053161155
143	0x3d3448c9	0.044014726
144	0xbe5562c8	-0.20838463
145	0xbd1b6939	-0.037942145
146	0x3d7417f4	0.059593156
147	0x3d02c8e1	0.031929854
148	0x3df7f72d	0.12107692
149	0x3d9dd66c	0.07706913
150	0xbe59ef85	-0.21282776
151	0xbd4161e3	-0.047212493
152	0xbc65d358	-0.014027439
153	0xbe3e132b	-0.18562
154	0x3c971b19	0.018445538
155	0xbdb08c11	-0.086204655
156	0xbc1c01a1	-0.009521873
157	0x3dd09282	0.10184194
158	0xbd22aa41	-0.039713148
159	0xbdae2d8d	-0.08504782
160	0xbdf57bb9	-0.11986489
161	0x3c89e5ad	0.01683315
162	0xbdcacf14	-0.09902778
163	0x3d93a67c	0.07209489
164	0x3cb1a4e3	0.02168507
165	0xbe4ded90	-0.20110154
166	0xbe08069b	-0.1328377
167	0xbe2d1771	-0.16903473
168	0xbe11d7fa	-0.14242545
169	0x3d093048	0.03349331
170	0x3e5a750d	0.21333714
171	0x3cd210b6	0.025642734
172	0xbcae4c4e	-0.02127662
173	0xbde68bd8	-0.11257142
174	0xbdd81f53	-0.105528496
175	0xbcdc14b0	-0.026865333
176	0xbe4427ce	-0.1915581
177	0xbe3c58a3	-0.18393187
178	0xbd177653	-0.036978077
179	0xbd1b952c	-0.03798406
180	0xbc2fc57d	-0.010728237
181	0xbe92cd69	-0.2867234
182	0x3dc97f73	0.09838762
183	0xbd70dbeb	-0.05880348
184	0x3d6552ed	0.055987287
185	0xbdfaa765	-0.12238959
186	0xbc8f0e3f	-0.017462848
187	0x3d4647ba	0.048408248
188	0xbe1955c8	-0.14974129
189	0x3df7485e	0.1207435
190	0xbdd28e77	-0.10281079
191	0x3d24d1db	0.040239196
192	0xbd90ca69	-0.07069857
193	0xbdfe67b6	-0.12422125
194	0xbe17daaf	-0.14829515
195	0xbe23cd06	-0.15996179
196	0xbdb03277	-0.086033754
197	0xbce954d4	-0.028482832
198	0xbd555026	-0.05207839
199	0xbdb17014	-0.08663955
200	0xbd77d587	-0.06050637
201	0xbe40f75b	-0.18844359
202	0xbd83be02	-0.064327255
203	0x3c9a2d6a	0.018820483
204	0x3d85af63	0.06527593
205	0xbcd3b6a0	-0.025843918
206	0xbd2f8f9e	-0.042861573
207	0xbdd7c0a6	-0.10534792
208	0xbdf2c08e	-0.11853133
209	0xbddcf737	-0.1078934
210	0xbda10602	-0.07862474
211	0xbc09317e	-0.008373616
212	0xbdf7cdb6	-0.12099783
213	0xbdc9cc7c	-0.098534554
214	0x3d85ced0	0.06533587
215	0x3cd9f020	0.026603758
216	0x3d6eb443	0.05827738
217	0xbbb3ede7	-0.0054910067
218	0x3c37d7c2	0.011220874
219	0xbdf868fb	-0.121293984
220	0xbd8028a0	-0.062577486
221	0xbc6f5d08	-0.014609583
222	0xbda168c4	-0.078813106
223	0xbe10e69d	-0.14150472
224	0x3d614a9f	0.055002805
225	0xbcf76719	-0.030200528
226	0x3ce7ad4c	0.028280877
227	0x3c8a7703	0.016902452
228	0xbdcfaac5	-0.101399936
229	0x3d64842a	0.055790104
230	0xbd401776	-0.046897374
231	0x3d620f32	0.055190273
232	0x3d03be52	0.032163925
233	0x3b03a43f	0.0020086912
234	0xbd01a9de	-0.03165614
235	0xbd4c0499	-0.049809072
236	0xbd06f8db	-0.03295217
237	0xbdf55c5e	-0.11980508
238	0xba6a213a	-0.0008931343
239	0x3ce62763	0.028094953
240	0x3d38fd3c	0.045163378
241	0x3d47441c	0.04864894
242	0x3a8c5c91	0.0010708739
243	0x3d549145	0.051896352
244	0x3cf3771f	0.029719887
245	0xbdad971d	-0.08476088
246	0xbdee4b8e	-0.11635505
247	0xbdfbed89	-0.123011656
248	0xbc8f9717	-0.0175281
249	0xbe25f10b	-0.16205232
250	0xbde05c38	-0.10955089
251	0xbd476aff	-0.048686024
252	0xbd947844	-0.07249501
253	0xbdec72e2	-0.1154535
254	0xbe0c22ea	-0.13685194
255	0xbccfd0a1	-0.025368037

h2.bias f4 [64]
0	0x3ddbb2f5	0.10727493
1	0x3df03e9d	0.117306925
2	0xbda3ac37	-0.07991832
3	0x3d219d11	0.03945643
4	0xbe572670	-0.21010756
5	0xbb998f48	-0.00468627
6	0xbdc3ffd6	-0.09570281
7	0x3e18da48	0.14927018
8	0x3ca42afd	0.02004003
9	0xbe1b0787	-0.1513959
10	0x3d1d5f64	0.03842105
11	0xbd51d300	-0.051226616
12	0xbdc1e6a7	-0.094678216
13	0xbd54aaa6	-0.051920556
14	0xbd3e8403	-0.046512615
15	0xbdecee07	-0.115688376
16	0x3dc1a96f	0.09456145
17	0x3d71dd39	0.059048865
18	0x3e14941b	0.14509623
19	0xbdfc3426	-0.12314634
20	0x3dfef6dd	0.12449429
21	0xbdd1d675	-0.102459826
22	0xbcbabd43	-0.022795325
23	0x3d8db4c7	0.06919246
24	0xbd81f144	-0.06344846
25	0x3c387bcd	0.011259985
26	0x3d47cff9	0.048782323
27	0x3db04dfe	0.08608626
28	0xbce8008c	-0.028320573
29	0xbe03260b	-0.12807481
30	0xbc16f570	-0.00921379
31	0x3dab5f97	0.08367842
32	0x3dbcf2ef	0.092260234
33	0xbd0cbda8	-0.034360558
34	0xbc005241	-0.007832111
35	0x3c933f40	0.017974496
36	0x3e02af3c	0.12762159
37	0xbda1b2d8	-0.0789544
38	0x3e02e1ad	0.12781401
39	0x3c894ed5	0.016761223
40	0xbd10631b	-0.035250764
41	0xbda5f158	-0.08102673
42	0x3dc05d8b	0.09392842
43	0xbc97f9b7	-0.01855169
44	0xbc5896a2	-0.013219507
45	0xbdf256c8	-0.118329585
46	0xbd8e294b	-0.0694147
47	0xbe277002	-0.16351321
48	0xbcc3195b	-0.023815801
49	0xbd5545d5	-0.05206855
50	0xbcf97061	-0.030449094
51	0x3c865ce9	0.016401725
52	0x3d768e0b	0.060194056
53	0xbd89807d	-0.0671396
54	0xbb8c7827	-0.004286784
55	0xbd29fec0	-0.041502714
56	0x3d6c8bb9	0.057750437
57	0xbd8130ba	-0.06308122
58	0xbe078b2f	-0.13236688
59	0x3da2ebad	0.07955108
60	0x3d82852a	0.06373055
61	0xbce2c454	-0.027681507
62	0x3d95b640	0.07310152
63	0x3e151a09	0.14560713

h3.weight f4 [64, 64]
0	0xbd8febe9	-0.07027418
1	0xbd856af6	-0.06514542
2	0x3dedfb6f	0.11620223
3	0x3dee8fe0	0.11648536
4	0x3d509b49	0.05092934
5	0xbd2b40f8	-0.041810006
6	0x3de2e7d3	0.11079373
7	0xbd3fa007	-0.046783473
8	0x3e599a54	0.21250278
9	0xbcb2c541	-0.021822574
10	0x3e018bce	0.12650988
11	0xbc53be5e	-0.012923805
12	0x3de645f5	0.11243812
13	0xb9ab1431	-0.00032630705
14	0x3e53cb83	0.20683102
15	0xbe25a164	-0.16174847
16	0x3dafebfa	0.08589931
17	0xbd982d40	-0.07430506
18	0xbc9f5ddc	-0.019453935
19	0xbd808d7e	-0.062769875
20	0x3ce6e987	0.028187526
21	0x3deef032	0.11666907
22	0x3dee67de	0.11640905
23	0x3da497de	0.08036779
24	0xbbf5241b	-0.0074811107
25	0x3cb00a6d	0.021489346
26	0x3c756aa1	0.014979036
27	0xbc889bac	-0.016675793
28	0x3dea3399	0.11435623
29	0xbc0d8a56	-0.008638939
30	0xbcc53595	-0.024073401
31	0x3c769fc6	0.015052741
32	0xbe299f2f	-0.1656463
33	0x3dc89568	0.09794122
34	0x3c9226dc	0.017840795
35	0x3e03fa57	0.12888466
36	0x3cb57bb3	0.022153711
37	0xbd8c61ab	-0.06854566
38	0xbe3810a7	-0.17975102
39	0xbcb77bb1	-0.022397848
40	0x3dd4808a	0.103760794
41	0x3dbe80de	0.09301923
42	0x3e373014	0.17889434
43	0xbda07d5e	-0.07836412
44	0xbe24a4f4	-0.1607855
45	0x3de82b80	0.11336422
46	0x3da480ce	0.0803238
47	0x3e34e732	0.17666319
48	0x3d5507b5	0.052009303
49	0x3e2845c5	0.16432865
50	0xbd8eed63	-0.06978872
51	0x3d88f3be	0.06687115
52	0xbdedadfc	-0.116054505
53	0x3e3cfd79	0.18456067
54	0x3d5e8bc0	0.054332495
55	0xbd8b1a8a	-0.06792171
56	0x3cf5e583	0.030016666
57	0xbe16be69	-0.14721073
58	0x3dc9769b	0.09837075
59	0xbd12e82b	-0.035865944
60	0x3d95d818	0.07316607
61	0x3cb6480d	0.022251153
62	0x3b8b9774	0.004259998
63	0xbd0a77b3	-0.03380556
64	0x3d53be42	0.051695116
65	0xbda5dfe8	-0.08099347
66	0xbd2885c9	-0.041143212
67	0xbdf4f4a7	-0.11960726
68	0x3e527861	0.20553733
69	0xbc63488c	-0.013872277
70	0x3df2e1d6	0.11859481
71	0x3c915766	0.01774187
72	0x3daccf6b	0.08437999
73	0x3c06b053	0.00822075
74	0xbae889af	-0.0017741228
75	0xbc287612	-0.010282056
76	0x3e47f82d	0.19528265
77	0x3ca26653	0.019824183
78	0xbdebf5cb	-0.11521491
79	0x3e334e7e	0.17510411
80	0x3c9a08a8	0.018802956
81	0xbdbad790	-0.091231465
82	0x3e48ee0a	0.19622055
83	0x3cb70e7c	0.022345774
84	0x3e035ce8	0.1282841
85	0xbc9a39d7	-0.018826408
86	0xbd94908d	-0.072541334
87	0xbd9896b8	-0.07450622
88	0x3dc6d4c4	0.097085506
89	0xbdc75f53	-0.097349785
90	0xbbeceab0	-0.0072301254
91	0xbd0d4d5f	-0.034497615
92	0xbdc34540	-0.09534693
93	0x3c5ba067	0.013404942
94	0x3d34c75c	0.044135436
95	0x3d89a1f3	0.067203425
96	0x3cadf2f6	0.021234017
97	0xbb9af212	-0.004728564
98	0xbe0acc8c	-0.13554591
99	0xbd7cf33b	-0.0617554
100	0x3dca3f01	0.09875298
101	0x3a3cb014	0.00071978685
102	0x3e05b0cc	0.13055724
103	0x3b090eb4	0.0020913305
104	0x3e0137d2	0.1261895
105	0xbd783457	-0.06059679
106	0xbd254ad2	-0.040354557
107	0xbd490630	-0.049078166
108	0xbd2565fc	-0.040380463
109	0xbce6d136	-0.028175931
110	0xbd9fdeb1	-0.07806147
111	0x3cd0f5a1	0.02550775
112	0x3d0ad16e	0.033891134
113	0xbcfe0fea	-0.031013448
114	0x3d9f440b	0.0777665
115	0x3d1d0181	0.038331512
116	0x3d18d57c	0.03731297
117	0xbe31850c	-0.1733591
118	0x3d9b9e94	0.07598606
119	0xbde22e03	-0.11043932
120	0x3bcdbc07	0.006278518
121	0x3e38713d	0.18011947
122	0x3c29dc8d	0.010367525
123	0x3d22abe5	0.039714713
124	0xbdc47aeb	-0.09593757
125	0x3d1a509f	0.037674543
126	0xbd053337	-0.032519545
127	0x3ddc9339	0.10770268
128	0x3c797711	0.015226142
129	0x3d18b25f	0.037279483
130	0xbe22f301	-0.15913011
131	0xbd00c6fe	-0.031439774
132	0x3d4b21ad	0.049592663
133	0x3e20338a	0.1564466
134	0x3dcb4ef7	0.09927171
135	0x3d5e9b00	0.05434704
136	0xbd2fc305	-0.042910594
137	0x3d6ab5de	0.05730235
138	0x3d697769	0.056998644
139	0xbcf7a91b	-0.030232003
140	0x3dc9d32e	0.098547325
141	0xbc175f2b	-0.009238998
142	0xbdf5cb91	-0.12001718
143	0xbd3692d6	-0.044573627
144	0x3dd26fc8	0.10275227
145	0x3dc911cd	0.09817848
146	0xbd3a9e06	-0.04556086
147	0x3c8c7f3f	0.01715052
148	0xbd92c2c5	-0.071660556
149	0x3b8aec2f	0.004239581
150	0x3cc402e8	0.023927167
151	0x3db96860	0.09053111
152	0xbca2815c	-0.019837074
153	0x3c20163e	0.009770928
154	0xbd11ca06	-0.035593055
155	0x3d47761f	0.048696633
156	0xbcaeb3ad	-0.02132591
157	0x3d90f33e	0.07077645
158	0x3e34ed1f	0.1766858
159	0xbd1299c0	-0.03579116
160	0x3dbdd1b5	0.09268514
161	0x3c818d8e	0.015814569
162	0xbd85ffb1	-0.0654291
163	0xbe01b703	-0.1266747
164	0xbc9206cc	-0.017825507
165	0xbaf54774	-0.0018713311
166	0x3e1556cc	0.14583892
167	0x3d37a3fb	0.04483412
168	0xbe26bcd5	-0.16282971
169	0x3d688744	0.056769624
170	0xbda9e9a5	-0.08296517
171	0x3db16bfb	0.08663174
172	0x3c74b5c0	0.014935911
173	0xbe16aa23	-0.1471334
174	0x3cd7b95c	0.026333503
175	0xbdf1ff35	-0.11816255
176	0x3d81b7ec	0.063339084
177	0xbcf98c91	-0.030462535
178	0x3d0f976e	0.035056524
179	0xbdc4eac7	-0.09615093
180	0x3d25adc7	0.04044893
181	0xbd1d8699	-0.03845844
182	0xbd8d65a9	-0.06904156
183	0x3b5bae1a	0.003352052
184	0x3d185979	0.037194703
185	0x3d10921f	0.035295602
186	0x3e05cd62	0.13066629
187	0xbd9a65bc	-0.075389355
188	0x3c325f26	0.010886943
189	0x3db57a38	0.08861202
190	0xbd47673f	-0.048682448
191	0x3e1ad629	0.15120758
192	0x3dfaf8cf	0.12254488
193	0x3d8e3159	0.06943006
194	0xbde94335	-0.11389772
195	0x3d0769e1	0.03305996
196	0x3ca83182	0.02053142
197	0x3dd6313b	0.10458609
198	0xbcc1b615	-0.023646394
199	0x3d02984b	0.03188352
200	0xbdb59251	-0.08865798
201	0xbc648dce	-0.0139498245
202	0x3dc256de	0.09489225
203	0x3dccfc5c	0.10009071
204	0xbdafd1c3	-0.08584931
205	0x3d96ceb7	0.073636465
206	0x3d85afa8	0.065276444
207	0xb9198df0	-0.00014644093
208	0x3d51c878	0.051216573
209	0xbd6da5eb	-0.05801956
210	0x3c730f69	0.014835217
211	0x3b983309	0.0046447557
212	0xbd919234	-0.07107964
213	0x3c2373ac	0.009976309
214	0xbccec560	-0.0252406
215	0xbda6dfbc	-0.08148143
216	0x3dc36c69	0.09542162
217	0x3cb19aff	0.021680353
218	0xbe020be8	-0.12699854
219	0xbe2456aa	-0.16048685
220	0xbd8db837	-0.06919902
221	0xbd5c8704	-0.0538397
222	0x3da88a69	0.08229525
223	0x3ddd835f	0.10816073
224	0xbd7acce5	-0.06123056
225	0x3d4ee9a1	0.050515775
226	0x3d147028	0.036239773
227	0xbd40f3bc	-0.047107443
228	0xbd2d9333	-0.04237671
229	0xbe14406e	-0.14477703
230	0xbb94cd2d	-0.0045410604
231	0xbd1fd2ea	-0.039019503
232	0xbdbf33c4	-0.093360454
233	0x3d860019	0.065429874
234	0xbdf46f95	-0.11935345
235	0x3dd47b15	0.103750385
236	0xbd46ff24	-0.048583165
237	0xbd8fdba2	-0.070243135
238	0x3d81dd77	0.06341069
239	0xbd0ee588	-0.034886867
240	0xbd5dbe64	-0.05413665
241	0xbc3d1443	-0.011540475
242	0x3cdc550a	0.026896019
243	0xbd5b3ed8	-0.05352673
244	0xbd288666	-0.041143797
245	0xbddffdd6	-0.10937087
246	0x3de4fbb6	0.111808226
247	0x3dc79d34	0.09746781
248	0xbd48664a	-0.048925675
249	0xbcb52a64	-0.02211494
250	0x3cc24545	0.02371467
251	0x3d85cc6e	0.065331325
252	0xba87f327	-0.0010372148
253	0x3c4d9b94	0.0125493
254	0xbdb3c586	-0.08777909
255	0x3d6669ba	0.056253172

h3.bias f4 [64]
0	0xbe086585	-0.13319977
1	0x3cf08a2e	0.029362764
2	0x3dd061f2	0.101749316
3	0x3c20fa10	0.009825245
4	0xbdc027a8	-0.09382564
5	0x3deca462	0.11554791
6	0x3d12b0a8	0.035813004
7	0x3afdceac	0.0019363961
8	0xbdcfd463	-0.101479314
9	0x3df876ff	0.12132072
10	0x3defaa95	0.11702458
11	0x3dd387b8	0.10328621
12	0xbd40b2e5	-0.047045607
13	0xbd863c70	-0.06554496
14	0xbd94ca46	-0.07265143
15	0x3db4101d	0.08792136
16	0x3c45938c	0.012059104
17	0xbca1c875	-0.019748906
18	0x3b2f3d55	0.0026739438
19	0x3d59406e	0.05303996
20	0x3e3884e2	0.18019441
21	0xbb6762c3	-0.003530667
22	0x3e061bf6	0.13096604
23	0x3c864a86	0.016392957
24	0x3c6b4a7c	0.01436102
25	0x3b3a3444	0.00284125
26	0xbc04428e	-0.0080725085
27	0xbb6b19ac	-0.0035873456
28	0x3c8bdab6	0.017072063
29	0x3cafb1e6	0.021447133
30	0x3d0959c9	0.03353289
31	0x3e1a4f00	0.15069199
32	0x3d972647	0.07380348
33	0x3cc7be8f	0.024382858
34	0x3cea839e	0.028627213
35	0xbb73bfbd	-0.0037193142
36	0x3d23ff82	0.040038593
37	0x3d8a3b8f	0.06749641
38	0x3da5ee63	0.08102109
39	0x3d1c3af0	0.038142145
40	0x3d930ed5	0.07180563
41	0xbbe03798	-0.006842565
42	0x3d63d83e	0.055626146
43	0x3db59ce3	0.088678144
44	0x3e2477e5	0.16061361
45	0x3d59f056	0.053207718
46	0xbcf89898	-0.0303462
47	0xbd951b29	-0.07280571
48	0x3d803218	0.062595546
49	0xbb94cba8	-0.0045408793
50	0xbbcd9778	-0.00627416
51	0x3e3efb3f	0.1865053
52	0xbd322f92	-0.043502398
53	0x3c3cf802	0.011533739
54	0xbd1c882f	-0.038215812
55	0xbd26b46c	-0.040699407
56	0xbd23456f	-0.03986114
57	0x3d8273ea	0.06369765
58	0xbc18e830	-0.009332702
59	0xbd96b591	-0.0735885
60	0xbdf624a1	-0.12018705
61	0x3d637371	0.055530015
62	0x3d06121f	0.032732125
63	0x3d5d6ed3	0.05406077

h4.weight f4 [64, 64]
0	0x3cfe35eb	0.03103157
1	0x3e1f848b	0.15577905
2	0x3c3299eb	0.010900955
3	0x3c8854e7	0.016642047
4	0xbdcca55a	-0.09992476
5	0x3ce32629	0.027728157
6	0xbccd0c76	-0.025030356
7	0xbcc9c473	-0.024629807
8	0xbc839171	-0.016060563
9	0x3d9bf1fb	0.076145135
10	0xbe180f30	-0.14849544
11	0xbdcef72c	-0.10105738
12	0x3db32422	0.08747126
13	0xbd9c51a2	-0.07632758
14	0x3e5354a1	0.20637752
15	0x3cf4db1b	0.029889634
16	0xbcb2598b	-0.021771213
17	0x3dbec2a2	0.09314467
18	0xbe02bc2f	-0.12767099
19	0xbd77d4a6	-0.06050553
20	0xbd18a115	-0.037262995
21	0x3c837ca3	0.016050642
22	0xbcf9ac69	-0.03047772
23	0x3df1e824	0.118118554
24	0x3ddec0cf	0.10876619
25	0xbdc60df4	-0.0967063
26	0xbca50d90	-0.020148069
27	0xbd375be8	-0.044765383
28	0x3b64c769	0.0034908897
29	0xbd4c63f1	-0.0499
30	0xbdae0dca	-0.08498724
31	0xbd14b571	-0.03630585
32	0xbd857b3e	-0.06517647
33	0xbba12b20	-0.004918471
34	0x3d3572fe	0.04429912
35	0xbcc8aa09	-0.024495142
36	0xbdaa43ff	-0.083137505
37	0x3daa3e03	0.08312609
38	0xbd16f5c0	-0.03685546
39	0x3c918235	0.017762283
40	0x3db775cf	0.08958017
41	0x3de238da	0.11046
42	0xbd3604a8	-0.044438034
43	0x3d6db65b	0.058035236
44	0xbdbf689a	-0.09346123
45	0xbc0f4b13	-0.008745926
46	0xbd352ca8	-0.04423204
47	0xbd764859	-0.06012759
48	0x3d9e26e5	0.07722262
49	0x3d8c60d9	0.0685441
50	0x3dc33d65	0.095331945
51	0x3c86acd5	0.016439835
52	0xbda0f71a	-0.07859631
53	0xbd983382	-0.07431699
54	0xbd013c7b	-0.03155182
55	0xbc29aae4	-0.010355685
56	0x3ddf4628	0.10902053
57	0x3d4f4592	0.050603457
58	0x3cdb89bb	0.026799073
59	0x3e085dc5	0.1331702
60	0xbc1e7c41	-0.009673179
61	0xbd418f39	-0.04725573
62	0x3d81c852	0.06337036
63	0xbe2f1b7f	-0.17100333
64	0xbdc734c6	-0.097268626
65	0x3e132364	0.14368969
66	0x3c810ffb	0.01575469
67	0x3dbcc060	0.0921638
68	0x3c5e17c6	0.013555473
69	0x3e14d286	0.14533433
70	0xbdbc8e61	-0.09206844
71	0x3ce28ff1	0.027656527
72	0xbd6980ba	-0.05700753
73	0x3e361fe9	0.1778561
74	0x3d0c7b10	0.03429705
75	0x3e039bfc	0.12852472
76	0x3d3ba5f6	0.04581257
77	0x3c9243d1	0.017854603
78	0x3cab673c	0.02092325
79	0x3d18cc04	0.03730394
80	0x3bc4ccf5	0.006005878
81	0x3cf1e6ff	0.029529093
82	0xbe0622a4	-0.13099152
83	0xbddfe6a8	-0.10932666
84	0xbd09259f	-0.033483144
85	0x3d714b54	0.05890973
86	0x3d94c02f	0.072632186
87	0x3e0638be	0.13107583
88	0x3cd8e443	0.026476031
89	0xbdcafb9a	-0.099112704
90	0x3da319b3	0.07963886
91	0x3e1bdbd1	0.15220572
92	0x3cce72ec	0.025201283
93	0x3dd90573	0.105967425
94	0x3dbbf457	0.091774635
95	0x3de13d59	0.10998029
96	0x3df82925	0.12117223
97	0xbdc9a6c8	-0.09846264
98	0x3df8175a	0.12113829
99	0x3d629bf9	0.05532453
100	0x3cfdd676	0.030986052
101	0x399e8e3e	0.00030242087
102	0xbd399e82	-0.04531718
103	0x3d49757e	0.049184315
104	0x3cdb07be	0.02673709
105	0xbca36038	-0.019943342
106	0x3d306bf9	0.04307172
107	0xbd41be47	-0.047300603
108	0xbc9774a3	-0.018488234
109	0xbc1455ec	-0.0090536885
110	0x3d9a7292	0.07541384
111	0x3bcd5d4d	0.006267226
112	0xbc9a8a23	-0.018864697
113	0x3dfef635	0.12449304
114	0xbd0f0015	-0.034912188
115	0xbd1dc58d	-0.038518477
116	0xbadaa52e	-0.0016681307
117	0x3d444889	0.047920737
118	0x3d2d0854	0.04224427
119	0x3e3c4532	0.18385771
120	0xbbdf4a77	-0.006814297
121	0x3dfef9b4	0.12449971
122	0x3df7199c	0.120654315
123	0x3d36e198	0.044648737
124	0x3d9cdc05	0.07659153
125	0xbd52a64a	-0.051428117
126	0x3da7c7a0	0.08192372
127	0xbe0802f4	-0.13282377
128	0x3e339f18	0.17541158
129	0x3c93404f	0.017975
130	0x3d8e3043	0.06942799
131	0xbe26b920	-0.16281557
132	0x3d382192	0.04495389
133	0xbd952261	-0.07281948
134	0xbdaa11d3	-0.08304181
135	0xbd76697b	-0.060159188
136	0xbdd4369e	-0.1036198
137	0xbe5452de	-0.20734736
138	0x3db7cd93	0.08974757
139	0xbc894cb1	-0.016760202
140	0xbc4a3177	-0.012340895
141	0xbd662e66	-0.056196593
142	0xbe9361f8	-0.28785682
143	0x3c947a95	0.018124858
144	0xbcb2b00f	-0.021812467
145	0xbd9c68fd	-0.076372124
146	0x3d147a22	0.036249287
147	0x3d70e853	0.05881531
148	0xbcead233	-0.028664684
149	0xbdae416d	-0.08508573
150	0xbcafcaff	-0.0214591
151	0xbd4e9537	-0.05043527
152	0x3c649ede	0.0139538925
153	0x3e14ad1c	0.14519161
154	0x3cd15092	0.025551114
155	0xbe2e3309	-0.17011656
156	0xbb5f0bfa	-0.0034034238
157	0xbdd5175d	-0.10404847
158	0xbd49ce60	-0.04926908
159	0xbd0af4f7	-0.033925023
160	0xbcf6da88	-0.0301335
161	0x3b139f9b	0.0022525552
162	0xbdbc2925	-0.09187535
163	0xbe39ed03	-0.18156819
164	0x3dc744fc	0.097299546
165	0x3d58d5d1	0.052938286
166	0xbd051226	-0.03248801
167	0x3cbd59d1	0.023114117
168	0xbdb5ebc2	-0.08882858
169	0xbe263462	-0.1623092
170	0x3d31c7d1	0.04340345
171	0x3dc2f16b	0.09518703
172	0x3dbff568	0.093729794
173	0x3e30b143	0.1725512
174	0xbd0ca2a7	-0.034334805
175	0xbe4c20db	-0.19934408
176	0x3db15e06	0.08660512
177	0xbced1293	-0.028939521
178	0x3db079df	0.08616995
179	0xbdb5ce6d	-0.08877263
180	0xbd98fafc	-0.074697465
181	0xbdc822cf	-0.09772264
182	0x3dabebac	0.0839456
183	0xbd0df591	-0.03465802
184	0xbd83ea27	-0.064411454
185	0x3df595d4	0.11991468
186	0x3d08249b	0.033238035
187	0xbd1c9372	-0.038226552
188	0xbdff1e0f	-0.12456905
189	0xbd8c74b3	-0.06858196
190	0xb8d52246	-0.000101630154
191	0x3ce682d8	0.028138563
192	0xbe2abbd1	-0.16673209
193	0x3cedb47d	0.029016728
194	0xbdccd019	-0.10000629
195	0xbe0265e4	-0.1273418
196	0x3cd1a711	0.025592359
197	0x3a650d31	0.00087376224
198	0xbd024c68	-0.031811148
199	0x3d7c55f3	0.061605405
200	0xbd555435	-0.05208226
201	0xbdbf7827	-0.09349089
202	0x3ce9f1ae	0.028557625
203	0xbc77bb1d	-0.015120295
204	0xbe69193a	-0.2276353
205	0x3da0f77f	0.07859706
206	0xbc7da361	-0.015480847
207	0xbdb53a7f	-0.08849048
208	0xbcdb4951	-0.026768358
209	0xbe0ba99b	-0.13638918
210	0xbc751410	-0.014958397
211	0xbe2c5952	-0.16830948
212	0xbdcd1fa4	-0.100158006
213	0xbdc68503	-0.09693339
214	0xbdaa8a94	-0.08327213
215	0xbe11883e	-0.14212129
216	0xbd8a5f57	-0.06756466
217	0xbd8ec15d	-0.06970475
218	0xbd10fa6d	-0.035395075
219	0xbcb92a38	-0.02260314
220	0x3d75d61c	0.060018644
221	0xbe120607	-0.14260112
222	0x3cc40a7a	0.023930777
223	0xbd23951a	-0.039937116
224	0xbcbdb0fc	-0.023155682
225	0xbd1cca65	-0.038278956
226	0xbde12610	-0.10993588
227	0x3c017efe	0.007903812
228	0xbde268e8	-0.110551655
229	0xbd677d64	-0.056516066
230	0xbddb035a	-0.10693999
231	0xbdbccc6d	-0.092186786
232	0xbdafbd65	-0.08581046
233	0xbb8c2199	-0.004276466
234	0x3d1089c8	0.03528765
235	0xbd8a8b0f	-0.067648046
236	0x3d859282	0.06522085
237	0xbdd57db6	-0.10424368
238	0xbe45bc51	-0.19310118
239	0xbcadb213	-0.021203076
240	0xbd9a51f2	-0.07535161
241	0x3d2038e9	0.039116774
242	0xbd2a37a6	-0.041556977
243	0xbdb2a30e	-0.087225065
244	0xbde2c4f8	-0.11072725
245	0x3dd21efd	0.10259817
246	0xbe15808d	-0.1459982
247	0xbcf2a29a	-0.02961855
248	0x3c556118	0.013023637
249	0xbd66b2da	-0.05632291
250	0xbe09e814	-0.13467437
251	0xbd4d0fa1	-0.050063733
252	0x3c96595d	0.018353159
253	0xbdf2a10c	-0.118471235
254	0x3d075a25	0.033044953
255	0xbc8f9a15	-0.017529527

h4.bias f4 [64]
0	0x3e04c0fe	0.12964246
1	0x3dff0459	0.12452001
2	0xbdba1918	-0.090868175
3	0xbac259e8	-0.001482782
4	0xbd88f115	-0.06686608
5	0xbd305baa	-0.043056168
6	0xbc8c9e29	-0.01716526
7	0xbd340543	-0.04395033
8	0xbe12ea04	-0.14347082
9	0xbcfcd5f5	-0.030863741
10	0xbc94e8ba	-0.018177379
11	0x3e11aacc	0.1422531
12	0xbc16338f	-0.009167566
13	0x3c611f95	0.01374044
14	0xbcb1200c	-0.021621726
15	0xbd6d0d32	-0.057873912
16	0x3c0b7a4d	0.0085130455
17	0x3d8266df	0.06367277
18	0x3d56c583	0.052434456
19	0x3db8735b	0.09006377
20	0xbde72db4	-0.11288014
21	0xbbcee97f	-0.006314456
22	0x3dd24751	0.10267509
23	0xbe2439cc	-0.16037673
24	0xbd13d9ab	-0.036096256
25	0x3b519261	0.0031978118
26	0xbd67a092	-0.056549616
27	0xbdabff2b	-0.08398279
28	0xbdd3a894	-0.10334888
29	0x3d90dd3c	0.07073447
30	0x3daf5158	0.08560437
31	0xbdf0919b	-0.11746522
32	0x3d12f27e	0.03587579
33	0xbd80865d	-0.06275628
34	0x3dc3abdc	0.09554264
35	0x3b97379e	0.0046147844
36	0xbd3c76c9	-0.04601172
37	0x3c8cc002	0.0171814
38	0xbdc02dec	-0.09383759
39	0xbcc74ba8	-0.024328068
40	0xbde6b2aa	-0.11264546
41	0x3db8c6ab	0.09022268
42	0x3d8b9842	0.0681615
43	0x3d203c40	0.03911996
44	0xbe008576	-0.12550911
45	0x3c049c14	0.008093853
46	0x3d811a9e	0.06303905
47	0x3dab2e57	0.08358448
48	0xbdeeba7c	-0.11656663
49	0xbd473f24	-0.0486442
50	0x3d37f732	0.04491348
51	0xbd9ed273	-0.07754984
52	0x3e42e4b5	0.19032557
53	0xbcbad676	-0.022807341
54	0x3dff71a1	0.12472845
55	0x3dfc15df	0.12308859
56	0x3dbb9803	0.09159853
57	0xbd6c8807	-0.057746913
58	0xbe034034	-0.1281746
59	0x3da6e601	0.081493385
60	0xbba98d18	-0.0051742904
61	0xbd8cfcb0	-0.06884134
62	0xbe102309	-0.14075865
63	0xbd437137	-0.047715392

h5.weight f4 [32, 64]
0	0xbe04f9fa	-0.12985983
1	0x3dbf2220	0.09332681
2	0xbc281c66	-0.010260677
3	0x3d1c862e	0.0382139
4	0xbce7fd54	-0.028319038
5	0xbd9817c3	-0.07426407
6	0x3d5fed54	0.054669693
7	0x3d04f9af	0.03246468
8	0xbdaa449f	-0.0831387
9	0x3cf1cd82	0.02951694
10	0xbdae951e	-0.085245356
11	0xbc90ae46	-0.017661225
12	0xbd1d76de	-0.03844344
13	0x3ca45940	0.020062089
14	0x3d368bf6	0.04456707
15	0xbd48535b	-0.04890762
16	0xbdae5749	-0.08512742
17	0x3de9f71b	0.11424085
18	0x3c6ae541	0.014336885
19	0xb9136cce	-0.00014059545
20	0xbd935c0f	-0.07195293
21	0xbddcf844	-0.107895404
22	0x3c55096c	0.013002735
23	0x3d88d213	0.066806935
24	0x3dbff288	0.09372431
25	0xbdf2875a	-0.118422225
26	0x3d922ff6	0.07138054
27	0xbe0bd3c3	-0.13655
28	0x3dbbcdf0	0.09170139
29	0x3c9db8c3	0.01925314
30	0xbe01dc3f	-0.12681673
31	0x3baa66f4	0.0052002613
32	0x3d1e9b8f	0.03872257
33	0x3cbbf0f9	0.022942053
34	0x3c0b4341	0.008499921
35	0xbda7ae6d	-0.08187566
36	0xbd2f8dd4	-0.042859867
37	0x3d6ae79b	0.057349782
38	0xbd4e6966	-0.050393485
39	0x3beed691	0.007288762
40	0x3d2f005c	0.042724952
41	0xbd9cffd7	-0.07665985
42	0x3d6cfc9c	0.057858095
43	0x3db860b0	0.09002817
44	0x3d5b8b5f	0.05359971
45	0x3b83ea4f	0.0040257345
46	0xbd2d41d2	-0.0422991
47	0x3d65f8b0	0.05614537
48	0xbd91f177	-0.07126134
49	0x3b08f497	0.002089774
50	0xbdefd699	-0.11710853
51	0x3d6204f8	0.05518052
52	0x38adbd08	8.284493e-05
53	0xbdf2cb90	-0.11855233
54	0xbd2f8280	-0.042849064
55	0xbdc6c43d	-0.09705398
56	0x3b0a3870	0.0021090768
57	0xbd179e29	-0.037016068
58	0xbdfc99b6	-0.123340055
59	0xbd82e0d1	-0.063905366
60	0x3da01504	0.078165084
61	0xbca5c7fe	-0.020236965
62	0x3d9f868b	0.07789334
63	0xbdde3cee	-0.10851465
64	0x3cd26fb9	0.02568804
65	0xbc85762c	-0.0162917
66	0xbdb1134c	-0.08646259
67	0x3c690473	0.014222252
68	0xbd41b17c	-0.047288403
69	0xbda574f3	-0.08078947
70	0x3d872cc7	0.066003375
71	0x3ddc1ea3	0.10748031
72	0xbe1ab7ff	-0.15109251
73	0xbd0d9ba2	-0.03457225
74	0xbe1e59d6	-0.15463957
75	0x3ceb4b43	0.028722411
76	0xbd95f955	-0.07322947
77	0xbc0dc917	-0.008653901
78	0xbb6306a5	-0.0034641412
79	0x3d947a0b	0.0724984
80	0x3cd73f62	0.02627534
81	0xbdb30996	-0.08742063
82	0xbc3f5a5b	-0.011679257
83	0x3d2341e0	0.039857745
84	0xbdbb9ab1	-0.091603644
85	0xbcb88d13	-0.022528207
86	0xbdb5abbd	-0.08870647
87	0xbd5f577d	-0.054526795
88	0x3b6f1a09	0.0036484024
89	0x3da8eba5	0.082480706
90	0xbe0d4fe2	-0.13800004
91	0xbdc358d1	-0.09538425
92	0x3cb23ca2	0.021757428
93	0x3d8b7efd	0.068113305
94	0xbda8a50b	-0.082346044
95	0x3d07e65b	0.03317867
96	0x3dd4a507	0.10383039
97	0x3daa188b	0.083054624
98	0xbd8033f5	-0.0625991
99	0xbd9f58e3	-0.07780626
100	0xb9fde836	-0.0004842893
101	0x3dc96732	0.09834136
102	0xbcb8f951	-0.02257982
103	0x3d2d45db	0.042302947
104	0x3d0ce914	0.034401968
105	0x3d2c8630	0.04212016
106	0x3d2f9465	0.04286613
107	0x3df8b000	0.12142944
108	0x3dc5e858	0.09663457
109	0x3cb04a22	0.021519724
110	0x3d417a0d	0.047235537
111	0x3de25a81	0.110524185
112	0xbda69d23	-0.0813544
113	0x3c85e82b	0.016346058
114	0xbdc126f1	-0.094312556
115	0x3d5ade49	0.053434644
116	0xbe0468a2	-0.12930539
117	0x3dc4a2a4	0.09601334
118	0xbd43b4b4	-0.047779754
119	0xbdcd090a	-0.1001149
120	0xbe1d5b29	-0.15366806
121	0xbb85d698	-0.0040844195
122	0x3db7b6a0	0.0897038
123	0x3dc24eb6	0.09487669
124	0xbe0a12a3	-0.13483672
125	0x3cc2fd16	0.023802321
126	0x3d4818b0	0.04885167
127	0x3b9bd3eb	0.004755487
128	0x3dbf7f70	0.09350479
129	0xbd714cb1	-0.05891103
130	0x3d63c93a	0.055611826
131	0x3d7bddf4	0.061490968
132	0xbd8c0dbf	-0.06838559
133	0xbdd64dc6	-0.10464053
134	0x3dca1c8c	0.09868726
135	0xbe0c69ca	-0.1371223
136	0x3cc94364	0.024568267
137	0xbe1dec73	-0.1542223
138	0xbc8b2b1e	-0.016988333
139	0x3b54f44c	0.0032494245
140	0xbe05da74	-0.13071615
141	0x3d07a9f1	0.033121053
142	0xbdf96b72	-0.12178697
143	0xbd922d42	-0.071375385
144	0x3ce46b9c	0.027883343
145	0xbe0b2a0c	-0.13590258
146	0x3da643a8	0.08118373
147	0x3cda992f	0.026684372
148	0xbd9ea61f	-0.07746529
149	0x3c7e3541	0.015515626
150	0x3c99f3f7	0.01879309
151	0xbd56b569	-0.0524191
152	0xbe0d99a1	-0.13828136
153	0xbd1cc36d	-0.03827231
154	0x3d8c6239	0.06854672
155	0xbe05ea9d	-0.13077779
156	0xbe311cf9	-0.17296208
157	0x3c48e3eb	0.012261371
158	0xbdc9ccf6	-0.09853546
159	0xbdb4ea71	-0.08833779
160	0x3c5856fc	0.013204332
161	0xbd3ac13a	-0.04559443
162	0xbc3d25cd	-0.011544657
163	0x3e06b629	0.13155426
164	0xbe26d899	-0.16293563
165	0x3d2d448f	0.04230171
166	0x3df48e12	0.1194116
167	0xbe029664	-0.12752682
168	0x3d7c2a14	0.061563566
169	0xbe27f730	-0.16402888
170	0x3c831ef2	0.016005967
171	0x3d0e9b95	0.034816343
172	0x3d945e10	0.072445035
173	0xbde33ff6	-0.11096184
174	0xbe27b3c9	-0.16377176
175	0x3dbd5938	0.09245533
176	0x3d6b254c	0.057408616
177	0xbd769299	-0.0601984
178	0x3cc6e902	0.024281029
179	0x3c87b511	0.016565831
180	0xbcdc5883	-0.026897674
181	0x3dac5b97	0.08415907
182	0xbdfbbadc	-0.122915
183	0x3dd0b40c	0.10190591
184	0x3c9169cb	0.017750641
185	0xbe0477c4	-0.12936312
186	0x3db32f50	0.087492585
187	0xbddbae6f	-0.1072663
188	0xbd434b54	-0.04767926
189	0x3d19be80	0.03753519
190	0xbda3f32c	-0.08005366
191	0x3d8416b0	0.0644964
192	0x3dfce47d	0.12348268
193	0x3db266a3	0.08710983
194	0x3d99dc1d	0.075126864
195	0xbd42fd7a	-0.047605015
196	0x3ea63bc6	0.3246748
197	0x3e0ed414	0.13948089
198	0x3e51855e	0.20461032
199	0x3ce27313	0.027642762
200	0x3bbe4ed9	0.005807739
201	0x3e147f3b	0.1450166
202	0xbdbf0a89	-0.09328181
203	0x3e45f22c	0.19330662
204	0xbde163f2	-0.11005391
205	0xbc7063bd	-0.014672217
206	0x3d39ed81	0.045392517
207	0x3df4d379	0.11954398
208	0xbce71d8f	-0.028212337
209	0x3e93caf3	0.28865775
210	0x3e04eb44	0.12980372
211	0xbb3f01aa	-0.002914528
212	0x3db88b4e	0.09010945
213	0x3d0ad585	0.033895034
214	0x3e2e4b6a	0.17020956
215	0xbd9f7d17	-0.07787531
216	0xbe0ccd20	-0.13750124
217	0x3c23f17d	0.010006306
218	0x3d7fa2f9	0.062411282
219	0xbe020a5d	-0.12699266
220	0x3e409d69	0.18810047
221	0xbc853f1b	-0.016265443
222	0x3d04b460	0.03239858
223	0x3df9448f	0.1217128
224	0xbc8830e5	-0.016624877
225	0x3df81105	0.12112621
226	0x3e2c9598	0.1685394
227	0xbd2b18a1	-0.041771535
228	0x3cdb0b0d	0.026738668
229	0x3d88ab48	0.06673294
230	0x3e746e61	0.23870231
231	0x3dde81d1	0.10864604
232	0x3dc1d954	0.0946528
233	0xbd30ad5f	-0.04313409
234	0x3db858c4	0.09001306
235	0xbd9ea002	-0.07745363
236	0x3e5ad24a	0.21369281
237	0xbe37809d	-0.17920156
238	0xbcc1f846	-0.023677956
239	0x3d23b454	0.039966896
240	0x3de4c739	0.11170811
241	0x3dc869dd	0.09785817
242	0x3d9b50d4	0.07583776
243	0x3c41af7d	0.011821625
244	0x3de294e9	0.110635586
245	0xbe156589	-0.14589514
246	0xbca8a956	-0.020588558
247	0x3d4bb870	0.04973644
248	0xbd02b084	-0.03190662
249	0xbd857252	-0.065159455
250	0x3e984b22	0.29744822
251	0xbbfadece	-0.007655955
252	0xbe22a409	-0.15882887
253	0x3d590da3	0.05299152
254	0xbe0532fe	-0.13007733
255	0x3e4522c6	0.19251546

h5.bias f4 [32]
0	0xbe10524d	-0.14093895
1	0xbe1adc7a	-0.15123168
2	0xbcdca15d	-0.026932413
3	0x3db00df1	0.08596409
4	0xbdecb1d9	-0.11557359
5	0xbd830122	-0.063967004
6	0x3d31e4d7	0.04343113
7	0xbe12a29a	-0.1431984
8	0xbdab7876	-0.083725855
9	0x3e50fb44	0.2040835
10	0x3b94826e	0.00453215
11	0xbdb1ce8b	-0.08681973
12	0xbca72fa8	-0.020408466
13	0xbd1afdf7	-0.037839856
14	0x3db7c2f6	0.08972733
15	0x3d7e9cc8	0.062161237
16	0x3d8ce3cd	0.06879387
17	0xbd0d48d6	-0.03449329
18	0x3d9532a9	0.07285053
19	0x3e3250aa	0.17413583
20	0x3db922f6	0.090398714
21	0x3ce27d23	0.02764756
22	0x3dae25fd	0.085033394
23	0xbda8cf72	-0.08242692
24	0x3d7f7cac	0.062374756
25	0xbb243f86	-0.0025062277
26	0xbb2e8a88	-0.0026632864
27	0xbdefcbfc	-0.11708829
28	0x3a777767	0.00094400946
29	0xbdd5d96b	-0.1044186
30	0xbd3c7b1e	-0.04601585
31	0xbe004357	-0.12525688
