lightning_logs/version_6/checkpoints/epoch=49-step=20900.ckpt (torch, 70885 bytes, 28 tensors)

input.weight f4 [64, 30]
-0.55637306 -0.007817349 0.19709684 1.472905 -0.7518132 1.392497 -0.93085504 0.74836826
2.0138774 -1.5567156 0.661318 -0.3640837 -0.33427238 0.044044595 0.45312965 0.31534553
-0.5562036 1.4350696 -1.216697 -0.20983854 0.061168052 0.2083923 0.28234679 -0.20125635
1.2200121 -0.33767304 0.9831901 0.6187863 1.2852973 -0.5285142 1.0720506 0.3023492
-0.69180995 -0.4998954 -1.2942735 -1.0563585 -1.2712643 0.1253843 0.63493437 -0.06517009
0.27211007 0.2933693 1.3590517 0.18432914 1.3941563 0.5638298 0.6249452 0.36700523
1.0637875 0.09670484 0.67653996 0.028659767 0.47663927 0.20479286 -0.4384546 -0.28797266
-0.2650328 0.6740139 -0.3769266 1.489693 -0.29104328 0.5326202 1.575324 0.31621554
-0.34866506 1.8343567 -0.242038 1.5746512 0.026201667 -0.0721969 0.4910412 0.707864
0.22485696 -0.106819734 0.8282568 -1.1993955 0.44741553 1.8604091 1.645462 -0.002335893
0.61530304 -0.6159163 -0.22779353 -1.1718092 -0.21372329 1.1763662 -0.6696015 0.4096574
-1.2053896 0.16591345 -1.5124035 1.5937097 -0.09204994 1.3661898 -0.78955716 0.49776882
-0.4335973 -0.57028615 1.1913732 0.96638864 0.11136858 -0.25705078 0.10368429 -0.10209315
0.94334316 -0.2981696 -1.4837606 1.5800498 -1.7892569 1.0367575 0.78646064 -0.1416176
-0.2914793 -0.39211577 1.1943104 1.9027314 0.59166074 -1.4835035 -1.032745 -0.73373795
0.47511396 -1.3720591 1.0735663 0.42574668 -2.4750602 2.5229638 0.7281501 1.0590166
1.3401668 -0.7633997 0.26183888 -0.056258257 -0.004941418 -0.1529667 0.52798426 0.09504073
0.9306595 0.111241855 -0.03654358 -0.53679806 0.3997062 0.055955756 -0.4131405 -0.46045527
-0.74753034 0.08210251 0.10668734 0.80730337 0.5982135 -0.2953047 -0.6649625 0.4395254
-0.15281136 0.81127405 -0.93583393 -0.4261596 -0.83003134 -0.097171605 -0.69748616 -0.5605508
1.1449815 0.16831572 -0.077823475 1.0274531 1.600861 0.35297436 -0.230049 0.75517243
0.13834283 0.14610042 -0.51510435 0.25586373 -0.46020553 -0.16263255 1.7454416 0.16146873
0.54706997 -0.056206346 -0.4448865 -0.2803641 1.8930469 -0.27712655 0.42818356 -0.10201566
-1.6809479 0.15308353 0.9066776 -0.11184585 -0.1442416 0.98706853 0.28662032 0.27991778
0.9670447 -0.26326138 0.63321424 0.7173195 0.7568297 0.5325466 1.0965552 -1.1571425
-0.15824798 -0.8547828 0.90873545 0.03352131 -1.355133 -0.20761956 0.18500051 -1.0303894
-0.39104673 -0.2987207 -0.02944933 -0.845134 -1.0632709 -0.8376387 0.59755296 0.012595356
-0.025053794 -1.3751848 -1.719463 -0.3404433 -1.9609202 1.5345803 -1.5717412 -2.2446232
-1.4678836 1.74138 -0.8800922 0.41790527 -0.052970983 1.3975226 1.490789 0.8372332
0.34638134 -0.05620318 -0.3910229 -0.8543249 -0.52185756 -0.82481986 1.6379781 1.1270062
0.044302616 1.231082 0.18036245 -0.7693506 0.71665424 0.14691198 0.9793676 -0.13964625
-1.1753788 -0.51854455 0.19519041 -0.65301853 -0.5913913 1.1033025 -1.1531869 -1.2013268
00000000: 776e 0ebf 5714 00bc c1d3 493e 2788 bc3f
00000010: d476 40bf 573d b23f 844c 6ebf 1095 3f3f
00000020: 5ee3 0040 7542 c7bf 234c 293f 2e69 babe
00000030: c025 abbe 1b68 343d 9c00 e83e f874 a13e
00000040: 5c63 0ebf 5cb0 b73f babc 9bbf eadf 56be
00000050: 5a8b 7a3d cb64 553e c28f 903e 2516 4ebe
00000060: 5b29 9c3f 7be3 acbe 59b2 7b3f c768 1e3f
00000070: 9f84 a43f b54c 07bf f438 893f 84cd 9a3e
00000080: 751a 31bf 4af2 ffbe c1aa a5bf c136 87bf
00000090: cab8 a2bf be64 003e 0f8b 223f e577 85bd
000000a0: 0352 8b3e 8034 963e 68f5 ad3f c7c0 3c3e
000000b0: b773 b23f 2657 103f 69fc 1f3f 1ce8 bb3e
000000c0: 302a 883f 300d c63d b931 2d3f e3c7 ea3c
000000d0: 100a f43e 38b5 513e 1f7d e0be 2771 93be
000000e0: 61b2 87be 2d8c 2c3f 86fc c0be 43ae be3f
000000f0: a003 95be cc59 083f 38a4 c93f 01e7 a13e
00000100: 3a84 b2be 33cc ea3f cfd8 77be 2c8e c93f
00000110: e1a4 d63c f8db 93bd c169 fb3e 9336 353f
00000120: e740 663e 4ec4 dabd a308 543f cb85 99bf
00000130: a613 e53e e321 ee3f 809e d23f c815 19bb
00000140: 8084 1d3f b1ac 1dbf b542 69be d8fd 95bf
00000150: 47da 5abe 2b93 963f 016b 2bbf 9dbe d13e
00000160: 354a 9abf 37e5 293e 7096 c1bf aefe cb3f
00000170: ae84 bcbd 4fdf ae3f 6b20 4abf 8edb fe3e
00000180: 7700 debe 46fe 11bf eb7e 983f 3f65 773f
00000190: 3615 e43d 299c 83be 6e58 d43d 3716 d1bd
000001a0: f07e 713f b0a9 98be deeb bdbf 123f ca3f
000001b0: 5f06 e5bf 78b4 843f 7c55 493f 3404 11be
000001c0: c63c 95be 66c3 c8be 2adf 983f b48c f33f
000001d0: 1477 173f 71e3 bdbf fd30 84bf 40d6 3bbf
000001e0: 2342 f33e a29f afbf 9f6a 893f 78fb d93e
000001f0: 6367 1ec0 3d78 2140 0c68 3a3f db8d 873f
00000200: 968a ab3f 2a6e 43bf bf0f 863e 0f6f 66bd
00000210: 9eeb a1bb 4da3 1cbe fa29 073f b7a4 c23d
00000220: b33f 6e3f c5d2 e33d b9ae 15bd 996b 09bf
00000230: 4ba6 cc3e dd31 653d 2787 d3be cbc0 ebbe
00000240: 265e 3fbf 5c25 a83d e47e da3d 6fab 4e3f
00000250: 8524 193f 2d32 97be fb3a 2abf 7909 e13e
00000260: 957a 1cbe a8af 4f3f d092 6fbf 9731 dabe
00000270: ef7c 54bf e801 c7bd 748e 32bf 4280 0fbf
00000280: c18e 923f f55a 2c3e ea61 9fbd 9583 833f
00000290: 03e9 cc3f 0eb9 b43e f791 6bbe fb52 413f
000002a0: bea9 0d3e 599b 153e e1dd 03bf 9200 833e
000002b0: 0fa0 ebbe 2689 26be a16a df3f 0f58 253e
000002c0: c70c 0c3f a038 66bd 2ac8 e3be e28b 8fbe
000002d0: 5c4f f23f 88e3 8dbe e03a db3e 96ed d0bd
000002e0: 4d29 d7bf eec1 1c3e 061c 683f 700f e5bd
000002f0: 12b4 13be 86b0 7c3f e6bf 923e 6251 8f3e
00000300: 3e90 773f 32ca 86be 541a 223f 40a2 373f
00000310: 97bf 413f f954 083f ec5b 8c3f 3f1d 94bf
00000320: c20b 22be 0cd3 5abf e3a2 683f a44d 093d
00000330: 0075 adbf 399a 54be c670 3d3e cde3 83bf
00000340: 4737 c8be ebf1 98be b93f f1bc b45a 58bf
00000350: 4319 88bf 7d6f 56bf 3bf9 183f c15c 4e3c
00000360: 9d3d cdbc 0e06 b0bf 5d17 dcbf 964e aebe
00000370: 6fff fabf 216d c43f d12e c9bf e8a7 0fc0
00000380: 9ce3 bbbf 8ae5 de3f b94d 61bf aef7 d53e
00000390: 1af8 58bd 05e2 b23f 2dd2 be3f ea54 563f
000003a0: e558 b13e 4e35 66bd 2734 c8be 09b5 5abf
000003b0: 7598 05bf 6527 53bf 44a9 d13f bd41 903f
000003c0: a976 353d 1894 9d3f efb0 383e 29f4 44bf
000003d0: a776 373f 1870 163e d6b7 7a3f 6dff 0ebe
000003e0: d072 96bf 56bf 04bf ffdf 473e 392c 27bf
000003f0: 6c65 17bf 0439 8d3f a19b 93bf 14c5 99bf

input.bias f4 [64]
-0.30920622 -1.3564523 -0.75144136 0.13761204 -0.5264156 -1.2634282 -0.80781513 0.4203915
-0.066768125 -0.85696405 -0.9267434 -1.1236881 -1.3755553 -1.004762 -1.3555657 -0.5270547
-0.7977061 -1.4916984 -1.251186 0.032289345 -1.2369577 -0.039668187 -0.26004368 -1.5656532
0.28284377 -0.49334294 0.5874936 -1.2138197 -0.96544194 0.11902312 -0.42954928 -0.9909779
1.304788 -0.7189373 -0.5975277 -0.73378694 -0.4425259 -0.8205973 -0.7487766 -1.0015604
-1.3568618 -0.71256214 -0.6530953 -0.71528673 0.8632913 -0.6952348 -1.7039124 0.21179909
-2.0373363 -0.092658296 0.57152593 -0.53500074 -1.5378594 0.07923603 -0.65998393 -1.5475303
-0.55324733 -1.9231943 1.0820143 -0.72472423 0.2948115 -1.2218201 -1.4210702 -0.9996414
00000000: 4750 9ebe 3ba0 adbf 765e 40bf 2cea 0c3e
00000010: 2cc3 06bf 04b8 a1bf f9cc 4ebf 8e3d d73e
00000020: babd 88bd ff61 5bbf 0e3f 6dbf 03d5 8fbf
00000030: 3212 b0bf 0b9c 80bf 2d83 adbf 0fed 06bf
00000040: 7836 4cbf f9ef bebf dd26 a0bf d541 043d
00000050: a154 9ebf 1c7b 22bd 7224 85be 5367 c8bf
00000060: e6d0 903e 7297 fcbe fb65 163f 725e 9bbf
00000070: 3427 77bf 65c2 f33d e2ed dbbe bab0 7dbf
00000080: 4b03 a73f 460c 38bf 93f7 18bf 76d9 3bbf
00000090: c192 e2be aa12 52bf d3af 3fbf 2233 80bf
000000a0: a6ad adbf 796a 36bf 4131 27bf 081d 37bf
000000b0: a900 5d3f e8fa 31bf cd19 dabf dce1 583e
000000c0: b863 02c0 a2c3 bdbd 864f 123f cff5 08bf
000000d0: 94d8 c4bf 8046 a23d b5f4 28bf 7915 c6bf
000000e0: 9ea1 0dbf 3b2b f6bf 727f 8a3f 8787 39bf
000000f0: 88f1 963e 9a64 9cbf a1e5 b5bf 80e8 7fbf

h1.weight f4 [32, 64]
-0.28625095 0.37393278 -1.1811911 1.0076965 -0.05001096 -0.57532 -0.17101197 -0.8826938
-0.737298 0.21641092 0.5952066 -0.936604 -0.2945335 -1.5012609 -0.04390993 0.78647375
-0.096493386 -1.0192212 -1.2668515 1.5170387 -0.25964865 -1.3909228 -0.28154358 0.18522105
0.10434784 -1.3678583 0.40413368 -0.37321666 -1.3642629 -0.5863797 2.0029085 -0.6691682
0.02128793 -1.2591957 -0.07558457 0.6939445 -0.36938924 -0.5110963 0.3933044 -0.2761861
-1.3107421 -0.97985333 0.069738105 1.637956 0.14676136 2.5803766 -0.65072566 -0.5711826
0.8337871 1.438698 0.022630235 0.50165427 -1.3836591 -0.47734594 -0.71239716 0.00948004
-0.3409203 -0.13869645 -1.0310013 0.010157496 0.24085881 -1.5782245 -0.9171155 1.0084754
0.27376217 1.5197172 0.66960263 1.7086321 2.5340762 0.6871264 5.0927334 -0.25629887
-0.15026723 2.721881 2.270336 3.390483 3.661254 1.705166 1.4678029 4.3670826
0.30885285 1.3493981 2.1250136 2.3301306 4.7278986 0.041070517 0.6674362 2.8236606
2.8473063 2.5924597 -0.32739523 0.008289765 1.9331192 -0.34049565 4.1589737 1.2324696
-0.7959262 0.7201857 2.842544 -0.07268983 1.5585643 2.6671607 0.49784753 0.5486198
-0.44457078 2.212208 0.4574508 1.9157056 2.3795128 0.7848652 -0.29858235 -0.50802606
-0.5323876 1.0343955 -0.34636033 3.146825 2.0559814 4.294943 2.3486502 0.76071393
-0.7600952 -0.37593618 -0.812275 2.143989 3.4175289 1.888695 1.4933257 -0.298633
0.8388655 0.87452585 1.1358051 1.694362 1.5826378 0.5032729 3.8779898 -0.4159292
-0.99051094 0.305468 0.7586352 0.7627795 0.03374666 1.63683 0.4076459 1.1028664
0.45167696 0.10977646 1.3681037 0.6985447 3.3968725 -0.18299466 0.97973853 6.8351088
0.2622363 1.3781416 -0.38555452 0.36429247 2.8126166 -0.5384387 5.5260243 6.0560555
-0.33570203 1.3015373 2.305383 0.39053696 -0.27163827 0.092183106 1.8091016 0.9817652
-1.1566228 3.3791769 -0.1693822 0.6905721 0.017360108 2.3690302 -0.2974964 -0.49559927
0.64713347 1.1353219 -1.1592474 2.2731066 0.5824779 1.1064569 2.70174 1.0267315
-1.526483 -0.19541724 -0.82641685 2.4172454 1.35786 4.1766357 0.5375942 -0.6662123
3.7102847 1.8060923 0.3699606 4.2548785 0.7255035 2.2226818 -0.15031843 -0.5913085
-0.7029901 3.2076397 0.9307946 2.7478929 -0.048610605 0.7308281 2.7086084 5.769492
3.7995338 1.0557314 0.26643184 3.0951455 2.988152 -0.5381371 5.287112 1.7195443
3.9016848 2.4014432 0.12676232 0.7217802 1.1844752 0.66747093 0.40755188 0.74536455
-0.4771209 0.36033475 3.1252575 4.273745 3.0570521 1.4871231 1.3230277 3.8549092
0.20038952 2.6616645 1.7024639 3.0274508 3.6815922 4.2906413 1.1475971 -0.15328935
3.9728012 3.9470859 -1.7239261 3.4491155 0.8601217 5.491205 1.8401259 2.8648212
-0.71745914 1.6884676 -0.80048794 1.0587875 2.5816982 1.6716336 3.9105585 1.152972
00000000: 7c8f 92be 1e74 bf3e 4531 97bf 33fc 803f
00000010: 4bd8 4cbd 2c48 13bf c31d 2fbe 39f8 61bf
00000020: 90bf 3cbf d39a 5d3e 765f 183f 48c5 6fbf
00000030: 18cd 96be 5129 c0bf e6da 33bd 5856 493f
00000040: 539e c5bd d775 82bf 3128 a2bf 532e c23f
00000050: abf0 84be c209 b2bf 7b26 90be 96aa 3d3e
00000060: 52b4 d53d fb15 afbf 9cea ce3e 4116 bfbe
00000070: 2ba0 aebf fb1c 16bf a72f 0040 9b4e 2bbf
00000080: 0664 ae3c 532d a1bf 15cc 9abd 59a6 313f
00000090: 9620 bdbe 35d7 02bf 325f c93e 4468 8dbe
000000a0: 66c6 a7bf abd7 7abf dad2 8e3d 8ba8 d13f
000000b0: 9c48 163e e424 2540 f595 26bf 0639 12bf
000000c0: 1273 553f 4227 b83f 0b63 b93c 6a6c 003f
000000d0: be1b b1bf b066 f4be a95f 36bf 2b52 1b3c
000000e0: 1b8d aebe 7106 0ebe daf7 83bf a06b 263c
000000f0: b1a3 763e 4303 cabf 15c8 6abf b915 813f
00000100: 8e2a 8c3e 1886 c23f 146b 2b3f 75b4 da3f
00000110: 4e2e 2240 84e7 2f3f acf7 a240 9b39 83be
00000120: a7df 19be 4c33 2e40 2f4d 1140 acfd 5840
00000130: fc51 6a40 e142 da3f f7e0 bb3f 24bf 8b40
00000140: f621 9e3e 14b9 ac3f 3900 0840 dc20 1540
00000150: f24a 9740 8f39 283d 19dd 2a3f dbb6 3440
00000160: 443a 3640 dcea 2540 59a0 a7be cbd1 073c
00000170: 7370 f73f 7255 aebe 5016 8540 90c1 9d3f
00000180: d2c1 4bbf 175e 383f 3eec 3540 68de 94bd
00000190: 097f c73f c3b2 2a40 dfe5 fe3e 5972 0c3f
000001a0: c89e e3be d194 0d40 fe36 ea3e d735 f53f
000001b0: f049 1840 edec 483f c9df 98be ff0d 02bf
000001c0: 8e4a 08bf 1267 843f 2456 b1be 9565 4940
000001d0: 3395 0340 2c70 8940 4950 1640 26be 423f
000001e0: 9995 42bf b57a c0be 41f1 4fbf 1e37 0940
000001f0: cbb8 5a40 c2c0 f13f 4c25 bf3f 6de6 98be
00000200: e4bf 563f ede0 5f3f 1062 913f dbe0 d83f
00000210: e093 ca3f 7ed6 003f fc30 7840 acf4 d4be
00000220: 2092 7dbf 4d66 9c3e eb35 423f 8445 433f
00000230: f039 0a3d a583 d13f f7b6 d03e ba2a 8d3f
00000240: 3442 e73e 7bd2 e03d 061e af3f d3d3 323f
00000250: 5c66 5940 f462 3bbe 25d0 7a3f 36b9 da40
00000260: d643 863e f266 b03f 6767 c5be 8b84 ba3e
00000270: e901 3440 1ed7 09bf 31d5 b040 35cb c140
00000280: 23e1 abbe c698 a63f 658b 1340 76f4 c73e
00000290: 2c14 8bbe 7fca bc3d a490 e73f f754 7b3f
000002a0: 370c 94bf 6f44 5840 8772 2dbe 55c9 303f
000002b0: c936 8e3c 319e 1740 7351 98be 30bf fdbe
000002c0: 8aaa 253f 3a52 913f 3862 94bf 947a 1140
000002d0: 461d 153f 61a0 8d3f 4fe9 2c40 f06b 833f
000002e0: cc63 c3bf 751b 48be 0e90 53bf 26b4 1a40
000002f0: 5bce ad3f 00a7 8540 c69f 093f e48c 2abf
00000300: 4e75 6d40 082e e73f 7a6b bd3e f727 8840
00000310: 99ba 393f 6b40 0e40 13ed 19be fe5f 17bf
00000320: 29f7 33bf f849 4d40 8e48 6e3f 7add 2f40
00000330: ea1b 47bd 8d17 3b3f d759 2d40 ae9f b840
00000340: 902b 7340 3522 873f c169 883e dd16 4640
00000350: e23d 3f40 5ac3 09bf 0630 a940 071a dc3f
00000360: 34b5 7940 3fb1 1940 fbcd 013e 96c6 383f
00000370: e29c 973f 60df 2a3f a4aa d03e 36d0 3e3f
00000380: 3149 f4be cc7d b83e 3804 4840 85c2 8840
00000390: bea6 4340 0d5a be3f f958 a93f d5b6 7640
000003a0: e932 4d3e b658 2a40 56ea d93f c1c1 4140
000003b0: 359f 6b40 ef4c 8940 76e4 923f e2f7 1cbe
000003c0: 6042 7e40 0e9d 7c40 9ca9 dcbf 4fbe 5c40
000003d0: f030 5c3f f4b7 af40 3f89 eb3f 3b59 3740
000003e0: 67ab 37bf b51f d83f c7ec 4cbf 5986 873f
000003f0: 8b3a 2540 17f8 d53f 9746 7a40 9694 933f

h1.bias f4 [32]
-0.66167504 -0.9118903 -2.1934748 -1.7325644 -1.3466548 2.217017 -1.74321 -0.71247417
-0.8212993 -0.06818448 -1.256934 -1.4078107 -1.0520555 -2.886453 -1.7517353 0.42694604
-1.3530608 0.34333125 -0.740006 -0.6271675 -1.134229 0.5896744 -1.1409056 -2.0914378
-1.6563452 -0.9992757 -1.536032 -0.6040713 -1.0356709 -2.1337845 1.5948343 -1.1492076
00000000: 8963 29bf a571 69bf e461 0cc0 acc4 ddbf
00000010: 2f5f acbf 9be3 0d40 8121 dfbf b564 36bf
00000020: ac40 52bf 4ea4 8bbd 37e3 a0bf 2433 b4bf
00000030: c1a9 86bf a5bb 38c0 dd38 e0bf ac98 da3e
00000040: 1931 adbf 1dc9 af3e 0971 3dbf 0d8e 20bf
00000050: 6a2e 91bf e7f4 163f 3209 92bf 1eda 05c0
00000060: 1f03 d4bf 88d0 7fbf b29c c4bf 6ba4 1abf
00000070: dd90 84bf ed8f 08c0 8823 cc3f 3c19 93bf

h2.weight f4 [16, 32]
-0.37258 0.2681487 0.54763985 0.7752214 0.6225728 -0.39531365 0.2741076 0.49955758
0.17492913 -0.05636417 0.51531816 0.52025276 -0.16515255 1.899402 0.24442413 -0.1998944
-0.5170963 -0.20747437 0.023591774 -0.29212862 0.07632848 -0.9270788 0.10400176 1.5459597
0.7383913 3.3041506 0.3553092 0.2004311 0.004274807 -0.061924987 -1.488357 0.38548782
-0.5761706 -1.9286216 -0.31460458 -3.2145722 -1.1872079 0.24704316 -2.8394036 -3.1682322
-2.7503026 -0.031824805 -3.004233 -2.0504382 -1.9470793 -0.54811215 -2.4463356 0.065763004
-2.6874886 0.17583515 -0.23312159 -0.71207213 -0.57102126 0.44808453 -0.64670146 -1.1054046
-1.4498917 0.4679725 -0.8886779 -1.5024917 -3.9896438 -0.4929403 0.24496733 -1.2652698
2.198497 -0.5523283 0.3212832 -0.9973767 3.4071763 -1.0771995 2.726854 -1.2101568
1.0389855 -0.028878756 -1.2783889 0.92904806 0.904765 -0.66003686 -2.0374637 -0.7281331
-0.12045908 0.739356 1.9654409 -2.986806 -0.28474164 -0.7285411 3.1899033 0.463273
1.4911098 -2.0609853 1.8422512 1.1737175 -1.3367563 -0.122049265 -0.7770308 -0.58810216
0.6219824 0.38846996 1.0268914 -0.08421581 2.1563373 -2.5490232 0.51296854 -0.08099609
0.19456159 0.05404063 0.27736568 1.1239582 1.1062912 -0.14219776 -0.38724795 -0.95928013
-0.016135596 -0.27196983 0.49698702 4.8138447 0.38861582 -0.5554164 0.57922924 0.21092196
0.8646157 1.1106188 0.8136952 0.5744027 0.20049372 0.75974804 -0.63255113 0.7295805
1.0791808 0.0414979 -1.582352 -0.7718434 0.3313638 -0.107988685 -0.94905615 0.77997935
0.72589016 0.01380231 -0.28621885 -3.3412373 -0.19928671 -0.17788412 -2.740142 0.07420644
0.91492975 0.5475368 -0.08359658 0.54337835 -0.7426677 0.5784743 -0.37987235 -3.6670876
-2.6524756 -1.5387495 -0.63425684 -0.5455004 1.0235083 -0.53521574 0.42676827 -0.2625226
-0.10887846 -0.72425354 -0.5810596 -0.75809157 -1.7851745 -1.8378228 1.3140098 -0.43863362
-2.1403816 -0.22154865 -0.7166558 0.86297 -0.9502688 -0.29990014 0.33515316 -1.047817
0.49768603 0.16461577 0.51129353 -1.558788 1.6445838 -0.4175491 0.22496626 0.6451492
-0.25827706 -0.18548979 0.6493388 0.20412277 -0.06594351 -0.3014257 -0.6690908 0.48156968
-1.0845199 -0.3887087 0.48964512 -0.48086765 -1.7013938 -1.1697788 0.35107034 -0.64624345
-2.1906374 -0.08496953 -0.5802747 -0.047229357 -0.38790718 1.267196 -0.74547124 -0.1087943
0.035293493 0.38377947 -0.09251479 -0.7610606 -0.42278376 -1.2736671 0.29660252 -0.8442543
0.080907695 -0.70448947 2.4413064 -0.015261332 -0.2444528 -0.5319814 -1.51885 -0.018358432
-0.1516577 0.61199737 1.1618878 1.3022838 0.6818568 -0.6128378 0.3452147 -0.31420046
1.4874201 0.06519377 0.3428846 2.2872782 1.0309836 0.42016485 -0.87129414 -0.7601436
-0.8930018 0.09898949 -0.08827325 1.1039915 0.07339471 -0.9152688 0.87862736 1.6333303
0.9004114 2.43276 0.303661 0.5851124 -0.23441775 2.7860599 -1.3710322 0.88243985
00000000: cec2 bebe c94a 893e 2032 0c3f e974 463f
00000010: ee60 1f3f 8d66 cabe d557 8c3e 03c6 ff3e
00000020: 9f20 333e 1ede 66bd e4eb 033f 492f 053f
00000030: c01d 29be 9b1f f33f 524a 7a3e 1eb1 4cbe
00000040: 6c60 04bf 2974 54be 8943 c13c e291 95be
00000050: 1b52 9c3d 0955 6dbf e0fe d43d 02e2 c53f
00000060: 3607 3d3f 3477 5340 16eb b53e cf3d 4d3e
00000070: ae13 8c3b 0ea5 7dbd 7b82 bebf a95e c53e
00000080: eb7f 13bf 13dd f6bf da13 a1be 8dbb 4dc0
00000090: 6ef6 97bf e2f8 7c3e cab8 35c0 51c4 4ac0
000000a0: f504 30c0 ba5a 02bd 5a45 40c0 613a 03c0
000000b0: e539 f9bf 1451 0cbf c390 1cc0 c1ae 863d
000000c0: d0ff 2bc0 210e 343e 6db7 6ebe 5c4a 36bf
000000d0: 732e 12bf 566b e53e 3a8e 25bf e67d 8dbf
000000e0: 0d96 b9bf 179a ef3e 6580 63bf a651 c0bf
000000f0: 5356 7fc0 ac62 fcbe b7d8 7a3e 5cf4 a1bf
00000100: 2db4 0c40 6365 0dbf 3b7f a43e 1454 7fbf
00000110: 2d0f 5a40 ace1 89bf c784 2e40 6be6 9abf
00000120: 7afd 843f 2493 ecbc 3fa2 a3bf 18d6 6d3f
00000130: ae9e 673f 2df8 28bf ce65 02c0 ee66 3abf
00000140: 40b3 f6bd 6f46 3d3f 9193 fb3f d427 3fc0
00000150: a8c9 91be ab81 3abf 6027 4c40 1e32 ed3e
00000160: b0dc be3f 2fe7 03c0 e3ce eb3f 603c 963f
00000170: d51a abbf f7f4 f9bd 7eeb 46bf dd8d 16bf
00000180: 3d3a 1f3f 89e5 c63e 2d71 833f 5779 acbd
00000190: 6e01 0a40 3223 23c0 e851 033f 47e1 a5bd
000001a0: 273b 473e b559 5d3d e002 8e3e dddd 8f3f
000001b0: f39a 8d3f 4a9c 11be 5d45 c6be 6293 75bf
000001c0: cc2e 84bc a13f 8bbe 1575 fe3e 040b 9a40
000001d0: a7f8 c63e c52f 0ebf 5e48 143f edfb 573e
000001e0: 7457 5d3f c228 8e3f 544e 503f 0e0c 133f
000001f0: 3a4e 4d3e d97e 423f dfee 21bf cac5 3a3f
00000200: 9922 8a3f b4f9 293d 838a cabf 8797 45bf
00000210: 84a8 a93e 2c29 ddbd 58f5 72bf baac 473f
00000220: f0d3 393f 1623 623c 478b 92be d5d6 55c0
00000230: d111 4cbe 4127 36be 7d5e 2fc0 8cf9 973d
00000240: d638 6a3f 5f2b 0c3f af34 abbd d81a 0b3f
00000250: 781f 3ebf e416 143f a17e c2be 90b1 6ac0
00000260: 29c2 29c0 bef5 c4bf a85e 22bf eaa5 0bbf
00000270: 5202 833f e603 09bf 5f81 da3e 5d69 86be
00000280: acfb debd ae68 39bf 52c0 14bf 4a12 42bf
00000290: 9980 e4bf c73d ebbf 7931 a83f 9694 e0be
000002a0: 03fc 08c0 a6dd 62be c176 37bf 9aeb 5c3f
000002b0: d144 73bf 838c 99be 3299 ab3e de1e 86bf
000002c0: b4d0 fe3e 0991 283e 22e4 023f 5d86 c7bf
000002d0: b981 d23f ffc8 d5be 8e5d 663e 7f28 253f
000002e0: e43c 84be 09f1 3dbe 113b 263f 8f05 513e
000002f0: 640d 87bd 7854 9abe 8949 2bbf 4d90 f63e
00000300: 8cd1 8abf d404 c7be c4b2 fa3e 4934 f6be
00000310: 46c7 d9bf 50bb 95bf 7ebf b33e 3670 25bf
00000320: 6733 0cc0 8104 aebd e28c 14bf 9273 41bd
00000330: c59b c6be 7b33 a23f 34d7 3ebf 8ccf debd
00000340: e98f 103d be7e c43e 6578 bdbd ded4 42bf
00000350: 1d77 d8be 8607 a3bf 49dc 973e 0d21 58bf
00000360: efb2 a53d 6c59 34bf 5d3e 1c40 aa0a 7abc
00000370: d651 7abe ef2f 08bf ad69 c2bf 6c64 96bc
00000380: 284c 1bbe dcab 1c3f bdb8 943f 3cb1 a63f
00000390: 2b8e 2e3f f0e2 1cbf fbbf b03e e2de a0be
000003a0: c863 be3f 5084 853d 928e af3e c462 1240
000003b0: 45f7 833f d91f d73e 220d 5fbf c598 42bf
000003c0: c49b 64bf 00bb ca3d 9bc8 b4bd 984f 8d3f
000003d0: f74f 963d 0e4f 6abf b9ed 603f f810 d13f
000003e0: 5d81 663f 57b2 1b40 7479 9b3e edc9 153f
000003f0: 350b 70be ce4e 3240 fc7d afbf 94e7 613f

h2.bias f4 [16]
-1.2521979 1.1724904 -2.4783347 -1.8646863 4.979115 -1.888944 -0.8491898 -1.8832061
-0.53129566 1.9592553 -1.5438819 -1.6488901 -0.1523758 -0.40223515 -1.7534007 -1.7450129
00000000: 0548 a0bf 2a14 963f 099d 1ec0 0aae eebf
00000010: e954 9f40 ebc8 f1bf 8164 59bf e60c f1bf
00000020: fe02 08bf e1c8 fa3f ec9d c5bf d50e d3bf
00000030: 6708 1cbe c4f1 cdbe 6f6f e0bf 955c dfbf

h3.weight f4 [8, 16]
-0.7462505 -0.25176787 -0.73139274 -0.2962708 -0.5443662 -0.15131734 0.19773899 -0.15312585
0.06691969 -0.44317004 -0.14354357 -0.52865046 -0.11439727 -0.22089589 -0.31019795 -0.42883328
-0.20513678 -0.78580445 -0.19770569 -0.0050784545 -0.15989843 -0.25333664 -0.28230065 -0.117456235
-0.0322253 -0.4063129 -0.435867 -0.037589125 0.18593687 -0.38797522 -0.0023767946 -0.17655817
-2.5444303 -0.24541606 -0.7956658 -2.165924 -4.7178874 -1.6387466 -1.9141719 -3.9407773
-0.08459423 -2.089895 -1.290028 -2.21425 -0.3243412 -1.6019398 -4.508195 -3.9155788
-1.0041786 0.22888832 -0.6853705 -1.7119597 0.300183 -1.0436723 -0.05861329 -1.5822197
-0.057040613 0.1977709 -1.2969766 -1.8283513 -0.015708936 -0.47972476 -4.048466 -0.35618618
-0.12634985 -0.31087768 -0.0852133 -0.23332854 -0.38410565 -0.022589222 -0.19672918 -0.24313304
0.29029 -1.2319735 -0.07905898 -0.09840998 -0.35486197 -0.28951722 0.0007575069 -0.1343684
-0.15561104 0.1444764 -2.072452 -0.8228323 0.18407932 -0.31008893 -0.90982133 -1.6602298
-0.3332239 0.105457574 -1.0467873 -0.40729105 0.09731846 0.6352788 0.18137522 -1.4720573
-0.027167168 -0.09441595 -0.013593578 -0.15639858 -0.65764314 -0.1165191 -0.23327196 -0.003253828
0.15281051 -0.5861794 -0.06105869 -0.1419577 -0.03195099 -0.10650947 -0.22135364 -0.14995757
-0.64709926 -0.2673934 0.13616148 -0.7479959 -0.5860168 -0.14765768 -0.17262718 -0.82449305
0.043601327 -0.4285224 -0.8571259 -0.91312337 0.11782798 -0.31073028 -0.06573496 -1.1619668
00000000: 460a 3fbf b8e7 80be 8e3c 3bbf ceb0 97be
00000010: 955b 0bbf eff2 1abe 177c 4a3e 06cd 1cbe
00000020: 310d 893d 2fe7 e2be 16fd 12be a355 07bf
00000030: 1e49 eabd 8832 62be 44d2 9ebe 0990 dbbe
00000040: 600f 52be 7b2a 49bf 5c73 4abe 2a69 a6bb
00000050: 6abc 23be 57b5 81be b689 90be e58c f0bd
00000060: adfe 03bd 3f08 d0be f629 dfbe 0ef7 19bd
00000070: 3c66 3e3e b0a4 c6be ffc3 1bbb aacb 34be
00000080: f2d7 22c0 594e 7bbe c1b0 4bbf 809e 0ac0
00000090: eff8 96c0 73c2 d1bf 9603 f5bf b235 7cc0
000000a0: bd3f adbd d7c0 05c0 a31f a5bf 46b6 0dc0
000000b0: 0d10 a6be 5d0c cdbf 2243 90c0 d898 7ac0
000000c0: ed88 80bf b361 6a3e 7174 2fbf 7f21 dbbf
000000d0: 96b1 993e 0e97 85bf 7d14 70bd 2d86 cabf
000000e0: 6ba3 69bd 7484 4a3e 5403 a6bf 6a07 eabf
000000f0: 07b0 80bc 7c9e f5be 098d 81c0 095e b6be
00000100: db61 01be 5c2b 9fbe 5084 aebd aded 6ebe
00000110: 7fa9 c4be 080d b9bc 6073 49be def7 78be
00000120: e4a0 943e 4fb1 9dbf ade9 a1bd 2c8b c9bd
00000130: 78b0 b5be 9a3b 94be 6d93 463a df97 09be
00000140: 8058 1fbe 9ff1 133e 0ea3 04c0 23a5 52bf
00000150: 4a7f 3c3e fac3 9ebe 0dea 68bf 6982 d4bf
00000160: 539c aabe 24fa d73d 20fd 85bf 7488 d0be
00000170: e74e c73d a2a1 223f 6dba 393e 606c bcbf
00000180: ae8d debc 265d c1bd 99b7 5ebc f326 20be
00000190: 4d5b 28bf 91a1 eebd d8de 6ebe 2d3e 55bb
000001a0: 5c7a 1c3e da0f 16bf ad18 7abd 5c5d 11be
000001b0: 0bdf 02bd a321 dabd 87aa 62be 7a8e 19be
000001c0: 4ca8 25bf cae7 88be ea6d 0b3e a97c 3fbf
000001d0: 3205 16bf 9333 17be 2ec5 30be fa11 53bf
000001e0: 4e97 323d 4a67 dbbe 9a6c 5bbf 74c2 69bf
000001f0: cc4f f13d 0a18 9fbe 0da0 86bd 54bb 94bf

h3.bias f4 [8]
-0.49009264 -0.072070554 2.1880138 6.7340817 -1.5836406 8.355159 -2.347399 -1.4038931
00000000: 6ced fabe ba99 93bd 6b08 0c40 997d d740
00000010: bcb4 cabf bbae 0541 c93b 16c0 c5b2 b3bf

h4.weight f4 [1, 8]
0.043519396 0.024342865 1.6187109 0.18738455 0.0704813 0.20835547 -0.026817475 0.1285496
00000000: 6541 323d b06a c73c eb31 cf3f bce1 3f3e
00000010: 8058 903d 235b 553e 52b0 dbbc 82a2 033e

loss_fn.pos_weight f8 [1]
289.43766937669375
00000000: c4b5 9ab1 0017 7240

exp_avg f4 [64, 30]
-1.2405187e-05 -7.6472625e-06 -1.3597042e-06 4.5797956e-06 -1.4535744e-05 -8.528156e-06 -1.113068e-05 -1.8306839e-05
1.1845589e-06 -3.3831202e-05 -1.1248744e-05 2.7543672e-06 -4.7671565e-05 3.2622572e-06 -3.947986e-05 4.975076e-07
-3.376262e-05 -5.8133777e-05 -1.8773155e-05 -2.5983886e-07 2.8931522e-06 2.1637063e-06 -4.4134667e-06 -5.779357e-06
-4.063621e-06 1.2736453e-05 -6.2833574e-06 7.4935624e-06 7.756588e-07 -3.694196e-06 -6.877019e-14 -1.3580023e-12
8.921111e-13 -1.7286407e-12 3.6589888e-13 -1.3334456e-12 -2.6183493e-13 -1.5247502e-12 1.0830909e-12 -2.8128728e-13
-5.988792e-13 2.4082475e-13 -3.1937032e-13 1.00432175e-13 -2.242898e-13 -3.269435e-14 -3.7829676e-13 -9.160484e-13
-4.162942e-13 7.4126886e-15 3.2322292e-13 -6.359093e-14 -1.8163509e-13 -1.2137056e-13 1.6951011e-14 3.477708e-13
-3.8488527e-14 1.8619253e-13 1.10791835e-13 -2.6938678e-14 -1.5971423e-26 1.0845622e-26 7.183519e-27 7.8355466e-27
-8.032376e-27 7.1850717e-29 -3.3278456e-27 -3.1859926e-26 1.01330416e-26 6.0173303e-28 -1.28734766e-26 -1.06407545e-26
7.5714346e-27 1.6172901e-26 -3.647396e-27 -3.402647e-27 5.129376e-27 1.01238765e-26 -6.1455304e-27 -1.12619285e-26
-4.6419144e-28 4.4746286e-27 -8.330547e-27 -8.318764e-27 -1.3130109e-26 2.8899072e-27 1.3147781e-26 -1.3227435e-26
2.976203e-27 -2.256161e-26 -5.4312993e-15 -1.5996913e-14 1.41447565e-14 -1.4489325e-14 1.7182121e-14 -1.0015193e-14
-6.565427e-15 -1.8972145e-14 -6.647449e-15 -1.2899104e-14 -2.1638529e-14 2.0272328e-14 -4.9026945e-14 -7.3998e-15
-5.5788504e-14 4.2985959e-16 -3.534215e-14 -8.274565e-14 -3.02976e-14 -4.686765e-15 -1.3069469e-15 2.0068694e-14
-9.7736735e-15 -3.8089445e-15 1.8717622e-15 8.087957e-17 -7.342938e-15 -2.7254291e-14 -2.2118607e-14 -1.2138617e-15
6e-45 -6e-45 6e-45 -6e-45 6e-45 6e-45 -6e-45 6e-45
-6e-45 -6e-45 -6e-45 -6e-45 -6e-45 -6e-45 6e-45 -6e-45
-6e-45 6e-45 -6e-45 6e-45 6e-45 6e-45 6e-45 -6e-45
-6e-45 6e-45 -6e-45 6e-45 6e-45 -6e-45 5.432515e-20 -2.0609166e-19
1.2270472e-19 -2.1276251e-19 2.1023613e-20 -2.1450074e-20 3.8940742e-20 -3.1270945e-19 -5.022628e-19 1.4981529e-20
-1.6072706e-19 1.4647027e-19 -1.4788565e-19 -5.2907622e-20 -3.4552448e-19 -1.4367654e-19 -1.5772765e-19 -3.3362844e-19
-8.0039243e-20 2.4971127e-20 -2.600527e-19 8.902738e-19 -2.8494242e-19 5.938547e-20 9.938157e-21 4.5431732e-20
8.789747e-20 3.3305028e-20 8.59955e-20 -2.6278053e-20 3.5502007e-34 -1.630231e-32 2.1457703e-32 -2.1595962e-32
1.04002186e-32 -2.2326605e-32 9.508331e-33 -6.64799e-32 -8.583067e-32 -2.5309925e-33 -5.2566103e-32 1.8424553e-32
-3.7808856e-32 1.7902738e-32 -6.0881894e-33 1.3203501e-32 -4.1827092e-32 -5.2130577e-32 -1.3433132e-32 2.752032e-32
4.063422e-32 -6.409841e-32 3.499997e-32 1.2758894e-32 -3.6497193e-33 -3.0582262e-33 -1.0480025e-32 -6.741433e-33
-2.5960846e-33 -2.9808845e-33 -4.1825206e-05 -0.00020590074 0.00013087601 -0.00028932237 4.9970033e-05 -0.00014867721
-0.00026382713 -0.00042671454 0.0001378417 -0.00024826478 -0.0006022419 0.0003670671 -0.00089798815 0.00013408961
-0.00079769746 -4.083283e-05 -0.0007954409 -0.0011080247 -0.00028988987 5.092764e-05 4.432972e-05 0.00012706555
3.551499e-05 -6.0716982e-05 -3.181281e-05 0.00016661716 -7.161519e-05 0.00017404303 0.00014500423 -4.51474e-05
-8.1014856e-05 -7.993505e-05 3.100974e-05 -1.3520621e-05 -8.891799e-05 -6.26917e-05 -8.660746e-05 -9.765786e-05
2.5959678e-05 -9.37239e-05 -0.00012963157 5.982779e-05 -0.00033089623 6.686556e-05 -4.218418e-05 -2.8002187e-05
00000000: df1f 50b7 be4c 00b7 157f b6b5 25ac 9936
00000010: 8cde 73b7 2714 0fb7 e8bd 3ab7 a391 99b7
00000020: 22fd 9e35 fae5 0db8 fdb8 3cb7 abd7 3836
00000030: f4f2 47b8 27ed 5a36 2d97 25b8 768c 0535
00000040: 569c 0db8 abd4 73b8 0b7b 9db7 fb7f 8bb4
00000050: fa27 4236 3134 1136 6417 94b6 4cec c1b6
00000060: 3d5a 88b6 a6ae 5537 a1d5 d2b6 3671 fb36
00000070: de36 5035 cee9 77b6 51db 9aa9 301f bfab
00000080: 611b 7b2b d848 f3ab 96fb cd2a 71aa bbab
00000090: 6466 93aa ea96 d6ab 766e 982b c559 9eaa
000000a0: cb91 28ab 8192 872a 1dca b3aa 3527 e229
000000b0: 2287 7caa 053e 13a9 4ff6 d4aa 1fec 80ab
000000c0: 515a eaaa fe88 0528 55f5 b52a ad31 8fa9
000000d0: c080 4caa afa6 08aa 5fae 9828 0ec7 c32a
000000e0: 4056 2da9 58a2 512a 257b f929 5da4 f2a8
000000f0: 5e2c 9e94 d6d1 5614 c548 0e14 f132 1b14
00000100: fc18 1f94 c829 b610 5dd4 8393 41c3 1d95
00000110: a0b4 4814 62b2 3e12 48fc 7e94 09c3 5294
00000120: bcf7 1514 2d2b a014 fd7c 9093 f1ca 8693
00000130: 0d32 cb13 2786 4814 1573 f393 c310 5f94
00000140: af1b 1392 2042 b113 e400 2594 25c5 2494
00000150: c808 8294 48f6 6413 9635 8214 88ff 8294
00000160: 91cc 6b13 7a70 df94 e5ae c3a7 5f16 90a8
00000170: 2dcf 7e28 1c82 82a8 46c3 9a28 ed6a 34a8
00000180: 608b eca7 cae2 aaa8 e57f efa7 9e5e 68a8
00000190: 0de7 c2a8 ce98 b628 38cc 5ca9 8e4d 05a8
000001a0: c43f 7ba9 14cc f725 ba2a 1fa9 9f53 baa9
000001b0: c172 08a9 c7db a8a7 d459 bca6 42c3 b428
000001c0: 1d11 30a8 503b 89a7 ebdf 0627 df7e ba24
000001d0: 5347 04a8 1e7c f5a8 093a c7a8 98ef aea6
000001e0: 0400 0000 0400 0080 0400 0000 0400 0080
000001f0: 0400 0000 0400 0000 0400 0080 0400 0000
00000200: 0400 0080 0400 0080 0400 0080 0400 0080
00000210: 0400 0080 0400 0080 0400 0000 0400 0080
00000220: 0400 0080 0400 0000 0400 0080 0400 0000
00000230: 0400 0000 0400 0000 0400 0000 0400 0080
00000240: 0400 0080 0400 0000 0400 0080 0400 0000
00000250: 0400 0000 0400 0080 8a45 801f 624f 73a0
00000260: 3add 1020 862f 7ba0 fa8f c61e 1997 ca9e
00000270: 78e4 371f 5197 b8a0 e73d 14a1 1d7f 8d1e
00000280: c6c0 3da0 eceb 2c20 b297 2ea0 64d9 799f
00000290: 2ff6 cba0 929f 29a0 4236 3aa0 81f0 c4a0
000002a0: c1fc bc9f 7bd8 eb1e 0e82 99a0 9861 8321
000002b0: 4833 a8a0 5038 8c1f fab9 3b1e 988b 561f
000002c0: c38a cf1f 4f47 1d1f 170d cb1f 6f30 f89e
000002d0: 89f3 eb07 f94a a98a 5cd4 de0a ea43 e08a
000002e0: 0c01 580a 4cda e78a f67a 450a 7997 ac8b
000002f0: 44d4 de8b 4244 5289 2b78 888b dd54 bf0a
00000300: 9750 448b a4e9 b90a bce4 fc89 ed1c 890a
00000310: be2d 598b b656 878b 647f 8b8a c8e4 0e0b
00000320: 25fc 520b b368 a68b f1ba 350b f57e 840a
00000330: 799a 9789 4711 7e89 5fa9 598a 9b03 0c8a
00000340: 9dac 5789 67a4 7789 796d 2fb8 0fe7 57b9
00000350: c33b 0939 31b0 97b9 ea96 5138 3ce6 1bb9
00000360: 4752 8ab9 a8b8 dfb9 9989 1039 8929 82b9
00000370: c5df 1dba ea72 c039 f766 6bba 689a 0c39
00000380: 921c 51ba eb43 2bb8 2385 50ba 243b 91ba
00000390: 5cfc 97b9 239b 5538 adee 3938 e63c 0539
000003a0: eef5 1438 5daa 7eb8 bf6e 05b8 f4b5 2e39
000003b0: 1d30 96b8 527f 3639 470c 1839 a75c 3db8
000003c0: 85e6 a9b8 cea2 a7b8 7410 0238 a0d6 62b7
000003d0: 7b79 bab8 5a79 83b8 07a1 b5b8 aacd ccb8
000003e0: fcc3 d937 a38d c4b8 b6ed 07b9 9aef 7a38
000003f0: 247c adb9 2d3a 8c38 ebee 30b8 3de6 eab7

exp_avg_sq f4 [64, 30]
0.00048394568 0.00012315996 0.0003591247 0.00035715528 0.00067679124 0.0002862021 0.00015125277 0.0002561266
2.6034004e-05 0.00066558644 8.357683e-05 1.1511919e-05 0.000107758104 6.820878e-05 0.0007378463 1.4156923e-05
0.0005011982 0.00026291626 6.844778e-05 0.00357509 6.105122e-05 7.192913e-06 0.000113979724 4.302974e-06
7.203303e-05 0.00037236355 0.00030067697 4.7306808e-06 0.00011946488 5.3535576e-05 2.198502e-06 3.6102556e-05
1.6396523e-05 6.41048e-05 5.74409e-06 3.859016e-05 3.881832e-06 5.4843797e-05 4.099771e-05 2.5568788e-06
1.2666943e-05 4.2967185e-06 8.50612e-06 2.3436805e-06 7.960135e-06 1.3842819e-06 8.565058e-06 3.804526e-05
6.6523835e-06 1.8605135e-06 3.0442238e-06 1.7885828e-06 1.8733491e-06 1.7951947e-06 1.11303e-06 2.9310177e-06
1.3967017e-06 3.736084e-06 7.2714024e-06 6.306388e-06 0.00014752625 3.7071033e-05 1.9300682e-05 0.00030704864
0.00039515537 1.9718445e-05 0.00019815091 0.0003628962 8.29503e-06 9.014847e-05 7.046499e-05 0.0003773061
0.00022269604 1.8527538e-05 0.0005471347 0.0019206941 0.00012251947 1.0241208e-05 0.00010988181 0.0007012022
0.00041116672 7.224689e-05 0.00036910904 0.000107677355 0.0005481566 1.1186191e-05 2.1198366e-06 1.6363656e-05
1.7724959e-05 0.00020873899 3.6486912e-05 9.6861004e-05 7.677516e-05 1.5170613e-05 1.6651815e-05 5.3700596e-06
3.193046e-06 5.2414256e-05 9.665194e-06 4.5721194e-05 4.7374368e-05 0.00021465437 0.00012627928 3.9907763e-06
0.00018161799 5.89467e-05 0.00045066178 0.0003468003 9.232222e-05 0.0003933409 0.00038353435 0.000106048086
8.6252614e-05 5.0030605e-05 4.760922e-05 1.1165829e-06 0.00011897103 4.0479583e-05 3.02255e-05 8.9356225e-05
0.0007423364 0.0001473163 0.0004209712 0.00043997273 0.0011319199 0.0004562475 0.000266176 0.00069437915
6.739548e-05 0.000802642 0.00025465374 0.0003895149 0.0003557746 0.00025955582 0.0017319093 2.7374674e-05
0.0010349822 0.00095318456 0.00032925123 0.0038561646 8.351985e-05 3.993923e-05 0.00018839192 0.0018630866
0.00021989929 0.00067129784 0.0003435572 8.6484106e-05 0.00017058666 6.885185e-05 8.4887324e-05 6.0682698e-05
1.7465132e-05 0.00017353406 0.00018785271 9.656422e-06 0.00010873188 0.00029886368 0.00024929046 3.067221e-05
3.7415e-05 0.00017947544 0.00010129186 1.1142386e-05 0.00015410043 0.001106061 0.000119995035 0.00013802738
7.164752e-05 0.0003850954 0.00029692857 0.0008009054 0.00028352384 6.516831e-05 0.00031152938 5.7679913e-06
8.615403e-06 8.043451e-06 1.4183972e-05 0.00012006941 0.00027620586 4.921934e-05 7.223602e-05 6.40477e-05
0.0004620464 7.812353e-05 7.000115e-06 0.000117428805 0.00018742462 0.00014015233 8.43668e-05 0.00042526814
6.6289605e-05 0.0001793109 0.00070775603 2.1366903e-05 0.0004071433 0.00062899943 0.00024886848 0.00035227663
4.513621e-05 0.00011114696 9.800977e-05 8.460845e-06 0.00012426182 0.000132124 4.397442e-06 2.6128857e-06
5.901635e-06 1.5149146e-05 5.3785487e-05 3.8664017e-05 4.282851e-05 9.613584e-05 9.4615934e-05 5.9028167e-05
2.0037203e-05 9.496468e-05 3.7497943e-05 6.0313676e-05 7.073493e-05 6.71379e-05 0.00011110517 2.196133e-05
0.00020633456 2.6277956e-05 0.00012918275 0.00025725516 5.034682e-05 0.00024364924 1.0576269e-05 8.157464e-06
1.8509394e-05 9.712446e-05 2.393006e-05 4.494807e-05 2.1305625e-05 1.1938043e-05 1.2913999e-05 6.790044e-06
2.616096e-05 1.1632495e-05 1.9892614e-05 2.6125523e-05 4.7958034e-05 1.6457594e-05 7.010568e-06 2.0747368e-05
3.9970146e-06 3.654297e-05 2.2176962e-05 3.072559e-05 3.188272e-05 7.3353417e-06 0.000119560864 3.5611283e-06
00000000: 17ba fd39 8024 0139 e748 bc39 9240 bb39
00000010: b16a 313a 650d 9639 9b99 1e39 bb48 8639
00000020: 9963 da37 c07a 2e3a f845 af38 5123 4137
00000030: 31fc e138 4f0b 8f38 076c 413a 8583 6d37
00000040: d862 033a 06d8 8939 9f8b 8f38 0f4c 6a3b
00000050: a008 8038 a75a f136 6608 ef38 4462 9036
00000060: 7010 9738 ca39 c339 2ea4 9d39 3dbc 9e36
00000070: 3889 fa38 638b 6038 fa89 1336 d36c 1738
00000080: 448b 8937 0170 8638 5bbd c036 dedb 2138
00000090: af40 8236 1408 6638 f5f4 2b38 d896 2b36
000000a0: 1b84 5437 882c 9036 82b5 0e37 2048 1d36
000000b0: 858c 0537 90cb b935 a5b2 0f37 c992 1f38
000000c0: 8a37 df36 c2b6 f935 5e4b 4c36 3d0f f035
000000d0: c96f fb35 6cf2 f035 6b63 9535 80b2 4436
000000e0: 4e76 bb35 6fb9 7a36 dffc f336 769b d336
000000f0: 47b1 1a39 b87c 1b38 e6e7 a137 5ffb a039
00000100: db2c cf39 0a69 a537 bbc6 4f39 1a43 be39
00000110: e22a 0b37 170e bd38 9ac6 9338 2bd1 c539
00000120: 8383 6939 966b 9b37 976d 0f3a cdbf fb3a
00000130: 9278 0039 a7d1 2b37 5970 e638 e2d0 373a
00000140: dd91 d739 4183 9738 fa84 c139 d7d0 e138
00000150: 2bb2 0f3a 53ac 3b37 8442 0e36 af44 8937
00000160: 0fb0 9437 f2e0 5a39 8609 1938 db21 cb38
00000170: 5a02 a138 4985 7e37 80af 8b37 7630 b436
00000180: 1d48 5636 61d7 5b38 b127 2237 c2c4 3f38
00000190: d7b3 4638 d814 6139 d669 0439 82e8 8536
000001a0: b570 3e39 8a3d 7738 cd46 ec39 c0d2 b539
000001b0: 1d9d c138 5239 ce39 1c15 c939 2266 de38
000001c0: 85e2 b438 f4d7 5138 03b0 4738 7fdd 9535
000001d0: 1680 f938 9fc8 2938 c48c fd37 c264 bb38
000001e0: 5a99 423a eb78 1a39 ccb5 dc39 24ac e639
000001f0: ee5c 943a 8134 ef39 8a8d 8b39 ff06 363a
00000200: ac56 8d38 6568 523a 0c83 8539 ce37 cc39
00000210: 4287 ba39 fe14 8839 3c01 e33a aaa2 e537
00000220: 3da8 873a 22df 793a 5a9f ac39 b5b7 7c3b
00000230: 6127 af38 6c84 2738 128b 4539 d032 f43a
00000240: c494 6639 09fa 2f3a 781f b439 cd5e b538
00000250: 82df 3239 8e64 9038 8905 b238 8d85 7e38
00000260: 1682 9237 b2f6 3539 54fa 4439 0402 2237
00000270: fc06 e438 ceb0 9c39 33b3 8239 09a6 0038
00000280: 0dee 1c38 9231 3c39 a76c d438 2ff0 3a37
00000290: 0596 2139 40f9 903a d8a5 fb38 71bb 1039
000002a0: 7841 9638 a1e6 c939 14ad 9b39 daf3 513a
000002b0: eda5 9439 f8aa 8838 c454 a339 ab8a c136
000002c0: e08a 1037 5cf2 0637 b2f7 6d37 c6cd fb38
000002d0: b9cf 9039 dd70 4e38 6b7d 9738 5951 8638
000002e0: d13e f239 40d6 a338 88e2 ea36 1c44 f638
000002f0: 6a87 4439 dbf5 1239 15ee b038 86f6 de39
00000300: f604 8b38 6705 3c39 b488 393a 133d b337
00000310: d975 d539 70e3 243a 907a 8239 c5b1 b839
00000320: a350 3d38 9217 e938 988a cd38 0df3 0d37
00000330: 474c 0239 c48a 0a39 bd8d 9336 0959 2f36
00000340: a906 c636 1629 7e37 ba97 6138 2c2b 2238
00000350: c3a2 3338 899c c938 8b6c c638 0395 7738
00000360: 9115 a837 c627 c738 1c47 1d38 51f9 7c38
00000370: 8757 9438 63cc 8c38 2201 e938 9939 b837
00000380: 835b 5839 7b6f dc37 3b75 0739 34e0 8639
00000390: 7d2b 5338 187c 7f39 bb70 3137 0bdc 0837
000003a0: 9f44 9b37 4caf cb38 6abd c837 9f86 3c38
000003b0: 7bb9 b237 8149 4837 34a9 5837 09d6 e336
000003c0: 3c74 db37 3029 4337 10df a637 2228 db37
000003d0: 8c26 4938 6a0e 8a37 523c eb36 a20a ae37
000003e0: 181e 8636 b745 1938 aa08 ba37 5adf 0038
000003f0: cfb9 0538 1b22 f636 c0bc fa38 b8fb 6e36

exp_avg f4 [64]
1.1934815e-05 7.8099094e-14 -1.0513707e-26 7.1675945e-15 6e-45 7.61839e-20 8.64201e-33 0.0001630059
5.8494552e-05 -6e-45 -6e-45 -6e-45 4.8e-43 2.2775431e-35 -3.096314e-34 -1.4036625e-11
-1.1703555e-18 6e-45 -4.0864848e-06 1.2982303e-10 -6.920119e-24 0.000331771 -5.1048354e-26 -6e-45
-2.453636e-23 -6.4991077e-06 0.00018467782 6.430073e-08 -1.8260343e-05 1.924052e-05 -1.2177132e-07 -1.0177857e-27
-0.00025207337 -1.4833134e-14 -3.3205534e-26 -6e-45 -4.571e-42 -4.024832e-23 -2.5958216e-23 -6e-45
-6e-45 -6e-45 0.00012854763 -4.3011735e-23 2.3603663e-09 -1.0803472e-14 -6e-45 7.853734e-05
-3.9987155e-14 0.0003283586 -9.516057e-05 2.1256657e-28 -6e-45 -1.2663732e-11 -2.5500489e-23 5.9040094e-19
0.0001484787 -6e-45 0.00022513075 1.1064262e-06 2.767545e-06 -1.3863056e-35 -8.52e-43 -6e-45
00000000: a43b 4837 10dd af29 d43e 5094 b21e 0128
00000010: 0400 0000 58e2 b31f ce7c 330a 90ec 2a39
00000020: 0c58 7538 0400 0080 0400 0080 0400 0080
00000030: 5701 0000 9f30 f205 0ec9 cd87 57ef 76ad
00000040: c8b6 aca1 0400 0000 a31e 89b6 efbd 0e2f
00000050: c5da 0599 8df1 ad39 7ac7 7c95 0400 0080
00000060: 164d ed99 e912 dab6 13a6 4139 b315 8a33
00000070: ca2d 99b7 b466 a137 3fc0 02b4 4b46 a192
00000080: b728 84b9 e19a 85a8 046d 2495 0400 0080
00000090: be0c 0080 02a1 429a 6e0d fb99 0400 0080
000000a0: 0400 0080 0400 0080 beca 0639 f3fd 4f9a
000000b0: 0134 2231 399e 42a8 0400 0080 6ab4 a438
000000c0: 0d16 34a9 8c27 ac39 f190 c7b8 e6ba 8611
000000d0: 0400 0080 61c8 5ead 27a0 f699 6f41 2e21
000000e0: f3b0 1b39 0400 0080 1311 6c39 8480 9435
000000f0: 10ba 3936 d46a 9385 6002 0080 0400 0080

exp_avg_sq f4 [64]
0.000493869 1.4414306e-06 0.00033697663 0.00011072245 0.00062996446 0.00019443018 0.0001330593 4.6587887e-05
2.5479612e-05 3.6680078e-07 5.710594e-08 2.877363e-07 6.1521274e-07 6.763049e-08 8.775927e-06 0.00012883783
7.4011994e-05 2.2763967e-08 1.6180915e-05 2.2313068e-06 7.566997e-06 0.00038979805 2.8147171e-05 2.8022332e-05
8.354214e-07 1.8265067e-05 3.6731195e-05 5.699759e-07 7.5836244e-05 8.298498e-05 0.00068144104 1.2641978e-07
7.487911e-05 1.4336662e-06 2.0295747e-06 3.3357082e-05 2.4075474e-05 4.728993e-06 6.288496e-05 3.7620307e-06
4.812218e-05 4.188117e-07 1.1486248e-06 0.00012328156 5.563292e-07 0.0006140814 3.5094477e-08 5.5335047e-05
2.538842e-05 0.000175391 7.129481e-05 2.7919145e-06 4.83888e-06 6.3716184e-06 0.0010900805 0.0003792887
2.1986973e-05 6.020725e-05 3.5781257e-05 0.0003467487 2.1632056e-06 4.8552767e-05 4.2043317e-07 4.0817686e-05
00000000: fd76 013a 2e77 c135 3dac b039 aa33 e838
00000010: 3324 253a f4df 4b39 d585 0b39 5d67 4338
00000020: 0dbd d537 b7ec c434 a544 7533 2d7a 9a34
00000030: 1925 2535 413c 9133 523c 1337 a418 0739
00000040: e336 9b38 7e8a c332 40bc 8737 8fbd 1536
00000050: 02e8 fd36 cf5d cc39 971d ec37 8011 eb37
00000060: b941 6035 ef37 9937 d20f 1a38 7200 1935
00000070: 460a 9f38 3908 ae38 bca2 323a 01be 0734
00000080: 6b08 9d38 656c c035 d433 0836 e5e8 0b38
00000090: b0f5 c937 bead 9e36 1be1 8338 3277 7c36
000000a0: ccd6 4938 0bd9 e034 732a 9a35 2445 0139
000000b0: a756 1535 4efa 203a c9ba 1633 8e17 6838
000000c0: 38f9 d437 2ae9 3739 1c84 9538 ba5c 3b36
000000d0: aa5d a236 c9cb d536 08e1 8e3a 44db c639
000000e0: aa70 b837 0b87 7c38 d513 1638 d3cb b539
000000f0: 972b 1136 23a5 4b38 e5b7 e134 a833 2b38

exp_avg f4 [32, 64]
6e-45 6e-45 6e-45 3.3020044e-17 6e-45 6e-45 6e-45 1.38816494e-14
1.707025e-11 6e-45 6e-45 6e-45 6e-45 6e-45 6e-45 4.0921167e-13
6e-45 6e-45 6e-45 6e-45 6e-45 1.1505912e-15 6e-45 6e-45
-6e-45 1.2587147e-23 6.6142224e-11 6e-45 3.8084774e-15 5.527875e-11 2.933e-42 6e-45
2.3901516e-11 -6e-45 -6e-45 6e-45 -6e-45 6e-45 6e-45 6e-45
6e-45 6e-45 -6e-45 1.64493e-40 7.7286117e-38 6e-45 -6e-45 1.3059563e-11
6e-45 3.4723797e-11 3.388055e-11 6e-45 6e-45 8.314199e-12 -6e-45 -6e-45
1.0546638e-11 6e-45 1.4724277e-11 6e-45 4.267223e-12 6e-45 -6e-45 6e-45
-3.3362814e-25 -1.7258062e-25 2.5716365e-28 3.4e-44 6e-45 6e-45 3.220857e-33 5.370463e-17
7.796626e-33 6e-45 6e-45 -6e-45 6e-45 -3.3450068e-36 -4.0548325e-35 -2.3362883e-35
-6e-45 -6e-45 9.186214e-18 -2.2e-44 -1.3980474e-25 2.66481e-17 2.0315106e-28 6e-45
-7.604991e-25 8.1502064e-18 4.2678026e-17 1.125111e-28 1.46e-43 1.9357904e-17 -8.1e-44 -1.3459863e-31
3.4072943e-17 1.24743e-17 3.2627203e-28 -6e-45 -4.02e-43 -1.3012142e-25 -9.846666e-25 -6e-45
6e-45 6e-45 6e-45 -1.519451e-25 2.395146e-28 6e-45 6e-45 -3.1469194e-24
-1.37e-43 3.919383e-18 3.3505606e-17 -4.4579515e-30 -6e-45 -3.62e-43 -2.8115146e-25 6e-45
7.46155e-17 -6e-45 2.940445e-28 1.01236145e-17 2.1994833e-17 -6.144904e-36 -6e-45 6e-45
-6e-45 -6e-45 -6e-45 -6e-45 -6e-45 -6e-45 -6e-45 -1.6655904e-27
-6e-45 -6e-45 -6e-45 -6e-45 -6e-45 -6e-45 -6e-45 -6e-45
-6e-45 -6e-45 -6e-45 -6e-45 -6e-45 -2.4968728e-27 -6e-45 -6e-45
-6e-45 -3.7164014e-29 -6e-45 -6e-45 -6e-45 -6e-45 -6e-45 -2.3573884e-29
-2.151615e-27 -6e-45 -6e-45 -6e-45 -6e-45 -6e-45 -6e-45 -6e-45
-6e-45 -6e-45 -6e-45 -6e-45 -6e-45 -6e-45 -6e-45 -1.6798173e-27
-6e-45 -6e-45 -1.0735881e-27 -7.8171787e-28 -6e-45 -6e-45 -3.0010782e-28 -6e-45
-6e-45 -6e-45 -6e-45 -1.0462974e-27 -3.0432211e-28 -6e-45 -6e-45 -6e-45
-6.22328e-15 -6e-45 -6e-45 1.0081589e-16 -6e-45 -1.0546644e-18 -6e-45 -6.420287e-07
-2.93267e-07 -6e-45 -6e-45 -6e-45 -6e-45 -6e-45 -6e-45 -2.7960262e-13
-6e-45 -6e-45 -1.554e-42 -6e-45 -8.45e-43 -1.7157896e-07 -6e-45 -6e-45
-5.9e-44 -1.8229756e-18 -8.4886165e-07 -6e-45 -1.4437519e-08 -4.955911e-07 -3.4894786e-08 -6e-45
-4.2200205e-07 -6e-45 -6e-45 -6e-45 -6.9e-44 -4e-44 -6e-45 -6e-45
-6e-45 -6e-45 -6e-45 -6e-45 -6e-45 -6.480406e-15 -6e-45 -3.0502753e-07
-1.529e-42 -4.2586157e-07 -3.5196322e-07 -6e-45 -6e-45 -5.680854e-12 -6e-45 -1.1483252e-18
-2.1972302e-07 -6e-45 -1.0060666e-11 -3e-44 -2.9156688e-12 -6e-45 -6e-45 -6e-45
00000000: 0400 0000 0400 0000 0400 0000 3047 1824
00000010: 0400 0000 0400 0000 0400 0000 cf11 7a28
00000020: c926 962d 0400 0000 0400 0000 0400 0000
00000030: 0400 0000 0400 0000 0400 0000 9e5d e62a
00000040: 0400 0000 0400 0000 0400 0000 0400 0000
00000050: 0400 0000 53d1 a526 0400 0000 0400 0000
00000060: 0400 0080 8878 7319 c372 912e 0400 0000
00000070: 0137 8927 571e 732e 2d08 0000 0400 0000
00000080: 6e3d d22d 0400 0080 0400 0080 0400 0000
00000090: 0400 0080 0400 0000 0400 0000 0400 0000
000000a0: 0400 0000 0400 0000 0400 0080 8aca 0100
000000b0: 9064 d201 0400 0000 0400 0080 0bbf 652d
000000c0: 0400 0000 85b7 182e 1c02 152e 0400 0000
000000d0: 0400 0000 d343 122d 0400 0080 0400 0080
000000e0: d689 392d 0400 0000 2084 812d 0400 0000
000000f0: ba23 962c 0400 0000 0400 0080 0400 0000
00000100: 7d81 ce96 fba4 5596 30ff a211 1800 0000
00000110: 0400 0000 0400 0000 07ca 8509 3cab 7724
00000120: f9ed 210a 0400 0000 0400 0000 0400 0080
00000130: 0400 0000 e647 8e84 8597 5786 d16f f885
00000140: 0400 0080 0400 0080 ab74 2923 1000 0080
00000150: e411 2d96 0cc9 f523 25c3 8011 0400 0000
00000160: f25c 6b97 4358 1623 52d1 4424 f09f 0e11
00000170: 6800 0000 8f8b b223 3a00 0080 11b8 2e8c
00000180: 3b22 1d24 371c 6623 aacc ce11 0400 0080
00000190: 1f01 0080 2015 2196 aa5e 9897 0400 0080
000001a0: 0400 0000 0400 0000 0400 0000 5319 3c96
000001b0: 77cf 9711 0400 0000 0400 0000 297b 7398
000001c0: 6200 0080 8799 9022 7084 1a24 04d6 b48e
000001d0: 0400 0080 0201 0080 3a06 ae96 0400 0000
000001e0: 380d ac24 0400 0080 735f ba11 6bbf 3a23
000001f0: d5dd ca23 0ab0 0285 0400 0080 0400 0000
00000200: 0400 0080 0400 0080 0400 0080 0400 0080
00000210: 0400 0080 0400 0080 0400 0080 30f6 0393
00000220: 0400 0080 0400 0080 0400 0080 0400 0080
00000230: 0400 0080 0400 0080 0400 0080 0400 0080
00000240: 0400 0080 0400 0080 0400 0080 0400 0080
00000250: 0400 0080 99d2 4593 0400 0080 0400 0080
00000260: 0400 0080 a671 3c90 0400 0080 0400 0080
00000270: 0400 0080 0400 0080 0400 0080 4d11 ef8f
00000280: f077 2a93 0400 0080 0400 0080 0400 0080
00000290: 0400 0080 0400 0080 0400 0080 0400 0080
000002a0: 0400 0080 0400 0080 0400 0080 0400 0080
000002b0: 0400 0080 0400 0080 0400 0080 be16 0593
000002c0: 0400 0080 0400 0080 e81d aa92 7dbc 7792
000002d0: 0400 0080 0400 0080 4737 be91 0400 0080
000002e0: 0400 0080 0400 0080 0400 0080 ddca a592
000002f0: 16e3 c091 0400 0080 0400 0080 0400 0080
00000300: a037 e0a7 0400 0080 0400 0080 3377 e824
00000310: 0400 0080 18a4 9ba1 0400 0080 e057 2cb5
00000320: 4f72 9db4 0400 0080 0400 0080 0400 0080
00000330: 0400 0080 0400 0080 0400 0080 fc66 9daa
00000340: 0400 0080 0400 0080 5504 0080 0400 0080
00000350: 5b02 0080 443b 38b4 0400 0080 0400 0080
00000360: 2a00 0080 0983 06a2 54dd 63b5 0400 0080
00000370: e108 78b2 c308 05b5 39df 15b3 0400 0080
00000380: 858f e2b4 0400 0080 0400 0080 0400 0080
00000390: 3100 0080 1d00 0080 0400 0080 0400 0080
000003a0: 0400 0080 0400 0080 0400 0080 0400 0080
000003b0: 0400 0080 327b e9a7 0400 0080 aac2 a3b4
000003c0: 4304 0080 f8a1 e4b4 75f5 bcb4 0400 0080
000003d0: 0400 0080 95e0 c7ac 0400 0080 8076 a9a1
000003e0: 01ed 6bb4 0400 0080 36fd 30ad 1500 0080
000003f0: 052c 4dac 0400 0080 0400 0080 0400 0080
