lightning_logs/wide_e50_lr0.008_b512/version_0/checkpoints/epoch=49-step=20900.ckpt (torch, 384357 bytes, 27 tensors)

input.weight f4 [128, 30]
000000 37 0d 10 3f dc 74 11 3e cc 62 7d bf 25 42 06 3f
       0.56270164 0.14204735 -0.9897888 0.5244468
000010 2b f3 99 bf 8d 58 93 3e 51 c0 94 3e cb 59 12 bf
       -1.2027334 0.28778496 0.29052976 -0.57168263
000020 72 d9 4a 3f fa 00 0e bf b6 e9 5b be 50 ba 83 bd
       0.79238045 -0.5547024 -0.21475872 -0.06432021
000030 c8 dd df 3e ed 80 21 3f 41 83 ce 3e 22 ab 32 3e
       0.43723893 0.6308735 0.40334514 0.17448094
000040 92 b0 34 3e a0 8f d4 3e 82 02 01 3f c3 22 78 be
       0.17645481 0.41515827 0.5039445 -0.2423201
000050 27 e3 9a be e7 50 05 bf ff 3c 1f 3e c1 32 24 3f
       -0.30251428 -0.5207657 0.15550612 0.64139944
000060 3e 63 07 bf 04 12 7f be 03 0b 2b 3f 2e 32 04 3f
       -0.52885807 -0.24909216 0.6681368 0.5163907
000070 eb b4 c3 bf 68 3d 27 3f b7 a9 58 3f 00 a2 f3 3e
       -1.5289587 0.65328074 0.84633964 0.47584534
000080 9c a6 e2 3e 24 7a 4c 3e fc b3 9c bf 91 a9 8b 3e
       0.44267738 0.19968468 -1.2242427 0.27277806
000090 b3 16 fd be 1f 14 1a 3f 50 00 a5 3f 16 78 24 3d
       -0.4943138 0.6018695 1.289072 0.040153585
0000a0 51 9d 6c 3e 73 28 ec 3e 7e 11 62 3f fa 22 03 3f
       0.23106886 0.4612461 0.8830794 0.51225245
0000b0 d1 b2 7a 3f a9 bb 33 3f ce 10 96 3e a0 4b 91 3e
       0.979291 0.7020822 0.29309696 0.2837801
0000c0 06 a2 66 3e 30 cd 35 bf 91 b8 42 be 7d 17 d0 3e
       0.22522745 -0.71016216 -0.19015719 0.4064292
0000d0 7c 13 3e 3e f0 4a 3b 3e d5 11 7f bf 8f b4 10 bf
       0.1856212 0.18290305 -0.99636585 -0.5652551
0000e0 2d be 02 3f d4 d9 7a 3f fa f5 26 3e 80 41 d7 3e
       0.51071435 0.9798863 0.1630477 0.4204216
0000f0 e3 09 9a 3e 74 37 0d be 38 ba 4d 3d 3f 54 02 3f
       0.30085668 -0.13790685 0.05022642 0.509098
000100 43 8c e5 be a8 0b b0 3c 2d e7 20 3d 65 7e 9a 3e
       -0.44833574 0.021489933 0.039282966 0.30174556
000110 e6 03 87 3d 3d 50 92 be ce a5 e9 3e 5a 68 1f be
       0.065925404 -0.28576842 0.4563431 -0.1556715
000120 3f 7e c3 bd dd a0 0b be 7a 66 1b 3f e5 1d 12 3e
       -0.09545564 -0.13635583 0.6070324 0.14269216
000130 b1 8c 34 3d e1 22 2b 3e c7 7c 9a 3d e1 83 86 be
       0.044079486 0.16712524 0.07543331 -0.2627249
000140 17 54 aa 3d f1 a4 8a be d0 ea 76 bd ab b1 80 3e
       0.0831682 -0.27078965 -0.06028253 0.2513555
000150 b8 1c fe 3d 48 37 88 be 4b 4a e2 3d 94 05 f1 3e
       0.124078214 -0.26604676 0.110493265 0.47074568
000160 2f 88 20 bd d8 8b 01 3f 8d 62 f4 3e 36 67 9a 3f
       -0.039192375 0.5060401 0.47731438 1.2062747
000170 bd 58 1a 3f 7f aa 5b 3f 93 92 87 3d 36 5a 0d bd
       0.60291654 0.8580703 0.06619754 -0.03450986
000180 59 8d 5e 3e 2c be f4 be 68 20 bb 3f 78 4c ba 3f
       0.21733607 -0.4780134 1.4619265 1.4554586
000190 d7 08 71 3e ff 54 b9 bf f8 46 dc 3f f8 aa dc bc
       0.23538528 -1.4479064 1.7209158 -0.026936993
0001a0 f4 58 7a 3f 6e 89 ee 3e bf 2c 70 3e e0 23 26 3e
       0.9779198 0.46589226 0.2345457 0.16224623
0001b0 40 09 b0 3f 87 59 14 bf 2c 85 00 be e8 68 30 bf
       1.3752823 -0.5794911 -0.12550801 -0.68910074
0001c0 e1 6d b7 3d da f0 54 3e 1a 5e 54 3e fd 99 4c 3e
       0.089565046 0.20795003 0.20739022 0.19980617
0001d0 0b ce 33 bf 2d 9d 25 3f 46 79 b5 3e c9 5f 36 be
       -0.7023627 0.64692956 0.35444087 -0.17809977
0001e0 93 0b 1f 3f 14 a3 d9 be a2 f1 b5 3e 71 fa 83 3f
       0.62127036 -0.4250723 0.35535914 1.0310804
0001f0 81 18 8f bf 4a 67 63 3e 88 d5 c7 be 44 b1 02 3d
       -1.1179353 0.2220737 -0.390301 0.031907335
000200 a0 e5 66 3f 7e 4a 6f bf 60 cc a3 bd ba 38 58 3e
       0.9019413 -0.9347304 -0.07997966 0.2111539
000210 5e fa 37 3f 3b 27 9e 3f b7 95 6a 3f ed da bd 3f
       0.71866405 1.2355722 0.91634697 1.4832436
000220 27 36 ca bd fa 85 ae 3c 92 aa 77 3e d3 11 d9 be
       -0.0987361 0.02130412 0.24186161 -0.4239641
000230 f6 a3 34 3e ad 87 19 3e 24 ac 43 3e 64 7b 95 be
       0.17640671 0.14993162 0.19108635 -0.29195702
000240 15 5d 39 3d ce 94 e3 3e 79 18 b7 3f a1 6a f3 be
       0.045254786 0.44449466 1.4304343 -0.4754229
000250 33 94 8e bd e9 cd b5 3e 3a 6d 95 3e 3c 15 a9 3e
       -0.069618605 0.3550866 0.29184896 0.33024013
000260 a4 9f 81 3e 67 77 9f 3e 89 d4 e1 be 01 5f 81 be
       0.2531711 0.31145784 -0.44107464 -0.25267795
000270 ad 2d f1 3e db 07 0f bf 9f b5 0d 3f 2d 40 eb bc
       0.4710516 -0.5587136 0.55355257 -0.028717125
000280 86 27 6b 39 b3 c5 86 be 51 b2 24 3f aa 88 07 3f
       0.0002242607 -0.26322708 0.6433459 0.5294291
000290 34 a5 4f 3e ae cd 27 3f a6 d1 64 bb da 57 98 3e
       0.20277864 0.6554822 -0.0034915 0.29754525
0002a0 e5 2a f5 be 6a b4 79 3e 94 9e fa bd 0e e4 8a be
       -0.47884288 0.24385229 -0.122372776 -0.27127117
0002b0 eb b5 9c bd 3b c9 f8 3d 34 80 8f 3e b5 36 26 3e
       -0.076518856 0.12147757 0.280275 0.16231807
0002c0 7b 6d 72 3e 9d c5 7b be 18 1c 47 bf d4 ff be 3d
       0.23674576 -0.24587102 -0.7777724 0.09326139
0002d0 90 21 fc 3e db 97 89 3d f3 da 36 3f 95 c0 b0 3f
       0.49244356 0.06718417 0.7142784 1.3808771
0002e0 56 61 c5 bf 55 24 77 3e 0f f2 27 3e 22 bf 6e 3e
       -1.542033 0.24134953 0.16400932 0.23315099
0002f0 19 01 22 3f 95 ff 58 bf db 5e 62 be b2 25 23 bf
       0.63282925 -0.8476499 -0.22106497 -0.63729393
000300 0f b4 d1 3e de b8 7a 3f 65 b8 1e 3f aa 2b 81 be
       0.40957686 0.97938335 0.62000114 -0.25228626
000310 76 de 1e 3d fb 1d c4 3d bc a9 ad be 45 32 5c be
       0.038786374 0.09576031 -0.3391856 -0.21503551
000320 d3 62 26 3e 40 9b a6 3e 07 2e 8c be af af 49 3d
       0.16248636 0.3254032 -0.27378866 0.04923981
000330 c0 3e 3c 3e 32 e9 e7 be 1c 9a 40 3e d5 95 3e 3f
       0.18383312 -0.452951 0.18808788 0.74447376
000340 4d a1 e3 3f 5a 0e 27 3f 2e 1f 14 3f 66 6c 80 3d
       1.77836 0.65256274 0.57860076 0.06270675
000350 e5 d5 df bd 73 4e 8b 3f 95 cd eb bf 23 89 28 3f
       -0.10929469 1.0883316 -1.8422114 0.65834254
000360 36 3d 05 3f b7 cf 86 3e 91 75 77 bf b6 53 52 bf
       0.52046525 0.2633035 -0.9666377 -0.8215898
000370 8e 93 e6 3e 9b 38 9d bf 18 51 56 3f cc 00 2e 3f
       0.4503445 -1.22829 0.8371749 0.67969966
000380 49 6e 5b 3f 1d 0b 2b 3e 3b d5 5e 3e 3c e0 22 3f
       0.85715157 0.16703458 0.21761028 0.63623405
000390 3c 90 0c c0 33 c6 70 bf 0b c4 dd 3e 87 c6 9e be
       -2.1963034 -0.9405243 0.4331363 -0.3101084
0003a0 82 ba aa be 3a 63 41 bf c2 2d 71 3e c2 1e 2b 3f
       -0.3334542 -0.7554203 0.23552611 0.6684381
0003b0 30 45 08 3f 9f 0c d2 3e 2b 53 8d 3f ba 7d 64 3e
       0.5323057 0.41025254 1.1041006 0.22313586
0003c0 c4 4c 4d 3e aa 76 51 3f 3d f6 1d bf 8c d4 b9 be
       0.20048815 0.8182169 -0.61703855 -0.36294973
0003d0 41 1b 52 bf 1e 26 d9 3e 55 25 0f bf b0 05 55 bf
       -0.82072836 0.42411894 -0.5591634 -0.83211803
0003e0 72 01 34 3f a0 fc f9 3e e0 2d 8e 3f 00 bd 6b 3e
       0.70314705 0.4882555 1.110775 0.23021317
0003f0 4a 4c 37 3e 1d b3 95 3e ef a0 be 3f 1f 8b 8d bf
       0.17900196 0.29238215 1.4892863 -1.1058081

input.bias f4 [128]
000000 d1 05 1f c0 68 09 03 c0 c3 dc 0a c0 99 76 ae bf
       -2.48473 -2.047449 -2.1697242 -1.3629943
000010 0a a5 02 c0 86 ae 01 c0 52 ab 10 c0 25 15 03 c0
       -2.0413232 -2.026277 -2.2604566 -2.0481656
000020 19 7e 93 bf 7b 9e c3 3f 68 9e 85 40 d9 d6 1c c0
       -1.1522857 1.5282739 4.1755867 -2.4506133
000030 7e 47 1a c0 ce 1f 01 c0 e2 aa fc bf 17 91 b8 bf
       -2.4106135 -2.0175662 -1.9739649 -1.4419278
000040 46 3c 09 40 c4 50 99 bf 4b e0 fc bf 0f a3 ac bf
       2.1443038 -1.1977773 -1.9755949 -1.3487262
000050 fd 1b 90 3f 9b 84 f4 bf 62 9e 04 c0 fe 59 95 bf
       1.1258541 -1.9102968 -2.072167 -1.1668088
000060 43 f7 b4 bf c2 10 4a bf 39 30 aa 3d b7 60 cb bf
       -1.4137958 -0.7893182 0.08309979 -1.588889
000070 e5 7d 15 c0 ab 2f 8c bf 35 7c c8 bf c4 2e c8 bf
       -2.335809 -1.0952047 -1.5662905 -1.5639272
000080 4a 08 03 c0 a5 52 a0 bf d1 83 94 bf 54 20 c1 bf
       -2.047381 -1.2525221 -1.1602727 -1.5087991
000090 85 9a 04 c0 87 d6 97 bf b6 45 d7 bf 55 9b 00 c0
       -2.0719311 -1.1862344 -1.6818149 -2.0094807
0000a0 ac 13 bf bf 3b 3a b6 bf 15 63 2a c0 b4 30 c4 bf
       -1.4927878 -1.423652 -2.6622975 -1.5327363
0000b0 4e fd ec bf 37 7a c1 bf 48 04 ee bf 4c 68 20 c0
       -1.8514802 -1.5115422 -1.8595057 -2.5063658
0000c0 7c 14 c6 bf ed f2 11 c0 35 67 5e bf 23 df 10 c0
       -1.5475001 -2.280452 -0.8687623 -2.2636192
0000d0 f1 70 0d c0 a6 e3 d5 bf 78 d3 01 c0 04 67 aa bf
       -2.2100184 -1.6710098 -2.028532 -1.3312688
0000e0 05 95 b9 bf 52 b3 1b c0 b8 bf 32 3f d5 e8 1c c0
       -1.4498602 -2.4328198 0.6982379 -2.451711
0000f0 78 4b f6 bf 2f 50 e1 bf 75 fb cf bf cc 6a db bf
       -1.9241781 -1.7602595 -1.6248614 -1.7141967
000100 c7 91 e8 bf fe 92 17 c0 f1 27 d3 bf 50 fc cb bf
       -1.8169488 -2.3683467 -1.6496564 -1.5936375
000110 08 69 05 c0 a0 02 0f c0 80 d6 fa 3a 8a ce 20 3f
       -2.0845356 -2.2345352 0.0019137412 0.62815154
000120 a9 ad d5 bf fa 40 00 c0 ab 70 1d c0 61 0e a8 bf
       -1.6693622 -2.0039659 -2.4600017 -1.3129388
000130 cb d8 c0 bf 8f 06 5f bf c1 72 c9 bf b9 05 ef bf
       -1.506616 -0.8711938 -1.5738145 -1.8673621
000140 62 a0 0c c0 03 10 01 bf f9 d1 09 c0 e7 d0 64 bf
       -2.197289 -0.50415057 -2.1534407 -0.8938126
000150 0b 15 13 c0 7a 19 ca bf a2 51 19 c0 a2 11 c9 bf
       -2.2981594 -1.5789025 -2.3956075 -1.5708506
000160 16 e8 e3 bf 6b 67 0c c0 af ae 9e bf f6 f6 fa bf
       -1.7805202 -2.1938121 -1.2397059 -1.9606616
000170 e1 93 00 c0 30 54 0d c0 bd b4 04 c0 6c bc 1c c0
       -2.0090258 -2.2082634 -2.0735314 -2.4490004
000180 77 47 18 c0 b2 86 11 c0 a7 30 ec bf 94 d6 f8 bf
       -2.3793619 -2.2738461 -1.8452348 -1.9440484
000190 18 e7 5e 3f 21 a8 3c 40 c2 9e c9 bf cb b5 1e c0
       0.8707137 2.9477618 -1.5751574 -2.4798458
0001a0 13 4a 12 c0 04 7a f2 bf 47 e1 de bf fd e6 af bf
       -2.2857711 -1.8943486 -1.7412499 -1.3742367
0001b0 b7 85 ef bf 71 f2 f7 bf db 88 db bf 52 fd be bf
       -1.8712682 -1.9370862 -1.715114 -1.4921057
0001c0 e4 ea 0f c0 fb 58 bb bf 2a 19 07 c0 c0 26 db bf
       -2.2487116 -1.463653 -2.110911 -1.71212
0001d0 98 5f 05 c0 7e 0f e1 bf b5 ad d1 be c0 8b d9 bf
       -2.0839596 -1.7582853 -0.4095284 -1.6995773
0001e0 83 71 c6 bf ed 22 01 c0 e8 4d f1 bf 62 8f e1 bf
       -1.5503391 -2.0177567 -1.88519 -1.7621882
0001f0 63 21 d2 bf 0f c9 cc bf ff 0a b7 bf 8c cf e4 bf
       -1.6416439 -1.5998858 -1.4300231 -1.7875838

h1.weight f4 [128, 128]
000000 7e c1 be bd 4a 67 eb be e5 0e 45 3c fc 9d ab bd
       -0.093142495 -0.4597724 0.012027477 -0.083797425
000010 ac 65 ad be e8 41 83 be 9b c8 78 3e 0c 1a 57 be
       -0.33866632 -0.2563622 0.24295275 -0.2100603
000020 bb 23 db be 46 49 d7 be 91 d2 fb be 2e a4 ed bd
       -0.42800698 -0.4204809 -0.49184087 -0.116035804
000030 dd d1 1b be b0 90 60 be 09 54 8a bd c6 e0 00 be
       -0.15216775 -0.21930194 -0.0675431 -0.12585744
000040 ba f9 37 bf ed 01 8d bd e5 71 6f 3e d6 9b 4b bd
       -0.7186543 -0.06885133 0.23383291 -0.049709164
000050 38 96 a4 be ce fe f6 bd d0 76 3d bc 92 62 fa bd
       -0.32145858 -0.12060319 -0.011563972 -0.12225832
000060 a0 bc cf be 27 ec 74 3d 9d 87 d9 be c0 ba 44 be
       -0.40573597 0.059795525 -0.42486277 -0.19211864
000070 62 a8 a5 be 6c 85 9e bd c7 62 7c be c8 78 2d 3c
       -0.32355028 -0.07740292 -0.24647056 0.0105878785
000080 d1 ef 7b bd e2 ed c4 3d c0 f2 de be 6f 39 46 be
       -0.061508004 0.09615685 -0.4354458 -0.19357847
000090 4b c0 2b be ae 3c 70 be 6a 38 28 3d 1a fe 03 bd
       -0.16772573 -0.23460647 0.041069426 -0.032224752
0000a0 45 b4 d9 bd 17 cc 01 bf 14 c5 e4 be 35 0d 85 3d
       -0.10630087 -0.5070204 -0.4468161 0.0649666
0000b0 f8 59 da be 88 c5 95 be 4c b1 9c be 3b f0 fe 3c
       -0.42646766 -0.29252267 -0.30604017 0.03112041
0000c0 23 bc ce 3c 2a 5d c2 bd 07 e9 69 be 58 df a8 be
       0.025236195 -0.09490426 -0.22842799 -0.32982898
0000d0 99 d0 09 3e 15 22 e7 bd fb 8a ac 3c 68 ba 48 3d
       0.1345848 -0.112857975 0.021062365 0.049005896
0000e0 e5 a1 17 be bb 50 3d 3d 30 df 83 be da 0c e0 3e
       -0.14807852 0.04621957 -0.25756216 0.43759805
0000f0 9b ad aa be 75 c7 4c bc 7c 60 ce be 41 f2 9a 3e
       -0.33335575 -0.012498726 -0.40307987 0.3026295
000100 76 94 7c bd 25 ca 3c be c7 5f 20 3f 95 97 bd bd
       -0.06166502 -0.18436487 0.62646145 -0.092574276
000110 63 d6 90 be 41 4e 1f be 0f db 9a be dc 4c e3 be
       -0.28288564 -0.15557195 -0.30245253 -0.44394577
000120 f0 76 e3 bb 9c 8c b1 be 5d 16 78 be 5a 10 78 be
       -0.0069416687 -0.3467759 -0.24227281 -0.24224988
000130 04 66 b1 be 0f 2f 78 be 8c 46 65 be a1 83 82 be
       -0.34648144 -0.24236701 -0.22390193 -0.2549105
000140 c8 35 95 3e 52 f8 b5 be c4 44 8d be 99 b8 82 3c
       0.29142594 -0.35541016 -0.27591527 0.015957164
000150 3f c4 4d be 8d 26 2b 3e 14 c7 84 bd 85 bf a7 be
       -0.20094393 0.16713925 -0.06483284 -0.32763305
000160 7b 7f fa bd ce 03 fc 3d 59 da de be 74 45 14 bd
       -0.12231346 0.12305413 -0.4352596 -0.03619905
000170 62 1a 1e 3f 39 d9 f3 bd c1 3b c2 3d f3 18 9b 3f
       0.61759007 -0.11906666 0.094840534 1.2116989
000180 c1 05 92 be 26 df 95 be 21 cf 02 be 12 d9 1e be
       -0.28520015 -0.2927181 -0.12774326 -0.15512493
000190 0c cf dd be df f9 01 bf 12 91 a1 3d 07 6e 13 be
       -0.43322027 -0.507719 0.07888998 -0.14397441
0001a0 40 00 ac bd 18 5d 75 be 1d a4 7f be d7 2c f0 3d
       -0.08398485 -0.23961294 -0.24964948 0.117273025
0001b0 8e e2 89 be 66 16 bb 3e c6 cf 65 be f6 58 20 be
       -0.2693066 0.36540526 -0.2244254 -0.15658936
0001c0 bc 68 a6 be f4 fc 31 be 49 60 b0 be 77 5f 92 3e
       -0.3250178 -0.1738165 -0.3444846 0.2858846
0001d0 62 5a 8b be 3f 3a fc bd 63 c0 47 be 80 3a b3 be
       -0.27217394 -0.12315797 -0.19506983 -0.3500557
0001e0 18 56 79 be f0 69 02 be 54 e7 51 bd b9 9d 69 be
       -0.24349248 -0.12735724 -0.051246002 -0.22814073
0001f0 f2 e3 9e bd 88 f2 b2 bd d1 13 b3 be a0 98 2e be
       -0.07758321 -0.087376654 -0.34976056 -0.1705041
000200 d1 07 24 bf 75 af f3 be 9a 89 ad bd 38 dd 31 bf
       -0.64074427 -0.475948 -0.08473511 -0.6947818
000210 65 25 26 bd fc 5e a0 3e d2 67 3f bf 0e d8 a2 be
       -0.040563006 0.31322467 -0.7476779 -0.31805462
000220 90 c6 41 be 45 1c a2 be d0 37 10 bf 43 cc 97 3e
       -0.18923402 -0.31662193 -0.56335163 0.29648027
000230 d3 a5 17 bf cf 61 13 bf 1d d1 6c 3d 34 a6 b1 be
       -0.592374 -0.5757112 0.057816613 -0.34697115
000240 71 23 e6 be 27 81 ab 3e 68 b9 6c be ec c1 5f be
       -0.44948915 0.33496973 -0.23117602 -0.21851319
000250 87 65 1d bf dc 40 43 be 92 65 04 bf b1 43 2c 3e
       -0.61483043 -0.1906771 -0.51717484 0.16822697
000260 6b 9b bf bd da b6 26 be 8b 7e 1c bf 38 e6 a5 bd
       -0.093558155 -0.1628069 -0.6113059 -0.08100551
000270 fa 5e 46 bd 20 ba 6f be fa 10 05 bf f2 a7 d2 be
       -0.04843042 -0.23410845 -0.5197903 -0.41143757
000280 d1 06 e0 3e 88 00 6b 3d da 14 2c bf f5 0b 4e be
       0.437552 0.057373554 -0.67219317 -0.20121749
000290 f3 b7 41 bc fc 2c 19 3e 9c a8 0a 3c b6 c8 97 be
       -0.011823642 0.14958566 0.008463051 -0.29645318
0002a0 cd 6e b4 be 1f 15 89 be 56 c4 b0 3f d5 32 da be
       -0.35240784 -0.26773927 1.3809917 -0.42616907
0002b0 ee 3a 0b bf 65 0e 8b 3e c9 b1 3a bf 53 25 30 3f
       -0.54386795 0.2715942 -0.7292753 0.6880695
0002c0 fa a4 b2 be 6f ef 55 bf f0 78 16 be c7 c3 a6 be
       -0.34891492 -0.8356847 -0.14694571 -0.3257124
0002d0 7d d2 bb bd ea 71 e6 be 89 8e 05 bd de d3 03 bf
       -0.09171007 -0.45008785 -0.032606635 -0.5149516
0002e0 af 9f a8 be 7d 06 5e bc aa ae a1 be fd ec 90 bd
       -0.3293433 -0.013551352 -0.3157857 -0.07076452
0002f0 e7 57 81 3d f3 16 6c be d2 bf 9d be 16 09 8b 3e
       0.06315594 -0.2305563 -0.3081041 0.2715537
000300 33 91 ee 3c 61 fc bc be a6 6a 8b be 65 81 a9 bd
       0.02912197 -0.369113 -0.27229804 -0.08276633
000310 bd 60 5f bf 9b 39 d4 bd 84 a1 01 bf 62 a6 ce be
       -0.87256986 -0.1036255 -0.5063708 -0.40361315
000320 e9 82 ed bd ee 65 37 bd c7 3d 2e 3e 9f 62 81 be
       -0.11597235 -0.044774942 0.17015754 -0.25270554
000330 4f 28 d9 3e 45 50 08 bf be 7d ce be e3 6a 8f 3d
       0.42413566 -0.5324748 -0.4033031 0.07002809
000340 4e bb d5 3e 1b 2c 9b bd 21 fe 0c bf ef d9 16 bf
       0.41744465 -0.07576772 -0.5507527 -0.5892629
000350 31 1c aa bd 37 79 b5 bd a9 d9 ae be 9d c9 c6 bd
       -0.08306158 -0.088610105 -0.34150437 -0.097064234
000360 30 2b e0 be 40 c2 c4 be 92 56 67 be dc be 5f 3f
       -0.4378295 -0.3842945 -0.22591618 0.87400603
000370 8e 63 1c 3e 7e 82 89 be ae bc ce be 90 95 04 bd
       0.15272352 -0.2685737 -0.40378326 -0.032369196
000380 f8 4a ee be dc bf f2 be 65 42 2c bf 2c e2 bf be
       -0.46541572 -0.47412002 -0.6728881 -0.37477243
000390 f8 a9 68 be a9 d5 b5 be b4 1f f3 bd 0a 18 97 be
       -0.22721088 -0.35514572 -0.11871281 -0.29510528
0003a0 bb 9c 05 bd 61 4f 8e bd 25 5a bd be fc 0f 20 3e
       -0.032620173 -0.06948734 -0.36982837 0.15631098
0003b0 a4 16 49 3e 2d 49 fc 3d 8b 1c 66 bf f3 5f dd bd
       0.19637543 0.12318645 -0.89887303 -0.108093165
0003c0 40 3e 40 bd 37 fb 19 bf 90 d7 81 be 9b 3c 08 bc
       -0.046934366 -0.6014895 -0.25359774 -0.008315231
0003d0 d3 c5 97 3d bc d0 ff be 85 f0 3b bf 62 d5 a1 3e
       0.07410779 -0.4996394 -0.7341388 0.3160811
0003e0 ec b5 c1 be 5c 1e 48 3d bd 89 d8 be 3c 24 b9 be
       -0.37834108 0.048857078 -0.42292586 -0.36160457
0003f0 c0 30 87 be 69 6e 09 bf 06 ff d5 bd 71 7e 41 bf
       -0.2640438 -0.536841 -0.104490325 -0.7558356

h1.bias f4 [128]
000000 89 c3 37 bf 7a 1b 7a bf 6d 3b 33 c0 57 07 dc be
       -0.7178274 -0.97698176 -2.800502 -0.4297435
000010 8e db 68 bf bb 21 3e c0 a4 1d ca be ae 4b cc 3f
       -0.90960014 -2.9708087 -0.3947574 1.5960596
000020 ba f2 10 bf 99 2e 9a be 96 a3 62 c0 ff 60 a0 bf
       -0.5662037 -0.30113676 -3.5412345 -1.2529601
000030 46 51 21 bf 32 31 03 c0 be d1 b3 40 50 31 c3 40
       -0.6301464 -2.0498776 5.6193533 6.0997696
000040 5e 5e c5 bf 9f 9e c5 bf bb 31 a9 be 01 6e 3e c0
       -1.5419424 -1.5439032 -0.33045754 -2.975464
000050 62 a9 72 be 51 1e 80 bf 44 88 9a bf 8f 9f 11 c0
       -0.23697427 -1.0009252 -1.2072835 -2.2753637
000060 9e 2d 2b bf 60 be 0b c0 cf 31 d1 be 1e d2 91 bf
       -0.6686648 -2.1834946 -0.40858313 -1.1392248
000070 10 d6 6b c0 44 6c dd bf 48 05 09 c0 03 37 3e bd
       -3.6849403 -1.7298665 -2.1409473 -0.046439182
000080 fd 22 13 3f ab a3 87 bf 3f 3c 0e c0 86 7b 8d 40
       0.5747526 -1.0596823 -2.2224271 4.4213285
000090 c5 f3 c2 3d 61 51 a5 bf 0b 25 c2 be af 6e 1b 40
       0.095191516 -1.291546 -0.37918887 2.4286306
0000a0 7e 53 3a 3e bb ac d1 bf 8f 17 d3 bf 40 ed 94 be
       0.18195912 -1.6380838 -1.6491565 -0.29087257
0000b0 59 be b1 bf a6 d0 1c bf ac 68 1d c0 38 dc 86 bf
       -1.3886214 -0.6125587 -2.4595137 -1.0535955
0000c0 e5 ec 4e bf 2e b2 02 c0 d7 90 79 bf b0 e1 93 bf
       -0.8083022 -2.0421252 -0.97486633 -1.1553249
0000d0 45 5e cc bf 7c 79 93 c0 98 0f 0d bf 53 13 8c 3f
       -1.5966269 -4.6085796 -0.5510192 1.0943397
0000e0 c9 7c 24 c0 78 ce 01 40 8a 88 81 40 7f fc e9 bf
       -2.5701163 2.0282269 4.0479174 -1.8280181
0000f0 c1 7b 83 be 98 8f e0 be 2e 95 9b bf de 84 c8 bf
       -0.25680354 -0.43859553 -1.2154901 -1.5665548
000100 93 6a a8 be 6e d8 22 bf bf 16 5b bf a4 13 66 c0
       -0.3289381 -0.63611495 -0.8558158 -3.5949488
000110 14 c3 00 bf c7 e5 47 bf f8 81 be bf c5 3b ec bd
       -0.50297666 -0.7808499 -1.4883413 -0.11534838
000120 15 1b 15 c0 7c 04 dd bf e1 55 ed bd 82 b6 45 c0
       -2.329778 -1.7266994 -0.11588646 -3.0892644
000130 e6 e2 18 c0 40 4f 24 c0 1e 54 7c be 20 65 5b be
       -2.3888488 -2.567337 -0.24641463 -0.21425295
000140 01 bc 49 3e 71 38 1c 40 f9 ff c1 bf 8b ab 2c c0
       0.19700624 2.440945 -1.5156242 -2.6979702
000150 1a ae 19 bd 21 57 ca 3f 06 8d 4b 40 7f cc 0f 3f
       -0.03751955 1.580784 3.1804824 0.5617141
000160 9e f6 6a bf d6 50 cd bf dd 1a f7 be 71 ba 06 c0
       -0.9178256 -1.6040294 -0.48262683 -2.1051295
000170 3d 28 03 c0 2f 23 bc be 87 4a bc 3f 38 e7 01 c0
       -2.049331 -0.36745593 1.4710244 -2.0297375
000180 a8 67 65 c0 a1 1e 2b bf 94 ad 16 bf ca ba a8 be
       -3.5844517 -0.6684361 -0.5885861 -0.3295501
000190 d6 c1 19 40 c0 b3 2c 40 5e 7c f7 be fa 6c 5f be
       2.4024558 2.698471 -0.48337072 -0.21818915
0001a0 45 63 9d bf 3a 31 29 bf 0c da 8f be aa 1d 11 bf
       -1.229592 -0.6609074 -0.28096044 -0.5668589
0001b0 cf 3e 15 40 82 b3 7a c0 b9 21 ee bf c5 a7 38 c0
       2.3319585 -3.9172063 -1.8604041 -2.8852398
0001c0 1d 8f 11 bf 6e f3 a5 40 3c 37 a8 be 2d 42 25 c0
       -0.56859 5.1859655 -0.3285464 -2.582164
0001d0 b6 8f 1b bf ba a8 ff bf 41 f1 d2 bf 08 af 6b c0
       -0.6076616 -1.9973366 -1.6479875 -3.682558
0001e0 c7 bc d2 3f 64 5a 8d be 17 c1 44 c0 4a 19 7b 3f
       1.646386 -0.27608025 -3.0742853 0.98085463
0001f0 56 9b c7 bf c6 a5 4e c0 78 28 6e c0 05 fa 7f bf
       -1.559428 -3.228868 -3.72122 -0.99990875

h2.weight f4 [64, 128]
000000 26 e7 18 3b 31 bb 54 bf ab c3 8a 3f 2b 2b d8 bd
       0.0023331135 -0.8309813 1.0840963 -0.10555109
000010 f0 76 56 3e 04 bc fb bf df 14 8b 3f 9e 0f 2d 3e
       0.20943809 -1.9666753 1.0865744 0.16900489
000020 12 97 87 3d 1d cc c2 3e e6 2e f7 be cb 3a a4 bf
       0.06620611 0.3804635 -0.48277968 -1.2830442
000030 07 e7 7a be e6 31 96 3f df 65 c8 bf 66 95 96 bf
       -0.24502192 1.1733978 -1.5656089 -1.1764343
000040 ca c0 12 bf ca 01 9c bf 00 a2 96 3e d5 c0 3e bd
       -0.5732542 -1.2188046 0.2942047 -0.046570618
000050 0f a4 a5 3b 10 4e 02 3f f7 8c d3 be e2 cf 0a bf
       0.0050549577 0.50900364 -0.41318485 -0.54223454
000060 d3 96 bf 3d 06 37 f4 bd 0a ad 9a bc ee ac 9e 3f
       0.09354939 -0.119245574 -0.01888134 1.2396524
000070 25 47 90 bf 5f 44 d4 be 10 ef 03 3e df e4 82 be
       -1.1271712 -0.41458413 0.12884164 -0.2556524
000080 3c 4b 0a bf 67 ec 4d 3c ac f4 1a 3f 1c 05 94 bf
       -0.5402105 0.01256857 0.6052959 -1.1564059
000090 a4 99 b5 bd 7c be 26 bf 3e 9f 28 bc fa 51 92 bf
       -0.08867195 -0.65134406 -0.010291873 -1.1431267
0000a0 d2 11 7e be 6a 19 0e 3f 39 ed fa 3f 9d 5b 39 3e
       -0.24811485 0.5550753 1.9603645 0.18101354
0000b0 f9 ac b0 3c 78 98 77 bf 75 90 51 bf fb 0b 56 bf
       0.021566855 -0.96717024 -0.8186105 -0.8361203
0000c0 c8 fd 22 3e d9 60 e2 3f d3 a5 0a 3f 89 4d aa 3c
       0.15917122 1.7685806 0.5415928 0.020788925
0000d0 41 15 3d be d2 6d 85 3e 6b 88 f2 3c 40 ef 27 bf
       -0.18465139 0.2606035 0.029606065 -0.6559944
0000e0 74 c7 3b bf 0e 05 20 3f a2 bc bd bf ba 8d a2 3f
       -0.73351216 0.6250771 -1.4823191 1.2699502
0000f0 c5 3e d0 bd d1 2c e8 bd d4 46 14 c0 4a 56 23 bf
       -0.10168222 -0.11336673 -2.316823 -0.6380354
000100 c6 56 8d bc ab e4 92 bb fd 15 4b bf 02 ba f0 bb
       -0.01725329 -0.0044828258 -0.79330426 -0.0073463926
000110 5a 27 00 3f 29 85 02 be ec da b3 3e 30 4e 6f be
       0.50060046 -0.12746109 0.35127962 -0.2336967
000120 3c 75 ff bf 28 f7 91 be 38 5c 7a 3d 28 95 44 bd
       -1.9957652 -0.28508878 0.061123103 -0.04799381
000130 93 e7 0a bf 9f 63 82 3e 18 13 0a c0 a5 38 86 be
       -0.54259604 0.2546663 -2.1574154 -0.2621509
000140 96 4b f6 bf 2f ed 96 bf ce 6c d6 3e d0 94 8e 3f
       -1.9241817 -1.1791133 0.41879886 1.1139164
000150 67 53 58 bf 20 54 34 3f ae e1 e1 bf 8d a8 0a 3f
       -0.8450226 0.70440865 -1.7646997 0.5416344
000160 1c 32 c0 3d 3a f4 3a be b7 52 af bd 84 81 b5 bf
       0.093845576 -0.18257228 -0.085606985 -1.418015
000170 2b de 99 be 5c c9 d1 3c 46 f5 a2 bf bf 73 0b 3f
       -0.30052313 0.025608711 -1.2731102 0.5447349
000180 6c 29 13 3d 85 93 16 bf 58 b2 ca bd de 3f 9f 3e
       0.035928175 -0.58818847 -0.098972976 0.31103414
000190 77 54 79 be a6 48 93 bf b7 ac cf be 97 1a a0 3c
       -0.24348627 -1.1506546 -0.40561458 0.019543929
0001a0 29 a3 ac 3d db ed 2a bf 2b d0 eb bd e7 d3 b1 bf
       0.08429558 -0.6676919 -0.11514314 -1.3892792
0001b0 23 18 4c 3f 96 8a e4 be 1b e4 05 40 3e 6f 03 3f
       0.7972433 -0.44636983 2.0920475 0.5134162
0001c0 c0 0f 30 3c 5d ae 0e c0 81 0f 11 3e 9f 60 07 bf
       0.010745943 -2.2293923 0.1416607 -0.5288181
0001d0 76 5a 82 3e c4 f3 ac 3d a9 ea c0 be 28 87 3b bf
       0.2545964 0.08444932 -0.37679031 -0.7325311
0001e0 20 83 6b 3f a8 f3 00 3c 00 03 f0 3c e6 0a c5 be
       0.91996956 0.007870592 0.029298306 -0.38484877
0001f0 c7 74 61 bf 73 f7 bd 3e 37 3f ee 3e 08 28 73 3f
       -0.88068813 0.3710285 0.46532604 0.9498296
000200 dc 9c 30 bf 4a 21 45 bf 5d b0 2b 3e 9d 55 a4 3d
       -0.6898935 -0.7700392 0.16766496 0.08024142
000210 c7 f0 04 3e 38 2f 0b 3f cd 6c 20 bf 14 ee 06 3e
       0.12982474 0.54368925 -0.62666017 0.13176757
000220 9d 68 20 bb 58 22 a8 3f 58 fc db 3e 11 69 5b bc
       -0.0024476417 1.3135481 0.4296596 -0.013391749
000230 c3 d8 9c bf 7b bd bd be 79 7a 2d 40 a7 90 0f 40
       -1.225365 -0.37058625 2.7106001 2.2432039
000240 37 7c d3 3f 27 79 b5 3f 94 3a 86 3e 12 ba 74 bf
       1.6522282 1.4177598 0.26216567 -0.9559642
000250 89 54 b4 bd ff 3d af bc 3a 5f 2f bf 96 0c cf 3d
       -0.08805186 -0.021391867 -0.6850468 0.101098225
000260 e9 48 16 bc b1 ed cb bf 24 d9 78 bd 6c b8 71 c0
       -0.009172657 -1.5931913 -0.060753956 -3.7768812
000270 1a 47 45 3f 92 50 0d bf 85 7b 08 3f c7 ed 42 3e
       0.7706162 -0.55201066 0.53313476 0.19036017
000280 d9 6d d8 3e 58 83 95 be db 26 a3 bf c2 ec ad 3f
       0.42271307 -0.2920177 -1.2746233 1.3587878
000290 f8 65 6f 3d 88 7f 0c 3f c1 62 e5 bd 92 9f 0c 3f
       0.058446854 0.548821 -0.112004764 0.54930985
0002a0 ab ed ca bf 41 17 36 3f b6 e0 12 bd f3 3f be bd
       -1.585378 0.7112923 -0.035858832 -0.09289541
0002b0 c5 d0 18 3e 57 a0 00 3f 23 f6 bf 3e a8 03 2b be
       0.1492339 0.5024466 0.37492475 -0.16700613
0002c0 a5 f1 b9 3e ee 95 b9 3f 45 95 8b bd 6c 9a be be
       0.36317173 1.449888 -0.0681558 -0.3722719
0002d0 b0 c6 c2 3e bc 37 ba bf 2d 0e 08 3d 28 a9 34 bf
       0.38042212 -1.4548259 0.033216644 -0.7057061
0002e0 ed b6 16 bf 59 30 00 40 ec 23 34 40 c5 84 0e bf
       -0.5887287 2.002951 2.8146925 -0.5567134
0002f0 d4 2c 4e bd 89 e1 70 be 03 b4 25 3f 11 91 86 c0
       -0.05033572 -0.23523535 0.647278 -4.2052083
000300 0b c7 b6 bd c1 e8 c1 bb 31 20 93 bf 62 50 2c c0
       -0.08924683 -0.005917639 -1.1494199 -2.6924062
000310 b1 45 a4 3f b2 bd 25 3d 48 d8 23 3f 8b d9 9e 3c
       1.2833768 0.04046411 0.64001894 0.019390842
000320 01 fc 50 bf 58 15 89 3f d6 a2 0d 3e 7b 81 33 bf
       -0.8163453 1.0709639 0.13831648 -0.70119447
000330 ed 76 18 c0 15 3a 9a c0 be a6 b4 bf 6e fe 79 3d
       -2.3822587 -4.81959 -1.4113386 0.06103366
000340 e2 f3 ce 3f eb 0d be bf c9 9c 15 3f 26 0d 9a 3f
       1.6168177 -1.4847997 0.5844236 1.2035263
000350 13 51 7c 3f 49 e5 25 be 51 f6 83 3f 32 e2 c6 bf
       0.9856121 -0.16200747 1.0309545 -1.5537779
000360 aa a9 de 3d 00 f2 a5 3d 78 6f 1c 3d 7e 8a 9b bf
       0.108722046 0.081027985 0.038192242 -1.215164
000370 a2 f0 84 3e eb f4 91 be 18 2a aa be 0c b6 63 3f
       0.25964838 -0.2850717 -0.3323524 0.88949656
000380 dc 0f 1c c0 57 e3 b5 3e fa 1b 62 bd 0f b3 30 3d
       -2.438468 0.3552501 -0.05520246 0.043139514
000390 d8 f5 7d 3f 82 ba ec bd fd a2 b5 bd bf 69 89 3d
       0.9920325 -0.11559011 -0.08868978 0.067096226
0003a0 d7 17 00 3d f6 ba 5c 3d a6 f0 2e 3d 1b c8 10 bf
       0.031272735 0.053889237 0.04270997 -0.56555337
0003b0 89 26 56 bf c0 c1 9a c0 c0 0c 76 c0 24 1d d4 3e
       -0.8365255 -4.836151 -3.8445282 0.41428483
0003c0 c7 bc b1 3d 63 da 08 40 ea 9f 73 3d 46 cc b9 bf
       0.086785845 2.1383293 0.059478678 -1.4515464
0003d0 c2 92 b6 be 4e 42 35 be 39 48 35 3e 58 c9 40 c0
       -0.35658842 -0.17701074 0.17703332 -3.012289
0003e0 04 a0 8a bf 60 66 47 3f 39 86 17 c0 9e 54 ac bf
       -1.0830083 0.77890587 -2.3675673 -1.3463323
0003f0 0a e6 2e 3f 17 b1 4f c0 56 95 31 3f 08 2c a2 3e
       0.6831976 -3.2451837 0.69368494 0.31674218

h2.bias f4 [64]
000000 4d e1 2b c0 45 18 58 40 0e f6 5f bf 08 84 93 3f
       -2.6856263 3.3764813 -0.87484825 1.1524668
000010 dd 80 20 c0 a5 59 df 3f 34 4b 7c c0 4f a9 bc 3f
       -2.5078652 1.7449232 -3.94209 1.4739169
000020 f7 7a 12 c0 dd 5f 3d 40 9d 7b 36 40 50 da 21 3f
       -2.2887552 2.958976 2.8512948 0.63223743
000030 ab 11 47 40 a0 42 81 c0 05 f5 95 bf 56 aa 83 c0
       3.1104534 -4.039383 -1.1715399 -4.114543
000040 aa cb c4 be 2d df 3b 3f 43 0d 63 bf 70 2b 75 bf
       -0.38436633 0.73387414 -0.8869211 -0.95769405
000050 44 7a 5c c0 aa 20 73 bf 5f 2a 17 40 30 9f 10 c0
       -3.4449625 -0.94971716 2.3619611 -2.259716
000060 f6 3c 2d c0 a9 7d b2 be 0f 90 a0 bf 6a c7 4a c0
       -2.7068458 -0.34861496 -1.2543963 -3.1684213
000070 62 17 01 c0 9e 4e 51 be b8 56 ac 40 64 35 e7 bf
       -2.0170522 -0.20440146 5.385586 -1.8063169
000080 b8 62 74 40 57 e7 67 40 68 85 16 c0 88 10 78 be
       3.8185253 3.6234949 -2.3518925 -0.24225056
000090 d8 c9 62 bf a9 96 33 c0 d2 64 9e be 95 ea 0a 40
       -0.8858924 -2.8060706 -0.30936295 2.1705678
0000a0 67 8f 3e bf 34 63 40 3f 41 ba 36 40 df 2a 12 40
       -0.74437565 0.7515137 2.855118 2.2838666
0000b0 d3 b8 df bf ad e3 1d bf ab 54 1e 40 e1 b1 a1 c0
       -1.7478279 -0.6167553 2.4739177 -5.0529637
0000c0 e0 9e 0f c0 5a 6a bb 3f 1b 52 2b 3e 82 25 4d bf
       -2.244072 1.4641831 0.1673054 -0.8013536
0000d0 e9 a9 27 c0 4e b5 f5 bd e9 64 9e 40 cd da 1e 40
       -2.6197455 -0.11997472 4.949818 2.4821045
0000e0 d3 ff 9d bf 37 6f 1e bf 85 36 43 40 8f ad 44 c0
       -1.2343696 -0.6188845 3.0502026 -3.0730932
0000f0 82 b1 7c 3f 5d da 7a bf 07 e3 3a c0 4d 32 62 40
       0.98708355 -0.97989446 -2.9201066 3.53432

h3.weight f4 [32, 64]
000000 8d 0f 5b bd 7a d0 a1 be 76 f6 91 3d e2 8c bf be
       -0.053481627 -0.31604367 0.07127087 -0.37412173
000010 92 0a 0a be 6f 2c 9f be d4 7e f3 bd 8d c8 4c be
       -0.13480595 -0.31088588 -0.11889425 -0.19998379
000020 ee 15 2e 3c 33 c7 9e be 8d 2a 79 be dc 87 a1 be
       0.010625346 -0.31011352 -0.24332638 -0.31548965
000030 12 c6 54 be 23 53 4f be 6e 49 cf be 77 c7 6d be
       -0.20778683 -0.20246558 -0.4048571 -0.23220621
000040 74 4c a6 be a9 f5 63 be 61 ab 97 bd 13 47 a9 be
       -0.32480204 -0.2226168 -0.07405735 -0.33062038
000050 86 be 1d be 9e 0d 0d be 3f 19 a7 be 22 49 49 be
       -0.1540471 -0.13774726 -0.3263645 -0.19656804
000060 fa 17 6f be f7 5f 30 3d c8 65 d6 be 4d 92 81 be
       -0.2334899 0.04306027 -0.41874528 -0.2530693
000070 b0 30 85 be 92 8c 76 bd 16 59 9c be 53 d7 97 be
       -0.26013708 -0.060192652 -0.30536717 -0.29656467
000080 e3 2d a7 be 34 ab d2 be 60 d8 9a be 96 46 60 be
       -0.32652196 -0.41146243 -0.30243206 -0.21901926
000090 4a 6a 36 be 2e cf 75 be b9 83 c1 be 85 c9 96 be
       -0.17813984 -0.24004814 -0.3779581 -0.29450622
0000a0 4a 1b 4a 3d 48 44 59 bd 79 60 f2 bd 13 98 a7 be
       0.04934243 -0.053043634 -0.11834807 -0.3273321
0000b0 d6 82 05 bf 85 d7 58 be 39 62 40 be ea 54 a7 bd
       -0.52152765 -0.21175964 -0.18787469 -0.08170493
0000c0 b2 ff a5 3d d7 1b b2 be d8 78 bb be ce 02 88 be
       0.08105411 -0.34786865 -0.36615634 -0.2656464
0000d0 e4 89 bc be 47 39 ee 3e 9f e6 84 be 37 26 d7 be
       -0.36823952 0.46528074 -0.259572 -0.42021343
0000e0 77 a4 8c be 8b 38 2a be 5b b2 d1 be 3a 78 1b be
       -0.27469227 -0.16623132 -0.40956387 -0.15182582
0000f0 13 e8 58 be 30 b0 c5 bc 9e df 22 bf d3 e9 9f be
       -0.2118228 -0.024131864 -0.6362246 -0.3123308
000100 fc 9b 64 bf 4b 1d 89 bf 0c ef 60 bd a9 4e c0 bf
       -0.89300513 -1.0712065 -0.054915473 -1.5024005
000110 7a 1d 2e bd b0 36 e5 bf 14 4b a1 be a6 d3 7d bf
       -0.04250858 -1.7907314 -0.31502593 -0.99151075
000120 77 59 1c 3f af 46 d2 bf 80 02 c4 bf 12 98 8d bf
       0.6107401 -1.6427821 -1.5313263 -1.1062033
000130 8f a6 6e bf 59 20 3f 3d 42 ab 40 bf cb d5 60 be
       -0.932229 0.04666171 -0.7526132 -0.21956556
000140 fd 3b 7b bf 5e f3 97 bf 0d 25 a7 be 1c e8 82 bf
       -0.9813841 -1.1871145 -0.32645455 -1.0227084
000150 3a 14 ac bd 98 29 c6 be 9f 3d a3 bf 30 0e a2 3e
       -0.084022954 -0.3870361 -1.275318 0.3165145
000160 5d e8 4a 3f 2b 72 4c bd dc bb 8e 3f 0a 7b b0 bf
       0.7926081 -0.049913567 1.115108 -1.3787549
000170 e3 78 2a 3e 70 b9 81 bf 27 be a0 bf f9 17 23 be
       0.16647677 -1.0134716 -1.255803 -0.15927114
000180 22 68 d8 bf 5a 25 11 c0 01 78 db be 9f e1 6f be
       -1.6906779 -2.2679048 -0.42864993 -0.23425911
000190 64 48 16 bf 84 da 49 3f 5e f9 ae bf c0 a4 cc 3f
       -0.5870421 0.78849053 -1.3669851 1.5987778
0001a0 4e ff 5d bd 15 72 47 bf e7 4a 03 c0 61 ee 92 bf
       -0.054198556 -0.7790845 -2.0514467 -1.1478997
0001b0 7e 8f 4e be f0 46 8c be a5 4d 42 bf d2 7e 97 be
       -0.20171925 -0.2739787 -0.75899726 -0.29588944
0001c0 6a 1c 20 3d 9a e1 c5 bf b6 e3 81 bf 94 04 00 bf
       0.039089598 -1.5459473 -1.0147617 -0.50006986
0001d0 2c ae 9d bf 9c ec cf be 50 95 84 bf 16 75 82 bf
       -1.2318778 -0.40610206 -1.0358067 -1.0191982
0001e0 a2 57 07 3f 34 50 6c bc 9e 80 68 3f 02 98 78 bf
       0.5286809 -0.014423419 0.90821254 -0.97106946
0001f0 38 8d 28 bf 09 69 5d 3f 5b 89 a7 bf b2 10 d8 bf
       -0.6584048 0.86488396 -1.3088793 -1.6880095
000200 c3 95 48 bf 57 00 96 bf d3 3d 43 be d2 9e 66 bf
       -0.7835352 -1.1718854 -0.19066553 -0.9008609
000210 92 87 e1 be 54 c2 95 bf b3 47 46 be 7e 28 7c bf
       -0.44048744 -1.1699929 -0.19363289 -0.98499286
000220 7c 0e 17 bf 2e 2d be bf 82 88 bc bf 01 e4 76 bf
       -0.59006476 -1.4857538 -1.4729159 -0.96441656
000230 36 25 df bf b4 25 a5 bd ae 06 bc be 84 4e 3f bb
       -1.7433231 -0.08063832 -0.36723846 -0.0029191086
000240 88 c7 49 bf a4 e2 52 bf 02 6d 0a 3e d4 d9 fa be
       -0.78820086 -0.82377076 0.13518146 -0.48994315
000250 ba ea 54 3d 50 e8 7e bb c9 63 32 bf 12 55 34 be
       0.051981665 -0.0038895793 -0.6968351 -0.17610577
000260 cb 9e 47 3f c4 28 c8 be 8b 30 5a 3e 19 2d 4b bf
       0.77976674 -0.39093602 0.2130758 -0.7936569
000270 b4 5b fd be c2 da 47 bf 3d 98 ac bf a5 4d ee be
       -0.49484026 -0.7806817 -1.348396 -0.46543613
000280 0d 02 49 bf 3d db 7c bf c9 cf b7 bd 5e f4 ae be
       -0.78518754 -0.9877203 -0.08975179 -0.34170812
000290 b4 4e 42 bf 7a cc 23 bf ae d0 20 bf b2 0a 7e bf
       -0.7590134 -0.6398388 -0.6281842 -0.9923507
0002a0 1c 38 dd 3e 13 c2 7a be c7 56 91 bf 27 f0 ce be
       0.4320687 -0.24488096 -1.1354607 -0.40417597
0002b0 a5 24 0f bf bf c4 a0 be a2 ea 2c bf 49 16 a1 be
       -0.5591529 -0.31400105 -0.6754552 -0.31462315
0002c0 01 74 89 3f 15 cb 63 bf b3 70 e4 be cc f7 d5 be
       1.0738527 -0.88981754 -0.44617233 -0.41790617
0002d0 b7 7f 3b bf 21 cf 68 be 2e 1c b4 be fc 2f 58 bf
       -0.7324175 -0.22735263 -0.3517775 -0.8444822
0002e0 bf 13 9c bd 3d 51 96 bf 91 59 a9 bf 32 d3 12 3f
       -0.07620954 -1.1743542 -1.3230458 0.5735351
0002f0 ba 60 f0 be 1b 71 fa bc 82 d3 e7 be f6 b7 c5 bf
       -0.46948797 -0.030571511 -0.45278555 -1.5446765
000300 5e 19 65 3f 8f 7f 1f 3d 8e b7 c0 3d 81 a8 37 be
       0.8949183 0.03894001 0.0941001 -0.17935373
000310 31 16 83 bf 4b 42 ff be b5 51 8b bf 30 cb 9a be
       -1.0241147 -0.49855265 -1.088431 -0.30233145
000320 46 38 d1 be 09 7b 30 3c 38 07 80 be 33 66 da bd
       -0.40863246 0.010771521 -0.25005507 -0.10664024
000330 fd 98 ca be 3c 1d a6 bf bc 4c ce 3e 3f b9 1b bf
       -0.39569846 -1.2977672 0.4029292 -0.6082954
000340 f5 d3 8c be 6d ef 23 be 26 b0 81 bd 78 d6 ff be
       -0.2750546 -0.16009302 -0.06332426 -0.49968314
000350 08 4d e8 bf 54 a7 01 bd ad bf 85 bf cd 77 c9 be
       -1.8148508 -0.031653717 -1.044912 -0.39349213
000360 91 89 f0 be 70 c8 72 be f5 ce f0 be d8 2f 0e bf
       -0.46979955 -0.23709273 -0.47032896 -0.55541754
000370 da 00 d6 3e cc 9d f6 3e 03 b2 36 bf b8 c5 26 bf
       0.41797525 0.48167264 -0.71365374 -0.65145445
000380 2d 03 c0 be 60 6b 3a bf 51 4b 50 bf fb d1 33 3f
       -0.37502423 -0.7282009 -0.81364924 0.7024228
000390 45 cd 92 3e bd 90 94 3e 3c 37 a3 3f 55 8e 17 bf
       0.28672233 0.29016677 1.2751231 -0.59201556
0003a0 aa 24 3e bd d7 52 9f bc e3 c3 a5 be e5 53 29 bf
       -0.046421684 -0.01944868 -0.32376012 -0.6614364
0003b0 05 b3 67 3e fc ed cb be 27 60 2c bf 55 49 aa be
       0.22626884 -0.39830005 -0.67334217 -0.33259073
0003c0 15 97 b9 be 29 c3 4e be d3 3d 99 bd c4 5b 8d 3d
       -0.3624808 -0.20191635 -0.07482495 0.069022685
0003d0 a4 bf 5c 3e b4 d8 de bd f4 fb 15 bf e4 8e d1 bd
       0.2155748 -0.108811766 -0.58587575 -0.10232332
0003e0 92 8f 53 bf bb e6 0c be 30 b9 8d bf 01 97 d4 be
       -0.82640946 -0.13759892 -1.107214 -0.41521457
0003f0 a7 3a ba be 89 6d 51 3d be e1 c6 bf c2 3a 91 be
       -0.36372873 0.05112985 -1.5537641 -0.2836514

h3.bias f4 [32]
000000 d2 c9 c3 be 18 f0 7e c0 82 5f 36 c0 1e 73 97 bd
       -0.38239914 -3.9834042 -2.8495793 -0.07395004
000010 97 06 85 bf b8 de 44 bf b9 5c 17 bf b9 99 5f bf
       -1.0392636 -0.7690234 -0.5912586 -0.8734394
000020 5d 54 1a c0 e9 74 a4 bf ed d1 86 be 95 6f a0 40
       -2.4113991 -1.2848178 -0.26332036 5.013621
000030 fa 37 47 bf 7b d0 af c0 f9 13 80 bf c6 33 64 bf
       -0.7781979 -5.4941993 -1.0006095 -0.891415
000040 8f 04 c4 bf a5 9a 24 bf c4 d6 19 c0 f2 f3 1a bf
       -1.5313891 -0.6429847 -2.4037333 -0.6052848
000050 7d 25 38 c0 b5 9f 7d 3f 47 0c 3e bf 08 29 45 bf
       -2.877288 0.9907182 -0.74237484 -0.77015734
000060 67 42 9b 3f db bc 3c bf 1c c0 05 bf cf 91 e8 bf
       1.2129639 -0.7372567 -0.5224626 -1.8169497
000070 62 3d 19 bf 06 b9 bc be 93 ed 4e 3e 80 b1 82 bd
       -0.5985929 -0.36859912 0.20207815 -0.06381512

h4.weight f4 [1, 32]
000000 ef 3b 08 3d 85 b1 b8 bc 9f f1 13 3c c4 5c bd bb
       0.033260282 -0.022545585 0.009029775 -0.005778881
000010 f9 dc 13 3d 70 09 ec 3d d6 87 87 3a 51 5a f6 3c
       0.036099408 0.115252376 0.0010340165 0.030072363
000020 8c 4b 05 3e e1 2e 83 be dd ce 3e 3e 87 9c 81 bd
       0.130171 -0.25621703 0.186336 -0.06328683
000030 a5 34 9e 3d 70 f5 76 bd 54 7e 0b 3e 99 3e 9c be
       0.07724885 -0.06029266 0.13622409 -0.30516508
000040 7d 06 92 bc da 3f 85 bd c6 69 14 3e 55 84 9e 3c
       -0.01782536 -0.06506319 0.14493474 0.01935021
000050 ae 91 b4 bd a3 ce 97 3d 8b 97 41 3e 48 69 40 3d
       -0.08816849 0.0741246 0.18905465 0.046975404
000060 87 c3 a7 bd 74 bd 1e 3d 39 3d 38 3e aa 3c 50 be
       -0.08191591 0.038754895 0.17992105 -0.20335642
000070 82 79 ee 3d 68 2e 7f 3d 91 12 77 3d 15 c3 2a 3d
       0.116442695 0.062300116 0.06032044 0.04168995

exp_avg f4 [128, 30]
000000 07 66 7a 39 95 37 5f 39 bb 13 49 3a f5 d3 2e b9
       0.00023879866 0.00021287643 0.00076704816 -0.00016672893
000010 09 6f 94 39 96 d8 5c 39 f0 7c 36 b9 73 07 63 39
       0.00028311487 0.0002106152 -0.00017403415 0.00021651182
000020 ba 09 da b8 6a 28 b5 b8 f0 79 f4 38 c6 ba c3 39
       -0.00010396862 -8.63828e-05 0.00011657539 0.00037332455
000030 85 d6 92 38 05 4c 17 39 c9 da 82 39 f8 6c bc 39
       7.00178e-05 0.00014428802 0.0002495854 0.00035939342
000040 26 c4 95 39 ce c1 5d b9 74 0e e8 b8 72 26 0a b9
       0.00028565637 -0.000211484 -0.00011065314 -0.00013175028
000050 63 69 02 ba c6 55 bd b8 4c e7 40 39 59 e4 2f 39
       -0.000497481 -9.028199e-05 0.00018396712 0.00016774367
000060 e9 1d 15 3a 3c b3 23 b9 76 c3 d9 38 69 f1 0f 38
       0.0005688356 -0.00015611661 0.00010383774 3.4318688e-05
000070 1a f1 2f b9 e1 93 32 ba f2 a8 72 ba 93 00 f8 39
       -0.00016779118 -0.0006812197 -0.0009256742 0.00047302674
000080 d7 03 16 3a 4c 7f f9 b8 1d 6b 9f 39 66 93 9a 39
       0.0005722618 -0.00011896956 0.0003040665 0.0002948299
000090 b1 04 bc 39 94 63 09 ba f9 54 c9 37 66 92 ac 39
       0.0003586165 -0.00052409736 2.4000636e-05 0.00032915472
0000a0 01 8e 06 ba 0c e4 08 3a 35 32 24 ba 30 65 81 3a
       -0.00051328546 0.000522197 -0.0006263585 0.0009872075
0000b0 af 79 32 ba 0c 6d e7 39 74 86 a2 38 cd 87 a0 3a
       -0.00068082934 0.00044141 7.749806e-05 0.0012247503
0000c0 fa bf 4e 3a 31 34 e8 b9 5f 91 69 ba 54 d5 b6 38
       0.0007886883 -0.00044289374 -0.00089099066 8.718172e-05
0000d0 46 94 4d 3a 1e 91 22 ba 80 f1 37 ba 14 4a 32 3a
       0.0007842224 -0.0006201434 -0.00070168823 0.00068011996
0000e0 c6 8c 93 ba 52 5a a1 38 ad 21 3e b9 9a 86 57 ba
       -0.0011257164 7.693902e-05 -0.00018132357 -0.00082216563
0000f0 b7 a8 cb 38 4e 99 8e b8 57 8c e0 b5 fe 30 d4 37
       9.71122e-05 -6.799643e-05 -1.6730145e-06 2.5295183e-05
000100 27 1f cc b7 eb 64 88 b8 ec 34 0f 38 69 46 fc 38
       -2.4333202e-05 -6.503783e-05 3.4143144e-05 0.00012029411
000110 8a 49 e7 37 c4 2f 44 b8 4e e9 a1 b8 86 63 37 37
       2.757159e-05 -4.6774527e-05 -7.7205346e-05 1.0930822e-05
000120 7b 71 bf 34 34 f7 93 b8 8c 9f 5b 38 02 34 1e b8
       3.565909e-07 -7.0555514e-05 5.236226e-05 -3.771857e-05
000130 e9 bc 4f 38 77 41 3a b8 c7 83 80 37 cb 0f 17 38
       4.9528582e-05 -4.4406825e-05 1.5320153e-05 3.6015914e-05
000140 fe 22 a8 38 d9 23 a1 b7 0d 69 1c b9 05 0f 0c 39
       8.017382e-05 -1.9209388e-05 -0.00014916454 0.00013357036
000150 3e 6e 8c b8 90 bb 6d 38 1e 16 82 b7 bf 94 38 b7
       -6.6962544e-05 5.6679884e-05 -1.5507507e-05 -1.1001887e-05
000160 f5 18 83 37 b4 07 da 38 84 90 c4 ba af 0b 62 bb
       1.5628038e-05 0.00010396485 -0.0014996682 -0.0034491827
000170 e4 10 79 ba 18 0a 4c 3b b0 e3 02 bb 81 05 b3 38
       -0.0009501113 0.0031133946 -0.0019972138 8.53641e-05
000180 0e e9 64 3a b4 74 f9 b9 36 89 82 39 b0 d3 97 b9
       0.00087322376 -0.00047579932 0.00024897762 -0.00028958684
000190 c2 07 8a ba 83 92 b1 ba d4 72 85 ba 61 12 97 3a
       -0.0010530876 -0.0013547692 -0.0010181316 0.0011525863
0001a0 f9 8e 13 bb 8e 72 86 ba d9 f7 49 ba c2 f8 02 3b
       -0.0022515638 -0.0010257529 -0.00077044737 0.0019984697
0001b0 e8 18 b0 ba 89 30 23 3a de a3 b9 3a 8f 06 06 ba
       -0.0013435157 0.0006225189 0.0014163216 -0.00051126716
0001c0 4c 16 ff ba 76 be c6 39 1c 79 ea ba b1 4b c6 ba
       -0.0019461601 0.00037907407 -0.0017888877 -0.0015128759
0001d0 63 12 2c 3b d7 87 d4 39 b2 1d 2e 3a 1c 54 84 3a
       0.0026256077 0.00040537 0.0006641998 0.0010095867
0001e0 53 48 ed 39 39 8f aa 39 93 01 3d 3a ce 07 82 b8
       0.00045258048 0.00032531636 0.00072100124 -6.200337e-05
0001f0 ce 7e 0e 38 79 e1 93 b9 25 54 ec 38 78 21 a8 b9
       3.3973534e-05 -0.00028206015 0.0001126903 -0.00032068393
000200 a8 ab 58 39 19 e9 a4 b9 48 89 01 39 ab 71 08 b8
       0.00020663312 -0.0003145419 0.0001235354 -3.253079e-05
000210 6d cc 5e b9 ce cc 90 ba ef 5c 7f b9 81 f5 cb b9
       -0.00021247724 -0.0011047365 -0.00024353316 -0.00038902092
000220 23 e7 0b b8 3d 9d ef 39 e7 3a ec 39 0f 7b 50 b8
       -3.3355445e-05 0.00045702784 0.00045057313 -4.970567e-05
000230 6e 1e 03 ba 1f 9c 25 b9 3c b1 25 36 69 7e ae 39
       -0.0005001788 -0.00015793786 2.469008e-06 0.0003328205
000240 95 03 24 3a e7 55 04 ba 77 8a 83 ba 42 19 20 39
       0.0006256637 -0.0005048201 -0.0010035773 0.00015268198
000250 d0 95 71 b9 0a bf 4f ba db fc fa 36 63 e0 8e 36
       -0.0002303936 -0.00079248904 7.480017e-06 4.258052e-06
000260 a5 c9 ca b5 a0 4c f9 b6 9e 79 1b b6 45 58 e1 36
       -1.5108859e-06 -7.4296986e-06 -2.316759e-06 6.7157985e-06
000270 5e c4 51 37 ff de a2 b6 ca f7 98 36 14 f2 a5 36
       1.2503091e-05 -4.8539364e-06 4.5587994e-06 4.945565e-06
000280 55 fd 49 b6 4f 5d 68 35 37 18 f4 35 56 74 db 34
       -3.0098793e-06 8.6562517e-07 1.8186464e-06 4.0876574e-07
000290 58 5c c7 b6 94 65 e7 36 7c e8 55 36 62 3c 4e 36
       -5.9414124e-06 6.8961617e-06 3.1874797e-06 3.073154e-06
0002a0 06 64 cb 33 16 66 bf b4 e1 96 c3 b5 c5 4e 05 b6
       9.471118e-08 -3.56508e-07 -1.4572544e-06 -1.9864394e-06
0002b0 85 e6 94 b6 2c e4 a1 36 14 7a ac 36 6c 9d 93 b6
       -4.4375797e-06 4.8247366e-06 5.140211e-06 -4.3992677e-06
0002c0 86 05 2a b6 a4 88 78 35 e7 dc 4b b5 16 e4 e5 b5
       -2.533519e-06 9.258604e-07 -7.594485e-07 -1.7128211e-06
0002d0 79 f7 b1 b9 e3 9a a1 39 25 91 07 b9 9c 3c d5 b8
       -0.00033944452 0.00030823713 -0.00012928674 -0.00010167921
0002e0 f0 b8 6c 39 28 21 c8 b9 99 d1 b7 39 6d a5 03 ba
       0.00022575608 -0.00038171676 0.00035060642 -0.0005021904
0002f0 bb 91 d4 38 dd c5 12 b9 64 39 94 39 3e 2d e6 b8
       0.00010136092 -0.00013997355 0.0002827152 -0.00010975682
000300 7a 9c e6 39 23 5b 07 ba 7e aa 03 ba bb 6b 08 3a
       0.00043985603 -0.0005163422 -0.0005022659 0.00052040414
000310 4f 4b d4 38 fa 16 03 39 48 1a b7 b8 47 02 5a b9
       0.00010122975 0.00012501693 -8.731015e-05 -0.00020790948
000320 07 e2 cf b6 fb 3f 8f b8 57 36 d0 b9 e7 9e b4 38
       -6.195394e-06 -6.830689e-05 -0.00039713338 8.612667e-05
000330 cf 2d 60 38 34 57 27 39 3d bf 37 b9 1b 5c 90 b9
       5.3448424e-05 0.00015958847 -0.00017523482 -0.00027534444
000340 10 5c d9 b9 d0 7e 4e b7 b1 7e a8 b9 8b 10 b5 39
       -0.00041458057 -1.2308083e-05 -0.0003213785 0.00034535336
000350 f4 ac 10 b7 0e 52 97 39 a4 be 5e b9 ea 72 b0 ba
       -8.623338e-06 0.000288621 -0.00021242589 -0.0013461981
000360 59 b2 57 3a 82 c2 6f ba 45 ce 16 3a d3 63 ba 35
       0.0008228175 -0.00091461104 0.00057527825 1.3887133e-06
000370 6a 8c 0c b8 2c 31 14 3a 84 43 27 ba cd c1 62 ba
       -3.3509372e-05 0.0005653079 -0.0006380605 -0.00086500944
000380 be 4c 53 39 10 c2 3a ba 7d 1b 19 3a 92 81 b3 39
       0.00020151117 -0.00071242545 0.0005840583 0.00034238078
000390 d3 c8 85 3a ae b6 18 3a f3 38 2c ba ba fb 95 36
       0.0010206945 0.0005825561 -0.00065697654 4.469851e-06
0003a0 25 0b d5 b9 8c 12 09 3a 6b 79 1a ba 2f 0e 82 ba
       -0.0004063483 0.0005228899 -0.00058927265 -0.000992244
0003b0 27 7d 1f ba c1 61 c0 b9 ce a9 03 ba a1 a5 50 b9
       -0.0006084018 -0.00036693926 -0.0005022556 -0.00019898127
0003c0 85 b3 84 3a 07 e7 c6 b9 ba f2 9b 3a 0f fc 9a b9
       0.0010124302 -0.00037937632 0.00118979 -0.00029560967
0003d0 be 31 09 3a a9 ef fc 3a 1c f1 32 ba b5 f4 fb 3a
       0.00052335474 0.0019297499 -0.0006826089 0.0019222709
0003e0 16 a1 86 b8 69 9d 3e ba 56 0d 72 38 0f 8d cf 3a
       -6.4196225e-05 -0.0007271381 5.7709716e-05 0.0015834885
0003f0 35 e5 85 ba 5e a2 82 3a fc f6 ee 3a 4b be 84 bb
       -0.0010215404 0.0009966602 0.0018231566 -0.004051005
