lightning_logs/baseline_e50_lr0.001_b512/version_0/checkpoints/epoch=11-step=5016.ckpt (torch, 71330 bytes, 27 tensors)

input.weight f4 [64, 30]
0.018927634 0.23012784 -0.058195565 0.14687833 -0.060811765 -0.086000085 0.25752208 -0.20211245
0.045884486 -0.02677366 0.037863452 0.17090479 0.0055389595 -0.061822753 -0.13455804 -0.091550246
0.07297646 0.09652011 -0.048139688 0.15428999 0.020316495 -0.09358948 -0.028762441 -0.12103347
-0.07097674 0.046025038 0.22605953 0.0065765968 0.030475369 -0.27773112 0.17364337 0.22850126
-0.040377766 0.07293777 -0.053136423 -0.16491827 0.18248896 -0.24969094 0.1294321 -0.046407625
0.010946232 -0.30482742 -0.09276912 0.04740273 0.020650594 0.19205607 -0.030907108 -0.11333031
0.09859447 -0.23572734 -0.014886716 0.07783471 -0.18316789 0.0693728 0.19009162 -0.20817314
0.18195982 0.068476126 0.0055938754 0.052142974 0.12692416 0.09396804 0.032196496 -0.13667637
-0.3248558 0.13634568 0.096704125 0.15065831 0.34644622 -0.04122699 0.119373806 -0.016928416
-0.021774743 -0.16462477 0.13061674 0.16288365 -0.02210087 0.13741708 -0.11742132 -0.09344473
-0.025314499 -0.12836832 -0.26165286 -0.047190607 -0.07734847 -0.11798211 0.30088732 -0.027264578
0.017555835 -0.0591985 0.19554734 -0.076488025 0.08967486 -0.025122765 -0.1356758 -0.07086874
-0.25464797 0.04245232 0.30549675 0.0012446275 0.2183319 -0.059079044 -0.018578378 0.012236188
0.11905291 0.19612448 0.122993246 0.014684876 0.07965711 0.05072949 -0.10256778 -0.041280765
-0.15316458 -0.060220394 -0.21972217 -0.38571712 -0.12829879 -0.10858786 -0.27237096 -0.20078048
0.15431587 0.2638523 -0.13127619 0.045842115 -0.20118658 0.05915851 0.08817565 -0.0653732
0.5021633 -0.05865033 0.008828406 -0.14030081 0.1983558 -0.23159307 0.101367086 0.21577346
-0.04971705 0.04105459 0.096839696 -0.2323204 0.006122928 -0.054652933 0.051759325 -0.050389905
-0.21538219 -0.16905859 0.06208348 0.24699889 0.30001223 -0.051491782 0.03262626 -0.18401246
0.23612525 0.08863058 -0.059884712 0.044024985 0.15515009 0.055797104 0.21905093 0.27818638
0.06551869 0.20917565 0.26082548 0.2262078 0.26892114 0.13913457 0.17881493 -0.15725026
0.18414737 0.0053276485 0.21856049 0.14522071 0.072003774 -0.2025758 0.18305233 0.22018647
-0.2823156 -0.04158613 0.43365675 -0.23257 -0.2658555 -0.13830441 -0.1898475 0.041510634
0.19276871 0.18306728 -0.14036173 -0.06708089 0.017037876 0.08003262 -0.038981464 0.0143795125
-0.20299499 -0.11137092 -0.033406045 -0.09187031 -0.022820083 -0.15392822 -0.011584932 -0.2200975
-0.19860381 0.17670384 -0.08976731 -0.22618067 -0.012591167 -0.13145415 -0.17604816 -0.15403295
-0.05103205 0.010888205 -0.32323948 0.08341449 -0.06593764 0.12995145 -0.3018054 0.04642069
-0.08144067 -0.19181237 0.35775504 0.09485279 0.2013253 0.09617155 -0.08738999 -0.24803801
0.380231 0.22293691 0.19951583 -0.24675907 -0.108280666 -0.12121043 -0.14921549 -0.14887616
-0.044422492 -0.07234919 -0.077851325 -0.033748344 0.16723257 -0.15381283 -0.2967137 0.11800408
-0.18168049 -0.003231269 -0.2102621 0.032855954 -0.0433762 -0.016296927 -0.24795562 -0.217727
-0.1512551 -0.057952106 -0.015680209 0.022757307 -0.020118017 -0.16381332 0.027306467 -0.23105133
00000000: 200e 9b3c a2a6 6b3e 795e 6ebd 4667 163e
00000010: c215 79bd d020 b0bd efd9 833e 91f6 4ebe
00000020: 5ff1 3b3d 6f54 dbbc b516 1b3d aa01 2f3e
00000030: 2980 b53b db39 7dbd 95c9 09be b27e bbbd
00000040: af74 953d 56ac c53d 1f2e 45bd 32fe 1d3e
00000050: c76e a63c d7ab bfbd 369f ebbc 65e0 f7bd
00000060: 415c 91bd c084 3c3d 267c 673e 7e80 d73b
00000070: 7ba7 f93c c632 8ebe 91cf 313e 3cfc 693e
00000080: 2863 25bd 6660 953d 94a5 59bd 56e0 28be
00000090: 63de 3a3e fbae 7fbe d989 043e ec15 3ebd
000000a0: d357 333c 5712 9cbe bdfd bdbd 5d29 423d
000000b0: 6f2b a93c 59aa 443e e730 fdbc b919 e8bd
000000c0: e6eb c93d 8262 71be 6ae7 73bc ce67 9f3d
000000d0: 5d90 3bbe 5413 8e3d 61a7 423e 572b 55be
000000e0: ad53 3a3e 363d 8c3d d44c b73b df93 553d
000000f0: 68f8 013e 5172 c03d 79e0 033d e4f4 0bbe
00000100: 8053 a6be 349e 0b3e d00c c63d 2c46 1a3e
00000110: 6661 b13e a2dd 28bd 417a f43d 76ad 8abc
00000120: f260 b2bc 6593 28be 65c0 053e f9ca 263e
00000130: e20c b5bc 10b7 0c3e 977a f0bd f35f bfbd
00000140: 5a60 cfbc fc72 03be 5df7 85be f04a 41bd
00000150: e068 9ebd 9ba0 f1bd e70d 9a3e f759 dfbc
00000160: 41d1 8f3c 207a 72bd 903d 483e c1a5 9cbd
00000170: 74a7 b73d 42ce cdbc 99ee 0abe a123 91bd
00000180: 3861 82be 7ce2 2d3d 126a 9c3e c522 a33a
00000190: 6692 5f3e defc 71bd af31 98bc 4b7a 483c
000001a0: 03d2 f33d dbd4 483e e2e3 fb3d d698 703c
000001b0: 4423 a33d bac9 4f3d 0e0f d2bd 0516 29bd
000001c0: 2dd7 1cbe a9a9 76bd d9fe 60be b77c c5be
000001d0: c260 03be 5063 debd 3574 8bbe 6699 4dbe
000001e0: fb04 1e3e a617 873e 446d 06be f1c4 3b3d
000001f0: db03 4ebe 3250 723d 6f95 b43d 62e2 85bd
00000200: c68d 003f 543b 70bd 05a5 103c 04ab 0fbe
00000210: c81d 4b3e bc26 6dbe 8c99 cf3d b8f3 5c3e
00000220: 1ba4 4bbd dc28 283d e453 c63d 66e5 6dbe
00000230: d8a2 c83b c1db 5fbd 9601 543d a565 4ebd
00000240: 268d 5cbe b21d 2dbe 3f4b 7e3d 47ed 7c3e
00000250: 349b 993e 0ce9 52bd 1da3 053d c36d 3cbe
00000260: d1ca 713e f383 b53d ac49 75bd 8b53 343d
00000270: aadf 1e3e 818b 643d e34e 603e 726e 8e3e
00000280: aa2e 863d 2432 563e eb8a 853e 04a3 673e
00000290: 08b0 893e 4b79 0e3e 431b 373e 3606 21be
000002a0: 2191 3c3e 8e93 ae3b 52ce 5f3e bdb4 143e
000002b0: b776 933d 0870 4fbe 1272 3b3e 9078 613e
000002c0: ac8b 90be 3856 2abd 4208 de3e d526 6ebe
000002d0: 361e 88be ac9f 0dbe 6267 42be 0e07 2a3d
000002e0: 2965 453e fd75 3b3e fcba 0fbe b561 89bd
000002f0: 0493 8b3c 24e8 a33d 07ab 1fbd 0c98 6b3c
00000300: ebdd 4fbe 7016 e4bd c7d4 08bd 8026 bcbd
00000310: 2ff1 babc 5c9f 1dbe bace 3dbc 3d61 61be
00000320: cc5e 4bbe daf1 343e ecd7 b7bd e89b 67be
00000330: 2f4b 4ebc eb9b 06be f845 34be d0ba 1dbe
00000340: fc06 51bd 7164 323c a57f a5be 37d5 aa3d
00000350: 500a 87bd fe11 053e 3d86 9abe 9f23 3e3d
00000360: 5eca a6bd 766a 44be ab2b b73e 2e42 c23d
00000370: 3828 4e3e 97f5 c43d 86f9 b2bd adfd 7dbe
00000380: a3ad c23e 9349 643e e14d 4c3e 69ae 7cbe
00000390: 41c2 ddbd 2d3d f8bd f2cb 18be fe72 18be
000003a0: 5cf4 35bd d02b 94bd 8470 9fbd b43b 0abd
000003b0: 043f 2b3e 1c81 1dbe dcea 97be 20ac f13d
000003c0: 730a 3abe b3c3 53bb f34e 57be f793 063d
000003d0: 3eab 31bd 2281 85bc 14e8 7dbe d4f3 5ebe
000003e0: 9ee2 1abe 305f 6dbd c873 80bc 886d ba3c
000003f0: 8ace a4bc aebe 27be d0b1 df3c b898 6cbe

input.bias f4 [64]
-0.15096915 0.054525748 0.17509995 0.11188519 0.07265594 0.2355723 -0.0025966351 0.10775183
0.1147722 -0.13979349 0.16819839 0.03535192 0.016476933 -0.12428988 0.14112754 0.0034416793
0.22393744 0.18455401 -0.06484839 -0.17278785 -0.044031736 0.02845698 -0.099548765 -0.0817052
-0.018403387 0.07347265 -0.12529416 0.01896916 0.0067569846 0.16393492 0.15413682 0.11120856
-0.12848128 -0.061622337 -0.09707016 0.123590745 -0.07737158 -0.014057152 -0.17918102 0.17324069
-0.18220812 -0.022897234 0.06308352 0.063221954 -0.035534985 0.13314046 -0.07147435 0.04793151
-0.14867349 -0.027362803 -0.2356336 0.09620108 -0.15484802 -0.013917712 0.20279607 0.19433865
-0.12816694 0.06548722 0.02925145 0.05770478 -0.14056528 0.17665915 0.11540506 -0.002136732
00000000: a897 1abe 6456 5f3d 674d 333e 1024 e53d
00000010: a3cc 943d dd39 713e 4f2c 2abb feac dc3d
00000020: b00d eb3d 0626 0fbe 333c 2c3e 2dcd 103d
00000030: a2fa 863c b18b febd bd83 103e cc8d 613b
00000040: db4f 653e bafb 3c3e 3ccf 84bd 4cef 30be
00000050: 9f5a 34bd 9d1e e93c 39e0 cbbd 0e55 a7bd
00000060: b3c2 96bc d478 963d 1d4d 00be 3665 9b3c
00000070: b269 dd3b 8ede 273e 0bd6 1d3e 50c1 e33d
00000080: 9990 03be b467 7cbd b8cc c6bd 251d fd3d
00000090: fe74 9ebd f84f 66bc 3b7b 37be 0266 313e
000000a0: c494 3abe fb92 bbbc ef31 813d 837a 813d
000000b0: 228d 11bd f955 083e 2561 92bd d553 443d
000000c0: dd3d 18be f527 e0bc ef49 71be 1205 c53d
000000d0: 7b90 1ebe 1d07 64bc c6a9 4f3e b600 473e
000000e0: 323e 03be 2a1e 863d bda0 ef3c d95b 6c3d
000000f0: 58f0 0fbe 23e6 343e 7d59 ec3d 6a08 0cbb

h1.weight f4 [32, 64]
0.0036963248 -0.018935489 -0.19753271 -0.16799548 -0.08184731 -0.17929557 0.10703992 -0.080764174
0.026032634 0.07064502 0.011891109 -0.013334807 -0.14006162 -0.08587789 -0.052841626 0.035697833
-0.09699871 -0.004123659 0.054168686 -0.026413348 -0.012629718 -0.009090102 -0.08104508 -0.28309974
-0.14012888 -0.08476956 0.040920485 -0.13787763 0.18471538 -0.11356153 0.053010087 0.06995692
0.20135672 -0.09870197 0.15922384 -0.11498858 0.10151904 0.13320358 0.032252014 -0.3953991
-0.106712274 -0.041371047 0.07093516 -0.021112708 -0.0060803494 -0.037296932 0.11360659 0.16668792
0.17733108 0.17500083 0.053281147 -0.17081642 -0.059841942 -0.05588966 0.0606316 -0.13162187
-0.0038994262 -0.06737651 0.049234495 0.035099804 0.053424336 -0.096241795 -0.044950694 -0.12728944
0.00012435642 0.16716851 0.1568936 0.37962875 0.06210982 0.17985876 -0.013722364 0.29281637
-0.04369954 -0.06453923 0.11585535 -0.037445623 0.31870705 0.19557849 0.1781506 0.10789038
0.27250093 -0.11533881 -0.13305259 0.05141516 -0.045685295 0.18451668 0.1322324 0.33060074
-0.0552156 0.08285409 -0.18768674 0.2612374 -0.051754523 -0.0034536354 0.20101517 0.043619137
0.019866155 0.07439096 -0.023064932 0.24382123 -0.15710275 0.043207563 0.028945876 0.057662293
-0.13649422 0.18226595 -0.04910929 -0.019981882 0.09031766 0.11210363 -0.08621711 -0.057050113
-0.03173973 -0.081054755 -0.07250055 0.15177141 0.23257348 0.2426447 0.2186384 0.04726255
0.112802915 0.11453445 -0.00500903 0.10397449 -0.032945715 0.03567734 0.030725332 0.19073704
-0.052190624 0.06492808 0.30729237 0.2516648 0.12736243 0.03325321 -0.11024719 0.22927825
0.07080565 -0.058298755 0.21322362 -0.066728584 0.15425348 0.009359732 0.15649673 0.02594472
0.42626935 -0.09948813 0.01657079 0.16986991 -0.113099426 0.25320703 0.114001855 0.24575417
-0.09079248 0.09731718 -0.12911732 0.38580737 -0.09927879 0.15866704 0.14151153 -0.06567011
-0.040006537 0.15698266 -0.100576825 0.32177356 -0.05767879 -0.16628142 0.06391784 0.09312648
-0.05666142 0.25516585 0.29162085 0.10392532 0.050322168 -0.050804637 0.07421131 -0.04355552
-0.07032907 0.026247459 -0.13124791 0.17787027 0.07580283 0.12805086 0.11996935 0.33363336
0.311083 0.12955956 0.04820622 0.1197536 -0.19116175 0.3323319 -0.026933301 0.041392867
-0.009338034 0.08038872 -0.1999592 -0.16123603 -0.1259893 -0.25046363 0.1353978 -0.27061582
0.113315515 0.1488242 0.005477103 0.12995005 -0.30035177 -0.09462018 -0.33165234 -0.17351893
-0.06637351 0.12193168 0.035661142 0.077390626 -0.01915712 -0.059364583 -0.117978476 -0.37009165
-0.03069571 -0.023889102 0.13626759 -0.0028054006 0.17643619 -0.1281639 -0.066804156 0.09777149
0.09439251 -0.033248886 0.13596067 -0.14709073 0.120230466 0.019054316 -0.10146524 -0.22314322
0.05788295 -0.11775333 0.047900267 0.018146679 -0.09496019 0.018661821 -0.010614092 0.03423712
0.056279495 -0.016268715 0.03796139 0.032571103 -0.16402367 -0.24115819 -0.18356536 -0.23914757
-0.12602375 -0.089685895 0.094358355 0.09475302 0.042580962 -0.13535759 -0.13592461 -0.047811884
00000000: 0a3e 723b 991e 9bbc 0446 4abe 0207 2cbe
00000010: 909f a7bd 4299 37be bf37 db3d b067 a5bd
00000020: 6442 d53c 56ae 903d edd2 423c 3c7a 5abc
00000030: 506c 0fbe bfe0 afbd 7670 58bd e437 123d
00000040: 42a7 c6bd c21f 87bb fcdf 5d3d ce60 d8bc
00000050: e0ec 4ebc a7ee 14bc f7fa a5bd 73f2 90be
00000060: f27d 0fbe aa9b adbd 3d9c 273d cb2f 0dbe
00000070: 0726 3d3e f392 e8bd 1b21 593d 9345 8f3d
00000080: 7530 4e3e 4224 cabd 930b 233e 227f ebbd
00000090: 37e9 cf3d 8566 083e b01a 043d c071 cabe
000000a0: f78b dabd b074 29bd 7446 913d 8ff4 acbc
000000b0: ab3d c7bb abc4 18bd 92aa e83d 3db0 2a3e
000000c0: 4796 353e 6b33 333e 553d 5a3d 80ea 2ebe
000000d0: d31c 75bd 8eec 64bd d758 783d e2c7 06be
000000e0: 848d 7fbb b2fc 89bd 1caa 493d d0c4 0f3d
000000f0: 7ad3 5a3d 6b1a c5bd 381e 38bd 2a58 02be
00000100: ac65 0239 392e 2b3e b7a8 203e b35e c23e
00000110: de66 7e3d e52c 383e c4d3 60bc 07ec 953e
00000120: 4afe 32bd 252d 84bd 9245 ed3d 9560 19bd
00000130: 922d a33e ba45 483e 1c6d 363e a2f5 dc3d
00000140: 3e85 8b3e c136 ecbd f03e 08be b498 523d
00000150: 8120 3bbd f1f1 3c3e ee67 073e 8044 a93e
00000160: c129 62bd 68af a93d f430 40be e9c0 853e
00000170: 8dfc 53bd 6356 62bb ecd6 4d3e fba9 323d
00000180: 59be a23c 4a5a 983d abf2 bcbc 46ac 793e
00000190: 8bdf 20be 6afa 303d e71f ed3c 4c2f 6c3d
000001a0: 24c5 0bbe eda3 3a3e d326 49bd 0bb1 a3bc
000001b0: 77f8 b83d 9796 e53d 9992 b0bd 61ad 69bd
000001c0: 8501 02bd 0900 a6bd 2b7b 94bd f769 1b3e
000001d0: be27 6e3e da77 783e bfe2 5f3e 6096 413d
000001e0: 3705 e73d 0a91 ea3d ca22 a4bb 94f0 d43d
000001f0: 16f2 06bd 6722 123d b1b3 fb3c 9250 433e
00000200: d6c5 55bd 03f9 843d 6d55 9d3e 35da 803e
00000210: 4c6b 023e 8534 083d 47c9 e1bd ebc7 6a3e
00000220: 8d02 913d adca 6ebd 4b57 5a3e ffa8 88bd
00000230: a0f4 1d3e 9059 193c ae40 203e 058a d43c
00000240: fa3f da3e 6fc0 cbbd 77bf 873c 61f2 2d3e
00000250: aca0 e7bd 5aa4 813e ce79 e93d fba6 7b3e
00000260: 68f1 b9bd 3b4e c73d 5537 04be 8b88 c53e
00000270: ae52 cbbd 9d79 223e 66e8 103e 0d7e 86bd
00000280: e5dd 23bd 10c0 203e 39fb cdbd 81bf a43e
00000290: 9840 6cbd ad45 2abe 5be7 823d 19b9 be3d
000002a0: ce15 68bd 19a5 823e 544f 953e ccd6 d43d
000002b0: 9e1e 4e3d 8618 50bd 19fc 973d 4667 32bd
000002c0: b008 90bd e904 d73c da65 06be a023 363e
000002d0: 843e 9b3d c41f 033e 7eb2 f53d fed1 aa3e
000002e0: 4546 9f3e 43ab 043e e373 453d 6041 f53d
000002f0: e8bf 43be 6827 aa3e 3aa3 dcbc 918b 293d
00000300: 8efe 18bc d7a2 a43d 1bc2 4cbe 0f1b 25be
00000310: 5703 01be c53c 80be b9a5 0a3e 288e 8abe
00000320: f711 e83d 5f65 183e 4579 b33b a011 053e
00000330: b5c7 99be 3ac8 c1bd 56ce a9be f2ae 31be
00000340: d6ee 87bd 51b7 f93d 6b11 123d fa7e 9e3d
00000350: 64ef 9cbc 4728 73bd b39e f1bd a77c bdbe
00000360: 9275 fbbc 14b3 c3bc bb89 0b3e d0da 37bb
00000370: b0ab 343e 663d 03be 9ed0 88bd 6b3c c83d
00000380: dc50 c13d fc2f 08bd 4639 0b3e f49e 16be
00000390: 643b f63d cc17 9c3c 02cd cfbd a87f 64be
000003a0: ac16 6d3d a828 f1bd 1233 443d 58a8 943c
000003b0: 7d7a c2bd ade0 983c bbe6 2dbc 393c 0c3d
000003c0: 5485 663d f845 85bc 677d 1b3d 4769 053d
000003d0: d2f5 27be 2cf2 76be 8ff8 3bbe 1ae3 74be
000003e0: 5f0c 01be 3dad b7bd f43e c13d df0d c23d
000003f0: 6069 2e3d 2e9b 0abe d22f 0bbe 65d6 43bd

h1.bias f4 [32]
-0.007999506 0.10184624 0.042429302 -0.069738016 0.124852985 -0.103079244 0.11351962 -0.0490485
-0.09056043 -0.11900914 -0.04250839 -0.06158035 0.0051645515 -0.08145841 0.09648474 0.0039705937
-0.08052996 -0.048384253 -0.010644319 0.0021183062 0.0028261445 -0.1132831 -0.035896543 0.079743415
0.07524438 0.1030558 0.101135775 -0.095018275 -0.04366481 0.11521704 0.056114733 -0.07075221
00000000: 5c10 03bc c394 d03d 59ca 2d3d ced2 8ebd
00000010: ecb2 ff3d 361b d3bd f97c e83d 14e7 48bd
00000020: bf77 b9bd 10bb f3bd 471d 2ebd ad3b 7cbd
00000030: 663b a93b abd3 a6bd cb99 c53d c11b 823b
00000040: e4ec a4bd 912e 46bd 8265 2ebc 48d3 0a3b
00000050: d636 393b f800 e8bd 4108 13bd 8450 a33d
00000060: ba19 9a3d eb0e d33d 4620 cf3d f198 c2bd
00000070: dfd9 32bd e9f6 eb3d 90d8 653d 89e6 90bd

h2.weight f4 [16, 32]
-0.009119811 -0.1609814 0.030732092 0.057987154 0.22332089 -0.027476037 0.10104249 0.1507344
0.06453654 -0.2488369 0.1527508 -0.010790779 -0.07416252 -0.07032539 0.10418321 0.08601488
0.011735911 0.13368104 0.2470864 0.021772662 -0.3116014 -0.09627661 0.21884267 -0.039526105
0.030163022 0.21297419 -0.0937067 -0.06649406 0.067078255 0.22026727 -0.041354768 0.11510193
-0.05320692 -0.074598804 -0.41239497 0.005269968 0.17513067 -0.06416154 -0.41602036 -0.1023561
-0.096249804 -0.39916185 -0.023334468 0.14065026 -0.04466493 -0.21971107 0.36807528 -0.050012447
-0.017934099 -0.022567786 0.18704733 0.011625161 -0.15901436 0.12019898 0.1587047 0.13785332
0.03174319 0.095335804 -0.03040866 0.15773591 -0.09590318 0.08868096 -0.25126466 -0.06506548
0.19116773 -0.18066119 0.16527605 0.1646327 0.36146572 -0.046497077 -0.047601182 0.037113443
-0.026682742 -0.07933791 -0.045125354 0.013661682 0.20821902 -0.04957546 0.32228756 -0.17919861
-0.07838653 -0.15059204 0.060252156 0.09770415 -0.1978184 0.15995485 0.09578072 0.06456717
0.13480556 0.05830082 -0.07354311 0.14396016 -0.03316584 0.23148212 -0.18989263 0.10234918
0.03953825 0.0152312275 -0.04061518 0.24830288 -0.0025584649 -0.060020838 -0.13839833 0.12548795
0.24126217 0.040189818 0.24608782 -0.102692366 0.1420301 0.13926898 -0.011076897 -0.010523724
0.108799815 -0.06175514 0.0768788 0.020560637 -0.16230957 0.0781786 0.07635804 -0.107975274
0.21702959 0.053891353 -0.26021108 -0.08911426 -0.25891763 0.14765751 -0.1722247 0.16948026
-0.22433847 0.08977577 0.14822353 0.024224443 -0.1204659 0.07383146 0.0670718 -0.11091981
-0.12191626 0.31412548 -0.08842327 0.19939147 -0.058964685 0.10583584 -0.09854892 0.13819073
0.117172584 0.15442695 -0.28945768 -0.12774076 -0.0822133 0.2212006 -0.03168816 -0.0048280875
-0.3227838 -0.19413616 0.08465999 0.017752625 0.103629984 -0.09594077 0.18416326 0.0014513907
-0.01746658 -0.18246408 -0.13839528 0.19389689 0.3171626 0.056139793 -0.040764935 0.14272553
0.058533803 -0.029872816 -0.040898662 -0.22460221 -0.030082682 0.07567617 0.2597993 0.156111
0.035204545 0.052792758 0.13227308 0.18923277 -0.11060559 0.2351646 0.14673035 0.042139933
0.04280466 0.043188166 0.091869265 0.10440628 -0.121323675 0.05066103 -0.16112065 0.24751005
-0.09816973 0.104418606 0.16145554 -0.030036913 -0.07151731 0.119948976 0.2433902 -0.116248146
-0.096573934 -0.028468704 -0.0068984493 0.017919686 0.12567572 0.25992653 -0.07339871 0.2938516
0.1928361 0.08884254 -0.17611519 0.02589838 -0.028677177 0.26644513 -0.27858382 0.12909114
-0.19222453 -0.033649452 -0.043648805 0.11026239 0.24710767 -0.21137911 0.1276149 -0.016279943
0.043445133 -0.03340169 0.4708583 0.05770819 -0.21302691 0.33484796 0.06545146 -0.11756757
-0.020901136 0.33628914 0.13413292 0.22322468 0.076460764 -0.0042184917 -0.013270919 0.35449764
-0.022469282 0.10717767 0.035364695 -0.096033655 0.19349618 0.083117515 -0.09487713 0.13428076
-0.1865927 -0.058715913 0.074248865 0.13455966 0.19604553 -0.17894746 -0.01922718 -0.13651906
00000000: 426b 15bc 4fd8 24be dec1 fb3c f083 6d3d
00000010: 3bae 643e 6d15 e1bc 5def ce3d 1e5a 1a3e
00000020: bc2b 843d 1acf 7ebe b56a 1c3e cfcb 30bc
00000030: 85e2 97bd c206 90bd 025e d53d 9228 b03d
00000040: fa47 403c afe3 083e 3804 7d3e 955c b23c
00000050: 388a 9fbe ac2c c5bd 4b18 603e 20e6 21bd
00000060: 7118 f73c e815 5a3e 4ce9 bfbd 0a2e 88bd
00000070: 5360 893d be8d 613e 9e63 29bd 90ba eb3d
00000080: 80ef 59bd 42c7 98bd 6f25 d3be b2af ac3b
00000090: 7455 333e 2067 83bd 9f00 d5be 13a0 d1bd
000000a0: 9e1e c5bd f15e ccbe ed27 bfbc 9f06 103e
000000b0: 93f2 36bd f0fb 60be 5d74 bc3e dad9 4cbd
000000c0: 88ea 92bc 14e0 b8bc 5689 3f3e 7677 3e3c
000000d0: a9d4 22be e22a f63d 7c83 223e 6c29 0d3e
000000e0: 2605 023d 6b3f c33d 951b f9bc 8685 213e
000000f0: e368 c4bd 5d9e b53d c3a5 80be 0d41 85bd
00000100: 79c1 433e 3fff 38be 203e 293e 7995 283e
00000110: 0912 b93e b873 3ebd 75f9 42bd 4404 183d
00000120: c495 dabc ea7b a2bd 5dd5 38bd 3fd5 5f3c
00000130: 5e37 553e a30f 4bbd e002 a53e d77f 37be
00000140: 1e89 a0bd cd34 1abe f7ca 763d 1d19 c83d
00000150: e890 4abe 34cb 233e af28 c43d cb3b 843d
00000160: 780a 0a3e d7cc 6e3d c59d 96bd 4b6a 133e
00000170: e7d8 07bd a609 6d3e 3773 42be 729c d13d
00000180: dcf2 213d 668c 793c 1a5c 26bd 1c43 7e3e
00000190: ebab 27bb 69d8 75bd 4bb8 0dbe ea7f 003e
000001a0: 6e0d 773e 149e 243d 72fe 7b3e 6050 d2bd
000001b0: 5770 113e 879c 0e3e e07b 35bc b36b 2cbc
000001c0: 70d2 de3d f5f2 7cbd a272 9d3d c86e a83c
000001d0: 7b34 26be 1a1c a03d 9b61 9c3d 2422 ddbd
000001e0: 013d 5e3e 2ebd 5c3d 633a 85be 8a81 b6bd
000001f0: da90 84be 8833 173e ac5b 30be 3c8c 2d3e
00000200: fcb8 65be 5cdc b73d e9c7 173e 5772 c63c
00000210: d3b6 f6bd f334 973d f15c 893d ed29 e3bd
00000220: 3baf f9bd 0ed5 a03e 4217 b5bd 472d 4c3e
00000230: f484 71bd 76c0 d83d 04d4 c9bd df81 0d3e
00000240: 2ef8 ef3d 1922 1e3e cc33 94be 79ce 02be
00000250: 725f a8bd 6982 623e 72cb 01bd ef34 9ebb
00000260: eb43 a5be a1cb 46be 3862 ad3d f46d 913c
00000270: f53b d43d 987c c4bd 4b95 3c3e 973c be3a
00000280: 1316 8fbc ddd7 3abe 7eb7 0dbe e88c 463e
00000290: 2363 a23e d7f2 653d 22f9 26bd a426 123e
000002a0: 24c1 6f3d d6b7 f4bc 5b85 27bd 1ffe 65be
000002b0: f56f f6bc 1cfc 9a3d 6a04 853e 90db 1f3e
000002c0: a432 103d 383d 583d 9872 073e 3cc6 413e
000002d0: 2f85 e2bd fdce 703e 7b40 163e ec9a 2c3d
000002e0: f053 2f3d 13e6 303d f425 bc3d f6d2 d53d
000002f0: 8c78 f8bd f181 4f3d d0fc 24be 4673 7d3e
00000300: 360d c9bd 6cd9 d53d 9a54 253e f90f f6bc
00000310: ab77 92bd cfa7 f53d 483b 793e 8213 eebd
00000320: 8ec8 c5bd 3337 e9bc 630c e2bb 4ecc 923c
00000330: 23b1 003e 1715 853e 1052 96bd b873 963e
00000340: d476 453e 14f3 b53d 8a57 34be d728 d43c
00000350: 66ec eabc 7f6b 883e 8aa2 8ebe 7830 043e
00000360: 82d6 44be 02d4 09bd 17c9 32bd 3fd1 e13d
00000370: cb09 7d3e c473 58be 7bad 023e 845d 85bc
00000380: 86f3 313d 36d0 08bd 5714 f13e 6c5f 6c3d
00000390: ba23 5abe 3171 ab3e 6a0b 863d 44c7 f0bd
000003a0: dc38 abbc 172e ac3e 245a 093e 0395 643e
000003b0: 7697 9c3d 463b 8abb 456e 59bc b780 b53e
000003c0: 8011 b8bc f77f db3d 92da 103d 4bad c4bd
000003d0: dd23 463e 8439 aa3d f14e c2bd e580 093e
000003e0: 2812 3fbe 1980 70bd ca0f 983d 02ca 093e
000003f0: 29c0 483e 013e 37be 5282 9dbc a7cb 0bbe

h2.bias f4 [16]
0.047233958 0.05345627 -0.023698483 0.12707838 -0.11821995 -0.024595067 0.07837868 -0.08443349
-0.09317236 -0.09045792 0.21307151 0.18447682 0.09082017 0.16585997 0.053464577 0.15681152
00000000: 6578 413d f6f4 5a3d 5223 c2bc d620 023e
00000010: 4d1d f2bd 987b c9bc 0085 a03d 77eb acbd
00000020: 26d1 bebd 0142 b9bd 6b2f 5a3e 7ee7 3c3e
00000030: edff b93d 32d7 293e acfd 5a3d 3393 203e

h3.weight f4 [8, 16]
-0.08612225 0.11924548 -0.3100173 -0.049180254 0.3196905 -0.18524465 0.16887973 0.27024728
-0.06795927 0.10193322 0.5303228 0.012809115 -0.06718575 -0.11143284 0.032808296 0.18068615
0.02148107 -0.19296579 -0.26888347 -0.27427477 0.16886918 0.0542076 0.37096724 0.10813438
0.2308852 0.098974064 -0.02955535 -0.2412719 0.31104746 0.10263318 0.11280685 0.14252496
0.44404593 0.4539324 0.40377864 0.378563 0.15016761 0.290293 -0.2151563 -0.21602304
-0.073403366 -0.17464164 -0.17545253 0.37464333 -0.26513374 -0.19919078 -0.08416536 0.061847206
-0.0053973813 0.041258764 -0.011930385 -0.21258174 0.28234375 -0.22664297 -0.05560565 0.19962004
0.24092776 0.155206 -0.068412624 -0.20011866 -0.002124077 0.27150238 0.1936775 0.14294064
-0.31604218 -0.24346617 -0.123478465 -0.19588476 -0.18420294 0.13640341 -0.3349113 -0.319952
-0.33715788 -0.11401674 -0.14826983 -0.16436012 -0.119571134 0.094576985 -0.30241677 0.13640305
-0.16020171 -0.05725848 0.04978821 -0.18722436 0.32242727 -0.04728877 0.14141281 0.042120527
-0.06682155 0.34679163 0.28033203 -0.27440995 -0.0057708556 0.1556711 0.21960184 0.21123078
-0.1886871 -0.15120354 -0.21532325 -0.16404639 0.1575923 0.15469025 0.3511874 0.2154747
0.057375733 0.21315688 0.1648591 -0.19893974 0.30818975 -0.05366553 -0.100575514 0.11917082
-0.10192535 -0.07774828 -0.0776927 -0.23398994 -0.117549494 -0.11606261 0.059813805 0.09719181
0.418111 0.096888855 0.30048278 0.017305361 0.08157633 0.1415228 0.35189974 0.20828086
00000000: dd60 b0bd f936 f43d 96ba 9ebe 3c71 49bd
00000010: 79ae a33e c6b0 3dbe cfee 2c3e da5d 8a3e
00000020: 3b2e 8bbd 5dc2 d03d 3cc3 073f 53dd 513c
00000030: af98 89bd e736 e4bd fe61 063d ca05 393e
00000040: 12f9 af3c d398 45be 18ab 89be be6d 8cbe
00000050: 0bec 2c3e ca08 5e3d 6bef bd3e 8f75 dd3d
00000060: 2b6d 6c3e eab2 ca3d 101e f2bc fb0f 77be
00000070: 9d41 9f3e 5831 d23d 4707 e73d 10f2 113e
00000080: fd59 e33e d469 e83e 13bc ce3e 02d3 c13e
00000090: 8ac5 193e 49a1 943e ef51 5cbe 2535 5dbe
000000a0: 8154 96bd 42d5 32be d4a9 33be 40d1 bf3e
000000b0: 9cbf 87be abf8 4bbe e35e acbd 7f53 7d3d
000000c0: 84dc b0bb f3fe 283d a977 43bc 07af 59be
000000d0: 5c8f 903e 1815 68be c0c2 63bd 3269 4c3e
000000e0: c4b5 763e 52ee 1e3e eb1b 8cbd e8eb 4cbe
000000f0: 1934 0bbb 5c02 8b3e 6553 463e 085f 123e
00000100: 48d0 a1be 324f 79be 47e2 fcbd 0496 48be
00000110: b29f 3cbe 56ad 0b3e 7e79 abbe c0d0 a3be
00000120: f59f acbe 9c81 e9bd 0cd4 17be 054e 28be
00000130: b6e1 f4bd 94b1 c13d 5fd6 9abe 3ead 0b3e
00000140: eb0b 24be de87 6abd b9ee 4b3d beb7 3fbe
00000150: 3015 a53e dfb1 41bd 85ce 103e 9386 2c3d
00000160: bdd9 88bd ac8e b13e ae87 8f3e 767f 8cbe
00000170: 7219 bdbb 3f68 1f3e 4edf 603e e24c 583e
00000180: 3137 41be 1ad5 1abe b37d 5cbe c7fb 27be
00000190: e05f 213e 1f67 1e3e d6ce b33e 66a5 5c3e
000001a0: d102 6b3d cc45 5a3e d3d0 283e dcb6 4bbe
000001b0: 0ccb 9d3e 63d0 5bbd 89fa cdbd d50f f43d
000001c0: 3dbe d0bd 7d3a 9fbd 5a1d 9fbd 0f9b 6fbe
000001d0: cabd f0bd 3cb2 edbd 52ff 743d 800c c73d
000001e0: a512 d63e aa6d c63d e1d8 993e f9c3 8d3c
000001f0: 7e11 a73d 5aeb 103e 342c b43e 9447 553e

h3.bias f4 [8]
-0.18598813 0.07563394 0.24625118 0.1735937 -0.2314571 -0.18857 0.21114789 0.066788435
00000000: ac73 3ebe f8e5 9a3d 4529 7c3e 8cc2 313e
00000010: 1703 6dbe 7e18 41be 2737 583e 60c8 883d

h4.weight f4 [1, 8]
-0.24256362 -0.3149989 0.51011026 -0.35321945 0.25128153 -0.33081192 -0.28879446 -0.31393418
00000000: 9962 78be 8947 a1be 9696 023f 2ed9 b4be
00000010: f9a7 803e 2e60 a9be dedc 93be fbbb a0be

exp_avg f4 [64, 30]
0.0069594737 0.0025728864 -0.012250246 -0.028471816 -0.043511797 0.012002206 -0.024422225 0.028340964
0.037719537 0.023485005 -0.0064275363 -0.023983514 -0.019547904 0.001958839 -0.015966127 -0.009815844
0.00057005446 -0.0034111792 -0.0039641163 -0.0052664117 -0.01939809 0.0284491 -0.034179784 0.003326344
-0.0097662965 -0.026706524 -0.0204035 -0.0064626047 -0.014254227 0.0067029856 -0.00040866918 -0.000682556
-3.7850627e-05 0.00037565327 -0.0022536519 5.657756e-06 -0.00026008 -0.00037895405 0.0003543793 0.00011081284
-0.00016000106 0.00065950124 0.0005546497 0.00038511286 0.00063180685 0.0004113281 -0.0011847438 -2.86946e-05
-0.0005801192 0.0013848774 -0.0001639367 -1.7840071e-05 0.00019474783 -0.00010082245 -0.00030652437 -0.00013275394
7.994893e-05 0.00010601433 2.5677944e-06 -0.0005210175 -0.003606504 -0.0020445748 -0.0017094442 0.005135563
-0.0025411963 -0.0032749823 0.0039181868 -0.0032349022 0.0008987809 -0.00027124808 0.004696495 -0.00077421084
0.0024036684 0.0040724645 0.009775989 -0.0012134969 -0.0024221868 -0.009232563 -0.0049752574 0.00061818876
-0.00028186588 -3.6434872e-06 -1.665954e-05 0.0009738789 0.0006566783 -0.000654394 -0.0016112413 -0.00017452017
-0.000792557 0.00020518393 -0.0040752934 -0.0011678127 -0.0013227 0.004572718 -0.006842622 -0.0051317667
0.004935372 -0.0045263534 0.0016106971 -7.2017974e-05 0.0027631 -0.00073275977 0.0035912541 0.0028496133
0.010841332 -0.0020320883 -0.0056549106 -0.0065070493 -0.0071556633 0.0026921018 0.0017985972 0.00047563063
-0.0014055677 -0.0013110333 0.0019018063 0.0013152005 0.0038785718 0.00029478018 0.0017120962 0.00017619779
-0.0009977758 -0.0025065825 -0.00060691807 0.0027679168 -0.00375099 -0.0016304066 0.002508232 -0.0015027426
0.0001886123 -0.00022762039 0.0028974735 -0.0010730339 0.0010609478 0.0044149533 0.0061283065 -0.0018231093
-0.0030875255 -0.0047530727 -0.004690628 0.0017410666 -1.1566e-05 -0.0006683847 -0.0018960389 0.0012202057
0.0030579085 -0.001756946 0.0017809438 -0.0008232853 -0.0010600567 6.009142e-05 -0.013468754 -0.00438518
0.025109194 0.058328293 0.08787864 -0.025737735 0.051110506 -0.06136639 -0.07720261 -0.046541285
0.0123507455 0.05037894 0.03974147 -0.0056050713 0.027709061 0.018774582 0.00041273414 0.011982026
0.0086586615 0.013898397 0.04038011 -0.060199454 0.07005803 -0.0065678353 0.018343993 0.05204443
0.045969635 0.013847757 0.029079761 -0.015142669 -0.0003128672 1.6685965e-05 0.0004891243 -0.0004594554
0.0037997155 0.0016955318 -0.0010129114 0.0012295146 -0.00074433105 -0.00018512477 -0.00010734906 0.0004629321
-0.001424099 -0.00069788785 -0.0029524427 -0.0010741488 0.0016697241 0.00174507 0.0015890007 -0.0029797584
-0.00081849046 0.00020120516 0.00036555316 -0.00026158916 0.00015682798 0.0009563403 -0.0012116012 -0.0002621066
-0.0004771273 3.3642824e-05 0.0012511134 0.0010595671 0.0010788547 -0.0012147247 -0.004799443 -0.00174446
0.00047127667 -0.00087962 0.00061751594 0.00019448313 -0.0016926113 -0.00021362457 0.0013844374 0.0019135606
0.0012337095 0.00052306097 -0.0029476958 0.0017483387 -0.00049410434 0.0039058882 0.0035488307 0.0007384825
-0.001139564 -0.0013638944 -0.00025848908 -0.002154856 0.00046473896 0.00067878334 0.0017583206 0.00016328694
0.00055182347 -0.00046122848 -6.2465384e-05 0.0005592186 -0.001937737 -0.00081817945 0.00059701584 -0.00051111955
0.00052358466 0.00023034394 0.0003655656 -0.0010174214 -0.00023771577 0.0009295868 0.0014428914 0.0006560547
00000000: 4c0c e43b df9d 283b 41b5 48bc ba3d e9bc
00000010: 6d39 32bd e7a4 443c 1e11 c8bc 4f2b e83c
00000020: cd7f 1a3d a063 c03c 159e d2bb 1379 c4bc
00000030: ed22 a0bc dd5f 003b 65cb 82bc a2d2 20bc
00000040: b56f 153a 178e 5fbb 6be5 81bb dd91 acbb
00000050: bee8 9ebc 160e e93c 1a00 0cbd cbfe 593b
00000060: d102 20bc a4c7 dabc 3e25 a7bc 42c4 d3bb
00000070: 908a 69bc b8a4 db3b a642 d6b9 8fed 32ba
00000080: cdc1 1eb8 54f3 c439 01b2 13bb c1d7 bd36
00000090: 595b 88b9 5aae c6b9 fccb b939 3164 e838
000000a0: f5c5 27b9 61e2 2c3a e965 113a f9e8 c939
000000b0: d79f 253a 86a7 d739 6849 9bba 2fb5 f0b7
000000c0: 2413 18ba c684 b53a 6ce6 2bb9 43a7 95b7
000000d0: 3935 4c39 a470 d3b8 01b5 a0b9 dd33 0bb9
000000e0: 41aa a738 0354 de38 5f52 2c36 e494 08ba
000000f0: 195b 6cbb 46fe 05bb 6e0f e0ba 3a48 a83b
00000100: 338a 26bb 16a1 56bb 2264 803b a700 54bb
00000110: 2a9c 6b3a 4d36 8eb9 0ee5 993b 69f4 4aba
00000120: dd86 1d3b 4f72 853b 782b 203c 330e 9fba
00000130: 8dbd 1ebb 2d44 17bc 7c07 a3bb f20d 223a
00000140: 66c7 93b9 a282 74b6 17c0 8bb7 e84b 7f3a
00000150: ef24 2c3a a38b 2bba 4930 d3ba 67ff 36b9
00000160: 9ac3 4fba a426 5739 0a8a 85bb 4b11 99ba
00000170: 725e adba bdd6 953b 1338 e0bb 6128 a8bb
00000180: e7b8 a13b ce51 94bb 071e d33a 5b08 97b8
00000190: 2015 353b ad16 40ba 3f5b 6b3b 94c0 3a3b
000001a0: d89f 313c c92c 05bb d44c b9bb 1639 d5bb
000001b0: 0e7a eabb f96d 303b e8be eb3a 105e f939
000001c0: 073b b8ba fad6 abba 0846 f93a ce62 ac3a
000001d0: a32f 7e3b ba8c 9a39 6a68 e03a bcc1 3839
000001e0: cdc7 82ba 7a45 24bb 9519 1fba f065 353b
000001f0: 2bd3 75bb 5eb3 d5ba 2661 243b adf7 c4ba
00000200: 3bc6 4539 62ad 6eb9 8ae3 3d3b 0ba5 8cba
00000210: 800f 8b3a 50ab 903b f6cf c83b 66f5 eeba
00000220: 1558 4abb aabf 9bbb d7b3 99bb 8034 e43a
00000230: 970b 42b7 8a36 2fba 8284 f8ba 4fef 9f3a
00000240: 3167 483b 5349 e6ba 8f6e e93a bed1 57ba
00000250: 9af1 8aba ac0a 7c38 0cac 5cbc 8eb1 8fbb
00000260: ccb1 cd3c a6e9 6e3d b7f9 b33d f1d7 d2bc
00000270: 4059 513d 535b 7bbd 671c 9ebd 13a2 3ebd
00000280: c85a 4a3c 265a 4e3d f4c7 223d bfaa b7bb
00000290: 1dfe e23c 27cd 993c 3d64 d839 4250 443c
000002a0: 0fdd 0d3c 1ab6 633c 9d65 253d b493 76bd
000002b0: 967a 8f3d ff36 d7bb 2446 963c 8a2c 553d
000002c0: a84a 3c3d b4e1 623c ae38 ee3c f518 78bc
000002d0: 5308 a4b9 d6f8 8b37 9338 003a 0fe3 f0b9
000002e0: a604 793b 9b3c de3a abc3 84ba aa27 a13a
000002f0: 361f 43ba 0d1e 42b9 9620 e1b8 b2b5 f239
00000300: d5a8 baba 76f2 36ba c57d 41bb 74ca 8cba
00000310: a5da da3a d5ba e43a 0446 d03a 0d48 43bb
00000320: f78f 56ba 99fa 5239 b7a7 bf39 e725 89b9
00000330: 3172 2439 e9b2 7a3a 97ce 9eba 5a6b 89b9
00000340: f126 fab9 b51b 0d38 66fc a33a 2ce1 8a3a
00000350: 5b68 8d3a 6637 9fba a544 9dbb 5da6 e4ba
00000360: af15 f739 4d96 66ba cbe0 213a 2bee 4b39
00000370: 9cda ddba 6900 60b9 0376 b53a 70d0 fa3a
00000380: 6cb4 a13a 071e 093a 212e 41bb 8328 e53a
00000390: c886 01ba eef9 7f3b 8093 683b b996 413a
000003a0: 6c5d 95ba b4c4 b2ba d185 87b9 7c38 0dbb
000003b0: 35a8 f339 61f0 313a 7377 e63a 0138 2b39
000003c0: 3fa8 103a 0ad1 f1b9 d9ff 82b8 8698 123a
000003d0: aafb fdba 187b 56ba 0e81 1c3a a7fc 05ba
000003e0: 2c41 093a 7b88 7139 62a9 bf39 ff5a 85ba
000003f0: 5743 79b9 84af 733a 671f bd3a 16fb 2b3a

exp_avg_sq f4 [64, 30]
0.0006329024 0.0002377309 9.863519e-05 0.0006342261 0.0006740578 0.0002029131 0.00018466305 0.00023224365
0.00028780918 0.00029179547 0.00017910724 0.00051941123 0.00037657123 0.000373511 0.0011641541 0.0006653
0.00031529972 0.0005798187 0.00052514876 0.00054657465 8.150771e-05 0.00019697394 0.00034684342 3.8479797e-05
0.00042727153 0.00048444927 0.000720706 1.6628966e-05 4.7566435e-05 4.334375e-05 0.0002290827 0.00010774602
0.00021269333 0.00011664631 0.0005842427 0.000110388195 6.484915e-05 0.00018269004 0.00028267427 0.00030755126
0.00015732525 0.00014898668 0.00039872318 0.00026217222 0.00030396823 0.00070409005 0.00025721424 0.00028439128
4.1998093e-05 0.00053911435 0.00023026965 0.00054039015 0.000176272 0.00010641586 0.0002802645 0.00013974775
0.00047392194 4.8948154e-05 5.4451953e-05 0.00045722534 0.0045134285 0.0024185611 0.001052313 0.009481855
0.00097643764 0.0034031651 0.003203227 0.002793681 0.0008688387 0.00087628874 0.002665467 0.0021097646
0.002419514 0.0030354292 0.0099188145 0.0028239181 0.0016772947 0.012481891 0.0031493108 0.0030872668
0.0012373263 0.0007615095 0.0027459748 0.0037518637 0.002293912 0.0070571434 0.0040162536 0.0007795513
0.00032525987 0.0012620908 0.010241833 0.004746591 0.0016756754 0.00757124 0.012146968 0.004780568
0.0018098592 0.004515838 0.0012403323 0.0020846077 0.008252725 0.0070241485 0.0134141045 0.007572206
0.027316187 0.010123676 0.0066099 0.015376254 0.007457893 0.01139298 0.0020605533 0.0015449798
0.0038888387 0.0055315415 0.0049540307 0.0055042845 0.002327442 0.0030928699 0.0007671166 0.0011215264
0.0052896547 0.0025030104 0.00054979406 0.0075394553 0.0011366161 0.0021211887 0.0020843819 0.0021325762
0.0008577912 0.0013164536 0.002368684 0.0018429711 0.0021340002 0.0026019495 0.008208501 0.0041456716
0.002104934 0.005724265 0.002362077 0.0029288717 0.000719577 0.0008115754 0.0021364773 0.0007914791
0.0030106409 0.0046448624 0.005627653 0.0001202703 0.00018802121 0.0005435749 0.007735086 0.004336282
0.0015720727 0.011788451 0.011301613 0.0039734873 0.0036087506 0.0043830858 0.001737596 0.0029066063
0.004440558 0.0041250596 0.008192951 0.006726822 0.010122871 0.008920817 0.0032414387 0.009404333
0.0039242767 0.009009271 0.0013790915 0.0013067219 0.004204205 0.0016399726 0.004004539 0.007816689
0.004350663 0.0009622816 0.00047532603 0.00205955 0.00074446923 0.00036008318 0.0008676075 0.00052357663
0.0016369367 0.00042231177 0.00019171576 0.00045181368 0.00028565814 0.00041955875 0.0005267418 0.00072454894
0.0014681272 0.0012494021 0.0015007148 0.0011356588 0.00043204124 0.0022614505 0.00052629993 0.0013855748
0.0011963233 0.000711611 0.0006687369 0.00069621555 0.00042094922 0.00064028247 0.0004228367 0.00020354691
0.00019347398 0.00219653 0.0014992912 0.002212391 0.01362871 0.0057977103 0.003517942 0.0020117932
0.0011630105 0.0066159423 0.0010145883 0.0022295923 0.002454572 0.0034759308 0.0024452652 0.005753786
0.0023910005 0.0038144344 0.0012226803 0.0013068913 0.00096983847 0.0028047722 0.02016673 0.0031796694
0.0020494382 0.009021012 0.0017599171 0.0017860048 0.0062271957 0.0033881427 0.0025234353 0.04686397
0.0006094912 0.00026215942 0.00026696996 0.0002605989 0.0009460427 0.00017228183 0.00010482711 0.00029687796
0.00024916802 0.0002660657 0.00018865326 0.0005223959 0.0009477551 0.00070270925 0.0006301485 0.00065851654
00000000: 5ce9 253a 6747 7939 5dda ce38 3142 263a
00000010: 41b3 303a 12c5 5439 1ca2 4139 6e86 7339
00000020: 18e5 9639 20fc 9839 bcce 3b39 1929 083a
00000030: 896e c539 ccd3 c339 8896 983a 8767 2e3a
00000040: d04e a539 f9fe 173a 23aa 093a 0148 0f3a
00000050: 1eef aa38 ca8a 4e39 89d8 b539 5e65 2138
00000060: 6a03 e039 aefd fd39 c3ed 3c3a 6f7e 8b37
00000070: 1282 4738 ffcb 3538 eb35 7039 b4f5 e138
00000080: 6e06 5f39 03a0 f438 dd27 193a 3680 e738
00000090: 9fff 8738 7c90 3f39 e633 9439 d53e a139
000000a0: adf7 2439 4f39 1c39 b80b d139 2974 8939
000000b0: ed5d 9f39 af92 383a b6da 8639 5a1a 9539
000000c0: 1c27 3038 5a53 0d3a 8a74 7139 f8a8 0d3a
000000d0: a8d5 3839 942b df38 77f0 9239 4089 1239
000000e0: ba78 f839 ae4d 4d38 5763 6438 bfb7 ef39
000000f0: 62e5 933b b980 1e3b c4ed 893a c859 1b3c
00000100: 9ff7 7f3a a307 5f3b 3bed 513b 3116 373b
00000110: c7c2 633a beb6 653a 1eaf 2e3b fa43 0a3b
00000120: b690 1e3b 0dee 463b 8682 223c 7c11 393b
00000130: acd8 db3a d880 4c3c ab64 4e3b be53 4a3b
00000140: c82d a23a 0aa0 473a d0f5 333b d4e1 753b
00000150: 7555 163b 9c3f e73b c79a 833b cd5a 4c3a
00000160: a487 aa39 bd6c a53a 5ccd 273c 4b89 9b3b
00000170: 56a2 db3a 2a18 f83b 1404 473c 50a6 9c3b
00000180: cc38 ed3a 98f9 933b a592 a23a ea9d 083b
00000190: 7036 073c d42a e63b d5c6 5b3c 4520 f83b
000001a0: 32c6 df3c c6dd 253c dc97 d83b afec 7b3c
000001b0: 5761 f43b 9fa9 3a3c 590a 073b eb80 ca3a
000001c0: e3db 7e3b ef41 b53b 6c55 a23b 495d b43b
000001d0: ff87 183b bfb1 4a3b 5318 493a 2e00 933a
000001e0: d754 ad3b 8c09 243b 0e20 103a 890d f73b
000001f0: 82fa 943a a403 0b3b 209a 083b b1c2 0b3b
00000200: 65dd 603a da8c ac3a ec3b 1b3b d98f f13a
00000210: 95da 0b3b 7885 2a3b f37c 063c 6ad8 873b
00000220: eff2 093b 9d92 bb3b 13cd 1a3b 50f2 3f3b
00000230: ffa1 3c3a e7bf 543a 2404 0c3b 437b 4f3a
00000240: 2c4e 453b ee33 983b 2d68 b83b a039 fc38
00000250: 8f27 4539 b27e 0e3a 9b76 fd3b 5f17 8e3b
00000260: 020e ce3a 5924 413c 672a 393c 0734 823b
00000270: ca80 6c3b fd9f 8f3b 0cc0 e33a c37c 3e3b
00000280: 1a82 913b 822b 873b ba3b 063c ac6c dc3b
00000290: 66da 253c 9e28 123c 516e 543b a214 1a3c
000002a0: 3897 803b 9f9b 133c a2c2 b43a 5046 ab3a
000002b0: 6dc3 893b 59f4 d63a 8238 833b 9211 003c
000002c0: 0290 8e3b a041 7c3a 2e35 f939 84f9 063b
000002d0: 7c28 433a 8cc9 bc39 2770 633a a240 093a
000002e0: 7b8e d63a ba69 dd39 4f07 4939 68e1 ec39
000002f0: 63c4 9539 39f8 db39 0b15 0a3a a8ef 3d3a
00000300: 2d6e c03a fac2 a33a a2b3 c43a 63da 943a
00000310: 9883 e239 d834 143b 64f7 093a 2d9c b53a
00000320: f3cd 9c3a 688b 3a3a 2c4e 2f3a 3c82 363a
00000330: d9b2 dc39 a1d8 273a 2eb0 dd39 356f 5539
00000340: 47df 4a39 a9f3 0f3b dd83 c43a c3fd 103b
00000350: f44a 5f3c b8fa bd3b 468d 663b 4ad8 033b
00000360: 2870 983a 8cca d83b effb 843a 5a1e 123b
00000370: e2dc 203b 71cc 633b be40 203b 418a bc3b
00000380: 55b2 1c3b 97fb 793b 5842 a03a ff4b ab3a
00000390: c23c 7e3a 45d0 373b b334 a53c 0062 503b
000003a0: de4f 063b decc 133c 05ad e63a 6018 ea3a
000003b0: 810d cc3b 9a0b 5e3b 3860 253b 6ff4 3f3d
000003c0: 43c6 1f3a 7172 8939 1af8 8b39 fea0 8839
000003d0: daff 773a 8da6 3439 a0d6 db38 49a6 9b39
000003e0: c4a2 8239 bc7e 8b39 39d1 4539 65f1 083a
000003f0: c572 783a 0536 383a 8d30 253a 4ca0 2c3a

exp_avg f4 [64]
-0.017654495 -0.0018327538 -0.0064910455 -0.009895008 -0.0068782005 0.035045553 0.0032245552 -0.0041346974
-0.0024326656 0.007792427 -0.0054859673 0.0032887314 -0.0034530223 0.02592229 -0.009353105 -0.0015418848
-0.010847315 0.0053052567 0.0037577397 -0.0025301473 0.005969214 0.06184865 -0.0047245743 0.06429146
-0.011001048 -0.011059214 0.0041581118 -0.005658338 0.0018209012 0.035075765 -0.007303486 -0.011410223
0.0013187052 0.027087646 -0.021700654 -0.006968538 0.0052929367 -3.8410348e-05 0.01733652 -0.009958216
-0.009304736 -0.0063226577 -0.0037007323 -0.0022557278 -0.003889363 0.019755922 0.004745023 0.0029709258
0.0015000686 0.0028581629 0.0036166036 -0.0033378245 0.029600235 -0.007919663 -0.0023514654 -0.0061729522
-0.0056818766 -0.002999947 0.0025518355 -0.0024077927 0.004082438 -0.008322543 0.00837754 -0.003171478
00000000: 29a0 90bc 0339 f0ba d6b2 d4bb ac1e 22bc
00000010: 8762 e1bb ed8b 0f3d 0f53 533b 5b7c 87bb
00000020: 5b6d 1fbb 9e57 ff3b a1c3 b3bb c287 573b
00000030: 1a4c 62bb fb5a d43c c43d 19bc 1219 caba
00000040: f0b8 31bc b8d7 ad3b 6944 763b d4d0 25bb
00000050: 6599 c33b 0355 7d3d 9ad0 9abb 3eab 833d
00000060: bd3d 34bc b531 35bc c540 883b 9469 b9bb
00000070: 4eab ee3a 9bab 0f3d 1552 efbb f2f1 3abc
00000080: 67d8 ac3a e9e6 dd3c 92c5 b1bc 5558 e4bb
00000090: 5f70 ad3b cc1a 21b8 5105 8e3c c927 23bc
000000a0: e472 18bc 4c2e cfbb fc87 72bb d5d4 13bb
000000b0: afe4 7ebb 2cd7 a13c 237c 9b3b ddb3 423b
000000c0: f39d c43a 0450 3b3b 8a04 6d3b 67bf 5abb
000000d0: 317c f23c 79c1 01bc 0b1b 1abb 7a46 cabb
000000e0: 092f babb c29a 44bb b23c 273b 0fcc 1dbb
000000f0: f9c5 853b 475b 08bc f341 093c 92d8 4fbb

exp_avg_sq f4 [64]
0.000550116 0.00024791027 0.003253399 0.007831244 0.003628083 0.00671622 0.00068684807 0.0029907774
0.0005029772 0.0025215733 0.0013193855 0.00089717144 0.00453469 0.0018630953 0.008031196 0.00065377273
0.016723134 0.0012030231 0.00034816584 0.0006878095 0.0016808292 0.0045656967 0.0011559571 0.0059113204
0.00013702842 0.0006248328 0.0008524253 0.005244753 8.9629386e-05 0.0028107236 0.0034659752 0.00061754946
0.0001733818 0.0028647608 0.0021118496 0.0058444417 0.0018449259 0.00010050704 0.0005754539 0.0069232294
0.0006440074 0.0045184703 0.0012665709 0.0009093887 0.0018368107 0.0008029167 0.0017761525 0.00033010525
0.00031669196 0.0005762027 0.0006521987 0.00253749 0.0018980524 0.005859347 0.002199831 0.0058278693
0.004418717 0.0017864079 0.00017553881 0.0013203549 0.0011598981 0.0043669115 0.00026999405 0.0019593956
00000000: a935 103a f4f9 8139 fa36 553b 9e4e 003c
00000010: 22c5 6d3b bd13 dc3b 980d 343a eb00 443b
00000020: 3ada 033a fb40 253b 3bef ac3a 2830 6b3a
00000030: bd97 943b 1b33 f43a 4795 033c f261 2b3a
00000040: f4fe 883c c2ae 9d3a 078a b639 1d4e 343a
00000050: 454f dc3a d79b 953b 7c83 973a c0b3 c13b
00000060: 49af 0f39 d2cb 233a 4b75 5f3a 2ddc ab3b
00000070: 69f7 bb38 1e34 383b 6a25 633b 0be3 213a
00000080: d3cd 3539 b6be 3b3b f566 0a3b bb82 bf3b
00000090: 71d1 f13a 4ec7 d238 0fda 163a 42dc e23b
000000a0: 9bd2 283a ad0f 943b 1103 a63a 0b64 6e3a
000000b0: 24c1 f03a d47a 523a cacd e83a fa11 ad39
000000c0: ad09 a639 4f0c 173a 50f8 2a3a 054c 263b
000000d0: 12c8 f83a c4ff bf3b 0a2b 103b b6f7 be3b
000000e0: e3ca 903b e725 ea3a d710 3839 c20f ad3a
000000f0: b907 983a 4f18 8f3b fd8d 8d39 3469 003b

exp_avg f4 [32, 64]
0.00020625365 0.00015999796 0.00014095547 0.00022054007 0.00023404589 0.0001511501 0.00078361016 0.00017660284
0.00035918874 0.00071519567 0.0006927625 0.00030850206 5.8083315e-05 0.00010938398 0.00034198994 0.00021436186
0.00012445933 0.0009870247 0.0007088431 0.0003111159 0.00088143157 7.8812314e-05 0.00039121817 0.00014324176
7.7381694e-05 0.0006533496 0.00083017396 0.00010368236 0.00039736388 0.00023706353 0.00047580886 0.00044558803
0.00022078195 0.00017015367 0.00091266824 0.00011689072 0.00056247495 0.00019186895 0.00046101087 0.00017812724
0.00040234125 0.00015310658 0.000149053 0.00010374394 0.00026886558 0.00025413267 0.0004219398 0.00046534807
0.00025032653 0.0011170543 0.00044367538 5.567185e-05 0.000100289144 7.413061e-05 0.00010540831 0.00010960052
0.00036628498 7.322831e-05 0.0004660333 0.00019783508 0.00038337114 0.00031161387 0.00017445842 0.000173481
-0.0006740469 -0.00026367625 -0.0002837675 -0.0005457968 -0.00034336362 -0.00057059346 -0.0019128729 -0.0004924622
-0.0007097985 -0.0012335678 -0.0013645972 -0.0007175896 -0.0001745733 -0.0001515821 -0.00060261355 -0.00034076767
-0.00029977603 -0.0017615488 -0.0014165033 -0.00046289584 -0.0016374409 -0.00016576631 -0.0005401551 -0.00023603147
-0.00043065147 -0.0019988741 -0.0009557502 -0.00019431168 -0.00077525165 -0.0004223188 -0.0006998548 -0.00080041314
-0.0003153273 -0.0004377257 -0.0018209749 -0.00035634526 -0.00085342204 -0.0003538484 -0.0007822995 -0.0008924393
-0.0010382925 -0.00030708246 -0.0001858336 -0.00019574696 -0.0004738593 -0.0007484267 -0.00071995216 -0.0009841453
-0.00029252155 -0.0015233923 -0.0006763894 -0.00013944187 -0.00013455834 -0.00031746633 -0.00025184327 -0.00024062973
-0.000539262 -0.00020220809 -0.0013841359 -0.00026476674 -0.0005124345 -0.000771714 -0.00052084384 -0.00052396656
0.041550517 -0.0005373309 -0.0009832084 -0.0008728358 -0.00091509323 0.044067454 -0.0024474987 -0.00059630757
-0.0016743983 -0.0032907394 -0.003194829 -0.002004092 -0.00048028753 0.009589076 -0.0017673745 -0.000368321
-0.00077495555 -0.0053451513 -0.0020117438 -0.0014525902 -0.0022096925 8.87875e-05 -0.0017583154 0.04630988
0.011059193 0.012536322 -0.00241902 -0.00053640595 -0.0019236647 0.0012270462 -0.0017841896 0.0072163395
-0.0008286023 -0.00014516721 0.04149587 -0.00070679607 -0.0029627446 -0.001056513 0.0019921188 -0.0023888473
0.02767193 -0.0007087746 -0.00053015637 -0.00048697507 -0.00078729837 0.0022670298 -0.0021704193 -0.0021825354
-0.0005789176 -0.004496684 -0.001514634 -0.00047094087 0.002524882 -0.0010116817 -0.0006905732 -0.0006759768
-0.0012039089 -0.0007010164 -0.001890082 -0.0006919715 -0.0009721116 -0.0021823084 0.0032301792 -0.0011391102
9.406909e-05 0.0002000418 0.00015206597 0.0003076479 0.00018946464 0.00013382472 0.0017023981 0.00025881422
0.00043521065 0.0014385798 0.0012300798 0.0006251686 3.9087518e-05 4.578434e-05 0.00035236267 0.00024515728
0.0001798645 0.0014605405 0.0016614487 0.00044458525 0.0013229351 6.56377e-05 0.0005477666 6.7885325e-05
0.0001321107 0.0012176964 0.0014674312 0.00020058283 0.00081589026 0.00028426092 0.00056045083 0.0007583194
0.00054615317 0.00031505598 0.0012818153 0.00021418495 0.0010456436 0.000113373084 0.00060551503 0.0005233903
0.0007874279 0.00020181047 0.00025632107 0.000112336995 0.00024893243 0.00036992773 0.0005535621 0.0009941802
0.00018337286 0.0014209308 0.0008458669 0.000110100635 4.3491138e-05 5.84527e-05 4.3261232e-05 0.00013604904
0.00044685596 2.686503e-05 0.0008738419 8.804286e-05 0.000503354 0.00041146565 0.00020735945 0.00037913834
00000000: cb45 5839 20c5 2739 72cd 1339 c640 6739
00000010: 376a 7539 0c7e 1e39 306b 4d3a 772e 3939
00000020: 7f51 bc39 f87b 3b3a 819a 353a 72be a139
00000030: 7c9e 7338 1465 e538 1d4d b339 53c6 6039
00000040: 4c81 0239 0e5f 813a a8d1 393a 451d a339
00000050: df0f 673a 0a48 a538 6a1c cd39 2b33 1639
00000060: fb47 a238 8d45 2b3a 08a0 593a 0b70 d938
00000070: 4755 d039 4294 7839 fc75 f939 d09d e939
00000080: b481 6739 476b 3239 2140 6f3a 3a23 f538
00000090: 0e73 133a 6e30 4939 d5b3 f139 abc7 3a39
000000a0: 54f1 d239 3c8b 2039 1c4b 1c39 1b91 d938
000000b0: 87f6 8c39 1c3d 8539 cd37 dd39 f6f9 f339
000000c0: 423e 8339 1f6a 923a 1a9d e839 3281 6938
000000d0: 5352 d238 9176 9b38 a80e dd38 55d9 e538
000000e0: f009 c039 2692 9938 ee55 f439 f371 4f39
000000f0: 34ff c839 1b60 a339 d3ee 3639 74e8 3539
00000100: 86b2 30ba 073e 8ab9 a1c6 94b9 ce13 0fba
00000110: 7c05 b4b9 e193 15ba 5db9 faba 9418 01ba
00000120: c511 3aba abaf a1ba 49dc b2ba 9f1c 3cba
00000130: aa0d 37b9 03f2 1eb9 b6f8 1dba 10a9 b2b9
00000140: 422b 9db9 c5e3 e6ba f7a9 b9ba d4b0 f2b9
00000150: 669f d6ba 8ed1 2db9 3299 0dba 377f 77b9
00000160: 10c9 e1b9 8bff 02bb 4f8b 7aba 25c0 4bb9
00000170: 423a 4bba ab6a ddb9 7676 37ba d1d2 51ba
00000180: 8452 a5b9 8d7e e5b9 c7ad eeba dad3 bab9
00000190: 2fb8 5fba ba84 b9b9 3b13 4dba 96f2 69ba
000001a0: 5117 88ba e9ff a0b9 54dc 42b9 6d41 4db9
000001b0: 5270 f8b9 1132 44ba 2cbb 3cba 70fe 80ba
000001c0: 945d 99b9 90ac c7ba b94f 31ba 2437 12b9
000001d0: 3b18 0db9 9c71 a6b9 d509 84b9 8d51 7cb9
000001e0: 435d 0dba d207 54b9 e56b b5ba 64d0 8ab9
000001f0: e654 06ba da4c 4aba 3d89 08ba cd5a 09ba
00000200: e030 2a3d abdb 0cba 00df 80ba 05cf 64ba
00000210: dee2 6fba 1380 343d 3766 20bb 8651 1cba
00000220: 7c77 dbba 72a9 57bb 5660 51bb 1657 03bb
00000230: 1acf fbb9 801b 1d3c 3fa7 e7ba 351b c1b9
00000240: 6326 4bba 6126 afbb 76d7 03bb d764 beba
00000250: 7dd0 10bb 6d33 ba38 4677 e6ba 6eaf 3d3d
00000260: 9e31 353c 2565 4d3c 6c88 1ebb 989d 0cba
00000270: 7a23 fcba d7d4 a03a 78db e9ba 0b77 ec3b
00000280: 8f36 59ba 0738 18b9 93f7 293d 4848 39ba
00000290: 9b2a 42bb b27a 8aba 358e 023b 358e 1cbb
000002a0: 3eb0 e23c 0fcd 39ba 31fa 0aba b050 ffb9
000002b0: b362 4eba 7392 143b 983d 0ebb de08 0fbb
000002c0: 81c2 17ba eb58 93bb af86 c6ba 9de8 f6b9
000002d0: 7e78 253b 689a 84ba 9507 35ba 0934 31ba
000002e0: 7bcc 9dba 6ac4 37ba a1bc f7ba 6c65 35ba
000002f0: 4ed5 7eba 0f05 0fbb 6ab1 533b 324e 95ba
00000300: f546 c538 50c2 5139 e673 1f39 cd4b a139
00000310: 07ab 4639 4d53 0c39 0023 df3a 75b1 8739
00000320: fc2c e439 ba8e bc3a a13a a13a 5be2 233a
00000330: e7f1 2338 9008 4038 51bd b839 7488 8039
00000340: 029a 3c39 9b6f bf3a f8c4 d93a 3917 e939
00000350: 5666 ad3a f9a6 8938 ff97 0f3a a85d 8e38
00000360: 3287 0a39 1c9b 9f3a d256 c03a 8b53 5239
00000370: 78e1 553a db08 9539 38eb 123a f4c9 463a
00000380: b82b 0f3a 192e a539 9602 a83a d696 6039
00000390: fa0d 893a b6c2 ed38 6dbb 1e3a 2134 093a
000003a0: 646b 4e3a 169d 5339 d562 8639 7796 eb38
000003b0: 2583 8239 dcf2 c139 ec1c 113a 274f 823a
000003c0: c747 4039 873e ba3a 2bbd 5d3a d4e5 e638
000003d0: 416a 3638 1c2b 7538 6573 3538 63a8 0e39
000003e0: fe47 ea39 365c e137 8a12 653a a7a3 b838
000003f0: 84f3 033a fcb9 d739 a16e 5939 16c7 c639
