lightning_logs/batchnorm_e50_lr0.001_b512/version_0/checkpoints/epoch=13-step=5852.ckpt (torch, 356461 bytes, 143 tensors)

input.weight f4 [64, 30]
000000 47 87 ce bd 60 9c b9 bc 40 ac 1a 3e 0d e1 cb bd
       -0.10084396 -0.022657573 0.1510477 -0.099550344
000010 ec 39 91 be f1 7a 80 3e cf f3 ba 3c ff 71 08 bd
       -0.28364503 0.25093797 0.022821335 -0.03331184
000020 0b 0f a0 bd 21 5a aa 3d 08 bc 00 3d 5f 59 02 3e
       -0.07815369 0.08317972 0.03142932 0.12729405
000030 bb 48 b6 3d 42 a5 e3 bd 55 72 7f 3d d7 11 0b 3e
       0.08900591 -0.11115505 0.062364895 0.13581024
000040 7b 69 a9 bc 67 b0 03 3d 22 0b fd bd 75 55 47 3d
       -0.02068018 0.032150652 -0.12355639 0.048665483
000050 8f 23 bd bd 20 04 8f bd ac 12 54 be 12 4c 13 bd
       -0.09235298 -0.06983209 -0.20710248 -0.03596122
000060 c1 82 5d 3e a7 4a 0f 3e 5a 44 43 bc 9e 91 90 be
       0.2163191 0.13993321 -0.011918152 -0.28236097
000070 b2 12 7b bd 08 01 ba bc 31 86 3e 3e 28 cc 0d 3d
       -0.061297126 -0.02270557 0.18605877 0.034618527
000080 e4 9f b4 3c 1e 84 19 be 91 e5 ff bd 3a c5 25 3e
       0.022048898 -0.14991805 -0.12494958 0.16188517
000090 7c fb 22 3d f3 b8 eb bd 8a 99 e2 3d ed 54 c0 bd
       0.039790615 -0.11509886 0.110644415 -0.09391198
0000a0 24 ff 82 3d 24 7c 4f bd e4 6e 67 3c 64 6e 98 3e
       0.063963205 -0.0506555 0.0141255595 0.2977172
0000b0 52 78 2d be 49 c6 b5 3d 81 8a cf bd d1 64 eb 3c
       -0.1694043 0.088757105 -0.101338394 0.028734596
0000c0 b1 1d 92 3c 9d 3e 31 be 38 97 3a 3e fa 44 91 bc
       0.017836424 -0.17309041 0.18221748 -0.017733086
0000d0 64 b5 59 bc 4b bc 9e bd f8 f0 e5 bd 85 41 31 be
       -0.013287876 -0.07750758 -0.11227602 -0.1731015
0000e0 bf 69 58 3d 26 61 5f 3e 15 e6 e1 bc 55 5d 1a bd
       0.052835222 0.21814403 -0.027575532 -0.037686665
0000f0 2b be 18 3d 59 d5 73 bd f0 82 ec bd 1e 4f 1f 3d
       0.037290733 -0.059529636 -0.11548412 0.03889381
000100 0a d7 b5 3d af d0 cc bd 46 eb ac bb b9 87 db bd
       0.08878906 -0.10000741 -0.00527707 -0.107192464
000110 93 71 e0 3d 29 a5 c8 3d 62 50 fa 3d f0 23 14 3e
       0.109591626 0.09797127 0.12222363 0.14466834
000120 15 3f 3f bd eb 0f 8b be 7d 89 25 3e a4 ae ce 3d
       -0.04669102 -0.27160582 0.16165729 0.10091904
000130 e9 14 12 3c 73 84 ee bd 52 35 26 be 76 82 4e 3d
       0.008916118 -0.116463564 -0.16231278 0.050417386
000140 a2 14 aa 3c 89 04 62 3e 66 33 c3 3d d4 b0 a9 3a
       0.020761792 0.22072043 0.09531288 0.0012946376
000150 86 61 5a 3c 1a 0f 93 bd ed 3f 2a be 5b ff af 3d
       0.013328915 -0.07180615 -0.16625948 0.08593627
000160 92 f1 81 bd 6a 49 58 bd 2b b0 7d 3c cd f8 a5 3d
       -0.06344904 -0.052804388 0.015483896 0.081040956
000170 20 41 99 3d ae 04 4d 3e e1 f5 6e 3d a3 21 8b be
       0.07483125 0.20021316 0.058339957 -0.271741
000180 ff fc fb 3d a6 61 b6 bc 11 a1 26 be 4e 67 c9 3d
       0.123041146 -0.02226336 -0.1627238 0.09834157
000190 1b d2 da 3d 03 08 c3 3d f6 af 01 3e 14 a9 d5 3d
       0.10684606 0.095230125 0.1266478 0.1043264
0001a0 8f 3a d1 3d 81 bc 56 3d f3 ac f2 3c 8f e5 96 3d
       0.10216247 0.052425865 0.029623484 0.073680036
0001b0 52 d1 4f 3e 6d fa b1 3d 06 e1 6c bd fe c0 21 bd
       0.20294693 0.08690343 -0.057831787 -0.039490692
0001c0 53 98 26 be 3c ce d8 bd 58 ea 4f 3e d2 07 16 be
       -0.16269045 -0.10586211 0.20304239 -0.1465142
0001d0 26 bf 92 3d a8 aa 1a be d2 33 1f 3e df a1 67 3e
       0.07165365 -0.15104163 0.15547112 0.22620343
0001e0 97 36 6a 3d 66 07 9e 3e 10 8d 29 be 06 1d 94 3d
       0.057180967 0.3086502 -0.16557717 0.07232098
0001f0 ff d0 2f bd 10 a5 88 bc f2 be 91 3d f1 e1 91 3d
       -0.042923924 -0.01668027 0.07116498 0.07123173
000200 28 b2 c1 bd f3 5c a3 3d 37 15 30 bd cb 4b 95 bd
       -0.09457809 0.07976713 -0.042988982 -0.07289847
000210 12 b2 93 3c f6 3f 53 be fc 15 e0 bc 24 58 85 be
       0.018029246 -0.20629868 -0.027354233 -0.26043808
000220 0e 7a 06 be 42 ba 76 bd 65 83 56 3e 8c fd 7e 3d
       -0.13132498 -0.060236223 0.2094856 0.06225352
000230 38 fc 21 3d 10 ce 4d 3e 67 6e 8d 3d 0d fb 30 be
       0.039547175 0.20098138 0.06905823 -0.17283268
000240 b3 02 d9 3d e7 21 46 3e 1d 2d a8 bd 6c c2 f2 bd
       0.10596218 0.1934887 -0.0821173 -0.11853489
000250 0c d9 95 3d b3 1e e8 bd 5a c5 5e be 2c 79 58 be
       0.07316789 -0.113339804 -0.21754971 -0.21139973
000260 6e dc 2b 3d 87 03 26 3e 67 96 29 be 22 81 94 3d
       0.041958265 0.16212283 -0.1656128 0.07251193
000270 97 04 bb bd fe d5 a1 bc fc e1 a8 bc 36 fa 20 3e
       -0.09131735 -0.01975536 -0.02061557 0.15720448
000280 b6 2f e3 bd 0c 53 4e 3d 5f a7 fd bd c8 a9 51 3e
       -0.110930845 0.05037217 -0.12385439 0.20474923
000290 4b dd 91 3c e2 c9 33 bd 67 66 f3 3d 9f 61 e3 bd
       0.017805716 -0.043893702 0.11884766 -0.11102604
0002a0 95 23 19 be 93 62 74 3d 91 37 68 3c c7 6f f1 bd
       -0.1495498 0.05966432 0.014173404 -0.11788898
0002b0 07 76 a8 3d 5f 89 c8 3d 6b 85 09 3d 56 3e a9 bd
       0.08225637 0.097918265 0.033574503 -0.08263843
0002c0 d7 3f dc bd be 0a 63 3c c0 1b 31 be 70 80 7d be
       -0.10754364 0.013857542 -0.17295742 -0.24756026
0002d0 ff 4d 11 3b 7d 59 04 3d 2a 9c ac bc 8d da 60 be
       0.0022171733 0.032311905 -0.021070559 -0.2195837
0002e0 75 be 27 3e 03 c8 c9 bc 71 f8 30 bd 40 1f e5 bd
       0.16381247 -0.024631506 -0.043205682 -0.11187601
0002f0 5b f9 30 bb 29 dd 8f bd 42 e5 b5 3d 32 2d b2 bd
       -0.0027004096 -0.07024605 0.08881618 -0.087000266
000300 2e 67 69 be e9 0d 97 bd 97 d0 8b 3d c0 6d f5 3d
       -0.22793266 -0.073757 0.06826895 0.11983824
000310 f2 ae c3 bd f3 ec 40 be 6e 38 4e bd 78 8e 01 3e
       -0.095548525 -0.18840389 -0.050346784 0.12652004
000320 ec bc 29 be 93 d6 62 bd 8d b7 89 3e 6d 2e e4 bd
       -0.16575974 -0.055380415 0.2689785 -0.111416675
000330 ab 70 37 be d4 23 67 bd 17 7c 9c 3c dc 17 8e bd
       -0.17914073 -0.056430653 0.01910214 -0.069381446
000340 f6 65 4b 3e 96 93 5f 3d 41 0e c9 bd bc 29 0f 3e
       0.19863114 0.05458411 -0.09817172 0.13980764
000350 a2 d5 5e be ef 56 0e 3d b3 27 3a 3c bf 81 6e 3e
       -0.21761182 0.034750875 0.011362004 0.23291682
000360 25 1f 2e 3d c6 47 4f 3d 35 04 87 bd 38 1f 0a bd
       0.04251017 0.050605558 -0.06592599 -0.03372118
000370 09 82 d7 bd de fe 15 3e 66 33 f2 bd 1d 5c 95 bd
       -0.10522849 0.14648005 -0.1182621 -0.0729296
000380 fa 98 85 be c6 76 ce 3d 02 14 b7 bc bb 81 a2 3c
       -0.26093274 0.10081248 -0.022348408 0.019837251
000390 40 1e 1f 3e 99 0f fe 3c 38 f3 25 be 69 a7 9c 3d
       0.15538883 0.031013297 -0.16206062 0.076491185
0003a0 f8 69 d3 bd 10 4d 03 3d c4 70 26 3e fe b9 a1 bd
       -0.10322946 0.032055914 0.16253954 -0.07896803
0003b0 5b 97 2e be 1a bc c8 3d 67 10 aa bd e8 61 48 3e
       -0.17049925 0.098015025 -0.0830391 0.19568598
0003c0 05 22 d3 bd 00 e1 15 be 5a 51 38 3c 8e ab 9e bd
       -0.10309223 -0.14636612 0.0112498645 -0.07747565
0003d0 33 95 45 3e 16 d2 29 3d cb df 94 bd 0a 7c b3 3d
       0.19295196 0.04146012 -0.072692476 0.08763893
0003e0 b5 40 8f bd cf c2 49 3d e1 52 73 bd 71 5e cc bb
       -0.06994764 0.04925805 -0.05940521 -0.006236844
0003f0 8f f3 7a be 97 e7 ea bd a1 5f 62 be 73 82 13 3e
       -0.24506973 -0.114699535 -0.22106792 0.14405231

input.bias f4 [64]
000000 3e 86 3b 3d c7 de c8 3d 3b 1f 3d 3b c6 4b ba 3d
       0.04578232 0.098081164 0.0028857726 0.09096484
000010 91 95 0e 3e a5 40 d6 bd bb 43 c2 3d 11 2a 8a 3d
       0.13924243 -0.10461549 0.09485575 0.06746305
000020 10 3b 40 be 32 1d 69 39 02 4c e7 3d f1 e7 f1 bc
       -0.1877253 0.00022231488 0.11293794 -0.029529544
000030 5b 0f 21 be 01 75 b9 3d 1b c5 4a bc 88 5d 01 3e
       -0.15728514 0.0905552 -0.012376095 0.12633336
000040 a4 a3 89 3c f3 df 66 3c bc 9d e9 bd aa 27 17 3e
       0.016801663 0.01409148 -0.114070386 0.14761224
000050 c2 7f 03 be c9 ee 83 bc 3a 48 69 3d cd a1 7f bd
       -0.12841704 -0.016105073 0.056953646 -0.062410165
000060 0b 73 21 be 64 45 e9 bd 26 a5 02 3e 25 93 b5 bd
       -0.15766542 -0.11390188 0.12758312 -0.08865956
000070 b4 5b 1d be a7 63 2f bd f4 93 a5 bd 91 dc 42 3e
       -0.15367013 -0.042819645 -0.080848604 0.19029452
000080 18 94 2a 3d d2 c8 01 3e 34 df d1 3c 89 35 9c bd
       0.04164514 0.12674263 0.025619127 -0.076273985
000090 6e 31 34 3e 50 6f 9d 3d 29 2f 40 3e 76 c6 2a be
       0.17596981 0.07687247 0.1876799 -0.1667727
0000a0 0d 3e a7 3d 5c 0e d1 3d 5e 8b c9 bd ba 14 c0 bc
       0.08166132 0.10207817 -0.09841035 -0.023447383
0000b0 67 06 c9 bc 1c e8 86 3d da c3 10 3e 6c 67 b5 bd
       -0.024539186 0.0658724 0.14137211 -0.08857617
0000c0 83 1e c1 3b 32 a9 0f 3b a6 b1 fb bd 7e ef df bd
       0.00589353 0.0021920917 -0.12289743 -0.109343514
0000d0 c1 a2 37 3e 6f da 67 be ab a6 da 3d c3 5c 83 3d
       0.1793318 -0.2264192 0.10676321 0.06414177
0000e0 40 3c 38 bd ad 8c bb bd c2 8a c9 bd 70 36 95 3d
       -0.044979334 -0.09157691 -0.09840919 0.07285774
0000f0 c0 93 04 be 5b 98 3e bd 63 e0 df bd 88 05 e3 bd
       -0.12946987 -0.046532016 -0.1093147 -0.110850394

h1.weight f4 [64, 64]
000000 dd ad 11 3e bf 51 4a 3e 63 a3 2f bb e1 6a 9d bd
       0.1422648 0.19757746 -0.0026800267 -0.07686401
000010 3d 81 ac bc cb d5 63 3e 5a d7 b4 3b 90 36 88 3d
       -0.02105772 0.22249524 0.005518836 0.06651032
000020 7c 3f 70 3c e1 f2 30 3d 2a c1 f0 3b f2 59 64 bd
       0.014663573 0.043200377 0.0073472457 -0.05574984
000030 5e 75 97 bd 54 d6 d2 3d aa 21 e9 3d 99 1b d8 bd
       -0.07395433 0.10294786 0.11383374 -0.10552139
000040 aa 88 02 3e 87 52 9f bd ff 2c fe bc fd ef 20 3e
       0.12747446 -0.07779413 -0.031027315 0.15716548
000050 b2 3d b1 bd 68 22 c4 bd 6d 22 17 3c b1 03 91 3d
       -0.086543456 -0.09576875 0.009224516 0.07080782
000060 3e 7c 9d 3d 4c f6 20 bc bb 64 d4 bc 4a 58 70 3d
       0.07689713 -0.009824347 -0.025926938 0.05867795
000070 a9 e2 47 be ae 8f 1c 3d 49 38 e2 3c 8a 92 d6 bc
       -0.19520058 0.03822296 0.02761473 -0.026192922
000080 7a 61 03 3e d0 77 aa bd 0d f6 5b bd 94 f6 17 3e
       0.12830153 -0.08323634 -0.05370145 0.14840156
000090 48 14 28 3d e2 25 39 3d 8a fe d0 3d 1b 38 84 3d
       0.041034967 0.045202143 0.102047995 0.06456014
0000a0 f3 15 a5 3d b4 be 02 3e 57 98 c0 bc 11 13 2a 3d
       0.08060827 0.1276806 -0.023510141 0.04152209
0000b0 bb 73 27 3d 8d 91 13 bc a7 da df bd 91 e7 3f bd
       0.040881854 -0.00900687 -0.109303765 -0.0468517
0000c0 12 5a b7 bd c5 71 69 bd b1 31 79 bc 5c 26 59 bd
       -0.089527264 -0.056993265 -0.015209601 -0.053015098
0000d0 62 81 59 3e 0a 16 15 3d 7e e8 1a 3d f0 6b 46 bd
       0.21240762 0.03639797 0.037819378 -0.04844278
0000e0 4f 13 8e 3d 00 a9 9e bd 7b d8 ba bd 9d 43 c7 bd
       0.069372766 -0.07747078 -0.091233216 -0.09729693
0000f0 8c bd 0d 3d ac e1 e4 bd a7 fa 8a 3c a3 a3 88 bd
       0.034604594 -0.11175856 0.016965223 -0.06671836
000100 a2 cd 8e bd 0e 8e 85 bd f1 cb 5e bc 34 8f 06 be
       -0.06972815 -0.065212354 -0.013598428 -0.13140565
000110 dd ab e2 bd dd f6 9a 3b 28 0e 6c bc 85 0a ca 3d
       -0.110679366 0.0047291354 -0.014407672 0.09865288
000120 a9 b5 c8 3d 2e 8e ff bd b0 a6 b5 bd 97 9f 51 be
       0.09800274 -0.124782905 -0.08869684 -0.20471035
000130 bf 5e 2c be 45 fc d5 bd 4b cb 91 bd 19 83 f2 3c
       -0.16833018 -0.10448507 -0.07118853 0.029603528
000140 64 b0 b7 bd ac fc ce bd 4f a9 ba 3c 11 61 c2 3d
       -0.08969191 -0.10106787 0.02278581 0.0949117
000150 77 05 f4 3d 97 82 a8 3d 46 8e 0f bd ad d6 4a be
       0.11915105 0.08228033 -0.035047792 -0.19808455
000160 2f d8 34 3d 5b a0 ec 3c 3c 14 6b 3d 77 9e 19 be
       0.04415148 0.028885057 0.057392344 -0.15001856
000170 4a 33 e5 3d f4 8e 54 3d 01 b8 1f be 88 da 11 be
       0.11191423 0.051894143 -0.15597536 -0.1424352
000180 c3 39 e3 bc 3a ff b9 bd f8 9f 0d be 3d ba e3 ba
       -0.027737504 -0.09081884 -0.13830554 -0.0017374229
000190 75 20 07 be f3 82 8c 3d 2d 41 93 bd ba 69 88 bd
       -0.13195975 0.06860914 -0.07190166 -0.06660791
0001a0 c9 ef 14 3e 5a bd 05 3d b3 ea 1b 3c 5f 46 0c bc
       0.14544596 0.032651283 0.009516406 -0.0085617
0001b0 c9 b0 93 ba e4 38 a7 3d 4c b6 28 ba 8d 8b 2a 3e
       -0.0011267896 0.08165148 -0.0006435856 0.16654797
0001c0 79 96 51 bd 44 28 22 bd f3 90 1b bd 2f e6 da 3c
       -0.051168893 -0.03958918 -0.03798003 0.026721088
0001d0 38 de ba bd 98 54 06 bd d5 f2 7a bd 73 ee fe bd
       -0.09124416 -0.03279552 -0.06126674 -0.12447824
0001e0 ee 26 35 bd f1 d0 92 3d 0f 3a 1c be 7e 56 c0 bd
       -0.04422658 0.07168759 -0.15256523 -0.09391497
0001f0 44 c1 37 bd e2 9c f1 bd b6 48 d0 bc e4 d7 d3 3d
       -0.044862047 -0.11797501 -0.025425296 0.10343912
000200 fe f3 04 3c d7 58 fc 3d 4d 9e 10 bd c3 18 08 bd
       0.008114813 0.12321632 -0.035307217 -0.03322674
000210 37 42 43 bc 24 be 37 3e af 07 db 3b a2 cf c7 bd
       -0.011917642 0.17943627 0.0066842656 -0.097564
000220 66 58 7e bd b0 36 95 bd 47 b9 24 3e f8 78 a0 3d
       -0.062096022 -0.072858214 0.16086303 0.07835573
000230 98 9e f1 bc a8 93 95 bc 37 e2 73 3d 77 6b 93 3d
       -0.029494569 -0.018258885 0.059541907 0.07198232
000240 49 5e 1a 3e 93 53 ea b9 4f 80 82 3d 7b 01 34 bd
       0.1507503 -0.00044694226 0.06372129 -0.043946724
000250 ab ab 7a 3d 33 ef 03 be 2e f1 be 3d ec 19 70 3e
       0.06119887 -0.12884216 0.09323345 0.23447388
000260 df 5d fe bd dc ad 29 3e 84 33 ed bc 78 d6 f6 3d
       -0.12420248 0.16570228 -0.028955229 0.120526254
000270 b3 a2 ad bd 9b 0e 3a 3c 2b c0 3f 3e 6d b3 22 bc
       -0.08478298 0.011356021 0.1872565 -0.009930474
000280 40 58 ca bd 0e e1 39 3d 56 c7 00 be 11 65 83 bc
       -0.098801136 0.045380645 -0.1257604 -0.016039403
000290 06 b0 f0 3c e5 18 aa 3d af 31 5b 3d fd bb 47 3c
       0.02938081 0.083055295 0.05351418 0.012190816
0002a0 53 46 79 3d 04 ed 26 3d 17 87 9d bd d4 37 21 bc
       0.060858082 0.04075338 -0.07691782 -0.009839971
0002b0 eb 7d ae bd 57 8e ec bd f8 3b c3 bd df 99 51 bd
       -0.08520111 -0.11550587 -0.095329225 -0.051172134
0002c0 6a 67 83 3d 3b 02 b6 3c 49 8f 64 bd 93 fa 96 3d
       0.06416209 0.02221786 -0.05580071 0.07372012
0002d0 c6 69 27 bb 2d d3 ef bc bd c7 5e 3d e1 81 99 bc
       -0.0025545224 -0.029275501 0.054389704 -0.018738689
0002e0 fa 78 97 3b e6 80 d8 bd fb e3 fa 3b 65 d1 3b 3d
       0.004622576 -0.105714604 0.007656572 0.04585399
0002f0 a7 98 cf 3d 04 ae 0c 3e d4 95 63 bd 02 f7 44 3b
       0.10136538 0.13738257 -0.05556281 0.0030054455
000300 48 1d d9 bd b4 78 8f bd 9d de 00 3e b0 0b 14 3e
       -0.10601288 -0.07005444 0.1258492 0.14457583
000310 47 7e d3 3d f7 41 e5 bd f2 ba f7 3a c7 ba 94 bc
       0.1032682 -0.111942224 0.0018900319 -0.018155469
000320 b8 44 86 bd 14 fd 18 3e d5 0b 65 3d c7 ac 06 3c
       -0.06556076 0.14940292 0.055919487 0.008219904
000330 39 1c 09 bd 1c 35 d9 bd e9 c5 4e 3c 79 ca f7 3c
       -0.03347418 -0.10605833 0.012620428 0.030247914
000340 97 e9 74 bd 54 6b 3a bd 61 27 7a ba f1 7c 8d bd
       -0.05979308 -0.045512512 -0.0009542611 -0.06908596
000350 08 6c bc bd fa 2f 75 bd e9 44 1a 3e d0 69 04 bd
       -0.09200293 -0.059860207 0.1506535 -0.032327473
000360 1b 59 aa bb 57 af 25 3e 1b 9e 4f 3d 7d a9 18 3c
       -0.0051986105 0.16180168 0.05068789 0.009317753
000370 cb d8 92 bc 21 37 a1 bd 49 d7 4b 3d bc cb 26 bd
       -0.01792564 -0.07871843 0.04976586 -0.04072164
000380 b5 b0 14 3c a9 76 c2 3b e0 8d 10 3e 5b 2e f8 bd
       0.009075333 0.0059345555 0.14116621 -0.121182166
000390 df 19 c1 3d 59 98 a1 3d bb d1 13 bd 14 fb d3 bc
       0.09428763 0.07890386 -0.036088686 -0.02587656
0003a0 79 cf 24 be 1b af 3c be 04 1b 8d 3d 67 9a 29 bd
       -0.1609477 -0.18426172 0.068899184 -0.041407015
0003b0 fe cd 82 3d 87 e7 8b bd 8b 5f c1 ba 72 a4 8e bb
       0.06386946 -0.0683127 -0.0014753205 -0.0043530995
0003c0 9c bb 93 3d a8 d4 09 be 93 ae 97 3d 3b 3f 1d bd
       0.07213518 -0.13460028 0.07406344 -0.03839038
0003d0 04 19 a4 3c b8 d8 22 be 18 43 fd 3c 80 61 58 3d
       0.02003146 -0.15902984 0.030915782 0.05282736
0003e0 de 6e 7d bd 8e 64 a0 3b 2e 70 31 3e 2f bc 14 be
       -0.06187331 0.0048947996 0.1732795 -0.14524911
0003f0 1c e0 f4 bd 6d 38 e4 3c cf 16 f4 3a 39 b7 38 be
       -0.11956808 0.027858937 0.001862252 -0.18038644

h1.bias f4 [64]
000000 28 a8 ad 3d 7a dc 0b be 7f bf 55 3d 6f 8a 0e 3d
       0.08479339 -0.13658324 0.052184578 0.03479999
000010 92 4a 3b 3d 91 bb cc 3c ef f1 3a bd f1 03 7a 3c
       0.045725413 0.024991782 -0.045640882 0.015259729
000020 dc 50 b7 3d 40 c7 47 3d 52 1a e0 bc 60 09 64 3d
       0.089509696 0.048774004 -0.0273563 0.055673003
000030 d8 8c ad 3d a1 96 7e bd 03 ba f2 bd 71 e6 29 3d
       0.084741294 -0.06215537 -0.11851885 0.04147953
000040 a8 82 dc bc 53 29 d0 bd e4 a1 06 3c 4c aa a2 3d
       -0.02691777 -0.10164132 0.008217309 0.07942638
000050 da b3 e5 3d e1 eb ec bd 08 76 20 bd ff 3e 79 3d
       0.112159446 -0.11568428 -0.039175063 0.060851093
000060 43 6c eb bd 53 ee 80 bd b0 94 0a bd 4d 47 51 3d
       -0.11495259 -0.06295457 -0.033833206 0.05109339
000070 4a 29 08 3e 40 ef 01 be 96 cd 7e 3c e1 db e6 3b
       0.13297 -0.12688923 0.015551945 0.0070452546
000080 91 56 03 be 11 63 ce 3c ba f3 a0 bd 3f e1 49 3d
       -0.12825991 0.025193723 -0.07858987 0.049287077
000090 3d c3 f1 3d f8 16 34 3d 8e 58 a5 3c 52 2a b9 bd
       0.11804817 0.043967217 0.020183828 -0.09041275
0000a0 6f 6f a9 3d 70 13 1f 3a e4 3f b7 3d a9 1b e7 3c
       0.082732074 0.0006068265 0.08947733 0.028211432
0000b0 13 4e 06 be 5e 05 da 3d 81 25 85 bd 74 80 a1 bc
       -0.1311572 0.10645555 -0.06501294 -0.019714572
0000c0 32 37 df bd 62 b3 8e 3b 01 69 07 3e df fe 03 be
       -0.108991995 0.00435488 0.1322365 -0.12890194
0000d0 30 9e eb bb 88 6f bb 3d 7a 26 0b be ee ff 97 bd
       -0.0071904883 0.09152132 -0.13588896 -0.074218616
0000e0 50 ef f0 bd 66 17 ee bd 0b cb 16 3d d5 f4 22 3d
       -0.11764395 -0.11625557 0.03681473 0.03978427
0000f0 75 c3 77 bd 63 27 4c 3c 8b 92 ec bc f7 07 df bd
       -0.060489137 0.012460562 -0.02887847 -0.10890191

h2.weight f4 [64, 64]
000000 60 37 02 be 09 72 a9 3d 2b b2 6a 3c 4c cb cc bc
       -0.12716436 0.082737036 0.014324705 -0.024999283
000010 59 51 13 3d 48 db ad bc 3c 6f f7 3d 42 90 54 3d
       0.03596625 -0.021222726 0.12081763 0.051895387
000020 89 e2 ef bc e6 19 c3 3d c3 e8 37 be 87 47 a7 bd
       -0.029282825 0.09526424 -0.17959885 -0.0816794
000030 3d 5e 03 3e a5 29 1d bd 9e 22 b9 3d 4b 99 cd bc
       0.12828918 -0.038369793 0.09039806 -0.02509751
000040 1b 01 64 bd 87 82 2b 3d 98 40 ed bc 21 d2 3f bd
       -0.055665117 0.041872527 -0.028961465 -0.046831254
000050 23 6f 18 3d 7d 6e cd bd 96 67 fc bc 0f e9 c1 3d
       0.037215363 -0.100308396 -0.030811112 0.094682805
000060 1d 45 c4 bd 06 8a 1b 3e 1d 2d eb 3d a9 b7 c4 bd
       -0.09583495 0.1518937 0.11483214 -0.09605343
000070 1f 51 a7 3d 11 af 06 be 3d 18 00 3d a6 43 b9 bd
       0.081697695 -0.1315272 0.031273115 -0.09046106
000080 3b dc a3 bd 89 e2 1d 3d 29 cd 3b bd b7 38 3c bd
       -0.0800099 0.03854612 -0.045849953 -0.045952525
000090 17 65 d3 bd 05 43 86 3d cc 85 27 3d 68 c9 2e 3e
       -0.10322016 0.06555752 0.040899083 0.17069018
0000a0 04 99 91 3d 72 fa a1 3d b9 ed d6 bc 92 7a dc 3c
       0.071092635 0.07909097 -0.026236402 0.026913915
0000b0 69 33 28 3e 2b 40 bd bb ef 65 f8 3d 14 2e c8 bc
       0.16425861 -0.0057754717 0.12128817 -0.024436034
0000c0 c7 2f 49 bd bb ea 61 3d 30 fa d6 3d 8e 57 a1 3d
       -0.04911783 0.055155497 0.10496938 0.07878028
0000d0 28 e8 00 3e 70 78 1a 3e 32 70 3f 3d af 0f 81 bc
       0.1258856 0.15085006 0.046737857 -0.015754549
0000e0 e8 7e 42 3e 4d 96 51 bd 9d a6 99 3d 20 96 81 3e
       0.18993723 -0.05116873 0.07502482 0.2530985
0000f0 fe ec f3 3d d3 de 44 3d 1b 7a a2 3d fe 94 3f bd
       0.11910437 0.048064064 0.07933446 -0.04677295
000100 06 3f 31 bd 45 56 20 bd aa 61 99 bd c2 d4 ca bd
       -0.043272994 -0.039144773 -0.07489331 -0.099038616
000110 40 4b fe 3d 01 06 da bc 98 ce 8c bd 84 a1 de bd
       0.124166965 -0.026614191 -0.06875342 -0.108706504
000120 6d 54 9a bc 72 e7 e6 3d 62 4b 25 be 14 8e 74 3d
       -0.018839085 0.112746134 -0.16142038 0.05970581
000130 54 16 e4 bd 78 e3 e6 3d a1 19 1a be 89 b4 95 bd
       -0.11137071 0.11273855 -0.15048839 -0.07309825
000140 75 c5 26 bd 0a 93 00 be a0 9f 86 bd 59 36 bf 3d
       -0.040715653 -0.12556091 -0.06573415 0.09336538
000150 d0 b7 17 bc 5e 82 50 be 15 28 1a be 4e 96 c5 bd
       -0.009260133 -0.20362231 -0.15054353 -0.09647809
000160 54 a7 8f bd 1d 89 3a 3e 71 dd ca bd f7 2c 11 3d
       -0.07014337 0.18216367 -0.09905518 0.035443272
000170 ba 8e 5b bd 1c 60 87 bd f9 ea e6 bd 43 73 ea 3b
       -0.05360291 -0.06610128 -0.11275286 0.0071548535
000180 26 9a 16 bd ca b0 23 be ac c4 62 be 0f 51 c2 3d
       -0.0367681 -0.15985408 -0.22145337 0.09488117
000190 ab 8f 28 bc c0 6a a8 bd c2 c8 0a be 58 cd 8d 3c
       -0.010288159 -0.08223486 -0.13553146 0.01730983
0001a0 32 7a 9e 3d 6d 8d 9a bd ed 29 b5 bd fc 9c 51 3c
       0.07738151 -0.07546506 -0.08845887 0.012793776
0001b0 d7 c1 53 bc 22 0d 9b ba 60 5e 4c 3d e9 04 c2 bd
       -0.012924633 -0.0011829475 0.04989469 -0.09473593
0001c0 6f 9e 6a 3d 8a 33 d5 bd 1b c1 6a 3c 5d a9 82 bc
       0.05728 -0.10410221 0.0143282665 -0.0159499
0001d0 a2 9d 8e 3c fe f2 00 3d 44 1c 86 be 61 f8 2b be
       0.01740915 0.031481735 -0.2619344 -0.16793968
0001e0 6a 7c 3e 3d 8c 69 d9 3b 83 86 af bd 31 a5 31 be
       0.04650537 0.0066348966 -0.08570578 -0.17348172
0001f0 2e a3 4a 3e 8a 01 9b bd 08 d1 f7 3d d7 01 0b be
       0.1978881 -0.07568653 0.121004164 -0.1357492
000200 d6 5e ed bd 6d e2 74 3c 4d 4b 25 3e 88 8a d7 bd
       -0.11590354 0.014946562 0.16142006 -0.105244696
000210 75 fe 9b bd ea 8c 0f bd 4d 0b 1f ba ae 29 77 3d
       -0.07616893 -0.035046495 -0.00060670526 0.060342483
000220 60 19 a4 3d 43 c7 d4 3d a3 27 da bd d6 c8 8b bd
       0.080126524 0.10389569 -0.10652091 -0.06825416
000230 9f 9a d5 3b 67 99 50 bd ab 46 81 3d 3b 79 3c be
       0.0065186764 -0.050927546 0.06312307 -0.18405621
000240 48 d5 89 bd 83 dc bd bc 02 39 8f bd 78 28 85 bd
       -0.06730133 -0.023176437 -0.06993295 -0.065018594
000250 ed cb 25 3d 57 e5 f7 bd a0 71 39 3d c4 0c f7 bd
       0.040477682 -0.1210429 0.045274377 -0.12062982
000260 10 23 f6 bb 9b 61 3a 3d 16 cc d4 bd 80 18 03 be
       -0.007511504 0.04550324 -0.10390489 -0.12802315
000270 32 61 87 bd a4 b3 dc bd fc 54 95 3d ef 28 be bb
       -0.066103354 -0.10776451 0.072916 -0.0058032195
000280 d6 aa 5d 3d 4a 49 bb bc 2e c3 ed 3d 05 b8 0f be
       0.054118 -0.022862095 0.11609493 -0.14035042
000290 39 ec 19 be b0 38 f3 3c 51 52 6f 3c 51 82 e5 bd
       -0.15031518 0.029690117 0.014607028 -0.112064965
0002a0 ba a2 fa 3d 33 8b c1 3c 7b 41 ec 3d 31 0f e9 3d
       0.12238069 0.023625946 0.11535927 0.11379851
0002b0 7d c2 a5 bc a3 ce aa 3d c4 67 69 bb 4a e0 1d 3e
       -0.02023434 0.08340194 -0.0035614828 0.1541759
0002c0 a6 0d e8 3c 29 fa f9 3c 66 41 48 bd 3a 04 b5 bd
       0.02832682 0.030514793 -0.048890494 -0.08838697
0002d0 02 64 15 3c f0 c3 a2 3b 60 c3 c5 3d c8 f7 c1 bd
       0.009118082 0.004967205 0.096564054 -0.09471089
0002e0 da a5 18 bd 90 0a a9 bd 15 f1 89 bd 06 55 b4 bd
       -0.037267543 -0.08253968 -0.06735436 -0.088052794
0002f0 2d 84 48 3d 7a 87 03 3d 3c b1 c5 3d d9 70 72 bd
       0.048954178 0.032111622 0.096529454 -0.05918965
000300 03 6c ad 3d a4 be 81 bd 8d 6d d2 3d 95 38 d1 bb
       0.08467867 -0.0633519 0.102748014 -0.006384919
000310 bf fb 53 bd a8 d6 f4 ba 50 75 5e bd 53 bd 92 bd
       -0.051753756 -0.0018679695 -0.054311097 -0.07165017
000320 63 9b ea bd 69 bd b4 3d 28 b4 29 be cb a1 a0 3d
       -0.11455419 0.088251896 -0.1657263 0.078433596
000330 2b 93 98 3d 31 4d 3b bc ec 28 87 3d a0 90 99 bd
       0.07449945 -0.011431978 0.06599602 -0.07498288
000340 25 52 14 bd 8c a2 20 be 9e 5b 44 be a3 a7 0e 3e
       -0.03621115 -0.15687007 -0.19175574 0.13931136
000350 57 2f 1d be 50 8c 06 be 54 6d ae bd e3 bf 12 3d
       -0.1535009 -0.13139462 -0.085169464 0.03582753
000360 2d c8 2c 3e d3 8b 2f 3e f4 eb 3c 3c 85 9a b1 bd
       0.16873236 0.17143182 0.011530865 -0.086720504
000370 87 78 5f bd 78 86 00 3e 33 24 b7 3d 44 33 a0 3d
       -0.054558303 0.12551296 0.08942451 0.07822278
000380 44 23 0c 3d 1f a2 0f bd f2 80 2e 3d fd a0 e0 bd
       0.03421332 -0.03506672 0.04260344 -0.10968206
000390 4c 26 a6 bd 5b 23 b5 3d 93 7b 11 be eb 31 25 bd
       -0.08112773 0.08844634 -0.14207296 -0.04033081
0003a0 ab 65 d1 3b 2c 68 b5 3d 30 96 d3 bd 17 ee d1 3d
       0.0063902936 0.0885776 -0.1033138 0.1025049
0003b0 e8 71 07 be 43 a8 e6 3d 57 a3 b7 ba 38 fe 0a 3d
       -0.13227046 0.11262562 -0.0014010471 0.03393385
0003c0 e9 27 e1 bb 97 1c 9c 3d 0e 03 10 3e f7 b1 c0 39
       -0.0068712127 0.076226406 0.14063665 0.00036753688
0003d0 84 0e cc bd e8 10 f2 3d a1 af 39 3e 38 e4 87 bd
       -0.09963706 0.11819631 0.18133403 -0.06635326
0003e0 86 4c df bc 74 66 e8 3d 78 90 44 bd 06 e8 95 bd
       -0.027258169 0.113476664 -0.04798934 -0.073196456
0003f0 e3 17 2a be d6 01 8c 3d 84 27 19 3e eb e6 57 3c
       -0.16610675 0.06836288 0.1495648 0.013177614

h2.bias f4 [64]
000000 85 b3 0a 3d c2 70 3c bd 9e 49 a3 3c 29 0e 42 bd
       0.03386261 -0.04600597 0.019932564 -0.047376785
000010 b0 b3 07 3d 60 9c 9f bb 9c 06 f4 bd a6 c9 2e 3d
       0.033130348 -0.0048709363 -0.11915323 0.042672776
000020 ef 95 28 bd 54 a6 aa bd d0 57 71 bc 22 bc de 3c
       -0.041158613 -0.08332506 -0.014730409 0.027189318
000030 c7 1e fd bc ce bd 14 bd 9e 8b 50 bd 98 6e f4 3c
       -0.030898465 -0.036313824 -0.0509144 0.029837891
000040 18 7b e6 bd 7b 4c 12 be bb 92 d1 bd a6 55 a0 ba
       -0.11253947 -0.14286987 -0.10233065 -0.0012232556
000050 fd 5f cf bd 5d 04 aa bd 2b 45 01 ba 9d 17 50 3d
       -0.1012573 -0.083016135 -0.00049312663 0.05080377
000060 45 b0 3e bd 20 50 da bd b4 5f b9 bd 2f 20 85 3d
       -0.046554822 -0.10659814 -0.09051457 0.06500279
000070 dd cd d7 bc de 69 19 3d c1 75 84 3d 74 87 66 3d
       -0.02634328 0.03745448 0.06467772 0.056281522
000080 c2 05 61 bc 55 ff 29 bd 33 f3 81 bd df a5 b2 3d
       -0.013734283 -0.04150327 -0.06345215 0.08723044
000090 25 8a 6f 3d 62 29 b4 3d 54 fa dc 3b 7f c9 dd 3c
       0.058481354 0.08796956 0.0067437086 0.02707362
0000a0 d1 4c 65 3c f1 82 11 3e fa 14 5c 3d 1e b1 76 3d
       0.013995365 0.14210106 0.053730942 0.060227506
0000b0 6c c0 a9 bd a5 e6 07 3e 66 4f 17 bc 42 6c 8b 3d
       -0.08288655 0.13271578 -0.009235239 0.06807758
0000c0 25 29 f9 bc c6 30 a1 3d 4d 45 eb bd ff 83 9f bc
       -0.030415127 0.07870631 -0.114878275 -0.01947212
0000d0 e5 30 4c 3d ed de ad bd 04 08 fa bc 4e 57 56 bd
       0.049851317 -0.08489785 -0.0305214 -0.052329354
0000e0 ee fd 4f 3d 4b 32 09 3e 7f e0 ad 3d 95 47 f3 3d
       0.050779276 0.13398091 0.08490085 0.118788876
0000f0 88 70 94 bb 9e 0d 35 bd ee 95 3f 3d a9 88 01 3e
       -0.0045300163 -0.04420244 0.046773843 0.12649788

h3.weight f4 [64, 64]
000000 4f 4c 23 bd 23 a0 18 3d 1f 49 93 3d 20 e9 87 3d
       -0.039867695 0.037262093 0.07191681 0.06636262
000010 22 b0 d4 bd 61 9c b4 3d 6e de c5 3c 0e df 75 bc
       -0.10385157 0.088188894 0.024153914 -0.015006794
000020 59 23 1b ba c2 98 4b bd 18 19 01 3e 21 8e 0b be
       -0.0005918048 -0.049706228 0.12607229 -0.13628437
000030 9e 05 d2 bd c3 14 1b 3e 2b 18 b2 bc 68 1b 4d 3d
       -0.10254978 0.15144639 -0.02174004 0.050074965
000040 9a 96 f1 bd f8 79 c8 3d a7 e8 84 3c 5c 17 b2 3d
       -0.11796303 0.09788889 0.016224219 0.08695862
000050 88 d0 eb bd ee 60 5f 3c ef f4 92 bc bf 73 d6 bc
       -0.115143836 0.01363395 -0.017939059 -0.026178239
000060 e6 e9 16 be e0 1f a8 bb b0 59 17 bd 8d 1e 04 3e
       -0.14737663 -0.005130753 -0.036950767 0.12902279
000070 d9 d0 ff 3d 4d 91 21 bd db 28 94 bc 5a 86 e4 bd
       0.124910064 -0.03944521 -0.018085888 -0.11158438
000080 28 ea ac bd 0c db 20 bb fc 65 6a bd a1 b6 6f 3d
       -0.08443099 -0.0024544625 -0.057226166 0.058523778
000090 01 3b 73 3d 98 e5 5c bd ce 7d 9f 3c 47 17 4e bd
       0.059382442 -0.053929895 0.019469168 -0.050315168
0000a0 b8 d2 c6 bd e3 a0 b5 3d 41 2f a7 3d 2e b6 b8 3c
       -0.0970816 0.08868577 0.0816331 0.022547808
0000b0 96 6a 95 bc 23 c2 32 3e 82 9a aa bd 20 d8 04 be
       -0.0182393 0.1745687 -0.08330251 -0.1297307
0000c0 35 a1 db bd 32 f2 a5 bd cf 63 96 bd 39 90 96 bc
       -0.10724107 -0.08102836 -0.07343256 -0.018379318
0000d0 7e 8b 12 bd b3 9b 19 3e 1c 4c d8 3d 52 fa 28 3c
       -0.03577756 0.15000801 0.10561392 0.010313587
0000e0 04 d8 ee bd d6 5b e5 bd eb 1f 11 3e 99 60 17 be
       -0.116622955 -0.11199157 0.14172332 -0.14782943
0000f0 be 2d 28 bd e9 9c e1 bd ee 0e 5a be 5f 6a 89 bd
       -0.04105925 -0.11016256 -0.21294758 -0.06709742
000100 09 f3 21 bd 88 64 b6 bc 8e 0a a5 3d 7e 72 1d be
       -0.039538417 -0.022264734 0.08058654 -0.15375707
000110 c9 0a e5 bd a5 d9 1c 3d b7 2f 99 3c a5 34 55 3b
       -0.11183698 0.0382935 0.01869951 0.00325326
000120 65 ba 2d bd b5 cd 81 bc 28 97 cc bc 99 69 07 bd
       -0.042414088 -0.01584516 -0.02497442 -0.03305969
000130 98 83 d6 3d 9a af 9d bc a6 eb 2b 3d 90 6f 11 bd
       0.10474318 -0.019248772 0.04197278 -0.035506785
000140 89 e6 4f bd f8 57 4b 3c 7b da 00 be 00 d1 91 bd
       -0.050756965 0.01241111 -0.12583344 -0.07119942
000150 62 f2 05 3e f7 2d b2 3d 71 bd c6 bd 75 a0 34 be
       0.13080743 0.08700173 -0.09704102 -0.17639334
000160 6c fc 0f be 11 6e f7 bd c5 fb d5 bd 28 26 a4 3d
       -0.14061135 -0.120815404 -0.10448412 0.0801509
000170 4b 6d d5 3c 57 86 e8 bd af 39 2e be 85 bf c9 bd
       0.026053092 -0.11353748 -0.17014192 -0.098509826
000180 6b d6 bf bd 71 22 7d 3d db a2 a3 bd 82 5a e9 3d
       -0.09367069 0.061800424 -0.079900466 0.11394216
000190 d8 04 ff 3d a4 65 0f 3d 73 dc ed bc 3a 00 f4 ba
       0.12452096 0.03500904 -0.029035782 -0.001861579
0001a0 dd cb d4 bd ce f5 c6 3c 5f 11 15 3e 3d 8f b8 bd
       -0.10390446 0.02428713 0.14557408 -0.090116955
0001b0 24 98 20 3e e0 82 d9 3d 27 25 94 bd 04 88 22 3d
       0.15683037 0.106206656 -0.07233649 0.039680496
0001c0 fd a7 ca bd c1 0e 34 3d 87 11 bb 3d 56 e5 dd bd
       -0.098953225 0.043959383 0.091342025 -0.10834758
0001d0 97 b9 8b bd 81 21 5c 3d e6 10 95 bc ef 5e 42 3c
       -0.06822508 0.05374289 -0.018196534 0.011863454
0001e0 6d ba d9 bb b1 3a 3d 3d 99 73 00 be 01 d2 3e be
       -0.006644538 0.04619855 -0.12544097 -0.18634798
0001f0 1f 34 03 3c f3 29 8c 3c 20 6a 3f 3e b6 23 32 3d
       0.008008032 0.017109847 0.18692827 0.043491088
000200 ac fb 30 3d cb 9d 13 3e 6e 3d b9 3d d1 4c e7 bd
       0.043208763 0.14415662 0.0904492 -0.112939484
000210 09 6f 84 b7 70 13 c6 3d 19 6a 71 bd ab 94 5d 3d
       -1.5787331e-05 0.09671676 -0.058939073 0.05409686
000220 27 b6 de bd 46 4a 5f 3d 6a 39 39 3d 14 8f dc bd
       -0.108745866 0.054514192 0.04522077 -0.107694775
000230 61 26 06 be 98 33 cc 3c f1 b1 d5 3c 30 86 ca bd
       -0.13100578 0.024926946 0.026085826 -0.098888755
000240 08 e6 a1 3c 74 81 56 bd 1f 49 6e 3c f1 1f fa 3d
       0.019763008 -0.05236955 0.014543801 0.122131236
000250 5e c5 cf bc 9e 52 e3 3d d7 b0 b6 bc fc f4 e5 3d
       -0.025362667 0.11099742 -0.02230112 0.11228368
000260 f5 e9 80 3c 33 fe ac 3d b1 12 05 be 42 6a ac 3d
       0.01573656 0.08446922 -0.12995411 0.084187046
000270 bc 3d ec bc 4d e4 83 3d d5 89 e1 bc c9 da 3a bd
       -0.028838031 0.06440029 -0.027531544 -0.045618806
000280 12 72 9c bd 22 ed 08 be 6f 84 2c be b9 7c 93 bd
       -0.07638945 -0.13371709 -0.16847394 -0.07201523
000290 2c 27 71 3c bc 42 ae 3d bd fb 24 be 4a 93 58 bd
       0.014718812 0.08508822 -0.16111656 -0.05287484
0002a0 de 2b 39 3d c7 e1 a8 bc 7c d0 e4 bd 15 e9 88 3d
       0.04520785 -0.020615472 -0.11172578 0.06685082
0002b0 76 0a d4 3d e6 87 a3 3d d4 61 57 3d 7d d1 1f bd
       0.10353558 0.07984905 0.05258353 -0.039018143
0002c0 71 ab c1 3d 64 f6 f9 3d d1 36 e9 bd 03 22 89 bd
       0.09456528 0.122051984 -0.113874085 -0.0669594
0002d0 ed f5 63 bc 60 79 f1 bd 8b dc 09 be ca 91 da 3c
       -0.013913614 -0.117907286 -0.13463037 0.026680846
0002e0 40 8c 0f be 2a 38 3f be 05 82 6f bd 32 42 50 3d
       -0.14018345 -0.18673769 -0.058473606 0.05084438
0002f0 3d 65 12 bd ed 63 ca 3c c5 9a 8b bc 05 e9 0b bd
       -0.03574108 0.024705851 -0.017041573 -0.03415777
000300 c5 a8 85 3b 66 84 12 bd 93 07 c1 bd be 4a 92 bd
       0.004078957 -0.035770796 -0.09425273 -0.07143162
000310 c6 6d 6d 3c 74 78 28 bd 0e 0d e5 3d 25 ad 65 bd
       0.014491504 -0.041130498 0.111841306 -0.056073327
000320 72 76 d2 3c c9 ac 87 bd ef d4 8f be 37 57 63 3d
       0.025691245 -0.06624753 -0.28092143 0.055503096
000330 9d 4f ac bd 28 de 42 3d 2e 2d 11 3d 35 c4 81 3c
       -0.084136225 0.047575146 0.035443477 0.01584063
000340 58 72 b6 3d 88 c7 21 3c 79 0b f1 37 e1 3f 2b 3e
       0.08908528 0.009874232 2.8734781e-05 0.16723587
000350 52 c8 22 be 40 6e 5a 3d 29 22 a8 bc 02 d6 97 bb
       -0.15896729 0.0533278 -0.020524101 -0.004633666
000360 02 e2 c6 3d 26 f9 25 be d0 9e 02 3e 34 07 26 be
       0.09711076 -0.16208324 0.12755895 -0.16213685
000370 20 22 4c 3d fa 47 47 3e e4 47 01 3e 10 a6 ea bb
       0.04983723 0.1946105 0.1262508 -0.0071609095
000380 45 59 12 3e a4 63 81 bc 59 fc 54 bd 65 e1 df bc
       0.14291866 -0.015794583 -0.05199847 -0.027329156
000390 21 88 f0 bd df b0 54 bd 26 48 7e 3d df 12 56 bb
       -0.117447145 -0.05192649 0.062080525 -0.0032665057
0003a0 9e d7 82 bd 25 7b 4f 3e 7b 85 0d 3d cc 32 22 3d
       -0.06388782 0.2026182 0.034551125 0.039599225
0003b0 99 fc db bd eb 29 c8 3c 51 ac 18 3e 14 71 0a 3e
       -0.107415386 0.02443405 0.14909483 0.13519698
0003c0 a8 fe 03 3e 1d 99 eb bd 55 aa 9a bd f4 29 de bd
       0.12890112 -0.115038134 -0.075520195 -0.10847846
0003d0 41 64 69 bd 52 65 0b 3e d7 06 b8 bc e6 d5 b2 3d
       -0.056980375 0.1361287 -0.022464199 0.08732204
0003e0 22 39 29 3d 41 b3 ca 3d 5d 62 fc 3c e4 37 21 3d
       0.04131425 0.09897471 0.030808622 0.039359942
0003f0 c2 b7 a8 3d d9 cb 04 3d 8d 84 bb bd a4 62 ea ba
       0.08238174 0.032420967 -0.091561414 -0.001788218

h3.bias f4 [64]
000000 3d 09 29 bd e9 16 ef 3c 2e 3c 89 3d 88 7e f0 bc
       -0.041268576 0.02918573 0.067009315 -0.02935721
000010 ac e6 a5 bd 1c a1 7d 3d 33 23 80 bd 43 03 7f bd
       -0.08100638 0.061921224 -0.06256714 -0.06225897
000020 87 ce bf bd fa 13 d1 bd 27 2a b4 3d 50 12 b2 bd
       -0.09365564 -0.10208888 0.087971024 -0.08694899
000030 11 2f 2b bd 85 18 a5 bd 77 c0 fd 3d 68 9b 01 be
       -0.041792933 -0.08061317 0.123902254 -0.12656939
000040 5c e5 04 bd 8b f0 0c bd 38 f9 29 bd 4e 9c c3 bd
       -0.032445297 -0.034409087 -0.04149744 -0.09551297
000050 d0 d5 d1 bd 5f cd 2f 3a 94 c3 1a 3d 8e 6f 92 bd
       -0.102458596 0.0006706323 0.037784174 -0.071501836
000060 a3 80 dd 3a ad 67 0b be fc 4e 3a bd 0c df bf bd
       0.0016899299 -0.13613768 -0.04548548 -0.09368715
000070 02 42 82 3d df c2 91 3d 5f 0c f7 bc 49 d4 f3 3c
       0.06360246 0.07117247 -0.030157266 0.029764311
000080 64 e3 37 3d 59 53 ad 3d 91 46 01 bc 56 0d c0 bd
       0.04489459 0.08463163 -0.0078903595 -0.09377544
000090 da d4 81 3d 69 16 ba bd b4 25 d5 3d cc 4b 34 bd
       0.06339426 -0.09086306 0.10407582 -0.044017598
0000a0 e3 75 a8 bb 77 32 42 3d 49 2d de 3d ea fb 5a 3b
       -0.0051410063 0.04741141 0.10848481 0.0033414313
0000b0 5b f9 e5 3d dc dc c3 bd 10 3e 64 3d b3 f5 6e 3d
       0.112292014 -0.0956361 0.05572325 0.058339786
0000c0 7c e3 c2 bc 75 96 5b bd a0 d9 9a 3d 79 c9 08 3d
       -0.023790114 -0.053610284 0.0756104 0.033395264
0000d0 b3 54 c7 3d 25 c3 4d bd b4 e0 55 bd 60 44 a1 bd
       0.09732952 -0.050234932 -0.052216247 -0.078743696
0000e0 61 e5 67 3d 81 69 1b bd 90 8c 1d 3d 29 fb b0 bd
       0.056615237 -0.037942413 0.03846413 -0.08641655
0000f0 3c 8d 8e 3c 60 6f 84 bd a8 68 fb 3d e7 ef ca bb
       0.01740133 -0.064665556 0.12275821 -0.0061931494

h4.weight f4 [64, 64]
000000 cf 11 b0 bd 7f 01 2f 3e 51 f2 82 bd 0c 40 d8 bd
       -0.08597147 0.17090414 -0.063938744 -0.10559091
000010 dd b3 f0 bd b2 2a 25 bd 0e 6f b3 bc a4 f6 18 3d
       -0.11753056 -0.04032392 -0.021903541 0.03734459
000020 61 36 86 3d 86 61 e3 bc 79 e7 11 bd a3 9f 61 bc
       0.06553341 -0.027756464 -0.03562114 -0.0137709705
000030 a9 55 20 3e 9c 71 79 bd c9 e7 8c bd e7 43 90 bd
       0.15657677 -0.060899362 -0.06880147 -0.07044201
000040 ae 65 0d bc 6d 41 50 3d e6 ea 44 be fd fb 8a 3d
       -0.008630199 0.050843645 -0.19230232 0.06786344
000050 9e 32 df bd 4f 45 c2 bd 32 3e 8a bd e0 ca 07 3e
       -0.10898326 -0.09485876 -0.06750144 0.13260984
000060 c6 5d 43 3d c9 69 71 bd 56 32 a7 bd bd 0b 52 3d
       0.04769685 -0.058938775 -0.08163898 0.051280726
000070 92 fd fd 3d 79 bc 09 3d 5d 1d ab 3d 84 ba 06 3e
       0.1240188 0.033627007 0.0835521 0.13157088
000080 a9 3b 09 bd df 65 10 be df 79 1f bd c2 2d b1 3d
       -0.033504162 -0.1410136 -0.038934585 0.08651306
000090 bb 35 cb bd b5 9f a5 bd 03 f7 e1 bd 81 63 aa 3d
       -0.09922358 -0.08087102 -0.11033442 0.0831976
0000a0 2d e8 d4 bd 0a 8c 01 3d f4 b0 d4 bd 52 cd 06 3d
       -0.103958465 0.031627692 -0.10385314 0.032910652
0000b0 7a 1a 84 bd 56 6d cd bc bf e4 fa bc 56 d6 87 bd
       -0.064503625 -0.02507655 -0.030626653 -0.06632678
0000c0 88 26 0c 3d f9 13 90 3b 52 4a ac bd e8 8c 11 3e
       0.034216434 0.004396912 -0.08412613 0.14213908
0000d0 e5 7c db bd 5c a0 e6 3d 46 20 84 bd 83 c6 e3 3d
       -0.10717181 0.11261055 -0.06451468 0.111218475
0000e0 18 d7 92 3d 2f f7 0f bd ac d3 40 3d 1f 15 b6 bd
       0.07169932 -0.035147842 0.047076866 -0.08890747
0000f0 43 48 d8 3d db b2 14 3d 43 18 9b 3d 2f 61 ce bb
       0.10560658 0.036303382 0.07572987 -0.0062982063
000100 51 c6 9a 3d cc 73 63 bd be c2 df 3c 26 d9 1c 3d
       0.07557357 -0.055530354 0.02731454 0.038293026
000110 ca 68 07 be ec c2 da bd 69 0b 09 bc b7 7d 4f bd
       -0.13223568 -0.1068171 -0.008364537 -0.050657
000120 6d 9d f0 3d d0 21 85 be f3 b7 50 bd 65 b5 85 bd
       0.117487766 -0.2600236 -0.050956678 -0.06528739
000130 63 83 90 bd 6b 3c 17 be bf 03 b5 3d 32 0f f0 bc
       -0.0705631 -0.14769141 0.08838605 -0.02930412
000140 1d bf 51 3e 9a 4f f6 bd 3a e0 ff 3d 67 3c 3c be
       0.2048306 -0.120269015 0.1249394 -0.18382417
000150 d8 c1 79 3c 01 07 b1 bc 5d 70 82 bd 8e 31 07 be
       0.01524397 -0.021609785 -0.06369088 -0.13202497
000160 56 55 24 3d 09 9e d6 bd c2 df be 3d 3b f6 1b be
       0.040120445 -0.104793616 0.09320022 -0.15230648
000170 dc 38 8d bd 1e 04 11 3d 10 28 bf 3c 0e a4 f3 bd
       -0.06895611 0.035404317 0.023334533 -0.11896525
000180 4e c7 9b bc 5e c0 b0 bd 3b 2d f3 3c d4 a8 ae 3c
       -0.019015934 -0.08630441 0.029684654 0.021320738
000190 ed 35 10 3e b5 68 b0 bc df ab 1b 3c 22 eb ba 3c
       0.14083071 -0.021534303 0.0095014265 0.022817198
0001a0 77 aa 8a 3c 8e 95 0d bd f6 9c 9b 3c bc 5e e6 bd
       0.016926987 -0.034566455 0.018995743 -0.11248538
0001b0 66 cd dd 3c 99 f1 34 3d 08 48 be 3a ac 5f ae 3d
       0.02707548 0.044175718 0.0014517317 0.08514342
0001c0 ba 71 db bd c0 9f de bd eb 93 29 bd 74 e0 aa 3c
       -0.10715051 -0.10870314 -0.04140083 0.02085898
0001d0 4a fd 03 3e f1 10 9c 3c b0 c6 21 3d 79 3e 00 3e
       0.12889591 0.019051047 0.039496124 0.12523831
0001e0 76 99 30 3e 28 76 6a bd 23 29 d0 bc 38 98 92 3d
       0.1724604 -0.05724159 -0.02541024 0.0715794
0001f0 c8 22 53 bd 8b ee 0f be 96 19 41 bc 85 1d af 3d
       -0.05154684 -0.1405584 -0.011785885 0.08550552
000200 2a 5c 02 be 1d d9 c0 bd d3 f3 d3 bd 00 5d 0a 3e
       -0.1273047 -0.09416411 -0.1034924 0.13512039
000210 c8 3d 3f 3d 83 0e 8c 3d ee 31 e6 bc 24 ca e9 bd
       0.04668978 0.068387054 -0.02809998 -0.114155084
000220 5b c2 7e bd 9e 00 a7 3c d9 ef b6 3d 3e 89 09 bd
       -0.06219707 0.020386036 0.08932466 -0.03357815
000230 1c 07 6b bc 0c f1 a1 3d 10 a1 d0 3b 3c 86 06 be
       -0.014344957 0.07907304 0.0063668564 -0.13137144
000240 90 5e d2 3d 87 47 8a 3c 9a d5 fc bd fc 98 b8 bd
       0.102719426 0.01687981 -0.12345429 -0.090135545
000250 40 39 c9 3d 57 fd c2 bd 0b 3c b7 3d dc 52 ba 3d
       0.09825373 -0.09520977 0.08946999 0.090978354
000260 c5 d0 25 bd 45 f7 8e bc 02 fe c8 bd 68 57 06 3c
       -0.0404823 -0.017451892 -0.09814073 0.00819955
000270 fd f5 0a bd cf 61 e0 bc 57 2d 13 3e ce 5f 14 be
       -0.033926 -0.027390389 0.14372765 -0.14489672
000280 15 93 92 3d 25 60 fb 3d 87 61 50 3d 1d 22 e3 bd
       0.0715696 0.122741975 0.05087426 -0.11090491
000290 23 2e fd 3d 9f 74 74 bd af 48 e7 bd ee 92 b0 bc
       0.123623155 -0.05968153 -0.1129316 -0.021554437
0002a0 23 15 ea 3d e9 93 a9 3d d9 47 25 3d e0 7a bf bc
       0.11429813 0.08280165 0.040351722 -0.023374021
0002b0 68 c8 8e bd ff 9b 80 bd 3c ef 01 3d ab f8 cf 3d
       -0.06971818 -0.06279754 0.031722292 0.101548515
0002c0 f2 22 4b bd 23 08 07 be c2 2c c0 3d 3f ab 33 3e
       -0.049593873 -0.13186698 0.09383537 0.17545794
0002d0 21 5a fa 3d 1b b5 c6 3d 3a d2 d7 3d 1f 70 ed bd
       0.12224222 0.09702512 0.105381444 -0.11593651
0002e0 f3 d8 7d 3a 41 93 a7 3d af b6 a0 bc 38 b3 76 3d
       0.0009683512 0.08182383 -0.01961836 0.06022951
0002f0 35 57 ab 3d d8 42 05 bd d1 8a f5 3c c5 dc 3f 3e
       0.08366243 -0.03253445 0.02997342 0.1873656
000300 ce c5 97 3d c7 32 83 3d f5 50 24 bc 24 61 c0 3c
       0.07410775 0.064061694 -0.010029067 0.02348382
000310 65 c4 88 3c d2 a0 23 be 52 ec 0f 3d e7 66 8f 3d
       0.01669521 -0.15979317 0.035137482 0.07002049
000320 bd b9 bb bd ab b3 f7 3b d8 5c 16 3e b8 7a e2 3c
       -0.09166286 0.00755926 0.14683855 0.027646407
000330 18 9b ad 3d 5e 22 00 bd 24 4d 1e ba 61 3e e9 3d
       0.084768474 -0.031282775 -0.00060387165 0.11388851
000340 52 8d ea bd 3e 3f 96 3d 5f 0d 01 be 9e e5 0c bd
       -0.11452736 0.07336281 -0.12602757 -0.034398668
000350 4c d0 17 3b 89 2c b8 bc 60 87 06 3d 90 f7 51 3c
       0.0023164926 -0.022482174 0.032843947 0.012815371
000360 7f 9b e1 bc ff eb b4 3d b6 2a 80 bd 75 cc 05 be
       -0.027539967 0.08834075 -0.062581465 -0.13066275
000370 d5 de 05 bd 49 ec 3a bd 94 e7 c3 bd 31 e7 0d 3e
       -0.032683212 -0.045635495 -0.095656544 0.13857724
000380 4d fb 44 be 73 e2 0c be 69 c7 21 3c 18 45 04 bd
       -0.19236489 -0.13758259 0.009874203 -0.032292455
000390 08 8f 0b bd bc 38 13 be 06 40 70 bc eb 3e 56 bd
       -0.034071952 -0.14377111 -0.014663702 -0.052306097
0003a0 4c f3 be 3d 46 81 a4 bd d7 a0 dd 3d 67 da ef bd
       0.09323749 -0.080324695 0.108216934 -0.11711579
0003b0 f3 82 9a bc 3d 9b 59 3d 21 33 df 3d fc 7f 23 3d
       -0.01886127 0.053126562 0.10898424 0.039916977
0003c0 e0 09 a0 bd 65 18 eb bc 29 0b df 3d b2 fa 0c 3d
       -0.078143835 -0.028698156 0.108908005 0.03441877
0003d0 b9 2b 00 bd e3 ad c3 bd 47 7a f5 3c 00 37 62 3d
       -0.031291697 -0.09554651 0.029965533 0.055228233
0003e0 0c e4 53 3d 08 c7 50 3c 58 ec 34 3d 7b 67 10 be
       0.051731154 0.012742765 0.044170707 -0.14101975
0003f0 e9 fc aa 3d ea 51 8a 3d 7c 4d 2c bc 25 e9 cf 3d
       0.0834902 0.06753905 -0.010516521 0.10151891

h4.bias f4 [64]
000000 c1 e1 d4 bb aa d4 9a bd c7 b8 c8 3d 90 07 a4 bd
       -0.0064966385 -0.07560094 0.098008685 -0.08009255
000010 80 fa 7c 3d 79 b7 0d 3d 44 ae 04 3e b4 f4 9f 3a
       0.061762333 0.0345988 0.12957102 0.0012203665
000020 26 92 4c 3c 84 17 b8 3d bf cc 1d 3d 2b 13 ab bd
       0.012486016 0.0898886 0.03852534 -0.083532654
000030 f0 1a 24 3b 3d 94 9e 3d c6 57 be 3d fe 97 de bd
       0.002504047 0.07743118 0.09294085 -0.10868834
000040 47 ae 37 bc 08 25 9c bb 98 f3 c5 bd 3d 60 99 bd
       -0.011210985 -0.0047651567 -0.096656024 -0.07489059
000050 9b 27 bf 3d 27 7b e6 3d 4a ca 7a bd 11 48 b4 bb
       0.09333726 0.11253958 -0.061228074 -0.005501755
000060 c8 bf da 3d 4f 8d ce bd 40 34 fc bd 6a 1c 17 3d
       0.106811106 -0.10085546 -0.123146534 0.036892332
000070 31 df 6b 3d b5 fe db bd 09 20 84 3d 79 bb b9 3d
       0.0575859 -0.10741941 0.06451423 0.09068961
000080 63 ba bd bd 11 f1 b2 3d 7c b8 1d bd dd 8e 03 3e
       -0.09264066 0.08737386 -0.038506016 0.12847467
000090 50 bd 8f 3c e5 85 75 bd bf 59 ba bd 78 ee 0d ba
       0.017546326 -0.059942145 -0.09099149 -0.0005414258
0000a0 f7 1a 4c bb a5 d6 35 3d 21 8d dd 3c 34 bd 81 3d
       -0.0031144002 0.044394154 0.027044835 0.06334916
0000b0 94 b8 b9 bd b7 77 ea bd 69 e8 5f 3c 1a 69 22 bd
       -0.090684086 -0.11448615 0.013666251 -0.039651014
0000c0 e3 62 da bd e9 d8 ad 3d 4b e4 8d 3c 55 24 ec 3c
       -0.106633924 0.08488638 0.017320773 0.028825918
0000d0 3e bd 84 3d a5 c2 5a 3d a8 51 b5 3d 5f 7c ce bd
       0.064814076 0.053408284 0.08853465 -0.10082316
0000e0 9c 84 60 bd 28 80 d3 bc bf e3 6e 3d 03 37 70 bd
       -0.054813966 -0.025817946 0.058322664 -0.058646213
0000f0 d6 9b eb 3c dd b8 1c bb 1e 04 aa bd 9c 5d 23 bd
       0.028760832 -0.0023913898 -0.083015665 -0.039884195
