lightning_logs/version_1/checkpoints/epoch=5-step=5010.ckpt (torch, 70885 bytes, 28 tensors)

input.weight f4 [64, 30]
0.021761887 -0.02064276 0.00072073523 -0.021488534 0.23186989 -0.15276487 0.021674296 0.113414064
-0.12475529 -0.19133796 -0.12599447 -0.045703836 -0.28579536 -0.09556823 -0.16530536 0.023700334
0.017549388 -0.13951369 -0.042193588 -0.1939189 -0.022613242 -0.009181499 -0.12778643 0.10884248
-0.013120868 0.21217369 -0.20148341 0.15787886 0.07538687 0.22914521 0.2990445 0.099962026
0.20771876 -0.17141679 -0.28371936 0.22547303 -0.009038049 0.14119092 -0.20103131 -0.14154288
-0.09412334 -0.21991046 0.07135972 -0.14370526 0.2759706 -0.33022726 -0.14190254 -0.04305238
-0.20395662 0.15628749 -0.079367846 -0.1850087 -0.2769461 0.1589717 0.38323405 0.271106
0.08378836 0.07754227 0.2608719 -0.15684107 -0.15041438 0.08780751 -0.034360025 0.0022854693
-0.21519378 0.18091762 0.037865266 0.11927309 0.16057478 -0.10871004 0.123970725 0.15176862
0.04787203 0.24953839 0.31181002 0.33898914 -0.3569557 0.24176438 -0.3734912 -0.0352527
0.032886967 0.14184727 -0.13008155 -0.020231936 0.32573783 0.16420709 0.07340691 -0.2766912
-0.14867815 -0.08746606 0.0015269462 0.0749085 0.23518923 -0.22001462 0.035586797 -0.013537474
0.021313794 0.12100609 -0.09380441 -0.0005441764 0.055924837 0.23301885 -0.30752304 -0.09004262
-0.23242787 -0.20555876 -0.067998044 -0.0014064204 -0.07610977 -0.03802779 -0.15774886 -0.032667026
-0.07508429 0.1230052 -0.03952019 -0.038867343 -0.21886528 0.19013374 -0.068840235 -0.032457974
0.20797071 -0.2253819 -0.09208074 0.33460632 0.03925101 -0.16987714 -0.09885631 0.022954421
-0.2509944 0.2665601 0.20163457 -0.3796466 -0.021402761 -0.1850524 -0.006661156 -0.15169089
-0.09350086 0.22232933 -0.38525268 -0.008013547 0.2489582 0.033602018 -0.15696716 -0.15574437
0.19005893 0.033345476 0.28206974 -0.17851998 -0.11972145 -0.091180585 0.11234849 0.28421903
-0.09396424 -0.03312506 0.116757646 -0.009166907 0.0025519028 0.10938107 0.08463677 -0.08247831
-0.06919998 0.007441325 0.07757209 0.25740984 -0.09491749 -0.30127704 0.26664895 0.042623453
-0.14311393 -0.07914094 -0.064679176 -0.10054782 -0.1575501 -0.02344959 -0.010596173 0.059056025
-0.0323546 -0.15041243 0.006122008 -0.20700438 -0.050016746 0.043778624 -0.080036126 -0.2448342
-0.022410892 -0.07971677 0.15119474 -0.25258017 0.02709906 0.13991523 0.0693067 0.050271142
-0.16062586 -0.08008417 0.0021693679 0.08236243 -0.20159931 -0.108314954 -0.08589712 0.26981515
0.08562849 0.22520094 0.20364544 0.11218873 0.05452363 -0.025479037 0.16043212 -0.15389849
-0.044128418 -0.23530035 0.06908443 0.029031988 -0.07994846 -0.010547508 -0.23317756 0.08205184
0.07816282 -0.25879312 0.41152865 -0.10846883 0.005315992 -0.030896941 -0.010209469 -0.016018143
0.16414383 0.25691402 0.0642194 0.03252236 -0.017880395 -0.21735026 0.04254303 -0.047413513
0.054856423 -0.1953604 0.023797687 -0.12321182 0.154946 0.1315299 0.1589159 -0.033883613
-0.09151139 -0.0393586 0.142369 -0.17990069 0.124545656 0.0861842 -0.24976641 -0.03404248
0.21261112 0.08220428 0.23148309 -0.1469868 0.29932642 -0.03572939 -0.021095201 0.020006698
00000000: fc45 b23c 011b a9bc b9ef 3c3a b908 b0bc
00000010: 4d6f 6d3e 656e 1cbe 4b8e b13c a245 e83d
00000020: b47f ffbd 19ee 43be b204 01be f233 3bbd
00000030: c553 92be 47b9 c3bd cf45 29be 3427 c23c
00000040: bcc3 8f3c addc 0ebe 2fd3 2cbd ad92 46be
00000050: 683f b9bc ff6d 16bc 72da 02be cee8 de3d
00000060: e9f8 56bc 0f44 593e ab51 4ebe ffaa 213e
00000070: 6e64 9a3d 0ba5 6a3e 5c1c 993e e4b8 cc3d
00000080: 3ab4 543e e287 2fbe aa43 91be 67e2 663e
00000090: 5314 14bc 5a94 103e 27db 4dbe 9ef0 10be
000000a0: bdc3 c0bd 3530 61be 0b25 923d 7927 13be
000000b0: 054c 8d3e 8c13 a9be e64e 11be b157 30bd
000000c0: 01da 50be d409 203e 9c8b a2bd ec72 3dbe
000000d0: e1cb 8dbe 7ac9 223e 4137 c43e 68ce 8a3e
000000e0: 3b99 ab3d 7bce 9e3d 0091 853e f29a 20be
000000f0: 3a06 1abe 6cd4 b33d 19bd 0cbd d0c7 153b
00000100: c25b 5cbe 7842 393e 9c18 1b3d 7345 f43d
00000110: b76d 243e 5fa3 debd 5de4 fd3d 3c69 1b3e
00000120: 7615 443d fe86 7f3e 90a5 9f3e fc8f ad3e
00000130: e6c2 b6be 1591 773e 3d3a bfbe 2365 10bd
00000140: 7cb4 063d 6940 113e 1934 05be 72bd a5bc
00000150: 1cc7 a63e e725 283e 5d56 963d 78aa 8dbe
00000160: 163f 18be 6821 b3bd d023 c83a a169 993d
00000170: 72d5 703e 834b 61be 76c3 113d 48cc 5dbc
00000180: 449a ae3c 0ad2 f73d 871c c0bd 0fa7 0eba
00000190: 7111 653d 7e9c 6e3e a973 9dbe 4468 b8bd
000001a0: 9201 6ebe ff7d 52be 8f42 8bbd a357 b8ba
000001b0: 70df 9bbd 07c3 1bbd eb88 21be dccd 05bd
000001c0: cbc5 99bd 26ea fb3d ecdf 21bd 5d33 1fbd
000001d0: 381e 60be 6bb2 423e 1cfc 8cbd a7f2 04bd
000001e0: 46f6 543e 83ca 66be d494 bcbd 8551 ab3e
000001f0: abc5 203d 46f4 2dbe 2d75 cabd e90a bc3c
00000200: 5782 80be 917a 883e 4b79 4e3e 0a61 c2be
00000210: d854 afbc 607e 3dbe d445 dabb db54 1bbe
00000220: 617d bfbd 4daa 633e d73f c5be 414b 03bc
00000230: e6ee 7e3e 45a2 093d 00bc 20be 747b 1fbe
00000240: cf9e 423e 4495 083d 726b 903e f1cd 36be
00000250: 8530 f5bd e3bc babd f716 e63d 2885 913e
00000260: 5370 c0bd 25ae 07bd a21e ef3d cb30 16bc
00000270: d33d 273b 2f03 e03d 0b56 ad3d 63ea a8bd
00000280: b8b8 8dbd 5cd6 f33b 1ede 9e3d 39cb 833e
00000290: 1a64 c2bd fc40 9abe 3686 883e ee95 2e3d
000002a0: 758c 12be a514 a2bd 8476 84bd 04ec cdbd
000002b0: d054 21be 5b19 c0bc 929b 2dbc bbe4 713d
000002c0: 4286 04bd b705 1abe 209b c83b f5f8 53be
000002d0: 5cde 4cbd 3751 333d fbe9 a3bd d1b5 7abe
000002e0: 0c97 b7bc 8c42 a3bd cbd2 1a3e 3052 81be
000002f0: d9fe dd3c f045 0f3e acf0 8d3d 1de9 4d3d
00000300: 1b7b 24be 2b03 a4bd f42b 0e3b a2ad a83d
00000310: 0d70 4ebe 3bd4 ddbd d4ea afbd 3625 8a3e
00000320: fd5d af3d 139b 663e 6e88 503e 34c3 e53d
00000330: 2b54 5f3d 6ab9 d0bc 5148 243e 9197 1dbe
00000340: 00c0 34bd 93f2 70be 237c 8d3d 7ed4 ed3c
00000350: 05bc a3bd 74cf 2cbc 19c6 6ebe cc0a a83d
00000360: d413 a03d 8880 84be e2b3 d23e e824 debd
00000370: c631 ae3b 951b fdbc 9e45 27bc 7b38 83bc
00000380: 5215 283e 3c8a 833e 7685 833d 2b36 053d
00000390: e879 92bc 1191 5ebe 9a41 2e3d ac34 42bd
000003a0: 21b1 603d 8f0c 48be 5ef3 c23c 7b56 fcbd
000003b0: 2aaa 1e3e c6af 063e daba 223e 8bc9 0abd
000003c0: 536a bbbd 7c36 21bd 2ec9 113e e337 38be
000003d0: cb11 ff3d 5881 b03d c4c2 7fbe 2170 0bbd
000003e0: bbb6 593e b85a a83d e709 6d3e b583 16be
000003f0: 5041 993e fb58 12bd d8cf acbc 16e5 a33c

input.bias f4 [64]
0.1637304 0.14212038 0.1759582 0.14683947 -0.019565523 -0.11937523 0.117691755 0.25082496
-0.078323476 0.18919554 -0.025729809 0.24700111 0.13347587 0.1535611 0.21262498 -0.089733206
0.17610691 -0.052348156 0.17208235 -0.072872445 0.112557106 0.2131748 0.14869057 0.04187504
-0.039331574 -0.095837824 0.1466182 -0.12596922 0.16387604 0.0031655661 -0.1342456 -0.23545763
0.013286893 0.020287829 -0.20742173 0.017338539 -0.052602883 0.0041871057 -0.124676116 -0.29389808
0.15155108 -0.19667427 -0.0657468 0.325979 0.017124673 0.09092593 0.21161795 0.04261322
-0.09382771 0.08110529 0.014376728 0.12622695 0.28764373 0.14893779 0.040109873 -0.29410046
0.29947835 0.23606543 0.1110253 0.2205334 -0.14232518 0.11489733 0.15681247 0.042997167
00000000: f1a8 273e 0188 113e 632e 343e 165d 163e
00000010: e047 a0bc 007b f4bd 6008 f13d 216c 803e
00000020: 0f68 a0bd 7abc 413e 52c7 d2bc dced 7c3e
00000030: e6ad 083e 1f3f 1d3e 5dba 593e 0bc6 b7bd
00000040: 5f55 343e 056b 56bd 5b36 303e 263e 95bd
00000050: 5784 e63d 7f4a 5a3e 5742 183e 2985 2b3d
00000060: 251a 21bd 9f46 c4bd 1523 163e 13fe 00be
00000070: 1fcf 273e 6375 4f3b ae77 09be ce1b 71be
00000080: 45b1 593c a932 a63c 5d66 54be 8d09 8e3c
00000090: 1f76 57bd fd33 893b 3156 ffbd cf79 96be
000000a0: 3530 1b3e fb64 49be 42a6 86bd b8e6 a63e
000000b0: 0b49 8c3c 6037 ba3d 60b2 583e 338b 2e3d
000000c0: be28 c0bd 881a a63d 5e8c 6b3c a341 013e
000000d0: 0a46 933e 2683 183e 404a 243d 5694 96be
000000e0: 3a55 993e 23bb 713e 3c61 e33d 82d3 613e
000000f0: b1bd 11be 4b4f eb3d 7393 203e cc1d 303d

h1.weight f4 [32, 64]
-0.058773212 0.2036882 0.36502695 -0.17460214 0.3822868 -0.1570775 -0.0917031 0.062006347
0.122826464 -0.00446426 -0.121636584 0.3493867 -0.017670162 0.068708 -0.018975584 0.008096786
-0.094982706 -0.019982304 0.08501862 0.2876616 0.03341623 0.3103618 0.007015655 0.37474215
0.05559977 -0.034696903 0.533738 -0.07238073 0.36458394 0.090914965 0.046524867 0.036665644
-0.016235244 0.12090736 0.13620625 -0.13146569 0.05509455 0.12729484 -0.022604084 0.011936076
-0.10510941 0.025673674 -0.058972567 0.11248096 0.07517152 -0.09938917 0.38404667 0.2267719
0.15644859 0.19484285 0.253893 0.2992509 0.11853499 -0.0042050695 0.16069062 -0.097135544
0.17354819 0.19458117 0.22027276 0.2950372 -0.0856969 0.06412663 -0.0385828 -0.021756288
-0.09878046 0.23756257 0.32851455 0.0104613695 -0.07137787 0.07771282 -0.0049191965 0.4497784
-0.24276413 0.01907824 0.04641688 0.02790802 -0.003312275 0.09086143 0.21861538 0.04655927
0.17180319 -0.08885784 0.056563593 0.09849912 0.027537232 0.05882798 -0.10540449 0.2987415
0.031759225 0.44804353 0.15438353 -0.007947858 -0.05103028 0.08994995 0.057862744 0.0056272787
-0.053292785 0.06732017 0.4786962 0.061106574 0.33889216 -0.042500697 0.073176056 0.34773776
0.10802869 0.12945628 0.055579785 0.055478547 0.067585796 -0.052161872 -0.06792963 -0.07040062
0.0625154 0.16595286 0.3712025 0.31955713 -0.0831341 -0.15841794 -0.09923237 0.16764313
0.3934513 0.63835 0.07838424 0.49602243 0.10122544 -0.035875566 0.004230281 -0.09186357
-0.032685615 0.28096694 0.40715906 -0.08568466 -0.018745646 0.05833815 -0.011430283 0.18216452
0.15193695 -0.17957191 -0.04362875 0.056375932 0.07097623 0.2080108 0.093281575 0.10449908
0.09130473 0.11748926 0.08741035 0.053122174 -0.025346436 0.35070786 -0.027433582 0.18478508
0.028667446 -0.18565069 0.15291211 -0.1312229 0.30939263 0.15364634 -0.14614189 -0.067932665
-0.15074128 0.013480137 -0.07950899 0.11170242 0.21156777 0.24677706 -0.002675891 0.113158345
0.09126149 -0.061858084 -0.049168248 0.12834385 -0.11031685 -0.0025686368 0.26647386 -0.08988048
0.076482445 0.2731437 0.15310974 0.22693117 0.024471793 -0.14834687 0.35502476 0.15164244
0.3641172 0.3289393 0.08131693 0.11082361 -0.00083663565 0.0979578 0.07495985 -0.111145474
0.035661947 -0.48804155 -0.3178736 0.18125202 -0.34911916 -0.0052467356 0.043189522 0.06375208
-0.1292718 0.019346999 0.00680163 -0.13837431 0.048626788 -0.14423585 -0.34062636 -0.3651797
0.19770105 0.03198013 0.03108412 0.1257876 -0.025114141 -0.24682467 0.04615061 -0.705372
0.032298364 0.03178565 -0.76853484 0.07975365 -0.08902967 -0.27806404 0.14535528 -0.07416096
0.11636085 0.0529375 0.052798282 0.064328566 -0.05951497 0.014660782 0.048514143 0.03300762
0.117414474 -0.24291927 0.10194005 0.018028112 -0.08790931 0.094921075 -0.5961324 -0.3314662
-0.13450441 -0.4737785 -0.40882298 -0.36291313 -0.05700622 -0.016986882 -0.07794519 0.06406419
-0.26907328 -0.028652055 -0.08747143 -0.05681554 0.053593863 -0.21783258 0.15204921 0.1288161
00000000: 2ebc 70bd a493 503e d0e4 ba3e e7ca 32be
00000010: 18bb c33e edd8 20be d6ce bbbd 5efa 7d3d
00000020: 718c fb3d ed48 92bb 9a1c f9bd d0e2 b23e
00000030: 04c1 90bc c8b6 8c3d af72 9bbc 62a8 043c
00000040: 4b86 c2bd eeb1 a3bc 3e1e ae3d 6248 933e
00000050: 75df 083d bee7 9e3e 94e3 e53b 34de bf3e
00000060: 96bc 633d 571e 0ebd 0ea3 083f 593c 94bd
00000070: bfaa ba3e a031 ba3d dc90 3e3d b72e 163d
00000080: c6ff 84bc 479e f73d a779 0b3e f19e 06be
00000090: d3aa 613d 9459 023e 332c b9bc 888f 433c
000000a0: 9a43 d7bd 9951 d23c 388d 71bd 6b5c e63d
000000b0: 87f3 993d 8d8c cbbd c4a1 c43e e536 683e
000000c0: 0f34 203e e284 473e 43fe 813e 6a37 993e
000000d0: 79c2 f23d aeca 89bb 158c 243e 00ef c6bd
000000e0: 9eb6 313e 4940 473e 2f8f 613e 1e0f 973e
000000f0: db81 afbd d354 833d 0009 1ebd 3e3a b2bc
00000100: 694d cabd 9a43 733e 0f33 a83e 2a66 2b3c
00000110: 902e 92bd e627 9f3d 3631 a1bb 5b49 e63e
00000120: 2997 78be f849 9c3c a01f 3e3d 5c9f e43c
00000130: c112 59bb 8f15 ba3d b6dc 5f3e efb4 3e3d
00000140: 2ded 2f3e 19fb b5bd 3aaf 673d e8b9 c93d
00000150: c395 e13c 9cf5 703d 4fde d7bd a5f4 983e
00000160: f615 023d f665 e53e b716 1e3e bc37 02bc
00000170: 2005 51bd ae37 b83d 7c01 6d3d 0965 b83b
00000180: 8949 5abd 28df 893d ab17 f53e e34a 7a3d
00000190: 4683 ad3e 3615 2ebd 54dd 953d af0a b23e
000001a0: 253e dd3d 3090 043e a1a7 633d 793d 633d
000001b0: 6c6a 8a3d b0a7 55bd b11e 8bbd 332e 90bd
000001c0: 1308 803d 8cef 293e 410e be3e fe9c a33e
000001d0: 3642 aabd 5038 22be 573a cbbd a4aa 2b3e
000001e0: 7372 c93e e86a 233f eb87 a03d a7f6 fd3e
000001f0: 494f cf3d 42f2 12bd 2b9e 8a3b f822 bcbd
00000200: 5ae1 05bd e6da 8f3e 2777 d03e 707b afbd
00000210: 7890 99bc fcf3 6e3d 1546 3bbc 5689 3a3e
00000220: 5c95 1b3e b3e1 37be 0fb4 32bd 73ea 663d
00000230: fc5b 913d c800 553e 690a bf3d 9d03 d63d
00000240: f9fd ba3d 369e f03d 3304 b33d a396 593d
00000250: 54a3 cfbc fb8f b33e 64bc e0bc 4d38 3d3e
00000260: fed7 ea3c 371b 3ebe fe94 1c3e 4c5f 06be
00000270: b668 9e3e 7755 1d3e 38a6 15be 4820 8bbd
00000280: ec5b 1abe cbdb 5c3c 9cd5 a2bd 3dc4 e43d
00000290: 39a5 583e 20b3 7c3e 005e 2fbb 90bf e73d
000002a0: 4ee7 ba3d e75e 7dbd a564 49bd 926c 033e
000002b0: cded e1bd 9356 28bb 436f 883e 4213 b8bd
000002c0: d4a2 9c3d 7ed9 8b3e cdc8 1c3e a560 683e
000002d0: 1279 c83c 3ee8 17be cec5 b53e 2848 1b3e
000002e0: 926d ba3e bb6a a83e 7e89 a63d 7df7 e23d
000002f0: ab51 5bba 199e c83d 8d84 993d 3da0 e3bd
00000300: 4312 123d 95e0 f9be 54c0 a2be 219a 393e
00000310: bfbf b2be cfec abbb 7fe7 303d 7390 823d
00000320: d45f 04be 997d 9e3c 35e0 de3b ffb1 0dbe
00000330: e22c 473d 90b2 13be 9466 aebe d5f8 babe
00000340: 2572 4a3e 99fd 023d 20a4 fe3c 77ce 003e
00000350: 2cbc cdbc 9bbf 7cbe 6c08 3d3d 4293 34bf
00000360: 4a4b 043d ab31 023d b3be 44bf e255 a33d
00000370: 3055 b6bd 695e 8ebe 04d8 143e b4e1 97bd
00000380: 994e ee3d fed4 583d 0343 583d b2be 833d
00000390: f8c5 73bd c733 703c c4b6 463d 0033 073d
000003a0: 0077 f03d d4bf 78be f2c5 d03d b1af 933c
000003b0: cc09 b4bd fb65 c23d 229c 18bf f0b5 a9be
000003c0: 86bb 09be 1893 f2be 3f51 d1be c0cf b9be
000003d0: 5b7f 69bd 1328 8bbc baa1 9fbd 1634 833d
000003e0: f9c3 89be b7b7 eabc 3924 b3bd 69b7 68bd
000003f0: 3d85 5b3d 810f 5fbe cab2 1b3e 5ee8 033e

h1.bias f4 [32]
0.105951265 -0.028293524 -0.0654889 0.055191457 -0.08521814 -0.05334517 0.08626495 0.008519091
-0.009640585 0.0697555 0.08373625 0.12793618 0.04040876 0.042177994 -0.08407574 0.064114556
0.06816818 -0.021467108 0.04077152 -0.001096527 0.09732456 -0.054516174 -0.042544108 -0.033105727
0.034283537 0.023633592 -0.017491467 0.03937512 -0.10439914 -0.075034015 0.0589076 0.07827827
00000000: fafc d83d d2c7 e7bc 0b1f 86bd 7010 623d
00000010: d986 aebd 7780 5abd aeab b03d a893 0b3c
00000020: 8bf3 1dbc f9db 8e3d e97d ab3d b401 033e
00000030: a883 253d d5c2 2c3d e72f acbd 7e4e 833d
00000040: c29b 8b3d cadb afbc 0a00 273d 57b9 8fba
00000050: 1952 c73d 5a4c 5fbd bb42 2ebd df99 07bd
00000060: e56c 0c3d 3c9b c13c 444a 8fbc ce47 213d
00000070: 37cf d5bd 6fab 99bd 1849 713d 5c50 a03d

h2.weight f4 [16, 32]
0.19877155 -0.078711145 0.120497644 -0.11227071 0.040816747 0.12908176 0.18830562 -0.051074397
-0.18725182 0.066648416 0.02525705 0.09771107 0.15605034 -0.2081542 0.07752432 0.08904411
0.0043319915 -0.17333569 0.21684648 -0.031574827 0.15491039 -0.044122554 0.11930404 0.26052997
-0.16140884 0.10777811 0.07728478 0.26176485 0.2438742 0.08760554 0.14302617 -0.1737286
-0.17774655 0.041887164 0.035618495 -0.07727517 0.03365624 0.028173413 0.086777285 0.017729605
-0.21303438 -0.15833639 0.11111734 0.06229739 0.13238555 -0.0053136856 0.02304295 0.10175824
-0.12294637 -0.044505633 0.07959298 -0.17056568 -0.15099329 0.002193059 0.02470939 -0.0631633
0.08900184 -0.2161586 -0.09101885 -0.11381118 -0.18104416 -0.031151919 -0.22138979 -0.22763698
0.12527522 0.28366128 0.1478825 -0.21060556 0.29051426 0.07321404 -0.050657656 -0.030363167
-0.07460177 0.13317123 -0.09378346 -0.14305118 0.26267058 -0.103734106 0.27135473 -0.067044444
0.17287028 -0.20949286 0.0909302 0.060756467 0.12938784 -0.23595858 -0.061992705 -0.14573185
0.017139077 0.12021449 -0.02501142 0.064948454 0.2175982 0.1342529 -0.042235952 -0.2093092
0.2965385 -0.044397365 0.18440656 -0.1904452 0.24245694 0.34794545 0.1847656 0.024882762
0.04148659 -0.14761849 -0.17487721 -0.027450018 0.16691841 -0.0033567243 0.14735036 0.070942655
-0.016828075 -0.050185 0.0020997403 0.055914257 0.116260424 -0.11797572 0.07154522 0.17992868
-0.01566621 0.17969306 0.09887372 0.091730334 0.18657091 -0.032166 0.008062788 -0.12669787
0.1322835 -0.028537644 -0.12333946 0.2978418 0.010323415 -0.022428261 -0.041262027 -0.11372678
0.23590787 0.18558004 0.2729394 0.08241261 -0.14783311 0.07755871 0.09657831 0.03206175
0.019644832 0.07903668 0.1162862 -0.16150881 -0.14930443 -0.030232389 -0.19400682 -0.12597172
0.23885806 -0.0725057 0.050815128 0.019689616 -0.06378848 -0.16238642 0.018922387 0.19222619
0.1323305 0.028325574 0.029009271 0.074603856 0.028751737 0.04842201 -0.22976865 -0.0714821
0.2868435 0.12838586 0.26216263 -0.002495189 -0.073202 -0.06683818 -0.0051477263 -0.10337178
-0.059764657 0.30582008 0.054443784 -0.027135883 -0.24071123 0.024916392 0.115543045 -0.12120769
0.2570275 -0.14515962 0.15653846 -0.17943896 -0.18234159 -0.27764368 0.062429145 0.15561198
0.17027318 0.24516885 0.15112065 0.07640371 0.08398296 0.29312477 0.0028806916 -0.021566028
-0.1780836 0.002563302 -0.13753252 0.014194264 0.028919127 -0.0354781 -0.0119373575 -0.12098768
0.12885033 -0.1715482 0.09505069 0.18075527 0.16576947 -0.13003069 0.09409601 0.114870064
0.010003795 0.03365578 -0.0843431 -0.09639171 0.11201654 0.09849429 0.023834977 -0.019996848
-0.1602191 0.08902423 -0.06711936 0.0011593713 -0.0019927376 -0.046236426 -0.054712866 -0.04387531
-0.15182959 -0.14664915 0.073213354 -0.159073 -0.05203281 -0.008687922 0.4219526 0.12398562
-0.05268446 -0.10073239 -0.03261201 0.010361993 0.005063337 -0.21245126 0.06401713 0.11742871
0.052767973 -0.18351027 -0.0024382386 0.08030469 0.16181026 -0.037730757 0.14845851 -0.040258408
00000000: c58a 4b3e 4f33 a1bd 78c7 f63d 30ee e5bd
00000010: 762f 273d 022e 043e 30d3 403e 6333 51bd
00000020: f1be 3fbe f77e 883d dfe7 ce3c be1c c83d
00000030: a9cb 1f3e 6026 55be 12c5 9e3d c25c b63d
00000040: 61f3 8d3b e97e 31be 010d 5e3e 9b54 01bd
00000050: d4a0 1e3e dab9 34bd ad55 f43d 2f64 853e
00000060: 5c48 25be c5ba dc3d 7c47 9e3d 0b06 863e
00000070: 29ba 793e 896a b33d 7475 123e e9e5 31be
00000080: 3103 36be e091 2b3d b3e4 113d 7242 9ebd
00000090: 20db 093d eecb e63c 4ab8 b13d ad3d 913c
000000a0: af25 5abe ef22 22be 7d91 e33d 8c2b 7f3d
000000b0: 1490 073e 6d1e aebb 92c4 bc3c a066 d03d
000000c0: 4ecb fbbd 8a4b 36bd a501 a33d c5a8 2ebe
000000d0: fc9d 1abe 6db9 0f3b 596b ca3c c35b 81bd
000000e0: 9946 b63d ae58 5dbe 1768 babd d615 e9bd
000000f0: a463 39be 4f32 ffbc 01b4 62be ab19 69be
00000100: 2648 003e 0d3c 913e 836e 173e fca8 57be
00000110: 49be 943e 3ef1 953d 677e 4fbd 2dbc f8bc
00000120: d0c8 98bd 0a5e 083e 8b11 c0bd 027c 12be
00000130: c27c 863e 8c72 d4bd 02ef 8a3e 994e 89bd
00000140: e804 313e 4c85 56be 9d39 ba3d c6db 783d
00000150: 3f7e 043e 209f 71be 10ec 7dbd bb3a 15be
00000160: 4067 8c3c 0433 f63d c0e4 ccbc b203 853d
00000170: 10d2 5e3e 9879 093e 9bff 2cbd 2755 56be
00000180: e5d3 973e 03da 35bd 13d5 3c3e 1104 43be
00000190: a246 783e e825 b23e 3233 3d3e efd6 cb3c
000001a0: d8ed 293d 4d29 17be 0313 33be dcde e0bc
000001b0: a9ec 2a3e 7dfc 5bbb 03e3 163e 624a 913d
000001c0: 08db 89bc c98e 4dbd cc9b 093b 5906 653d
000001d0: f219 ee3d 419d f1bd 4d86 923d 393f 383e
000001e0: 6c56 80bc 7501 383e 4e7e ca3d 1ddd bb3d
000001f0: 720c 3f3e 7fc0 03bd c919 043c 16bd 01be
00000200: 5375 073e c7c7 e9bc 6699 fcbd b87e 983e
00000210: 8a23 293c 79bb b7bc 5f02 29bd 96e9 e8bd
00000220: d591 713e b208 3e3e b7be 8b3e f1c7 a83d
00000230: 9061 17be 1ad7 9e3d d9ca c53d 2e53 033d
00000240: 33ee a03c fcdd a13d 7627 ee3d 9162 25be
00000250: 43e3 18be eaa9 f7bc b9a9 46be bbfe 00be
00000260: 3597 743e de7d 94bd 8623 503d 1e4c a13c
00000270: 89a3 82bd a048 26be 1f03 9b3c f1d6 443e
00000280: a681 073e 090b e83c daa4 ed3c e8c9 983d
00000290: c388 eb3c 2856 463d 7948 6bbe 3565 92bd
000002a0: 27dd 923e 9577 033e 2e3a 863e 5386 23bb
000002b0: eeea 95bd 75e2 88bd 42ae a8bb 95b4 d3bd
000002c0: c9cb 74bd 7394 9c3e 7200 5f3d 124c debc
000002d0: 017d 76be 761d cc3c d5a1 ec3d bd3b f8bd
000002e0: 1c99 833e b9a4 14be 9e4b 203e d9be 37be
000002f0: c1b7 3abe 5027 8ebe b4b5 7f3d bf58 1f3e
00000300: 185c 2e3e 8b0d 7b3e 5fbf 1a3e 8c79 9c3d
00000310: 42ff ab3d 7314 963e fcc9 3c3b 3dab b0bc
00000320: 8c5b 36be 12fd 273b 53d5 0cbe 0f8f 683c
00000330: cee7 ec3c 7c51 11bd e894 43bc 64c8 f7bd
00000340: 57f1 033e 55aa 2fbe f0a9 c23d e917 393e
00000350: 79bf 293e c426 05be 69b5 c03d ff40 eb3d
00000360: f5e6 233c a5da 093d 13bc acbd 0469 c5bd
00000370: ed68 e53d 60b7 c93d 9241 c33c 6ed0 a3bc
00000380: 7a10 24be 5652 b63d e075 89bd 0cf6 973a
00000390: 9798 02bb 6862 3dbd 991a 60bd 99b6 33bd
000003a0: 3779 1bbe 322b 16be e2f0 953d 08e4 22be
000003b0: 5b20 55bd c957 0ebc 2c0a d83e 2cec fd3d
000003c0: a9cb 57bd c94c cebd 2c94 05bd 59c5 293c
000003d0: 59ea a53b d38c 59be 6a1b 833d 777e f03d
000003e0: 3b23 583d 1eea 3bbe dbca 1fbb c976 a43d
000003f0: 97b1 253e 918b 1abd 8205 183e 00e6 24bd

h2.bias f4 [16]
-0.15386668 0.08697322 0.026337717 -0.02355112 0.06797878 0.13492309 -0.11749162 0.10934402
-0.07870065 0.065394215 0.03891992 0.041888814 0.2065774 -0.21332876 -0.087892346 0.19837137
00000000: 3a8f 1dbe 041f b23d 32c2 d73c 47ee c0bc
00000010: 7538 8b3d 4729 0a3e 729f f0bd c2ef df3d
00000020: ce2d a1bd 67ed 853d 7e6a 1f3d 9b93 2b3d
00000030: 0789 533e db72 5abe e700 b4bd dd21 4b3e

h3.weight f4 [8, 16]
-0.062880754 0.01925594 0.059869964 -0.21987744 0.19830482 -0.089579076 -0.1702672 -0.17667566
0.35925838 -0.3077065 0.25602064 -0.14003217 0.0016362834 0.08814627 -0.13398498 -0.16311805
0.019135294 0.24770033 -0.10025312 -0.107483946 0.24752618 0.30162528 0.11659656 -0.023726894
0.043366186 0.11226658 0.325742 -0.09579773 -0.059648383 -0.31119004 -0.15491962 -0.21384616
0.30043775 0.14683345 0.36958346 0.19001888 -0.020862583 -0.33579767 -0.019212017 0.10259576
-0.013111712 0.14120166 -0.20202614 0.30739945 0.28315455 0.28553894 0.09342335 0.12790266
-0.17004919 -0.08883257 -0.23111397 -0.503618 0.34907994 0.39162984 -0.34206325 0.025561221
0.11745768 0.18003283 0.13139649 -0.3608472 -0.1063125 0.03534267 -0.040184133 0.011397213
0.21678294 0.113408476 0.3046927 0.16202347 -0.16635516 -0.071327776 -0.07580677 0.025353612
-0.15800086 0.13187179 0.074215956 0.26518357 -0.25494832 0.45056805 0.10637305 -0.16196981
0.18412736 0.0541495 -0.074419536 0.18491502 -0.12423078 -0.15514962 0.2225648 -0.10040692
-0.21052529 0.033444986 -0.28789076 0.08891995 0.29522339 0.13905102 0.03631572 0.13612749
0.05962573 -0.025292682 0.3737652 0.14327887 -0.14384624 -0.05686436 0.043029465 0.027298784
-0.04932278 0.060611963 -0.09607338 0.3986823 0.21100974 -0.011669953 0.1794722 0.14965628
-0.008121135 -0.22750664 0.2262713 0.34571123 -0.115856476 -0.087387614 0.19135927 0.27739337
-0.0071911477 0.6412069 -0.19619724 -0.0409086 0.10747745 -0.07951855 -0.024260955 0.21206063
00000000: a0c7 80bd a2be 9d3c 353a 753d 8d27 61be
00000010: 6b10 4b3e 3c75 b7bd 865a 2ebe 77ea 34be
00000020: b7f0 b73e b58b 9dbe 2315 833e 9864 0fbe
00000030: 8f78 d63a 0886 b43d 5c33 09be 6b08 27be
00000040: 9fc1 9c3c 28a5 7d3e 8251 cdbd 8b20 dcbd
00000050: 8177 7d3e a16e 9a3e 2dca ee3d e75e c2bc
00000060: bea0 313d 05ec e53d a8c7 a63e 9a31 c4bd
00000070: dd51 74bd 4d54 9fbe 40a3 1ebe 7dfa 5abe
00000080: fad2 993e 825b 163e 0b3a bd3e 4f94 423e
00000090: 02e8 aabc aced abbe 8562 9dbc ba1d d23d
000000a0: 82d2 56bc 2b97 103e f1df 4ebe 7663 9d3e
000000b0: a2f9 903e 2932 923e be54 bf3d eaf8 023e
000000c0: 6021 2ebe daed b5bd 24a9 6cbe 1ced 00bf
000000d0: 9bba b23e b583 c83e ea22 afbe c465 d13c
000000e0: a78d f03d 875a 383e cd8c 063e f7c0 b8be
000000f0: 5eba d9bd 7ac3 103d 1e98 24bd 60bb 3a3c
00000100: 59fc 5d3e b442 e83d ae00 9c3e 7be9 253e
00000110: 0259 2abe 4c14 92bd 9440 9bbd 61b2 cf3c
00000120: faca 21be 6609 073e 89fe 973d 24c6 873e
00000130: 9688 82be dbb0 e63e 1dda d93d 6adb 25be
00000140: e28b 3c3e decb 5d3d 4569 98bd 5d5a 3d3e
00000150: b56c febd 8bdf 1ebe 07e8 633e 25a2 cdbd
00000160: f193 57be 9cfd 083d 6b66 93be aa1b b63d
00000170: 8527 973e 6463 0e3e cbbf 143d 0165 0b3e
00000180: 1c3a 743d 9932 cfbc 275e bf3e b2b7 123e
00000190: 6e4c 13be 9aea 68bd aa3f 303d b3a1 df3c
000001a0: af06 4abd 4044 783d 1fc2 c4bd 1620 cc3e
000001b0: f012 583e 5533 3fbc 8fc7 373e 7f3f 193e
000001c0: 820e 05bc 80f7 68be aab3 673e 1001 b13e
000001d0: 2946 edbd 47f8 b2bd aff3 433e 8106 8e3e
000001e0: b8a3 ebbb 2326 243f eee7 48be c78f 27bd
000001f0: 231d dc3d 9fda a2bd e9be c6bc 6c26 593e

h3.bias f4 [8]
0.24537016 0.26981947 -0.07953166 -0.0350823 -0.13548818 0.29825765 -0.0810633 -0.03224213
00000000: 5142 7b3e c725 8a3e 7fe1 a2bd 75b2 0fbd
00000010: 6abd 0abe 3ab5 983e 8404 a6bd 5310 04bd

h4.weight f4 [1, 8]
0.3474605 0.28439674 -0.08875415 0.22967611 -0.18836756 -0.19695364 -0.1664252 -0.13195309
00000000: 58e6 b13e 739c 913e bcc4 b5bd 3730 6b3e
00000010: 6de3 40be 37ae 49be 5e6b 2abe b61e 07be

loss_fn.pos_weight f8 [1]
289.43766937669375
00000000: c4b5 9ab1 0017 7240

exp_avg f4 [64, 30]
0.0047223098 0.008123511 0.008641367 -0.0033860547 0.007881123 0.0021034176 -0.0013556991 -0.0017345257
-0.00077999284 0.0040302644 -0.0059277797 0.012649456 -0.0006237715 -0.0025725374 -0.00043679492 0.006741383
0.021797847 0.0044933176 -0.0021835668 0.014662 0.018446026 0.008547394 0.009129287 0.0073960684
0.005481443 0.0025610926 0.0072475066 3.522285e-05 -0.0014066293 -0.0065555633 -0.0022755468 -0.00024426967
-0.0010561699 0.0019305049 -0.003829273 -0.0024271214 0.00089239946 -0.0025962177 0.0026958475 0.0011018043
0.00090539275 0.00090583565 0.00088245445 0.0015821286 0.0015827465 0.002645069 -0.00094405556 -0.0014687607
-0.0005898169 0.00075270265 0.00053558033 0.0008225198 -4.8038703e-05 -0.00096504024 -0.0013623409 -0.0015983881
0.0008011081 0.00013003476 -0.0007946237 -0.00013285877 0.005006762 -0.00046400787 -0.0013711457 -0.0013854009
-0.0069446345 -0.0020838028 0.00052096875 -0.0019929095 0.0031390286 0.0010726615 0.0012954081 -0.003408007
0.00083651376 0.00015629437 0.0013695162 -0.0029178169 0.001457201 -0.005227585 0.002127207 0.0027577877
-0.001151455 0.00018362315 -0.0002507167 0.0009113923 -0.00092185446 -0.0025291832 0.002093534 0.0005739855
-0.000124623 -0.000399656 -0.00023818089 0.0005477676 0.001296003 -0.0007783128 0.0048759077 0.0012214592
-0.00018489367 0.0027888906 -0.0014087994 -0.00073454255 -0.0005166377 0.00084702554 -0.0021909815 -0.0013681824
-0.0029032503 -0.0014648484 0.0025703418 0.0022761687 0.0018212209 -0.0021937003 -0.00070091203 0.0008010214
0.0004850892 0.0014528533 -0.00076993956 0.0019663204 -0.0010721778 0.00035139555 -0.00031827812 0.0003011084
3.4296198e-05 0.0015270942 -0.00028140916 -0.0015845294 -0.0059556095 -0.0010092321 -0.00023816539 -0.0020110372
0.0029278605 0.00034469579 -0.00055704237 0.0034211655 0.002876734 0.0019688422 0.0021884227 0.001740753
-0.0009825552 -0.0014412493 0.0004081506 0.0012768559 -0.00072377693 -0.0007881292 -0.00041455848 1.5373975e-05
-3.0479989e-05 -0.0010143063 -0.00017288813 0.0010459006 0.00058955903 -0.0014885654 0.00019259386 0.0013992386
0.00049942377 -0.0007889129 0.0029833752 0.0010520343 -0.00023037553 0.00090576493 -0.00016295651 -0.0002583846
-0.00034455673 -0.00019201037 -0.00023384267 0.00065450737 -0.0023419266 -0.0016835459 0.0018597504 0.0010162572
0.0004612035 -0.0012902447 -0.00021247417 4.9951468e-05 -0.00043902933 0.00021612036 -0.0007977147 0.0016069156
-0.0003954997 -0.00019586933 0.000114265466 -0.00032567096 -0.00027804644 -0.00030744853 0.0001570707 0.00015491465
0.0011907555 0.00025613647 0.0003868569 -0.00026391936 -0.0009462409 -4.2580607e-05 0.00016066732 0.00011543906
-0.00045393794 -0.0006419273 -0.00044924003 0.00043754478 1.0295225e-05 0.00088761124 0.00034833414 0.00066938245
0.00015874312 0.00018256706 0.0007135454 0.00023918341 -0.00024733949 -2.1243595e-05 4.3243086e-05 -0.00011288209
0.00014740387 -7.552264e-06 0.0007481135 -0.00045449584 0.0002807748 -0.00079401117 -0.0033005546 -0.0007101175
0.0005814567 -0.00087288773 -0.0006279227 0.00086335 0.00047210383 0.00017539461 0.0018705794 0.0015224061
0.00046200128 -0.0026878116 -0.0028418577 -8.746931e-05 -0.001296907 0.0021152564 -0.0008723035 -0.0009297824
-0.0013694217 -0.00047361004 0.00061609974 -0.000931669 0.00019191502 -0.00041174315 -0.0010255636 -0.00049475476
0.00054969365 -4.5493947e-05 -0.00066265755 0.0006279144 -0.0026808067 -0.0005054097 0.0001625057 -0.0013794665
0.0004009958 0.00043904135 0.00015810835 5.5227913e-05 0.00055960595 0.00016027286 0.0023638702 -0.00085564016
00000000: 9bbd 9a3b 7a18 053c 8594 0d3c 92e8 5dbb
00000010: d31f 013c 7ed9 093b b7b1 b1ba 0659 e3ba
00000020: 6f78 4cba 4f10 843b d23d c2bb aa3f 4f3c
00000030: 9984 23ba 0498 28bb 9f01 e5b9 d2e6 dc3b
00000040: 6691 b23c ae3c 933b 2c1a 0fbb e338 703c
00000050: 1f1c 973c 5e0a 0c3c 0193 153c b85a f23b
00000060: ad9d b33b 01d8 273b 7e7c ed3b 3fbc 1338
00000070: a65e b8ba 0dd0 d6bb 5721 15bb 5211 80b9
00000080: 2e6f 8aba ff08 fd3a 8af4 7abb 5710 1fbb
00000090: eaef 693a 4e25 2abb d1ac 303b 6b6a 903a
000000a0: e157 6d3a 9a75 6d3a 8454 673a 6d5f cf3a
000000b0: 2974 cf3a e558 2d3b 7f7a 77ba 6e83 c0ba
000000c0: f19d 1aba 0551 453a 3066 0c3a 5f9e 573a
000000d0: 2a7d 49b8 c1fa 7cba 9390 b2ba 0181 d1ba
000000e0: 7401 523a f159 0839 4b4e 50ba 0150 0bb9
000000f0: c40f a43b 1546 f3b9 04b8 b3ba 5796 b5ba
00000100: d18f e3bb 6990 08bb 9f91 083a 799b 02bb
00000110: 29b8 4d3b 8c98 8c3a afca a93a df58 5fbb
00000120: 7d49 5b3a f3e2 2339 5781 b33a d838 3fbb
00000130: 8dff be3a 294c abbb 9c68 0b3b 00bc 343b
00000140: 6bec 96ba f78a 4039 a072 83b9 80ea 6e3a
00000150: 9ba8 71ba a7c0 25bb ac33 093b 8477 163a
00000160: 3bad 02b9 ec88 d1b9 32c0 79b9 1098 0f3a
00000170: a5de a93a b007 4cba 14c6 9f3b 5f19 a03a
00000180: 04e0 41b9 d2c5 363b 77a7 b8ba 518e 40ba
00000190: f86e 07ba ec0a 5e3a 9296 0fbb 9554 b3ba
000001a0: 7544 3ebb 2800 c0ba 2e73 283b c62b 153b
000001b0: 08b6 ee3a 2fc4 0fbb 69bd 37ba a3fb 513a
000001c0: 9253 fe39 ab6d be3a c5d5 49ba 62dd 003b
000001d0: 5188 8cba 833b b839 91de a6b9 16de 9d39
000001e0: 43d9 0f38 c728 c83a 198a 93b9 fcaf cfba
000001f0: 4627 c3bb 3648 84ba 09bc 79b9 9bcb 03bb
00000200: 59e1 3f3b 49b8 b439 7b06 12ba a235 603b
00000210: 9687 3c3b b107 013b a46b 0f3b fa29 e43a
00000220: 15c9 80ba 4de8 bcba 0cfd d539 2d5c a73a
00000230: d9bb 3dba 759a 4eba 1959 d9b9 5cf7 8037
00000240: 47af ffb7 79f2 84ba 4e49 35b9 9a16 893a
00000250: a38c 1a3a f71b c3ba 05f3 4939 a866 b73a
00000260: c3eb 023a 0ccf 4eba bb84 433b 6ae4 893a
00000270: f690 71b9 db70 6d3a 4edf 2ab9 cb77 87b9
00000280: 9fa5 b4b9 6456 49b9 aa33 75b9 3f93 2b3a
00000290: 027b 19bb 6daa dcba dec2 f33a ef33 853a
000002a0: b0cd f139 6e1d a9ba 9acb 5eb9 fb82 5138
000002b0: 852d e6b9 5e9e 6239 ba1d 51ba 249f d23a
000002c0: 125b cfb9 4662 4db9 cea1 ef38 d1be aab9
000002d0: c3c6 91b9 0b31 a1b9 58b3 2439 9670 2239
000002e0: 2013 9c3a 0e4a 8639 0ed3 ca39 a85e 8ab9
000002f0: 270d 78ba 9498 32b8 ce78 2839 e017 f238
00000300: 85fe edb9 0347 28ba fa87 ebb9 4466 e539
00000310: a8b9 2c37 95ae 683a 9ea0 b639 7f79 2f3a
00000320: 4874 2639 796f 3f39 390d 3b3a 4fcd 7a39
00000330: 58ad 81b9 4634 b2b7 e95f 3538 1cbb ecb8
00000340: 6d90 1a39 7469 fdb6 0c1d 443a 6649 eeb9
00000350: f534 9339 3025 50ba 1e4e 58bb 2e27 3aba
00000360: e66c 183a 81d2 64ba 2e9b 24ba 7052 623a
00000370: b484 f739 22ea 3739 3b2e f53a 798b c73a
00000380: c338 f239 ff25 30bb 763e 3abb ba6f b7b8
00000390: fafc a9ba 1da0 0a3b 4cab 64ba a4bc 73ba
000003a0: 2b7e b3ba dd4e f8b9 c181 213a 403b 74ba
000003b0: cc3c 4939 3bdf d7b9 346c 86ba 6eb2 01ba
000003c0: 5119 103a c1d0 3eb8 32b6 2dba 9f9a 243a
000003d0: 79b0 2fbb 797d 04ba 4b66 2a39 37cf b4ba
000003e0: bf3c d239 222f e639 e3c9 2539 85a4 6738
000003f0: 85b2 123a eb0e 2839 29eb 1a3b 0a4d 60ba

exp_avg_sq f4 [64, 30]
0.0021698412 0.0013822078 0.0026389034 0.0029317893 0.0044005685 0.0014493117 0.0017434985 0.004957855
0.006426361 0.0019359302 0.0020517514 0.0031382071 0.0021069872 0.002621189 0.005017304 0.004180944
0.0025768182 0.0042226273 0.0021344288 0.0040820087 0.0044969553 0.010679788 0.0026733298 0.00196136
0.0017882433 0.0022848865 0.001841523 0.0011135275 0.0018304982 0.0070659174 0.0043620365 0.0026971248
0.0013901172 0.004325026 0.00980837 0.0025808464 0.0020445802 0.0052531483 0.0028723215 0.003121326
0.004287689 0.0032035778 0.00660952 0.0047756103 0.006785288 0.0063015246 0.002116697 0.004320357
0.001869668 0.007810663 0.0013863456 0.0031173085 0.004078293 0.0015931163 0.0027039235 0.0037000198
0.0016841639 0.003275553 0.00090831675 0.0011246952 0.00670527 0.004830833 0.0033826323 0.0064119813
0.012511665 0.004518201 0.0050582346 0.006292945 0.010275722 0.003423411 0.005581348 0.0073832697
0.007140875 0.011883602 0.0074288235 0.017083628 0.0020110016 0.009584733 0.0033698399 0.0082544545
0.005921833 0.022194313 0.0058446666 0.0035619144 0.0058631552 0.007886721 0.004762894 0.00060177303
0.0011575739 0.006492602 0.0015270195 0.0009251986 0.0007242314 0.0016006907 0.0024992737 0.0008611265
0.0008970948 0.0020081538 0.0055729677 0.0014230555 0.0011582376 0.0017429148 0.0017945117 0.0019238024
0.0031948132 0.0017979728 0.0019211113 0.0027905307 0.0013024197 0.0034922804 0.0010556912 0.01067818
0.0022011623 0.0009765628 0.0010960944 0.0015967995 0.00079642877 0.00057173293 0.00044368833 0.00061723427
0.0043942113 0.004730597 0.006078099 0.004186324 0.010000631 0.0026382084 0.0045171664 0.010209068
0.0029076654 0.0043122414 0.0060575893 0.003794115 0.005765138 0.0068818266 0.0074641504 0.009431497
0.003281073 0.003286316 0.00057663367 0.0068630916 0.010712266 0.005708316 0.0034097047 0.010235741
0.0026845147 0.0041492986 0.005276176 0.014365618 0.007045289 0.02082071 0.00090336206 0.00034533284
0.00015923199 0.0005068781 0.0013920974 0.00034588843 0.00030762612 0.00049595995 6.4330496e-05 0.00060988223
0.00042623436 0.0006534062 0.0008519584 0.000648759 0.0010700697 0.0014052867 0.0004542725 0.0009101527
0.00032785186 0.0015474248 6.0788054e-05 5.8741807e-05 0.00040643034 0.00011256937 0.00046010702 0.0005696247
0.00074496394 0.000105129984 0.00032003268 0.00011858922 6.604323e-05 6.490264e-05 6.415711e-05 0.000119814955
0.00015057453 7.26533e-05 9.8808756e-05 0.00011988276 0.00059742085 0.00010032926 5.4214204e-05 6.766487e-05
9.425605e-05 0.0001094184 0.000115491166 0.0002821256 7.8771096e-05 0.00018177739 6.3293584e-05 0.00016680911
0.00014653553 0.0012421618 0.00022886934 8.104051e-05 0.0001303207 0.00011515563 5.023346e-05 1.9178882e-05
3.208248e-05 3.614756e-05 0.003757214 0.0017249589 0.006106945 0.0039331163 0.007314137 0.003917263
0.0026979912 0.003944946 0.0018281472 0.0033922058 0.0036056382 0.0051575857 0.001911934 0.0051652077
0.0048465524 0.007374049 0.003713778 0.003926067 0.0025363083 0.008690559 0.008381278 0.0031795006
0.0061231903 0.0045234356 0.0041033104 0.004046489 0.0025175603 0.0028672968 0.0015160057 0.016089646
0.00022150637 0.0002189302 0.00019557119 0.0002611465 0.00036954295 0.0004109561 0.00040651698 0.00032476799
6.272949e-05 0.00013653697 0.00038089268 0.0003916103 9.0937385e-05 0.0002244336 0.0019421455 0.00028950587
00000000: e533 0e3b 332b b53a 74f1 2c3b 4323 403b
00000010: a532 903b d5f6 bd3a 1a86 e43a 8175 a23b
00000020: 3994 d23b 0abf fd3a ad76 063b 61aa 4d3b
00000030: 6115 0a3b 41c8 2b3b 3268 a43b 4d00 893b
00000040: d6df 283b f75d 8a3b c6e1 0b3b 5fc2 853b
00000050: 325b 933b 47fa 2e3c 0833 2f3b 298a 003b
00000060: 7d63 ea3a 09be 153b 425f f13a c8f3 913a
00000070: 54ed ef3a 3689 e73b 6aef 8e3b 3fc2 303b
00000080: 9834 b63a f3b8 8d3b 49b3 203c 6b23 293b
00000090: 5dfe 053b 9a22 ac3b 8f3d 3c3b 298f 4c3b
000000a0: be7f 8c3b 1ef3 513b ac94 d83b b97c 9c3b
000000b0: 1f57 de3b 057d ce3b 48b8 0a3b c891 8d3b
000000c0: a60f f53a 97f0 ff3b 0ab6 b53a c24b 4c3b
000000d0: 34a3 853b 1dd0 d03a 4f34 313b 087c 723b
000000e0: 2abf dc3a a9aa 563b 1b1c 6e3a 826a 933a
000000f0: e2b7 db3b f74b 9e3b 27af 5d3b 991b d23b
00000100: bafd 4c3c 6b0d 943b 8cbf a53b 0c35 ce3b
00000110: 805b 283c 4e5b 603b bee3 b63b 5bef f13b
00000120: 00fe e93b 70b3 423c 7d6d f33b f7f2 8b3c
00000130: 02cb 033b 4909 1d3c 88d8 5c3b b13d 073c
00000140: f00b c23b d9d0 b53c 9e84 bf3b 026f 693b
00000150: b61f c03b 4e37 013c 0d12 9c3b 4ec0 1d3a
00000160: bcb9 973a e5bf d43b 4626 c83a 0789 723a
00000170: 59da 3d3a 44ce d13a dbca 233b 39bd 613a
00000180: 032b 6b3a 3b9b 033b 719d b63b d285 ba3a
00000190: 01d0 973a 8472 e43a d235 eb3a 1928 fc3a
000001a0: 1260 513b f5a9 eb3a cccd fb3a 56e1 363b
000001b0: f4b5 aa3a bede 643b 1e5f 8a3a 88f3 2e3c
000001c0: 6041 103b 0300 803a d3aa 8f3a b34b d13a
000001d0: 6ec7 503a 59e0 153a d79e e839 e4cd 213a
000001e0: 51fd 8f3b 2003 9b3b ca2a c73b 6e2d 893b
000001f0: b0d9 233c cbe5 2c3b bd04 943b ef43 273c
00000200: 888e 3e3b b44d 8d3b be7e c63b b0a6 783b
00000210: 7ce9 bc3b f280 e13b d595 f43b 9186 1a3c
00000220: 4507 573b 3c5f 573b 3b29 173a c9e3 e03b
00000230: 8082 2f3c d30c bb3b 5a75 5f3b cfb3 273c
00000240: afee 2f3b d7f6 873b c6e3 ac3b c55d 6b3c
00000250: 2bdc e63b 3290 aa3c 9acf 6c3a ca0d b539
00000260: 83f7 2639 03e0 043a 0a77 b63a 5c58 b539
00000270: e148 a139 4f03 023a 2ce9 8638 81e0 1f3a
00000280: 3578 df39 5949 2b3a f655 5f3a 7b11 2a3a
00000290: 9541 8c3a 9931 b83a 6c2b ee39 5097 6e3a
000002a0: 88e3 ab39 f6d2 ca3a adf6 7e38 8961 7638
000002b0: 2816 d539 3813 ec38 853a f139 de52 153a
000002c0: af49 433a 3b79 dc38 0fca a739 1ab3 f838
000002d0: b080 8a38 571c 8838 168c 8638 2a45 fb38
000002e0: 8be3 1d39 725d 9838 8c37 cf38 9169 fb38
000002f0: 3c9c 1c3a dc67 d238 0f64 6338 4de7 8d38
00000300: 55ab c538 8e77 e538 d933 f238 42ea 9339
00000310: e931 a538 7f9b 3e39 7cbc 8438 7be9 2e39
00000320: 55a7 1939 09d0 a23a a5fc 6f39 4bf4 a938
00000330: b2a6 0839 b57f f138 c4b1 5238 56e2 a037
00000340: 4d90 0638 269d 1738 973b 763b 0418 e23a
00000350: c51c c83b 5fe1 803b 6eab ef3b 625c 803b
00000360: c8d0 303b 9b44 813b 719e ef3a c54f 5e3b
00000370: 924c 6c3b f700 a93b dc99 fa3a e740 a93b
00000380: d4cf 9e3b 02a2 f13b db62 733b 3da6 803b
00000390: 3138 263b d962 0e3c a151 093c 2b5f 503b
000003a0: 0ba5 c83b 5439 943b 1075 863b 6998 843b
000003b0: a7fd 243b 42e9 3b3b b6b4 c63a 6fce 833c
000003c0: 2a44 6839 a190 6539 3e12 4d39 7dea 8839
000003d0: 37bf c139 9875 d739 c921 d539 9f45 aa39
000003e0: a38d 8338 5d2b 0f39 8db2 c739 0b51 cd39
000003f0: a3b5 be38 f055 6b39 978f fe3a d2c8 9739

exp_avg f4 [64]
0.00066129706 -0.006145303 -0.010261682 0.0068133012 -0.0067868605 0.0037494502 0.0014176087 -0.0071075005
-0.0028796627 -0.0010319578 -0.001947775 0.0027487162 -0.004383626 -0.009226139 0.009020404 -0.0022845322
0.0043634833 0.0032663965 -0.0047560264 0.0071396315 -0.0033256193 0.012442793 -0.0019138667 0.0075496957
0.0031781597 -0.0018712603 -0.01450236 0.00057643757 -0.008586802 0.01676356 0.001607419 -0.0012080562
0.008766638 -0.0009158645 -0.00056658295 -0.0033137114 0.012803128 0.0027931836 0.003975351 -0.00091689464
0.0055631604 -0.00043540844 0.0034215883 0.0061794654 0.0011124258 -0.0019640804 -0.014633729 -0.007053247
-0.0047979364 -0.009047426 0.0059472225 -0.007575777 0.0006580958 -0.00018205467 -0.009401661 0.0006724445
-0.009548499 -0.0129800225 -0.0052515166 -0.0054475507 0.0006964413 0.0038648082 -0.004484964 0.007648742
00000000: e55a 2d3a 8a5e c9bb 9d20 28bc 1d42 df3b
00000010: 5064 debb 56b9 753b 0ecf b93a 09e6 e8bb
00000020: b9b8 3cbb c242 87ba 7c4c ffba ce23 343b
00000030: 85a4 8fbb 3b29 17bc 51ca 133c 17b8 15bb
00000040: 8dfb 8e3b 0a11 563b 71d8 9bbb 92f3 e93b
00000050: a2f2 59bb dbdc 4b3c b6da faba 7063 f73b
00000060: ac48 503b 1445 f5ba 4e9b 6dbc 121c 173a
00000070: a8af 0cbc bc53 893c 08b0 d23a a457 9eba
00000080: f2a1 0f3c a016 70ba bd86 14ba da2a 59bb
00000090: 36c4 513c d80d 373b a943 823b c25b 70ba
000000a0: 2c4b b63b 8847 e4b9 ba3c 603b 1d7d ca3b
000000b0: d1ce 913a cdb7 00bb 4fc2 6fbc ed1e e7bb
000000c0: 0238 9dbb a83b 14bc ebe0 c23b 393e f8bb
000000d0: 1084 2c3a eee5 3eb9 6d09 1abc fd46 303a
000000e0: 4f71 1cbc 29aa 54bc ea14 acbb 5e81 b2bb
000000f0: 6291 363a b948 7d3b 9bf6 92bb 4ca2 fa3b

exp_avg_sq f4 [64]
0.0027057407 0.0045448593 0.008641623 0.0016917316 0.005613724 0.00071722944 9.151419e-05 0.004402003
0.00028134967 0.0019713063 0.0005150129 0.004962972 0.0041729254 0.005351908 0.0008298439 0.0004077135
0.0008783465 0.00080629997 0.0021502452 0.0019144188 0.0012457656 0.010773086 0.00083837716 0.004287122
0.00027594622 0.0009558039 0.011749745 5.2381103e-05 0.0047906 0.0050827838 0.000118008895 0.0003900469
0.0019698131 0.00018537966 2.9737128e-05 0.00054790085 0.0021983788 0.00071020966 0.0004670413 6.348194e-05
0.0007555544 8.627517e-05 0.00037372773 0.009309791 0.00010456413 0.00021935595 0.01433191 0.004228741
0.0030962224 0.0071549863 0.0033060824 0.012730233 0.0016831616 0.00080988853 0.005422587 4.543883e-05
0.009512077 0.0051734117 0.00388314 0.003039426 0.00011137348 0.0003535199 0.00010125691 0.0021016302
00000000: cc52 313b 0bed 943b 9895 0d3c 18bd dd3a
00000010: 54f3 b73b 7404 3c3a 4feb bf38 ad3e 903b
00000020: 1d82 9339 0831 013b ee01 073a 6da0 a23b
00000030: 09bd 883b 0f5f af3b e289 593a 61c2 d539
00000040: d640 663a e05d 533a 21eb 0c3b 3ced fa3a
00000050: f548 a33a 9981 303c 8ac6 5b3a fc7a 8c3b
00000060: e0ac 9039 ea8e 7a3a 0182 403c c8b3 5b38
00000070: 77fa 9c3b 7b8d a63b 8b7b f738 357f cc39
00000080: fb17 013b 7962 4239 ff73 f937 01a1 0f3a
00000090: ad12 103b 5d2d 3a3a 39dd f439 9b21 8538
000000a0: 6610 463a a1ee b438 e3f0 c339 1888 183c
000000b0: 7149 db38 ea02 6639 63d0 6a3c 4091 8a3b
000000c0: fee9 4a3b 6074 ea3b dcaa 583b 7892 503c
000000d0: 889d dc3a b34e 543a f5af b13b 9295 3e38
000000e0: 8bd8 1b3c b985 a93b 477c 7e3b 1b31 473b
000000f0: 2f91 e938 a358 b939 e459 d438 81bb 093b

exp_avg f4 [32, 64]
-0.0028877226 -0.0013850142 -0.0009121034 -0.0021210762 -0.0010534287 -0.0013487363 -0.00069267664 -0.0006732675
-0.0010818752 -0.0027973892 -0.0014448457 -0.0011924997 -0.0007627918 -0.0010117658 -0.00092233723 -0.00054769736
-0.0019103575 -0.0013271163 -0.0011792084 -0.00065683736 -0.0008826156 -0.00085337093 -0.0015378777 -0.0014025051
-0.0012368313 -0.00041569304 -0.0010436813 -0.00028563943 -0.0010957124 -0.00073864014 -0.00048393663 -0.00045250324
-0.002467909 -0.0004151919 -0.00045445925 -0.0011396862 -0.00052701944 -0.0007391081 -0.0010421799 -0.0003672572
-0.0022969814 -0.00058801624 -0.001244425 -0.0007229934 -0.0006876979 -0.001034157 -0.0014717905 -0.001213759
-0.0007728941 -0.0013693204 -0.0013376517 -0.00078256807 -0.001249653 -0.0023657125 -0.0007961415 -0.00020940677
-0.0015472053 -0.0012041252 -0.0007394038 -0.000862779 -0.00044825487 -0.00084607396 -0.0010939818 -0.0014828369
-0.0022517876 -0.0014187656 -0.0008672326 -0.0017530671 -0.0011443704 -0.0012816589 -0.00068041077 -0.0006641749
-0.0008530051 -0.0021635792 -0.0011628792 -0.0011616775 -0.00085398287 -0.0011282971 -0.0010668697 -0.00051801326
-0.0014721856 -0.0010621601 -0.0012232064 -0.0007035801 -0.0009281422 -0.0009579189 -0.0013873413 -0.0014375097
-0.0010295776 -0.00043782877 -0.0011200209 -0.0002584921 -0.0010605364 -0.0006978651 -0.00044322162 -0.00044015146
-0.0017518916 -0.00046583236 -0.00037940874 -0.001188871 -0.00057597604 -0.00068610883 -0.00083070574 -0.00039385757
-0.0018862995 -0.00047112678 -0.0010335114 -0.00080298766 -0.00056813605 -0.0009840726 -0.0014123509 -0.0011924558
-0.0007179753 -0.0014352781 -0.0013462373 -0.0009428033 -0.0012063505 -0.0018027923 -0.00086456724 -0.00016337413
-0.0019477204 -0.0012712593 -0.00081963744 -0.00086337543 -0.00037658165 -0.00081185036 -0.0010493544 -0.0012427047
0.008118586 -0.0010975709 -0.0006961289 -0.0019494622 -0.0009185847 -0.0014499559 -0.0005753654 -0.00039387838
-0.0010863922 0.0022357244 0.0016198514 0.0041236356 -0.0006382362 -0.00082797336 -0.00042331012 -0.00043947133
-0.0018389459 -0.0009187922 -0.0009952207 0.0015672976 -0.0006589687 0.0063727004 0.00784823 0.00359268
-0.0011407031 -0.00027753838 -0.0008012874 -0.0001971656 -0.00077611674 0.00021823548 -0.0004042104 -0.0001624281
-0.0023188905 -0.0003263161 -0.0003159464 0.004153505 -0.00023846759 -0.00038544368 -0.0010512649 -0.00029519413
-0.0027939072 -0.0004118576 -0.0014689744 -0.00044407375 -0.0005521916 0.0045289937 -0.0012882203 -0.0010974443
-0.00058456004 -0.0010914202 0.0047699595 -0.00068624166 -0.00017570586 0.012078342 -0.00067999406 -0.00016382043
-0.0011835584 -0.0010534354 -0.00068204326 -0.0006110218 -0.00010573135 0.0013125321 0.0030530866 -0.0011047146
0.0012675858 5.4759403e-05 0.00013482787 0.001115707 0.00011020605 0.00044084137 0.00019561136 -2.8705526e-05
0.0005535189 0.0014463508 0.00062679313 0.00014198727 0.00021532062 0.00011766526 0.00027338992 9.081163e-05
0.0010840817 4.3402997e-05 0.00026979594 0.00014659126 0.00011655301 0.00017739247 0.0006344551 1.5584468e-05
0.00049251865 0.00011314667 3.3385048e-05 6.473265e-05 9.757748e-05 9.627704e-05 0.00016750066 -0.000119610544
0.0015227492 2.332592e-05 5.7319266e-05 0.00038660868 0.000115433475 0.00029505856 0.00023012437 1.829147e-05
0.001283026 3.3595905e-05 0.00072547956 6.0495455e-05 0.00010812632 -0.000104239996 0.0003443829 0.00028285728
0.00021049532 5.8575195e-05 3.5463607e-05 3.224912e-05 0.00016938195 0.00084894185 0.00016787635 4.7488375e-05
6.7286586e-05 0.000116899624 0.00016738595 3.534652e-05 -0.00017993404 9.833259e-05 0.00071392144 0.00035084452
00000000: f23f 3dbb 5d89 b5ba 391a 6fba c101 0bbb
00000010: 3413 8aba 15c8 b0ba be94 35ba 387e 30ba
00000020: b5cd 8dba 6754 37bb fa60 bdba a64d 9cba
00000030: 17f6 47ba 3a9d 84ba 01c9 71ba 5993 0fba
00000040: f664 faba a2f2 adba ab8f 9aba 9c2f 2cba
00000050: 555f 67ba c1b4 5fba 9d92 c9ba 43d4 b7ba
00000060: 2c1d a2ba 60f1 d9b9 22cc 88ba e0c1 95b9
00000070: 029e 8fba 4da1 41ba e0b8 fdb9 f53d edb9
00000080: a4bc 21bb 1dae d9b9 7d44 eeb9 8661 95ba
00000090: ad27 0aba b4c0 41ba c199 88ba 6d8c c0b9
000000a0: f488 16bb 1a25 1aba f91b a3ba 4487 3dba
000000b0: a046 34ba 8d8c 87ba 18e9 c0ba fe16 9fba
000000c0: 0c9c 4aba c57a b3ba 2554 afba 4125 4dba
000000d0: 66cb a3ba 120a 1bbb 27b4 50ba 3494 5bb9
000000e0: 98cb caba bdd3 9dba 8dd4 41ba 1e2c 62ba
000000f0: c003 ebb9 10cb 5dba f063 8fba c05b c2ba
00000100: ba92 13bb e0f5 b9ba ff56 63ba 2cc7 e5ba
00000110: b3fe 95ba 56fd a7ba 985d 32ba 061c 2eba
00000120: 349c 5fba d6ca 0dbb c06b 98ba 6e43 98ba
00000130: d2dd 5fba 5ee3 93ba 35d6 8bba 48cb 07ba
00000140: 5af6 c0ba 2e38 8bba ff53 a0ba 7670 38ba
00000150: 924e 73ba d91c 7bba 73d7 b5ba d26a bcba
00000160: e4f2 86ba 628c e5b9 aacd 92ba 3986 87b9
00000170: b201 8bba eff0 36ba 3360 e8b9 21c4 e6b9
00000180: ba9f e5ba f63a f4b9 61eb c6b9 e4d3 9bba
00000190: 19fd 16ba fcdb 33ba b8c3 59ba ab7e ceb9
000001a0: b53d f7ba 9101 f7b9 e376 87ba 977f 52ba
000001b0: f7ee 14ba fffb 80ba a21e b9ba 2d4c 9cba
000001c0: 8236 3cba f11f bcba 3a74 b0ba 7526 77ba
000001d0: 681e 9eba ac4b ecba 20a4 62ba 694f 2bb9
000001e0: a74a ffba 62a0 a6ba f0dc 56ba 2554 62ba
000001f0: ef6f c5b9 5bd2 54ba 7e8a 89ba 40e2 a2ba
00000200: d103 053c 5edc 8fba 6b7c 36ba 1985 ffba
00000210: 2dcd 70ba 720c beba 1ed4 16ba 7681 ceb9
00000220: 4665 8eba 3b85 123b 3251 d43a 901f 873b
00000230: 4e4f 27ba 5a0c 59ba b9ef ddb9 d868 e6b9
00000240: c908 f1ba 1adb 70ba 1172 82ba c86d cd3a
00000250: a4be 2cba 16d2 d03b dd95 003c 2b73 6b3b
00000260: a583 95ba 9282 91b9 7d0d 52ba 3dbe 4eb9
00000270: 5074 4bba 24d6 6439 34ec d3b9 7651 2ab9
00000280: 87f8 17bb 6815 abb9 9ca5 a5b9 201a 883b
00000290: 280d 7ab9 6015 cab9 99ca 89ba 49c4 9ab9
000002a0: fc19 37bb 97ee d7b9 9a8a c0ba 92d2 e8b9
000002b0: f3c0 10ba f467 943b 80d9 a8ba 1fd8 8fba
000002c0: 293d 19ba fc0d 8fba 524d 9c3b e6e4 33ba
000002d0: af3d 38b9 3de4 453c a141 32ba 36c7 2bb9
000002e0: a121 9bba 6d13 8aba 26cb 32ba fb2c 20ba
000002f0: 16bc ddb8 4509 ac3a 4b16 483b 12cc 90ba
00000300: 1f25 a63a 76ad 6538 9560 0d39 ea3c 923a
00000310: 6c1e e738 ba20 e739 061d 4d39 a6cc f0b7
00000320: 061a 113a 7b93 bd3a 604f 243a 6be2 1439
00000330: b0c7 6139 0ec3 f638 c655 8f39 1f72 be38
00000340: bf17 8e3a 9d0b 3638 6673 8d39 4bb6 1939
00000350: ec6d f438 6e02 3a39 9051 263a 64bb 8237
00000360: 5e1c 013a 2849 ed38 ec06 0c38 14c1 8738
00000370: 83a2 cc38 58e8 c938 1ea3 2f39 6cd7 fab8
00000380: fc96 c73a 08ac c337 186a 7038 bdb1 ca39
00000390: e014 f238 17b2 9a39 8a4d 7139 a270 9937
000003a0: 352b a83a 54e9 0c38 1c2e 3e3a 80bc 7d38
000003b0: e0c1 e238 6c9b dab8 4a8e b439 764c 9439
000003c0: 68b8 5c39 a3ae 7538 c2be 1438 3b43 0738
000003d0: 1f9c 3139 868b 5e3a f707 3039 412e 4738
000003e0: 361c 8d38 0228 f538 5384 2f39 0941 1438
000003f0: adac 3cb9 e837 ce38 7526 3b3a 8ef1 b739
