lightning_logs/version_5/checkpoints/epoch=7-step=3344.ckpt (torch, 70885 bytes, 28 tensors)

input.weight f4 [64, 30]
000000 70 06 89 3d e8 fb 0e 3d 13 aa 14 be e0 eb 63 bd
       0.06690681 0.034908205 -0.14518003 -0.05564487
000010 33 d6 fb bd 32 e9 d2 3c 66 d8 84 bd 84 2e 1e be
       -0.12296715 0.025745962 -0.06486587 -0.15447432
000020 0a ed e6 3c 04 b8 6c bd 7d a9 25 be 6e aa e1 3d
       0.0281892 -0.05779268 -0.16177936 0.11018835
000030 a0 20 33 be b8 ba 46 be f3 43 45 be a8 44 1a bd
       -0.17492914 -0.19407165 -0.19264202 -0.037663132
000040 13 8b 08 be 33 a4 ac 3c 50 11 f8 bd f2 dd a6 3e
       -0.13334303 0.02107439 -0.12112677 0.32591206
000050 ff ab 50 3d a2 ca 0f 3e 5b 7d 06 3e 44 5f d3 3c
       0.05094528 0.14042142 0.13133757 0.025802262
000060 fe bc a8 3c fc a7 04 be 3d 93 59 3b 90 ab 26 3d
       0.020597931 -0.12954706 0.0033199333 0.04069096
000070 6f 7d 88 3d 61 94 18 3e e0 1e 96 3d 85 ac f4 bd
       0.066645496 0.14900352 0.07330108 -0.11946968
000080 d6 09 1b 3e 26 04 d1 bd 3f 52 c6 bd de d7 2e be
       0.15140471 -0.102058694 -0.09683656 -0.17074534
000090 28 ea 17 3e 33 ca a8 bd 1c 37 12 be c8 f6 50 bd
       0.14835417 -0.082416914 -0.14278835 -0.0510166
0000a0 ae 69 c9 bd 69 7d ec 3c 94 17 f1 bd 47 e5 f4 bc
       -0.0983461 0.028868394 -0.11772075 -0.029894484
0000b0 3c 1d 80 3d 11 5b 12 bd 3b a8 4b 3e a7 3a 31 bd
       0.06255576 -0.03573138 0.19888394 -0.043268826
0000c0 6f b1 83 3d cb 08 57 3e 22 db 2b 3e 01 9e 15 3c
       0.06430327 0.20999448 0.16782811 0.009131909
0000d0 e9 87 93 bd ab 9c 54 3d f6 89 ad 3c 91 d9 d9 3c
       -0.07203657 0.051907223 0.021183949 0.026593002
0000e0 3b 7d 0b 3e 79 79 1a bc aa 7a cb bd 52 06 63 3d
       0.1362199 -0.009428375 -0.09935506 0.05542595
0000f0 63 be b1 bd ec 39 3e 3e 75 61 65 3c 2b 30 47 3e
       -0.086788915 0.18576783 0.014000286 0.19451968
000100 80 4b 6b 3e a7 87 2e 3d 4a 92 d6 bd 3d c3 c7 3d
       0.2297802 0.042609837 -0.10477121 0.097540356
000110 27 0f 6f 3d b3 ae 89 bd 88 e2 a9 3d 88 59 e7 3d
       0.05836406 -0.06722774 0.082951605 0.112963736
000120 89 e2 18 be dd 44 fc 3c 72 1d 85 be 76 69 fe 3c
       -0.14930166 0.030794555 -0.25999027 0.031056147
000130 d5 e3 af 3d 69 15 22 3d d6 72 67 3d 71 13 64 be
       0.085883774 0.0395712 0.056506 -0.22273041
000140 da 1d ac bd 44 ae 1b be c4 52 39 bd b3 d9 e8 3d
       -0.08404131 -0.15203196 -0.045244947 0.11369648
000150 88 a7 40 be 9e 61 40 3e a7 ac f0 3d 0a a1 6d 3d
       -0.18813908 0.18787238 0.11751681 0.058014907
000160 f5 d6 3d 3d e3 b8 b5 3d fc 87 c7 be b8 3c ed 3d
       0.046347577 0.08873155 -0.38970935 0.11583847
000170 df 05 0a be 23 02 42 3d 3a cb f6 bd 03 74 c5 bd
       -0.13478802 0.04736532 -0.12050481 -0.09641268
000180 03 e4 2b 3e 88 5d 39 bd 18 87 69 3e a7 10 41 be
       0.16786198 -0.045255214 0.2280544 -0.18854009
000190 09 40 9f 3e 07 50 e3 3c d2 c9 a2 3e 7c b2 8c bd
       0.31103542 0.027748121 0.31794602 -0.06869981
0001a0 f3 45 92 3c 8e 0f e5 bd 25 e6 e8 3d ae 1a 65 3d
       0.01785562 -0.111846074 0.113720216 0.055933647
0001b0 d8 50 c2 be 94 3a e3 3d 5b 77 41 3e 63 80 00 be
       -0.37952304 0.11095157 0.18893187 -0.12548976
0001c0 8c 0b a5 be 93 9c 31 3d 74 4d 33 3e c2 dc 89 be
       -0.32235372 0.04336221 0.17510015 -0.26926237
0001d0 45 19 20 3e 62 99 c7 3e 0b c5 38 3d 09 20 6a 3e
       0.1563464 0.3898421 0.04510979 0.22863783
0001e0 95 f2 93 3d bb 72 da bd f1 34 4c 3d a5 fb 89 3e
       0.07224003 -0.10666414 0.049855176 0.26949802
0001f0 18 85 b4 3d b6 12 60 be 19 82 fb 3d 56 29 82 3c
       0.08814448 -0.21882138 0.122806735 0.015888851
000200 a3 ad 7f 3e ef a3 87 3e 2f be 18 bd fa 06 6e be
       0.24968581 0.2649226 -0.03729075 -0.23244849
000210 c5 44 94 bd 26 e0 7f bd d4 b4 0c 3e f5 0c 81 bd
       -0.07239679 -0.062469624 0.13740855 -0.063012995
000220 66 4e e8 3d ae 10 61 be 13 29 8d 3e 6b c4 60 3d
       0.11343078 -0.21979019 0.275704 0.05487482
000230 76 2f 06 be e6 c4 6c be 4f 2a fb bd 61 ba 29 3b
       -0.13104042 -0.23121986 -0.12263929 0.0025898444
000240 08 f9 f5 3d 56 d3 2a be c6 73 0a bd c3 21 e2 bd
       0.120103896 -0.16682181 -0.033801816 -0.11041596
000250 69 3b 89 3d ed b3 29 be a5 1e a6 3c bc 55 2e 3e
       0.06700785 -0.16572542 0.020278284 0.17024893
000260 8f e0 0d be f2 7f 83 bd 66 c7 2a be 6e be 3e bb
       -0.13855194 -0.06420888 -0.16677627 -0.0029105204
000270 c5 57 44 3e bf 61 24 bb aa c2 82 bd 78 f5 10 be
       0.19174106 -0.0025082675 -0.063847855 -0.14156139
000280 9f 83 5f bc 49 be 36 bd 7f 57 3b 3d dc bb 9f bd
       -0.013642221 -0.044615064 0.04573774 -0.07799503
000290 39 6c 33 3d 7c b5 19 3e 0b d4 db bc 60 4d 9f bd
       0.04380438 0.15010637 -0.026834508 -0.0777843
0002a0 ec 42 8e be 4b 44 3a be 7d c2 13 3e 02 33 0e be
       -0.27785432 -0.18190114 0.1442966 -0.13886645
0002b0 a1 8c 25 be 1a 83 8c 3d f5 56 07 3e 20 58 32 be
       -0.16166927 0.06860943 0.13216765 -0.1741643
0002c0 d5 f3 b8 bd 47 1b 83 3d 91 b5 32 be 34 14 1d be
       -0.09030882 0.06401687 -0.17452075 -0.15339738
0002d0 9e e7 18 3d de 71 0a bc 81 f1 0a be 6b 3b 14 3d
       0.037330262 -0.00845 -0.13568689 0.036189478
0002e0 5e 80 d1 39 4c 66 80 3d 9d 3a 4a 3e 36 77 b7 bd
       0.00039959227 0.062695116 0.19748922 -0.089582846
0002f0 e4 bd af 3d 8f be 63 3e 74 b7 0d 3d 2b 3a 2b be
       0.08581141 0.22240661 0.034598783 -0.16721408
000300 c1 c6 1d 3d a6 b9 72 3a a9 90 5f 3e 48 eb 86 3e
       0.038519625 0.0009259231 0.21832527 0.2635138
000310 77 79 b8 bc 17 32 3f be 1a ee 91 be eb ea 5b 3d
       -0.022518856 -0.18671452 -0.2850197 0.053690832
000320 f9 de a5 bd 1a f1 26 3e 2c 3f 80 bd 74 e2 56 3d
       -0.08099169 0.1630291 -0.06262049 0.052462056
000330 36 9d a1 3e 93 77 62 3e 3c 98 f0 bc cc 56 77 be
       0.31565255 0.22115926 -0.029369466 -0.24154204
000340 2c c1 5f 3c d8 25 3f be 0a 90 11 3b b1 a3 79 3e
       0.013656896 -0.1866678 0.0022211098 0.2437885
000350 51 40 01 be d2 8c e8 3d dc e0 8e be 27 ed b1 3d
       -0.12622191 0.11354984 -0.2790593 0.08687811
000360 af 75 54 be 10 a9 12 3d c6 40 3d 3e 6f c4 58 bd
       -0.20748018 0.03580576 0.1848174 -0.05292171
000370 bf 16 4e be 4b 3b 0c 3d fe 50 bd 3d 50 52 cc 3c
       -0.20125864 0.034236234 0.09243964 0.024941593
000380 5b c0 80 3e f3 34 7e 3e 35 d9 41 bc b6 3d 61 bc
       0.25146756 0.24824886 -0.011831571 -0.013747623
000390 e1 fb a8 bd ea 99 11 be 83 ad bb 3d 8b 27 27 bd
       -0.08251167 -0.1421887 0.09163954 -0.040809195
0003a0 0d 58 da 3d 6c e3 83 bd 3f 8b 09 3e 07 55 7a 3e
       0.106613256 -0.06439862 0.13432024 0.24446498
0003b0 b1 1f c2 3c 98 64 01 be 91 fe 77 3e 42 d9 7b be
       0.023696752 -0.1263603 0.24218203 -0.24594596
0003c0 5c 05 8e bd ce d8 66 3d 76 92 0d 3e 3f a2 4d 3d
       -0.06934616 0.056359105 0.13825402 0.050203558
0003d0 ad e2 29 be 07 13 1c bd 14 3f 4c 3e a9 0c 43 bd
       -0.16590376 -0.038104083 0.19945937 -0.047619496
0003e0 15 e7 b9 bd 6c 01 2d 3e c4 6b 9e bd c2 d1 9f bc
       -0.090772785 0.16895074 -0.077353984 -0.0195092
0003f0 47 88 73 3e 18 76 e1 3d 0f 3c 89 3e 25 44 72 3d
       0.23782454 0.11008853 0.26803634 0.05914702

input.bias f4 [64]
000000 16 52 2c be 0d 3b f1 3d bf 61 6a bd ec 8c 58 3e
       -0.16828188 0.11778841 -0.057222124 0.21147507
000010 76 d2 0a 3c 8c 39 bb bd 9b ca 0d 3e 48 14 9b 3e
       0.008473029 -0.091418356 0.13846819 0.3028891
000020 3f 3a d6 3d b5 67 27 bd f1 2f ad bd 95 38 cc 3c
       0.10460328 -0.040870387 -0.0845641 0.024929324
000030 9c ee 9b bd d0 a9 28 3e 47 0a 0d be c1 98 09 3e
       -0.076138705 0.16471028 -0.13773452 0.13437177
000040 82 fe 37 be 3e 63 8a 3e cc 49 cf bc 2e 36 cf 3e
       -0.17968181 0.2702884 -0.025303744 0.40471023
000050 07 68 5c 3d 9e 95 19 bd 5a 8f 20 be 00 ea 83 bd
       0.053810146 -0.0374962 -0.15679684 -0.06441116
000060 cc 82 2e bd 60 03 f3 bd dc 82 8d bd 5d d7 b3 bd
       -0.042605206 -0.11865878 -0.06909725 -0.08781312
000070 a7 bd 82 3e 31 19 ea 3c bd 39 6d 3e 94 2c 18 3e
       0.25535318 0.028576465 0.23166557 0.14860755
000080 54 9a a5 bd 5d 05 7f 3e d8 5d fe bd cc db 3f 3e
       -0.080860764 0.2490439 -0.12420243 0.1873619
000090 24 d8 7a 3e c2 f8 e4 b9 44 26 16 be 0b 09 6b bd
       0.24496514 -0.00043672888 -0.14663035 -0.05738167
0000a0 14 d8 c3 bc 42 e9 07 3e 09 9d 8b 3e dd b8 27 3e
       -0.023906745 0.13272575 0.27268246 0.16379113
0000b0 08 5a 5c 3e 5f f6 e5 3d 0a 64 51 3e 35 77 87 3d
       0.21518719 0.11228632 0.20448318 0.06614534
0000c0 7a 7a c1 3d 3c b0 02 bb 71 d2 dc 3d 72 74 82 bc
       0.09447189 -0.001994147 0.10782326 -0.015924666
0000d0 66 a6 8c 3e d3 1d be be ea 0a 3a be 99 bf 8f bd
       0.27470702 -0.3713213 -0.18168226 -0.07018966
0000e0 9e 43 90 3d 1a 7e 40 3e dd 22 d8 3a aa 15 2b be
       0.07044147 0.18798104 0.0016489882 -0.16707483
0000f0 11 54 7a bc e4 58 5b 3e 65 4a 07 3d 46 ae 1d 3e
       -0.015278832 0.21420628 0.033029933 0.15398511

h1.weight f4 [32, 64]
000000 d9 f0 13 3d 79 c5 8b bb ba 05 91 bd 89 c6 79 3e
       0.036118362 -0.004265484 -0.070811704 0.24392141
000010 cb 97 1e 3e 0f 07 1b 3e 77 cf 78 3e 7c f5 2f 3e
       0.15487592 0.15139411 0.24297892 0.17183489
000020 d3 64 26 3c f3 11 27 3e ec a6 82 3e 12 66 56 3e
       0.010155874 0.16315441 0.25517976 0.20937374
000030 f3 80 79 ba b3 43 36 3e f3 3a 55 bd cb 64 4a 3e
       -0.0009517811 0.17799263 -0.05205817 0.19765012
000040 f3 17 21 3e ea 45 87 3d eb 32 4d 3e 67 03 9f 3e
       0.15731792 0.06605132 0.20038955 0.31057283
000050 ae 39 43 3d 99 72 90 3c fb 7f b3 bd 99 46 c6 3c
       0.04766243 0.01763277 -0.08764645 0.024203585
000060 31 63 e6 bd 4e 4c 92 bd 04 72 c5 bd 3e 8f c7 3d
       -0.11249388 -0.0714346 -0.096408874 0.09744118
000070 53 a7 a8 3e 8f 97 ee bd 14 83 bc 3d de f5 3a 3e
       0.32940158 -0.11650001 0.09204689 0.18257853
000080 37 b8 84 3e 0b 50 68 3d 2a 61 19 be db e4 27 3e
       0.25921795 0.05671696 -0.14978471 0.16395895
000090 07 f2 88 3d 34 05 74 bc 04 14 82 3d 59 75 0c 3d
       0.06686788 -0.014893819 0.06351474 0.0342916
0000a0 7a 19 d1 bd 91 7b 2f bd 7f da 27 3e 94 38 48 3e
       -0.102099374 -0.04284245 0.16391943 0.19552833
0000b0 fa 63 79 3e d2 1e ff bc 23 f3 3f bd cc 2f 49 3d
       0.24354544 -0.031142626 -0.046862733 0.04911785
0000c0 ea 03 dd bb 1b 2e 4b 3e 0b 35 33 bd 5d b5 bf bd
       -0.0067448514 0.19841807 -0.043751758 -0.09360764
0000d0 1d 56 52 3e e2 83 8b 3c 85 2c 67 bd 6c f6 14 3c
       0.20540662 0.01703066 -0.05643894 0.009091955
0000e0 9b 19 11 be 18 63 1d 3e be 3f cd bc cb e7 37 3e
       -0.14169924 0.15369833 -0.025054809 0.17959516
0000f0 04 7b ca 3d da 6f 3e 3d df 8a 28 bd 68 44 ef 3e
       0.098867446 0.04649339 -0.041148063 0.46731877
000100 b0 2e fc 3c 94 4a 18 bd 4e ba 98 3d fe b7 70 3e
       0.030783981 -0.0371805 0.0745741 0.23507687
000110 ec 64 26 3e d2 22 07 bd de 39 6c 3e 35 3d 3b 3e
       0.16249436 -0.03299219 0.2306895 0.18285067
000120 ee 5d 64 3e 25 84 f4 3d 99 cf 53 3e 81 82 57 3e
       0.22301456 0.11939267 0.20684661 0.21045877
000130 5f bb 07 3d 0a de 6a 3e d4 53 2c 3d e0 76 b2 3d
       0.033137675 0.22936264 0.042072132 0.0871408
000140 af 06 92 3d df 6a 07 3e 64 1d 41 3e f7 ff 89 3e
       0.07130181 0.13224362 0.18858868 0.26953098
000150 22 34 43 3d 0c 42 1a 3d 1e 2d 5c 3d 49 3f c7 3c
       0.04765714 0.037660643 0.053753965 0.024322169
000160 d6 e0 12 bd b6 ef ab bd 8a 6e 34 bd 0b 01 4d 3e
       -0.03585895 -0.083953306 -0.04405073 0.20019929
000170 d8 60 3a 3e a5 3c df bd 69 3c 31 3e 18 ad 0b 3e
       0.18201005 -0.10900239 0.17308201 0.13640249
000180 fc de f7 3d 11 4b 76 3e 41 4f a6 bd 24 e5 72 3e
       0.12103078 0.24052073 -0.08120585 0.23720223
000190 34 c6 22 3e 0a 79 75 3a 23 b1 d3 bc 5c 0d 89 bc
       0.15895921 0.00093640445 -0.025841301 -0.016730003
0001a0 8d 3b 22 be 82 e8 03 be e1 fc 11 3e e2 51 0a 3e
       -0.1584303 -0.12881663 0.14256622 0.13507798
0001b0 62 e5 83 3d a3 f4 99 bd bc c5 5c 3c e5 0b d9 3d
       0.06440236 -0.07517364 0.013474878 0.10597972
0001c0 69 05 11 3e 86 a1 9a 3d 5e 37 fc 3c af 08 99 bd
       0.1416222 0.075503394 0.03078812 -0.074723594
0001d0 8d 6c 14 3e b4 6d b8 3d 89 89 f0 bd 3f 86 a2 bc
       0.14494534 0.09005299 -0.11744983 -0.019839404
0001e0 e7 59 ab bd da 04 da 3d d6 14 13 be 50 85 01 3e
       -0.08366757 0.106454566 -0.14363417 0.12648511
0001f0 45 2b a8 bd fe 00 d7 bd 87 de f1 3c 14 0d a7 3e
       -0.08211378 -0.10498236 0.029525055 0.32627165
000200 c7 5b 17 be 46 7e 34 3c 3c ff 76 bd 2d 16 8e 3e
       -0.14781104 0.011016434 -0.060302004 0.27751294
000210 f0 59 ff 3d a7 7a 1f 3d a9 2f 34 3e 0e 24 86 3e
       0.12468326 0.03893533 0.17596306 0.26199383
000220 e9 2d fa 3d 13 9d f2 3d 8e 24 2b 3e ae fa 0f 3e
       0.12215788 0.11846366 0.16713163 0.1406047
000230 88 cb 40 3c 23 3d 15 3e 70 58 e3 bd e0 d4 8a 3d
       0.011767276 0.14574103 -0.111008525 0.06778884
000240 2b 4b 1e bd bd be 36 3e 16 36 e6 3d d8 45 23 3e
       -0.038645905 0.17846198 0.11240785 0.15944612
000250 49 39 dd 3d 9d f4 a2 3d ac 8b 21 be e8 2b 99 bd
       0.10801942 0.079568125 -0.15775937 -0.074790776
000260 f9 31 81 3d f9 5b 02 be 60 f5 e9 bd e4 0f 3c 3e
       0.0630836 -0.12730397 -0.11423755 0.18365437
000270 e9 23 10 3e 40 86 30 be ef 0f 8d bd 02 37 54 3e
       0.14076199 -0.17238712 -0.06887805 0.20724109
000280 24 05 4e 3e e3 26 61 3e 1d 92 0d be e3 40 b9 3e
       0.20119148 0.2198749 -0.13825269 0.36182317
000290 76 22 0e 3e bc 9b 00 3e 8c 2c 2c 3d 2c 0c b8 3c
       0.13880333 0.12559408 0.04203467 0.022466742
0002a0 76 2d 9c bd e5 30 ce bd e7 df 93 3e 6f d8 42 3e
       -0.076258585 -0.1006792 0.2888176 0.19027875
0002b0 b8 10 ef 3d d1 e4 57 3d a4 cf f1 bd 68 b3 ea bc
       0.11673111 0.05270845 -0.118071824 -0.02865
0002c0 a4 35 5e 3d a8 e3 0c 3e 99 2e 0a 3d 71 2c ec bc
       0.054250374 0.13758719 0.033735845 -0.028829785
0002d0 c1 53 51 3e ad ff e9 b9 af fc cd bd 28 32 b7 3c
       0.20442106 -0.00044631716 -0.10057961 0.022362784
0002e0 ec b1 9c bd 39 72 be 3d 46 31 78 be 99 0d 0c 3e
       -0.076511234 0.0929913 -0.24237546 0.13677062
0002f0 a4 00 bf bd 82 ee 50 3d da 4e 23 be d2 fb a4 3c
       -0.09326294 0.05100871 -0.15948048 0.020139609
000300 23 f1 b6 bc 78 a9 7f bb 0d 57 2a be cd 92 53 3e
       -0.02233178 -0.0039010923 -0.1663477 0.20661469
000310 5c 2a 0c 3e d8 cf 14 3e f9 16 bc 3d 82 88 7b 3e
       0.13688034 0.14532411 0.09184069 0.24563792
000320 88 e3 5d 3d 9c e8 20 3e 8d a6 cf 3e 0e 3c 95 3e
       0.05417207 0.15713733 0.40556756 0.2914738
000330 ff 00 bb bc f4 4c 80 3e 34 d8 6f bd b0 16 84 3e
       -0.022827623 0.2505871 -0.058555797 0.2579856
000340 39 0f ff 3b 20 95 8f 3d 4d c5 42 3e 72 65 b9 3e
       0.007783797 0.07010865 0.19020577 0.3621021
000350 75 21 ff bd 5b 2b ba bc 45 77 49 3d c7 3f 98 bd
       -0.12457553 -0.022725752 0.04918601 -0.074340396
000360 cd a2 2b be 76 4a 6d bd 20 13 2b 3d 51 34 8c 3e
       -0.16761322 -0.05793234 0.041766286 0.27383664
000370 9c 27 18 bd d5 15 75 bd 69 31 d8 3d cc d4 ed 3d
       -0.03714715 -0.059835274 0.10556299 0.116128534
000380 ac 32 3b 3e e2 00 8e 3d f1 0a a9 3d 11 c9 a1 3e
       0.18281049 0.06933762 0.0825404 0.31598714
000390 73 fd bd bc 4a a6 36 3c d7 dc 97 bb fd e2 50 bd
       -0.023192143 0.011148045 -0.0046344805 -0.050997723
0003a0 16 63 ca 3c bb c7 fe 3d 29 4d 77 3e 23 b4 aa 3e
       0.024705451 0.12440439 0.24150528 0.33340558
0003b0 e5 35 b3 3e e9 14 8b bd 3e 83 c9 3d ca 35 3f 3e
       0.35002056 -0.06791098 0.098394856 0.18672863
0003c0 7e 09 2b 3e a9 a9 be 3b 5c aa 46 3d ad 46 90 3d
       0.1670284 0.005818565 0.04850231 0.0704473
0003d0 9e 41 08 3d 5e 00 1f 3b 89 49 b9 3c c2 f8 64 bc
       0.033265702 0.0024261693 0.022618072 -0.013975324
0003e0 1b cf 0f bd 40 41 2d 3e 3d 18 20 be 97 58 56 3e
       -0.03510962 0.16919422 -0.15634246 0.20932232
0003f0 9c d7 cf 3c 8d 4a 16 3c 3b dc 1f be 17 2a fa 3d
       0.025371365 0.009173048 -0.15611355 0.12215059

h1.bias f4 [32]
000000 5e 40 d5 3d 95 d5 3a 3d e7 31 0a 3e a5 2a d8 bd
       0.10412668 0.045613844 0.13495599 -0.10555009
000010 47 2c 6b 3c 6a 93 f3 3d 8e 64 ae 3d 64 21 65 3c
       0.014353818 0.118933514 0.08515273 0.013985012
000020 32 2d d1 bd 45 2c f1 3d a7 0b f3 3d 35 3f 09 3c
       -0.102136984 0.11776022 0.11867457 0.008376886
000030 67 7e e1 3d 04 01 04 bc e2 d4 59 3e a2 a4 62 bd
       0.110104375 -0.008056883 0.21272615 -0.055332787
000040 e7 f3 15 3d 86 b2 8f 3d d9 2f 95 bd c0 92 f2 3d
       0.036609557 0.070164725 -0.07284517 0.118443966
000050 1f c4 64 bd a5 81 32 3e 49 3f 25 bd f3 92 21 be
       -0.0558511 0.17432268 -0.040343557 -0.15778713
000060 ef ea 97 bd 38 f1 54 bc 3e 87 c2 3d 51 0f d3 3d
       -0.07417857 -0.012996964 0.09498452 0.10305656
000070 f9 ee 0b 3d 0d 21 a6 3d c6 fb d2 bd 06 53 fe 3c
       0.03416345 0.08111773 -0.10301928 0.031045448

h2.weight f4 [16, 32]
000000 73 83 0a 3c 4e 81 f8 3c 5c bb 21 be cd bd 0e be
       0.0084541915 0.030335095 -0.15794128 -0.13939591
000010 1a ac 0a 3e f1 b9 39 3e 86 86 75 be a9 d0 24 bd
       0.13542214 0.18137337 -0.23977098 -0.040238056
000020 63 8c 97 be 87 28 ac 3e ec 6d 29 3e cd 2f 3c bd
       -0.29599294 0.3362467 0.16545838 -0.045944024
000030 59 fb c4 3d 39 3f e0 3d 54 ed 87 bc f8 cc dc 3d
       0.09618253 0.10949559 -0.016592659 0.10781282
000040 d3 97 eb 3d 81 4a d5 bd a4 5c 82 3e 5e 05 9f 3d
       0.115035675 -0.10414601 0.25461304 0.077646956
000050 b9 ea 00 3e bb 53 55 bc 30 41 95 3d 5b 0c 04 be
       0.1258954 -0.013020451 0.07287824 -0.12895338
000060 8d 41 aa 3e 9f f3 41 be 9d ee 6a bd ae 58 af bc
       0.33253136 -0.1894059 -0.057356466 -0.02140459
000070 91 4f 90 bc 29 4f 54 bd 7f 58 44 be 3c 55 08 3e
       -0.017616065 -0.051833306 -0.19174384 0.13313764
000080 4a f2 82 3d f0 f3 71 3e 05 93 a0 3e 8f e3 57 3e
       0.06393869 0.23628211 0.31362167 0.210829
000090 cc 18 c0 3d 36 65 92 bc 8e 09 e5 bb a8 69 32 3e
       0.0937973 -0.017870527 -0.0069896644 0.17423117
0000a0 8c be 35 3e 44 0a 34 be 81 27 2e 3d 38 d9 02 3e
       0.17748469 -0.17582041 0.042518143 0.12778175
0000b0 87 b6 2e be ef 12 13 be e5 5b 60 bd bc 70 ad bd
       -0.17061816 -0.14362691 -0.054775137 -0.08468768
0000c0 14 2a 30 3e ac 86 b9 3b c3 d4 49 be 9f e1 eb 3c
       0.17203552 0.005661806 -0.19710068 0.028794108
0000d0 69 e0 a3 3d 34 b1 f1 3d f1 f3 9c bd 46 cc 86 3d
       0.08001787 0.11801377 -0.07663716 0.06581931
0000e0 f3 3e 01 be 86 38 58 3e e7 b0 6b 3d 11 fc c5 3d
       -0.1262167 0.21115312 0.057541754 0.096672185
0000f0 b4 96 a0 bd 43 56 f7 bd 83 6c 95 3d 55 7d 31 3e
       -0.07841244 -0.12077 0.072960876 0.17332967
000100 cc a7 57 3e 29 44 2f 3e b8 ed 2d 3d f2 ec 83 bd
       0.21060103 0.17115845 0.042463034 -0.06441678
000110 63 e2 db 3d 4a 85 8a 3d 20 d0 8c 3d f5 98 e5 3c
       0.10736539 0.06763704 0.06875634 0.028027037
000120 4a 07 10 3e b9 ce 1d be ff 0a 33 bd 3b 50 d5 3d
       0.1406528 -0.1541089 -0.04371166 0.10415693
000130 c0 ed 29 3d b5 96 84 be ef 36 37 3d a9 f4 ab 3c
       0.0414865 -0.2589623 0.044730123 0.020990686
000140 96 a0 18 3e a6 fe 0d 3e 89 aa 9e bd 91 63 10 3d
       0.14905009 0.13866672 -0.07747371 0.035251204
000150 ab 08 41 3e b3 87 6d bc e4 b2 fd 3c 8d b6 05 3e
       0.18850963 -0.014497685 0.03096909 0.13057919
000160 4c 8f 35 be 77 ba 22 3e 7b 35 8d bc 6e 59 47 3e
       -0.17730445 0.15891443 -0.017237416 0.19467708
000170 ce 13 1a be 95 a2 68 be 5d 78 f8 bd da 57 14 be
       -0.15046617 -0.2271827 -0.121323325 -0.14486638
000180 fc 4d f6 bd fa 87 da 3c 70 8a df bd 59 ce 86 3d
       -0.12026593 0.026676167 -0.10915077 0.065823264
000190 96 4a 3d 3e 61 e8 ba 3d 24 5f cc bd de 29 2a bc
       0.18485484 0.09126354 -0.09979084 -0.0103859585
0001a0 57 75 1f be 53 0b 87 3e cb c6 08 3d af d0 14 3e
       -0.15572105 0.26375827 0.03339271 0.14532731
0001b0 54 65 a3 3d 2e 71 6b 3e 1b a0 8e 3e e1 4e 87 3e
       0.07978311 0.22992393 0.27856526 0.26427367
0001c0 f2 ea 24 be 25 17 22 be 88 54 3d bd b4 a0 15 3e
       -0.1610525 -0.15829141 -0.046223193 0.14612085
0001d0 1c 3b ff 3d 87 33 52 be ad 2c 39 3e ee c7 36 be
       0.12462446 -0.20527469 0.18083449 -0.17849705
0001e0 e9 6f b2 3e ca 2b f1 3c c3 f8 be bc 6b cd f6 3c
       0.34851006 0.029439826 -0.023311978 0.030127248
0001f0 95 61 8b bd 9a 8c 82 3e a5 1a 30 be 4e 89 00 3e
       -0.06805722 0.25497895 -0.17197664 0.12552378
000200 b5 f8 52 3e 2b 3f 9c 3d ab 5a 38 3e f8 c7 f4 3d
       0.20602687 0.07629236 0.18003337 0.119522035
000210 97 0c 81 3e 2e 4f 07 3e e1 ea 60 bd 1b e6 20 bd
       0.25204918 0.13213798 -0.054911498 -0.039281946
000220 8b 96 0c 3e 94 8b 42 bd 35 11 be 3c 72 b1 94 3d
       0.13729303 -0.047496393 0.023201564 0.072604075
000230 a0 3a f5 bd bc d1 8e bd c5 c5 bc bd bb a5 1e 3e
       -0.119740725 -0.069735974 -0.09217409 0.15492909
000240 f3 cd 53 3d 75 af 98 3e 30 41 b0 bd c1 06 c9 bd
       0.05171008 0.29821363 -0.086061835 -0.09815741
000250 ad e7 04 3e 38 f4 77 3e 9d de e9 ba b2 ec 3f 3e
       0.12979002 0.24214256 -0.0017842833 0.18742636
000260 d5 0a ff bd 7e 55 e2 3d 8b ad 52 3e 86 10 ca 3d
       -0.12453238 0.110514626 0.20574014 0.09866433
000270 1b c7 95 3d 39 7c 17 be a7 33 99 3d 26 78 e6 bd
       0.07313367 -0.14793481 0.07480555 -0.11253385
000280 5b 20 8b 3e 0d 41 d1 3d 1e d4 3f 3e d3 59 a3 3d
       0.27173123 0.102174856 0.1873326 0.07976117
000290 9d 10 20 3e 46 30 11 3e dc 8f 34 3d ad 8f 54 3e
       0.15631337 0.14178571 0.044082507 0.20757933
0002a0 48 f8 31 3b 53 02 37 be 83 98 36 be bb 32 c1 3b
       0.0027156044 -0.1787198 -0.17831616 0.00589594
0002b0 7e c0 65 be a4 61 68 bc b9 0f 48 be 18 5e 13 be
       -0.22436711 -0.014183436 -0.19537248 -0.14391363
0002c0 d2 8a 3a 3e b9 9b 4d bd 77 80 cb bd c8 6e e6 3d
       0.18217018 -0.050197337 -0.09936612 0.112515986
0002d0 52 c4 09 3e 1c 90 b6 3d f7 a0 06 3e 97 cd b8 bd
       0.13453797 0.089142054 0.1314734 -0.09023588
0002e0 25 e0 59 be 2a ce 2a 3d d3 3c 2d 3e 72 58 26 3d
       -0.2127691 0.04170052 0.16917734 0.04061169
0002f0 53 52 cc bc 87 e0 21 be 01 9b bf 3d b5 88 07 3e
       -0.024941599 -0.15808307 0.093557365 0.13235743
000300 c0 c8 77 3e 3f 3b 9f 3d 03 ec b5 3d 29 ee 92 3e
       0.24197674 0.07774972 0.08882906 0.28697327
000310 03 52 55 3e bd 4f 30 3e 89 54 bf bd c5 e8 42 3e
       0.20832066 0.17217918 -0.09342296 0.19034107
000320 84 04 09 3e 42 d7 56 be 33 6d ee 3d f6 da 0d 3e
       0.13380629 -0.20980552 0.11641922 0.13853058
000330 6f 2a 6f bd d9 37 43 be 81 ab 3b bd 5d 0b ab bd
       -0.058390077 -0.19064273 -0.045817856 -0.08351777
000340 c0 91 85 bd 91 9b 96 bd 7c 5e 24 be e0 c2 52 ba
       -0.0652194 -0.07353891 -0.16051668 -0.0008039903
000350 65 68 16 3e d4 98 8b 3e fe 6c 9a 3d 92 a5 88 3d
       0.14688261 0.27265036 0.0754032 0.06672205
000360 95 e0 6c 3d 1c 87 3a bd 5f 7a 8b 3e 1c ab cb bc
       0.057831366 -0.045539007 0.272418 -0.024861865
000370 8c a9 eb bd e7 9b 44 be f1 f8 84 3e e1 cb b2 3d
       -0.11506948 -0.19200097 0.25971177 0.08730293
000380 1c 7d 48 3c 83 4e 22 bb c6 59 06 3e 43 c2 6e 3e
       0.01223686 -0.0024766035 0.13120183 0.23316292
000390 68 40 e8 bd 04 39 da 3d 89 33 97 3d 5c 74 2a 3d
       -0.113404095 0.10655406 0.073828764 0.041614875
0003a0 f5 fe b0 3e 61 f9 39 be e6 13 9c bd 43 7a a2 3d
       0.34569517 -0.18161537 -0.07620983 0.07933476
0003b0 3d dd 9f bd 7f 2a 7c bd fe 20 6b 3d 31 84 c6 bd
       -0.0780587 -0.061563965 0.05740451 -0.09693182
0003c0 d3 d8 ee 3d 19 51 82 3e ec e2 e4 3c af ba 9d 3c
       0.1166245 0.25452498 0.027940236 0.019254057
0003d0 d4 3f 89 3e 4e c0 3c 3e 7e 48 88 3d 19 56 74 3e
       0.2680651 0.18432733 0.06654452 0.23860969
0003e0 94 c0 21 be 3a 40 80 bd c9 6a 01 3e 9b 39 9f 3d
       -0.15796119 -0.0626225 0.12638392 0.07774659
0003f0 72 5f d7 bd fd a5 ae bb 33 8f 60 3d 8c 62 32 3e
       -0.105162516 -0.005329846 0.054824065 0.17420405

h2.bias f4 [16]
000000 d3 24 9c bd bb 2c 74 3d 6e 5e 03 3e fa 70 43 3e
       -0.07624211 0.05961297 0.12828991 0.19086066
000010 23 54 8e bd 73 26 b5 3c 9e a0 58 3c db f2 e4 bd
       -0.069496416 0.02211306 0.013221888 -0.111791335
000020 47 4e ef bd 9f 27 34 3e 63 18 e7 3d 54 50 2b 3e
       -0.11684852 0.17593239 0.11283948 0.16729861
000030 a5 e1 30 be 07 b6 b9 3d 46 01 81 3e eb 69 e7 bc
       -0.17273577 0.09067922 0.25196284 -0.028248748

h3.weight f4 [8, 16]
000000 4a 2a a0 bd 9c 6e b7 3e 74 16 f5 3d e7 05 5a be
       -0.07820566 0.35826576 0.11967173 -0.21291314
000010 35 04 3a 3e 66 3f 9a 3e 75 64 1e 3e 66 45 47 3e
       0.18165667 0.30126494 0.15468009 0.19460067
000020 8e 95 53 3e 18 30 29 3e fc 21 83 3d b2 16 58 be
       0.2066252 0.16522253 0.064029664 -0.21102408
000030 45 5d 16 3e 57 79 f2 3d 4c 87 34 bd 67 cd 98 3d
       0.14684017 0.1183955 -0.04407434 0.074610524
000040 44 43 28 3e 94 dd 8e be 12 ae d0 3d f0 5d 10 3e
       0.1643191 -0.27903426 0.10189451 0.14098334
000050 6c 40 8c be 7c 6c 08 be 93 3f 91 be 9a bf ee 3d
       -0.273929 -0.13322634 -0.28368816 0.11657639
000060 40 5f ad 3d 1b 24 99 be 46 c8 ab 3e a8 af 90 3e
       0.08465433 -0.2991036 0.33551234 0.28259015
000070 df b4 59 be bd 2e 5c 3e e9 7f 75 3e 3d 85 95 be
       -0.21260403 0.21502204 0.23974575 -0.29203215
000080 9a 86 4c 3e 00 7d 2f be dc 91 fd bd 12 6f b6 be
       0.19973221 -0.17137527 -0.12381336 -0.35631615
000090 a1 63 91 be 13 38 2f be 16 6f c3 3d 76 a9 14 bf
       -0.28396323 -0.17111234 0.09542672 -0.58071077
0000a0 c8 df 27 bf 2b 53 05 3e a7 8d 77 be fe 23 12 3e
       -0.6557584 0.13020007 -0.2417513 0.14271542
0000b0 c6 2b 7d 3d 13 82 8c be e9 e3 8e 3e e3 7c ed be
       0.061809324 -0.2744299 0.27908257 -0.46384344
0000c0 af d4 1b be 53 88 ab bc 3a bd 88 bd d7 7c 81 be
       -0.15217851 -0.020939028 -0.06676717 -0.25290558
0000d0 69 10 3d be ef e2 17 be 52 1a b4 3d 8f 2c 98 bd
       -0.18463291 -0.14832662 0.08794083 -0.07430374
0000e0 37 f4 b0 bd 9a be 16 be 0e 65 b4 3c 26 c5 d3 3d
       -0.0864033 -0.14721146 0.022020843 0.103403375
0000f0 3a 76 10 3d e6 21 52 be 9d bb 69 be 53 cd d7 bc
       0.035269 -0.20520744 -0.22825475 -0.026343023
000100 08 d2 90 3e b7 fa 1c bc c0 5b 68 3c e8 43 6d bd
       0.2828524 -0.009581259 0.014182031 -0.05792609
000110 df 53 64 3c 0a 29 c1 bd d7 f8 38 be 60 4c a7 be
       0.013936012 -0.09431656 -0.18063675 -0.32675457
000120 4a 1e 73 be 9d 6d 46 be 0a d6 a5 3e d0 a9 7e 3e
       -0.23742023 -0.19377752 0.3238986 0.24869466
000130 fa c5 bc be 45 c3 6e 3d 91 a5 d2 3e 7f 6a 4c be
       -0.36869794 0.058291692 0.41141942 -0.199625
000140 e5 f3 76 3d 80 de 2c bf a4 bc 15 be 55 af a2 3e
       0.06029119 -0.6752701 -0.14622742 0.31774393
000150 fa ac 5c be c8 e5 a1 be 1a fc 0f bf e5 3b d9 bd
       -0.2155036 -0.31620622 -0.5624405 -0.10607127
000160 e1 b6 af 3d 1f 49 52 be 73 f3 f0 3d 13 81 d9 bd
       0.08579803 -0.20535706 0.11765184 -0.10620322
000170 67 9d 81 be eb e4 0b be 07 e2 39 3e b6 b5 83 be
       -0.253154 -0.13661544 0.18152629 -0.25724572
000180 05 04 94 3e e1 a2 fa 3b cf e4 03 be 93 aa 0d 3e
       0.28909317 0.007648811 -0.12880252 0.138346
000190 66 2f 5b be b3 3f 8c bd ae 54 02 3c 85 dd 6c be
       -0.214048 -0.06848087 0.0079547595 -0.23131378
0001a0 60 04 8d bb 68 68 53 be eb 34 4b 3e 22 66 81 3e
       -0.0043035 -0.20645297 0.19844405 0.25273234
0001b0 e8 2f c2 bd b2 ce 85 3d 27 54 37 3e 69 04 1c bc
       -0.09481794 0.065335646 0.17903195 -0.009522536
0001c0 9f b5 85 3c b9 4c 98 3e 96 bd b8 bb d6 c7 ec bc
       0.016321955 0.29746035 -0.005637835 -0.028903883
0001d0 4a 38 0b 3e be 2c 94 3e 12 25 c0 3d 42 60 25 3e
       0.13595691 0.28940386 0.093820706 0.1615
0001e0 5d ed d9 3d 31 2c 24 3e aa 60 e0 bd 8c 74 13 be
       0.106409766 0.16032483 -0.10955937 -0.14399928
0001f0 4c ca 90 3e f7 ba 55 3d b6 c1 4a be 07 8b a3 3e
       0.2827934 0.052180257 -0.19800457 0.31942007

h3.bias f4 [8]
000000 e2 80 df bd 16 b2 9b 3d 8c 1f f0 bd dd 40 b9 bd
       -0.10913254 0.076023266 -0.11724767 -0.09045575
000010 63 38 0b 3e 64 f1 9b 3e 2d 7e d6 3d a8 d0 9b bc
       0.13595729 0.30457604 0.10473285 -0.019020393

h4.weight f4 [1, 8]
000000 df e2 d2 be ac 25 84 3e 4e 29 97 3e 38 fe 13 be
       -0.41188714 0.2580999 0.295237 -0.14452446
000010 1d e4 78 3e 8e 03 b9 3e dd b2 99 3e d1 93 cf be
       0.24305768 0.36135525 0.30019274 -0.40542462

loss_fn.pos_weight f8 [1]
000000 c4 b5 9a b1 00 17 72 40
       289.43766937669375

exp_avg f4 [64, 30]
000000 9d 97 7c 3a 26 81 ea b9 42 58 b0 b8 08 80 a8 ba
       0.0009635629 -0.0004472818 -8.408773e-05 -0.0012855539
000010 a6 18 d8 3a bf f7 a5 3a d9 cb 3a b9 e7 dc c7 3a
       0.0016486838 0.0012662335 -0.00017814281 0.0015248329
000020 b8 ab fc ba 55 42 35 b9 84 ce 2f ba 3b b1 56 3a
       -0.001927725 -0.00017286216 -0.00067064934 0.00081898615
000030 d5 fb 9c b9 2a 80 f5 ba 24 a0 49 bb 10 e5 5e b8
       -0.00029942268 -0.0018730212 -0.0030765617 -5.3142256e-05
000040 ff f7 9a 3a b8 a4 98 3b 9d 6d 1b 3b fe 53 b9 3a
       0.0011823176 0.004658308 0.0023716458 0.0014139412
000050 95 93 97 39 51 7d e3 3a cd f1 7e 3a 7e de ec 39
       0.00028910922 0.0017356073 0.0009725362 0.00045179197
000060 23 10 2c ba 61 63 77 b8 4c 9a 09 b9 d5 a2 e3 39
       -0.0006563684 -5.8981943e-05 -0.00013122818 0.00043418133
000070 af be d1 b8 fc f9 94 3a b6 36 63 37 2e e6 0e 39
       -0.00010001414 0.0011366005 1.3542993e-05 0.00013627924
000080 b1 44 94 b7 dd a6 dd b9 1c a4 1d 3a 21 1d 19 39
       -1.7674962e-05 -0.00042276728 0.0006013529 0.00014602068
000090 1b 07 1d b9 b8 4f 8b 39 62 c6 bc b7 5c 5e 8e b8
       -0.00014975334 0.0002657154 -2.2503726e-05 -6.7886634e-05
0000a0 87 43 79 b9 d9 9c 85 39 5f 0b 05 ba 82 72 99 39
       -0.00023771646 0.00025484597 -0.0005075242 0.0002926775
0000b0 8b f3 0b ba 60 e9 8d b9 17 c7 ec 39 c7 c3 22 3a
       -0.000533872 -0.00027067494 0.0004516176 0.00062089827
0000c0 79 7e 97 39 ea cc b7 b9 d3 bf 91 39 7d 02 e4 b8
       0.00028895194 -0.00035057153 0.00027799475 -0.00010872351
0000d0 4d ae 82 b9 d7 c1 f5 b8 d1 35 25 b9 07 fe fd 37
       -0.00024925396 -0.00011718616 -0.00015755674 3.0278241e-05
0000e0 54 4f 9b b8 a5 26 b3 b8 5a fb 3e b7 83 b0 b6 39
       -7.405752e-05 -8.542583e-05 -1.1383405e-05 0.00034845257
0000f0 f2 c6 4d 3b 1c b2 cf ba fd a7 3d 3a a6 c7 37 ba
       0.0031399098 -0.0015845927 0.000723481 -0.0007010646
000100 8f bd 63 bb 9f c0 b9 3a a6 ff ac ba 22 90 c1 3a
       -0.0034750437 0.0014171785 -0.0013198748 0.0014767686
000110 98 7b a3 ba 8a 37 10 ba 07 54 e7 38 92 73 a9 ba
       -0.0012472747 -0.000550144 0.0001103059 -0.0012928119
000120 44 48 11 b9 54 22 ab ba 5a 87 82 ba df 06 96 3b
       -0.00013855199 -0.0013056495 -0.0009958551 0.004578456
000130 64 83 3f ba 69 53 82 ba 07 30 be 3a 2b 04 1a 3b
       -0.00073056505 -0.0009943071 0.0014510163 0.002350102
000140 7b 2e 5f ba 5f ef 02 3a 6a d1 82 3b 31 84 0e 3a
       -0.0008513701 0.00049947755 0.0039922493 0.0005436568
000150 91 fd f3 39 93 62 af b9 04 17 52 3a 05 e4 35 38
       0.00046537493 -0.00033452045 0.0008014294 4.3366123e-05
000160 4e b3 9c ba 36 da 7a ba 79 98 07 bc 7e 76 a1 3b
       -0.0011955292 -0.0009569259 -0.008276098 0.0049274554
000170 b5 d3 24 3b 5e 7e 0d 3b cb 85 27 3c 69 79 f9 39
       0.0025150601 0.0021590213 0.01022477 0.0004758344
000180 be b8 bf 3a 1e d0 46 bb 04 bd 07 3b 52 98 6b 3a
       0.0014627201 -0.003033645 0.0020712027 0.0008987236
000190 c4 9c 04 ba e0 a0 47 3b 95 2c 4d 3b 25 3e 84 bb
       -0.000505876 0.003046088 0.003130709 -0.0040357285
0001a0 d6 45 e9 bb fb 2b e4 bb f2 b0 09 3b a2 b4 ab 3b
       -0.007118921 -0.0069632507 0.0021010009 0.005240039
0001b0 30 6e f4 b9 e3 7b b7 bb ba d4 21 bb 81 88 39 bb
       -0.00046621403 -0.0055994852 -0.0024693445 -0.0028310122
0001c0 d4 2b b8 bb 22 38 94 ba f0 21 4c bb d8 e2 ec 3b
       -0.005620459 -0.0011308233 -0.0031148158 0.0072291903
0001d0 cd 2c 20 bb 59 d7 eb 38 0b d7 a7 3a 16 97 93 bb
       -0.0024440766 0.00011245785 0.0012805177 -0.004504095
0001e0 7a b8 92 bb 9a eb 1d 3b c0 aa 49 b9 07 72 8a ba
       -0.0044775577 0.0024096728 -0.00019232463 -0.0010562547
0001f0 2c f6 19 3b a6 5d 4c ba b0 43 a3 b9 18 db f0 ba
       0.0023492677 -0.0007795937 -0.00031140214 -0.0018375842
000200 d0 87 ca 3a 61 f5 21 3b 6f b5 76 bb 2a 3f 8f 3a
       0.0015451852 0.0024712908 -0.0037644764 0.0010928859
000210 b4 66 fe b9 3f 7a c0 bb 02 dc 08 bc a1 87 87 ba
       -0.00048523175 -0.005873948 -0.008353235 -0.0010340103
000220 6a 21 db 3a d1 14 08 3c dc c3 10 3b cd 4f 9d ba
       0.0016718332 0.008305744 0.0022089398 -0.0012001932
000230 71 46 be b9 e2 6b 88 ba cc d4 84 bb a6 e8 46 ba
       -0.00036292107 -0.0010408128 -0.0040536877 -0.0007587768
000240 12 7d 12 bb 1f 6f 8f 3b 46 cf ae ba d8 69 31 3a
       -0.002235238 0.0043772603 -0.0013336919 0.0006767786
000250 13 dd a1 3a 4e 68 31 ba c1 7b 83 b8 64 5d 23 b9
       0.001234921 -0.0006767557 -6.269618e-05 -0.00015579682
000260 94 26 e7 b8 6f e5 a1 39 71 ba 77 ba 70 6e 99 b8
       -0.00011022124 0.00030879254 -0.0009450084 -7.316179e-05
000270 bc 49 a6 b9 d4 6e da b9 ec 27 17 3a 69 bb 03 3a
       -0.00031716924 -0.00041662774 0.00057661417 0.00050251797
000280 2d 5b a6 b8 44 3f 9c b8 f7 1b 91 39 ee ad ec 39
       -7.93248e-05 -7.450444e-05 0.0002767739 0.00045143015
000290 0a dc cb 39 72 74 92 b9 00 e6 a6 b7 c5 f4 2e 38
       0.0003888312 -0.0002793405 -1.9895844e-05 4.1712792e-05
0002a0 55 35 30 3a c6 e4 26 3a 60 df 9d b8 4d aa 65 39
       0.0006721814 0.00063664874 -7.52795e-05 0.00021902584
0002b0 53 50 83 b8 72 31 4e b9 72 d9 6c b9 84 8c d5 39
       -6.261528e-05 -0.00019664111 -0.00022587719 0.00040731218
0002c0 7b cf ba 39 c1 0d e5 b8 7b 07 b1 39 19 78 cf b9
       0.0003563127 -0.00010922133 0.00033765644 -0.00039571596
0002d0 26 bc b6 bb 97 82 42 3b 11 8b 24 3a d1 0b fb 3a
       -0.0055766283 0.0029679888 0.0006276826 0.0019153302
0002e0 ec 2d 7c 3b 8c 68 2e ba bd ae 4f 3a 7c 85 4c ba
       0.003847952 -0.0006653152 0.00079224614 -0.0007801873
0002f0 be e1 a8 3b 97 97 4a bb 93 63 34 3a fe a2 e7 3b
       0.0051538637 -0.0030913108 0.0006881293 0.0070689907
000300 ea 75 cb 3b fc ef 33 3b 0e a4 ad b9 36 33 d2 bb
       0.006209125 0.0027456274 -0.00033119362 -0.006414796
000310 49 b0 7d b8 91 bf ca ba a7 59 75 bb bb 58 58 bb
       -6.048408e-05 -0.0015468468 -0.003743747 -0.0033011872
000320 b7 90 00 3a 15 3d b9 bb b7 4d 0e bb 48 c5 ff b9
       0.00049043767 -0.0056530335 -0.0021713802 -0.00048784376
000330 58 3b 9a 39 d2 cf c9 3a 99 9a 20 ba 8e 3f 35 3a
       0.00029417383 0.0015397018 -0.00061265525 0.00069140724
000340 8a 4f 83 3a 0d 03 ff ba 6a ae f5 bb 3b da 01 b8
       0.0010018211 -0.0019455865 -0.0074975984 -3.095924e-05
000350 df 6e 74 b9 dc 25 f0 3b 20 d8 d3 3b d5 d6 6f bb
       -0.00023310956 0.007328732 0.006464973 -0.0036596556
000360 01 5a e5 3b bb fd 60 bb 0f a8 16 3b b2 e1 2a bb
       0.0069992547 -0.0034330923 0.0022988354 -0.0026074466
000370 2f 00 fd 3b a8 e0 8b 3b 75 af 11 3c c2 61 b1 3b
       0.007720969 0.0042687245 0.00889193 0.005413265
000380 be 85 01 3c 3c de 31 bc 98 f0 32 bb 53 f6 0e bc
       0.007905422 -0.010856207 -0.002730405 -0.00872572
000390 b1 c5 11 bc 8b 61 da ba a4 5e 95 ba f6 8a ea ba
       -0.008897231 -0.001666115 -0.0011396003 -0.0017894197
0003a0 01 b0 80 bb 1b c3 05 3b eb 87 94 3a f1 c9 8f ba
       -0.0039272313 0.0020410481 0.0011332011 -0.0010970217
0003b0 d7 72 0e 3a d5 83 f4 39 d8 28 ce b9 3c 00 4c ba
       0.00054339826 0.0004663753 -0.00039321813 -0.00077820173
0003c0 eb f0 ed 39 6c c4 b6 39 0c 2e a6 b9 3c f2 8e b9
       0.0004538366 0.0003486009 -0.00031696295 -0.0002726483
0003d0 29 28 f0 ba 2a 0f 76 39 64 60 9b ba 1d c3 28 39
       -0.0018322516 0.00023466037 -0.0011854288 0.00016094414
0003e0 6b 6e 10 3b 50 57 1f 37 21 50 10 b9 9f 2f f9 38
       0.002203847 9.4974675e-06 -0.0001376276 0.00011882115
0003f0 91 b6 48 b9 a7 30 9d b9 8c aa 50 38 18 1d b1 39
       -0.00019141498 -0.00029981622 4.97499e-05 0.00033781747

exp_avg_sq f4 [64, 30]
000000 e8 e5 00 3a fd 52 9d 39 79 dc f1 39 8e 0d 5f 3a
       0.0004917071 0.00030007205 0.00046131367 0.00085087947
000010 a5 97 b6 39 28 dd f2 39 88 8a 94 39 c7 c1 59 3a
       0.0003482673 0.0004632261 0.00028331974 0.0008306768
000020 0c 0d 29 3a 55 5c ca 39 04 c4 e9 39 88 b1 fb 39
       0.00064487825 0.00038597235 0.00044587266 0.00048006722
000030 bf 9a 4d 39 83 fc 6c 3a 25 b9 85 3a 86 b9 25 3a
       0.00019607971 0.0009040313 0.0010202272 0.00063218956
000040 7c ea 1d 3a 44 d0 6b 3a e5 f9 cc 39 a0 71 72 3a
       0.00060240156 0.00089955726 0.00039096098 0.0009248499
000050 d2 f1 6d 3a 91 55 86 3a e2 20 55 3a 35 80 f7 39
       0.00090768666 0.001024889 0.0008130205 0.00047207033
000060 f2 33 14 3a fe 22 1e 3a 74 fd cb 39 27 b5 43 39
       0.00056534924 0.0006032436 0.00038908015 0.00018664134
000070 a4 64 4c 39 95 ac a2 3a a9 07 9b 37 70 dd 24 38
       0.00019492448 0.0012411053 1.8481007e-05 3.9306877e-05
000080 60 c3 99 38 45 52 9a 38 9f eb 44 38 cb a3 13 38
       7.332e-05 7.358616e-05 4.694948e-05 3.5200075e-05
000090 43 51 9a 37 da 93 4a 39 52 22 80 39 07 f5 42 38
       1.8396071e-05 0.000193193 0.00024439633 4.6481404e-05
0000a0 31 ab a0 38 bf 09 c7 37 18 2a 1c 38 08 1b ee 37
       7.6612814e-05 2.3727187e-05 3.72325e-05 2.8384398e-05
0000b0 db 70 40 38 f9 bc 15 38 c3 93 f2 37 c6 fe ae 38
       4.5881472e-05 3.5700363e-05 2.8917455e-05 8.344422e-05
0000c0 17 12 d4 37 d4 56 09 38 f3 8f d6 38 5c 53 aa 39
       2.5280793e-05 3.274421e-05 0.00010231128 0.00032487034
0000d0 fa 35 65 38 54 91 24 38 63 2d a0 37 21 74 e4 37
       5.4648124e-05 3.9235994e-05 1.9094621e-05 2.7233795e-05
0000e0 21 89 1a 38 6e 31 07 38 95 b7 d5 37 ce 90 18 39
       3.6844172e-05 3.2232543e-05 2.5477066e-05 0.00014549794
0000f0 31 be 11 3a 8a 9f bf 39 12 c0 84 39 65 a5 d4 39
       0.0005559652 0.00036549225 0.00025320105 0.0004055902
000100 79 4c 95 3a f9 76 9d 39 18 2a c0 39 7f 26 0d 3a
       0.0011390588 0.00030034015 0.00036652456 0.00053844595
000110 b2 3b a4 39 d9 34 d6 39 55 b4 c4 39 33 da 30 3a
       0.00031324994 0.00040856635 0.0003751839 0.00067463814
000120 02 a2 01 3a 2a 06 49 3a 92 cf 5f 3a 81 ab 9a 3a
       0.00049451005 0.000766846 0.0008537705 0.001180038
000130 1b bc 0c 3a 25 4a 2f 3a d8 1a 97 39 4e cb 95 3a
       0.0005368606 0.00066867686 0.00028820965 0.0011428387
000140 48 ef 06 3a 0e 72 b6 39 e4 15 e9 39 fe c8 b1 39
       0.000514735 0.00034798722 0.00044457533 0.00033909822
000150 4e bb fd 39 18 ba ff 39 b6 53 f7 39 5e 74 8c 39
       0.00048395473 0.0004877604 0.0004717388 0.0002678958
000160 48 c2 b1 39 3e 16 98 39 66 1a 3d 3b 41 74 e5 3a
       0.00033904822 0.0002900827 0.0028854846 0.001750596
000170 ca 25 8f 3b 78 bc 47 3b df c1 77 3b f9 0f b1 3a
       0.0043685185 0.0030477326 0.0037804765 0.0013508789
000180 35 61 d9 3a 6f fa 91 3b 72 4d 2d 3b ce 83 11 3b
       0.0016584756 0.004454903 0.0026443866 0.0022203806
000190 7d 28 c4 3a 69 b2 39 3b 44 11 fa 3a 75 33 74 3b
       0.001496568 0.00283351 0.0019078632 0.0037262116
0001a0 eb 2c 81 3b f2 23 4f 3b 75 46 18 3b d1 b9 2e 3b
       0.003942122 0.0031607118 0.0023235355 0.0026661048
0001b0 9b 7d 5d 3a cd c6 51 3b d4 78 da 3b 05 61 79 3b
       0.00084491976 0.0032009364 0.006667236 0.0038052213
0001c0 11 ab 56 3b 6a 5c 87 3b 2b 72 00 3b 97 98 14 3b
       0.0032755772 0.0041308897 0.00195993 0.0022673958
0001d0 6e 5f a3 3b a4 7e 58 3b 31 1b ff 3a 4c b1 56 3c
       0.0049857413 0.0033034468 0.001946306 0.013103794
0001e0 30 54 52 3a 5b c1 36 3a a8 8c cf 39 ed d0 65 3a
       0.0008023409 0.0006971561 0.00039586914 0.0008766789
0001f0 d2 5d 06 3b 05 fa 00 3a 00 51 68 3a c3 09 c5 3a
       0.0020502699 0.00049200683 0.00088621676 0.0015032816
000200 6e 34 ad 39 9b 06 6b 3a bf d5 4a 3a fb 93 a2 3a
       0.00033036195 0.0008965523 0.0007737539 0.0012403721
000210 b2 1d e6 3a ad d6 1b 3b 6f 4e 9d 3a 87 08 44 3b
       0.0017556457 0.002377908 0.0012001524 0.002991231
000220 56 d2 b2 3a 4b 6d 60 3a b1 17 bf 39 1f d5 47 3b
       0.0013643007 0.0008561208 0.0003644801 0.003049202
000230 0d e7 88 3a 72 a6 17 3a 62 fd 86 3a 36 ce 13 3a
       0.0010444835 0.0005784995 0.0010298903 0.0005638333
000240 65 0b ab 3a 59 c7 a1 3a 0e 76 22 3b 3b 3b db 38
       0.001304966 0.0012342735 0.0024789604 0.00010453766
000250 86 e9 45 3a 77 6f 47 3a 62 30 5b 39 6a 1d 8d 39
       0.00075497513 0.0007607857 0.00020903492 0.0002691553
000260 89 fc a8 39 c2 1d bc 39 c3 a4 96 39 30 e0 7e 39
       0.0003223161 0.00035880326 0.00028732987 0.00024306844
000270 19 19 bc 38 2b 33 96 3a c6 80 6e 3a ae d1 98 39
       8.9692134e-05 0.0011459341 0.0009098168 0.00029147923
000280 8e 11 0b 3a 38 c1 b0 39 0e 1c 21 39 db 59 b7 39
       0.0005305045 0.00033713295 0.00015364608 0.00034971428
000290 03 8d 83 39 46 70 af 39 4a ea c1 39 5e 5d b4 39
       0.0002509133 0.0003346225 0.00036986388 0.0003440184
0002a0 7b c6 f1 38 9c ed 3c 3a c0 61 1d 3a 5d ec 55 3a
       0.000115287454 0.00072070374 0.00060036406 0.0008160526
0002b0 73 e3 9c 39 3d e9 9b 39 1f b1 2e 39 a6 85 1a 39
       0.00029924102 0.0002973768 0.00016659916 0.00014736372
0002c0 22 e6 83 39 3e eb 57 39 ff 66 10 39 93 c6 d6 39
       0.0002515773 0.00020591632 0.00013771279 0.0004096521
0002d0 cf 59 be 3a 8e 84 93 3a 19 b3 ba 3a 00 15 89 3a
       0.0014522615 0.0011254714 0.0014244049 0.0010458529
0002e0 49 a4 64 3b f6 a9 89 3a 95 5a 5d 3a 0a 22 fe 3a
       0.003488796 0.0010502923 0.0008443979 0.0019388807
0002f0 38 5d 13 3c 3f 3a 1e 3b 36 7e 9d 3a 44 31 bb 3a
       0.008994393 0.0024143604 0.0012015763 0.001428165
000300 8a b5 26 3b 3d d4 33 3b cc 5a e9 3a 1a fe 52 3b
       0.0025437796 0.0027439736 0.0017803549 0.0032194913
000310 d5 5f 37 3a d2 e7 27 3b 82 a1 5c 3a 80 17 4f 3b
       0.0006995176 0.0025620353 0.00084164005 0.00315997
000320 73 8a 0c 3b 6c a8 a4 3c d9 95 41 3b 32 9a 01 3b
       0.0021444827 0.020099841 0.002953878 0.0019775745
000330 b5 f4 82 3a 9b 09 1c 3b 8a bb 19 3b 16 8a c1 3a
       0.0009991141 0.0023809436 0.002345773 0.0014765884
000340 25 61 15 3a 53 c1 e2 3a cb 2f 95 3b 74 55 00 3b
       0.00056983746 0.0017300047 0.0045528165 0.0019582184
000350 1e 7f ee 3a 3e 92 b4 3b ab 0b b3 3b b4 6e 07 3b
       0.0018195843 0.0055105975 0.0054640374 0.002066535
000360 6b c7 1d 3b e1 ef 35 3b 31 af 30 3b 4c 05 2a 3b
       0.0024075161 0.0027761387 0.002695989 0.0025943099
000370 8f f4 0d 3b 31 6d 8e 3b 80 5b 35 3b 91 0d c4 3b
       0.002166066 0.0043465127 0.0027672946 0.0059830626
000380 f9 06 e2 3b a9 76 9d 3b 9f d0 83 3b 3b c6 a3 3b
       0.006897804 0.004805405 0.0040226723 0.004997996
000390 92 45 fe 3a 06 b0 b4 3b c1 7e f1 3a 36 89 31 3b
       0.0019399396 0.0055141477 0.0018424616 0.002708984
0003a0 f2 85 9a 3b a0 ae 82 3a 9e 19 62 3b a0 3e b9 3b
       0.0047156746 0.0009970255 0.0034500132 0.0056532174
0003b0 d3 a2 29 3b c7 74 f7 39 8f 83 0d 3a a1 45 15 3b
       0.0025884404 0.00047198517 0.0005398327 0.0022777098
0003c0 5e 11 23 3a 01 b1 30 3a 6d a3 d6 3a 1a 64 94 3a
       0.00062205445 0.0006740243 0.0016375609 0.0011321336
0003d0 3f 78 9d 3a 76 41 07 3a 60 9e f0 39 b0 0f 2c 3b
       0.0012013986 0.0005159596 0.00045894366 0.0026254468
0003e0 f8 e6 c9 3b ba 42 88 3a 4d e0 84 3a 4c 95 4d 3a
       0.006161567 0.0010395863 0.0010137648 0.00078423764
0003f0 ce f1 a2 3a 9d 37 d2 3a cb 20 82 3a 93 bf d7 3a
       0.0012431683 0.0016038303 0.0009927986 0.0016460292

exp_avg f4 [64]
000000 c4 9c 5f 3b c2 1f ed 39 1d fe f4 39 b2 e1 93 3b
       0.003412054 0.00045227824 0.00046728636 0.004512989
000010 26 e8 2e 3a 5a bc b3 ba 6b 88 51 39 0c 12 60 bb
       0.0006672166 -0.0013712749 0.00019982613 -0.0034190444
000020 bb bc 0e bb 11 de 8e bb 0b b9 40 3b 77 86 ea bb
       -0.0021779973 -0.0043599685 0.002940717 -0.0071571427
000030 4e 05 f2 3a e6 80 87 bb c4 4d 68 3a 36 20 b3 ba
       0.0018464716 -0.004135239 0.00088616856 -0.0013666216
000040 b5 98 87 b8 04 c4 0d bb e3 fa a2 bb c8 66 2d bc
       -6.4657455e-05 -0.0021631727 -0.0049737557 -0.010583587
000050 b4 cd 90 bb 0d a9 c8 ba 68 ad a9 3a c9 51 83 3a
       -0.004419053 -0.001530917 0.0012945356 0.0010018881
000060 95 2d 31 3b ca 0b 0c bb c8 bd 95 ba e7 98 c8 b9
       0.0027035226 -0.0021369332 -0.0011424357 -0.00038260894
000070 8e 24 0c bc ba c7 b3 3b 0d 7b 80 bb bb fd ac bb
       -0.008553637 0.0054864557 -0.003920919 -0.0052792705
000080 2e 3b 3b 3a b2 9c 49 3a 88 18 a9 3b 92 ae c8 bb
       0.00071423023 0.0007690891 0.005160395 -0.006124326
000090 4d 18 d3 ba 57 e8 5a bb 1a f9 61 bb 5e 77 2f b9
       -0.0016105265 -0.0033402645 -0.0034480751 -0.00016733768
0000a0 50 75 df 3a 34 4c 16 3b 2b 18 e1 b9 97 62 d6 bb
       0.0017048512 0.0022933604 -0.0004293335 -0.0065425145
0000b0 88 a0 95 ba da d2 71 3b b6 98 13 b9 14 99 ad ba
       -0.001141564 0.003689936 -0.00014075902 -0.0013244473
0000c0 c4 17 4c bb 8d 47 c0 bb 92 ed 3d 3a 27 6d 8b 3b
       -0.0031142095 -0.0058679045 0.00072451786 0.0042549553
0000d0 b2 5b 8b ba 64 35 83 38 1e 4c ff ba 94 16 bb 39
       -0.0010632186 6.2565116e-05 -0.0019477641 0.0003568424
0000e0 41 1c d9 3b ac b5 68 39 ae 6a a4 3b 84 b7 3f bb
       0.0066256826 0.00022192922 0.0050176 -0.002925367
0000f0 6b e4 17 3b 46 a8 2c ba 4f 97 20 3b 4c ca 09 bc
       0.002317692 -0.0006586354 0.002450425 -0.008410048

exp_avg_sq f4 [64]
000000 31 a0 14 3a a8 ae c8 37 38 6f 36 3a ec bd 57 3b
       0.00056696223 2.3923189e-05 0.0006959322 0.0032919599
000010 5a ab df 3a ab f5 9d 39 98 82 e9 3a 00 6d b9 3b
       0.0017064617 0.0003012841 0.0017815409 0.0056587458
000020 50 e5 8a 3a e8 cc 3d 3b 6c 09 13 3b b5 6f 62 3b
       0.0010596905 0.0028961245 0.0022436036 0.0034551446
000030 f7 47 06 39 5a 28 bc 3b 1c db 01 3a 70 b0 dc 3b
       0.00012806045 0.005742115 0.00049536093 0.0067349
000040 6f d3 85 38 60 42 6c 3b 29 6d bf 3a fd eb 2a 3c
       6.381317e-05 0.0036050305 0.0014604676 0.010432241
000050 d0 40 a2 3a 92 cc 32 3a 7f 3e 86 39 7c 54 13 38
       0.0012378935 0.00068206445 0.00025605035 3.5126213e-05
000060 c5 81 ca 39 5b c0 01 39 35 36 bf 39 fc d9 48 3a
       0.00038625128 0.00012374057 0.00036470746 0.0007661877
000070 ed af a1 3b f6 c1 db 3a 9e f1 d8 3a bd 6c 53 3b
       0.004934302 0.0016766179 0.00165515 0.0032260858
000080 97 d0 0c 3b f5 85 83 3b 37 4b 8e 3a 86 11 77 3b
       0.0021486634 0.0040137717 0.0010856156 0.0037699654
000090 39 63 e5 3a 71 90 83 3a 14 b5 85 39 f8 4b ee 39
       0.0017500884 0.0010037554 0.0002550265 0.000454515
0000a0 15 91 c4 3a f7 68 d2 39 52 95 89 3b 03 69 2a 3b
       0.0014996851 0.00040132526 0.0041987086 0.0026002533
0000b0 d8 99 50 3b 84 4e 01 3a 1b 0b 92 39 26 80 68 38
       0.003182998 0.0004932659 0.00027855564 5.5432458e-05
0000c0 f3 9e 0e 3a d9 ec 7e 3b 6a ea 3f 39 12 e2 44 3a
       0.00054405554 0.0038898496 0.00018302505 0.0007510494
0000d0 94 55 39 39 a5 53 4d 37 14 e9 05 3a ea 3a 09 3a
       0.00017674855 1.2238427e-05 0.0005108279 0.0005234914
0000e0 0e ee 99 3a 19 4f 79 3a 14 0b 17 3b 1d eb 47 3a
       0.001174392 0.00095103827 0.0023047375 0.0007626282
0000f0 d8 31 98 39 98 be 1d 3a b7 f6 cd 38 42 b8 b8 3b
       0.00029028836 0.00060174754 9.821116e-05 0.0056371996
